{"format": "graph-model", "generatedBy": "2.7.0", "convertedBy": "TensorFlow.js Converter v2.8.1", "signature": {"inputs": {"input_1:0": {"name": "input_1:0", "dtype": "DT_FLOAT", "tensorShape": {"dim": [{"size": "-1"}, {"size": "-1"}, {"size": "-1"}, {"size": "3"}]}}}, "outputs": {"Identity:0": {"name": "Identity:0", "dtype": "DT_FLOAT", "tensorShape": {"dim": [{"size": "-1"}, {"size": "1000"}]}}}}, "modelTopology": {"node": [{"name": "StatefulPartitionedCall/efficientnetv2-xl/blocks_99/se/Mean/reduction_indices", "op": "Const", "attr": {"dtype": {"type": "DT_INT32"}, "value": {"tensor": {"dtype": "DT_INT32", "tensorShape": {"dim": [{"size": "2"}]}}}}}, {"name": "StatefulPartitionedCall/efficientnetv2-xl/blocks_99/se/conv2d/Conv2D/ReadVariableOp", "op": "Const", "attr": {"dtype": {"type": "DT_FLOAT"}, "value": {"tensor": {"dtype": "DT_FLOAT", "tensorShape": {"dim": [{"size": "1"}, {"size": "1"}, {"size": "3840"}, {"size": "160"}]}}}}}, {"name": "StatefulPartitionedCall/efficientnetv2-xl/blocks_99/se/conv2d/BiasAdd/ReadVariableOp", "op": "Const", "attr": {"dtype": {"type": "DT_FLOAT"}, "value": {"tensor": {"dtype": "DT_FLOAT", "tensorShape": {"dim": [{"size": "160"}]}}}}}, {"name": "StatefulPartitionedCall/efficientnetv2-xl/blocks_99/se/conv2d_1/Conv2D/ReadVariableOp", "op": "Const", "attr": {"value": {"tensor": {"dtype": "DT_FLOAT", "tensorShape": {"dim": [{"size": "1"}, {"size": "1"}, {"size": "160"}, {"size": "3840"}]}}}, "dtype": {"type": "DT_FLOAT"}}}, {"name": "StatefulPartitionedCall/efficientnetv2-xl/blocks_99/se/conv2d_1/BiasAdd/ReadVariableOp", "op": "Const", "attr": {"dtype": {"type": "DT_FLOAT"}, "value": {"tensor": {"dtype": "DT_FLOAT", "tensorShape": {"dim": [{"size": "3840"}]}}}}}, {"name": "StatefulPartitionedCall/efficientnetv2-xl/blocks_98/se/Mean/reduction_indices", "op": "Const", "attr": {"value": {"tensor": {"dtype": "DT_INT32", "tensorShape": {"dim": [{"size": "2"}]}}}, "dtype": {"type": "DT_INT32"}}}, {"name": "StatefulPartitionedCall/efficientnetv2-xl/blocks_98/se/conv2d/Conv2D/ReadVariableOp", "op": "Const", "attr": {"value": {"tensor": {"dtype": "DT_FLOAT", "tensorShape": {"dim": [{"size": "1"}, {"size": "1"}, {"size": "3840"}, {"size": "160"}]}}}, "dtype": {"type": "DT_FLOAT"}}}, {"name": "StatefulPartitionedCall/efficientnetv2-xl/blocks_98/se/conv2d/BiasAdd/ReadVariableOp", "op": "Const", "attr": {"dtype": {"type": "DT_FLOAT"}, "value": {"tensor": {"dtype": "DT_FLOAT", "tensorShape": {"dim": [{"size": "160"}]}}}}}, {"name": "StatefulPartitionedCall/efficientnetv2-xl/blocks_98/se/conv2d_1/Conv2D/ReadVariableOp", "op": "Const", "attr": {"dtype": {"type": "DT_FLOAT"}, "value": {"tensor": {"dtype": "DT_FLOAT", "tensorShape": {"dim": [{"size": "1"}, {"size": "1"}, {"size": "160"}, {"size": "3840"}]}}}}}, {"name": "StatefulPartitionedCall/efficientnetv2-xl/blocks_98/se/conv2d_1/BiasAdd/ReadVariableOp", "op": "Const", "attr": {"value": {"tensor": {"dtype": "DT_FLOAT", "tensorShape": {"dim": [{"size": "3840"}]}}}, "dtype": {"type": "DT_FLOAT"}}}, {"name": "StatefulPartitionedCall/efficientnetv2-xl/blocks_97/se/Mean/reduction_indices", "op": "Const", "attr": {"value": {"tensor": {"dtype": "DT_INT32", "tensorShape": {"dim": [{"size": "2"}]}}}, "dtype": {"type": "DT_INT32"}}}, {"name": "StatefulPartitionedCall/efficientnetv2-xl/blocks_97/se/conv2d/Conv2D/ReadVariableOp", "op": "Const", "attr": {"value": {"tensor": {"dtype": "DT_FLOAT", "tensorShape": {"dim": [{"size": "1"}, {"size": "1"}, {"size": "3840"}, {"size": "160"}]}}}, "dtype": {"type": "DT_FLOAT"}}}, {"name": "StatefulPartitionedCall/efficientnetv2-xl/blocks_97/se/conv2d/BiasAdd/ReadVariableOp", "op": "Const", "attr": {"dtype": {"type": "DT_FLOAT"}, "value": {"tensor": {"dtype": "DT_FLOAT", "tensorShape": {"dim": [{"size": "160"}]}}}}}, {"name": "StatefulPartitionedCall/efficientnetv2-xl/blocks_97/se/conv2d_1/Conv2D/ReadVariableOp", "op": "Const", "attr": {"value": {"tensor": {"dtype": "DT_FLOAT", "tensorShape": {"dim": [{"size": "1"}, {"size": "1"}, {"size": "160"}, {"size": "3840"}]}}}, "dtype": {"type": "DT_FLOAT"}}}, {"name": "StatefulPartitionedCall/efficientnetv2-xl/blocks_97/se/conv2d_1/BiasAdd/ReadVariableOp", "op": "Const", "attr": {"dtype": {"type": "DT_FLOAT"}, "value": {"tensor": {"dtype": "DT_FLOAT", "tensorShape": {"dim": [{"size": "3840"}]}}}}}, {"name": "StatefulPartitionedCall/efficientnetv2-xl/blocks_96/se/Mean/reduction_indices", "op": "Const", "attr": {"dtype": {"type": "DT_INT32"}, "value": {"tensor": {"dtype": "DT_INT32", "tensorShape": {"dim": [{"size": "2"}]}}}}}, {"name": "StatefulPartitionedCall/efficientnetv2-xl/blocks_96/se/conv2d/Conv2D/ReadVariableOp", "op": "Const", "attr": {"value": {"tensor": {"dtype": "DT_FLOAT", "tensorShape": {"dim": [{"size": "1"}, {"size": "1"}, {"size": "3840"}, {"size": "160"}]}}}, "dtype": {"type": "DT_FLOAT"}}}, {"name": "StatefulPartitionedCall/efficientnetv2-xl/blocks_96/se/conv2d/BiasAdd/ReadVariableOp", "op": "Const", "attr": {"value": {"tensor": {"dtype": "DT_FLOAT", "tensorShape": {"dim": [{"size": "160"}]}}}, "dtype": {"type": "DT_FLOAT"}}}, {"name": "StatefulPartitionedCall/efficientnetv2-xl/blocks_96/se/conv2d_1/Conv2D/ReadVariableOp", "op": "Const", "attr": {"value": {"tensor": {"dtype": "DT_FLOAT", "tensorShape": {"dim": [{"size": "1"}, {"size": "1"}, {"size": "160"}, {"size": "3840"}]}}}, "dtype": {"type": "DT_FLOAT"}}}, {"name": "StatefulPartitionedCall/efficientnetv2-xl/blocks_96/se/conv2d_1/BiasAdd/ReadVariableOp", "op": "Const", "attr": {"dtype": {"type": "DT_FLOAT"}, "value": {"tensor": {"dtype": "DT_FLOAT", "tensorShape": {"dim": [{"size": "3840"}]}}}}}, {"name": "StatefulPartitionedCall/efficientnetv2-xl/blocks_95/se/Mean/reduction_indices", "op": "Const", "attr": {"dtype": {"type": "DT_INT32"}, "value": {"tensor": {"dtype": "DT_INT32", "tensorShape": {"dim": [{"size": "2"}]}}}}}, {"name": "StatefulPartitionedCall/efficientnetv2-xl/blocks_95/se/conv2d/Conv2D/ReadVariableOp", "op": "Const", "attr": {"dtype": {"type": "DT_FLOAT"}, "value": {"tensor": {"dtype": "DT_FLOAT", "tensorShape": {"dim": [{"size": "1"}, {"size": "1"}, {"size": "3840"}, {"size": "160"}]}}}}}, {"name": "StatefulPartitionedCall/efficientnetv2-xl/blocks_95/se/conv2d/BiasAdd/ReadVariableOp", "op": "Const", "attr": {"dtype": {"type": "DT_FLOAT"}, "value": {"tensor": {"dtype": "DT_FLOAT", "tensorShape": {"dim": [{"size": "160"}]}}}}}, {"name": "StatefulPartitionedCall/efficientnetv2-xl/blocks_95/se/conv2d_1/Conv2D/ReadVariableOp", "op": "Const", "attr": {"dtype": {"type": "DT_FLOAT"}, "value": {"tensor": {"dtype": "DT_FLOAT", "tensorShape": {"dim": [{"size": "1"}, {"size": "1"}, {"size": "160"}, {"size": "3840"}]}}}}}, {"name": "StatefulPartitionedCall/efficientnetv2-xl/blocks_95/se/conv2d_1/BiasAdd/ReadVariableOp", "op": "Const", "attr": {"dtype": {"type": "DT_FLOAT"}, "value": {"tensor": {"dtype": "DT_FLOAT", "tensorShape": {"dim": [{"size": "3840"}]}}}}}, {"name": "StatefulPartitionedCall/efficientnetv2-xl/blocks_94/se/Mean/reduction_indices", "op": "Const", "attr": {"dtype": {"type": "DT_INT32"}, "value": {"tensor": {"dtype": "DT_INT32", "tensorShape": {"dim": [{"size": "2"}]}}}}}, {"name": "StatefulPartitionedCall/efficientnetv2-xl/blocks_94/se/conv2d/Conv2D/ReadVariableOp", "op": "Const", "attr": {"dtype": {"type": "DT_FLOAT"}, "value": {"tensor": {"dtype": "DT_FLOAT", "tensorShape": {"dim": [{"size": "1"}, {"size": "1"}, {"size": "3840"}, {"size": "160"}]}}}}}, {"name": "StatefulPartitionedCall/efficientnetv2-xl/blocks_94/se/conv2d/BiasAdd/ReadVariableOp", "op": "Const", "attr": {"dtype": {"type": "DT_FLOAT"}, "value": {"tensor": {"dtype": "DT_FLOAT", "tensorShape": {"dim": [{"size": "160"}]}}}}}, {"name": "StatefulPartitionedCall/efficientnetv2-xl/blocks_94/se/conv2d_1/Conv2D/ReadVariableOp", "op": "Const", "attr": {"dtype": {"type": "DT_FLOAT"}, "value": {"tensor": {"dtype": "DT_FLOAT", "tensorShape": {"dim": [{"size": "1"}, {"size": "1"}, {"size": "160"}, {"size": "3840"}]}}}}}, {"name": "StatefulPartitionedCall/efficientnetv2-xl/blocks_94/se/conv2d_1/BiasAdd/ReadVariableOp", "op": "Const", "attr": {"dtype": {"type": "DT_FLOAT"}, "value": {"tensor": {"dtype": "DT_FLOAT", "tensorShape": {"dim": [{"size": "3840"}]}}}}}, {"name": "StatefulPartitionedCall/efficientnetv2-xl/blocks_93/se/Mean/reduction_indices", "op": "Const", "attr": {"dtype": {"type": "DT_INT32"}, "value": {"tensor": {"dtype": "DT_INT32", "tensorShape": {"dim": [{"size": "2"}]}}}}}, {"name": "StatefulPartitionedCall/efficientnetv2-xl/blocks_93/se/conv2d/Conv2D/ReadVariableOp", "op": "Const", "attr": {"dtype": {"type": "DT_FLOAT"}, "value": {"tensor": {"dtype": "DT_FLOAT", "tensorShape": {"dim": [{"size": "1"}, {"size": "1"}, {"size": "3840"}, {"size": "160"}]}}}}}, {"name": "StatefulPartitionedCall/efficientnetv2-xl/blocks_93/se/conv2d/BiasAdd/ReadVariableOp", "op": "Const", "attr": {"value": {"tensor": {"dtype": "DT_FLOAT", "tensorShape": {"dim": [{"size": "160"}]}}}, "dtype": {"type": "DT_FLOAT"}}}, {"name": "StatefulPartitionedCall/efficientnetv2-xl/blocks_93/se/conv2d_1/Conv2D/ReadVariableOp", "op": "Const", "attr": {"value": {"tensor": {"dtype": "DT_FLOAT", "tensorShape": {"dim": [{"size": "1"}, {"size": "1"}, {"size": "160"}, {"size": "3840"}]}}}, "dtype": {"type": "DT_FLOAT"}}}, {"name": "StatefulPartitionedCall/efficientnetv2-xl/blocks_93/se/conv2d_1/BiasAdd/ReadVariableOp", "op": "Const", "attr": {"value": {"tensor": {"dtype": "DT_FLOAT", "tensorShape": {"dim": [{"size": "3840"}]}}}, "dtype": {"type": "DT_FLOAT"}}}, {"name": "StatefulPartitionedCall/efficientnetv2-xl/blocks_92/se/Mean/reduction_indices", "op": "Const", "attr": {"value": {"tensor": {"dtype": "DT_INT32", "tensorShape": {"dim": [{"size": "2"}]}}}, "dtype": {"type": "DT_INT32"}}}, {"name": "StatefulPartitionedCall/efficientnetv2-xl/blocks_92/se/conv2d/Conv2D/ReadVariableOp", "op": "Const", "attr": {"value": {"tensor": {"dtype": "DT_FLOAT", "tensorShape": {"dim": [{"size": "1"}, {"size": "1"}, {"size": "3072"}, {"size": "128"}]}}}, "dtype": {"type": "DT_FLOAT"}}}, {"name": "StatefulPartitionedCall/efficientnetv2-xl/blocks_92/se/conv2d/BiasAdd/ReadVariableOp", "op": "Const", "attr": {"dtype": {"type": "DT_FLOAT"}, "value": {"tensor": {"dtype": "DT_FLOAT", "tensorShape": {"dim": [{"size": "128"}]}}}}}, {"name": "StatefulPartitionedCall/efficientnetv2-xl/blocks_92/se/conv2d_1/Conv2D/ReadVariableOp", "op": "Const", "attr": {"value": {"tensor": {"dtype": "DT_FLOAT", "tensorShape": {"dim": [{"size": "1"}, {"size": "1"}, {"size": "128"}, {"size": "3072"}]}}}, "dtype": {"type": "DT_FLOAT"}}}, {"name": "StatefulPartitionedCall/efficientnetv2-xl/blocks_92/se/conv2d_1/BiasAdd/ReadVariableOp", "op": "Const", "attr": {"dtype": {"type": "DT_FLOAT"}, "value": {"tensor": {"dtype": "DT_FLOAT", "tensorShape": {"dim": [{"size": "3072"}]}}}}}, {"name": "StatefulPartitionedCall/efficientnetv2-xl/blocks_91/se/Mean/reduction_indices", "op": "Const", "attr": {"value": {"tensor": {"dtype": "DT_INT32", "tensorShape": {"dim": [{"size": "2"}]}}}, "dtype": {"type": "DT_INT32"}}}, {"name": "StatefulPartitionedCall/efficientnetv2-xl/blocks_91/se/conv2d/Conv2D/ReadVariableOp", "op": "Const", "attr": {"value": {"tensor": {"dtype": "DT_FLOAT", "tensorShape": {"dim": [{"size": "1"}, {"size": "1"}, {"size": "3072"}, {"size": "128"}]}}}, "dtype": {"type": "DT_FLOAT"}}}, {"name": "StatefulPartitionedCall/efficientnetv2-xl/blocks_91/se/conv2d/BiasAdd/ReadVariableOp", "op": "Const", "attr": {"value": {"tensor": {"dtype": "DT_FLOAT", "tensorShape": {"dim": [{"size": "128"}]}}}, "dtype": {"type": "DT_FLOAT"}}}, {"name": "StatefulPartitionedCall/efficientnetv2-xl/blocks_91/se/conv2d_1/Conv2D/ReadVariableOp", "op": "Const", "attr": {"dtype": {"type": "DT_FLOAT"}, "value": {"tensor": {"dtype": "DT_FLOAT", "tensorShape": {"dim": [{"size": "1"}, {"size": "1"}, {"size": "128"}, {"size": "3072"}]}}}}}, {"name": "StatefulPartitionedCall/efficientnetv2-xl/blocks_91/se/conv2d_1/BiasAdd/ReadVariableOp", "op": "Const", "attr": {"dtype": {"type": "DT_FLOAT"}, "value": {"tensor": {"dtype": "DT_FLOAT", "tensorShape": {"dim": [{"size": "3072"}]}}}}}, {"name": "StatefulPartitionedCall/efficientnetv2-xl/blocks_90/se/Mean/reduction_indices", "op": "Const", "attr": {"dtype": {"type": "DT_INT32"}, "value": {"tensor": {"dtype": "DT_INT32", "tensorShape": {"dim": [{"size": "2"}]}}}}}, {"name": "StatefulPartitionedCall/efficientnetv2-xl/blocks_90/se/conv2d/Conv2D/ReadVariableOp", "op": "Const", "attr": {"dtype": {"type": "DT_FLOAT"}, "value": {"tensor": {"dtype": "DT_FLOAT", "tensorShape": {"dim": [{"size": "1"}, {"size": "1"}, {"size": "3072"}, {"size": "128"}]}}}}}, {"name": "StatefulPartitionedCall/efficientnetv2-xl/blocks_90/se/conv2d/BiasAdd/ReadVariableOp", "op": "Const", "attr": {"dtype": {"type": "DT_FLOAT"}, "value": {"tensor": {"dtype": "DT_FLOAT", "tensorShape": {"dim": [{"size": "128"}]}}}}}, {"name": "StatefulPartitionedCall/efficientnetv2-xl/blocks_90/se/conv2d_1/Conv2D/ReadVariableOp", "op": "Const", "attr": {"value": {"tensor": {"dtype": "DT_FLOAT", "tensorShape": {"dim": [{"size": "1"}, {"size": "1"}, {"size": "128"}, {"size": "3072"}]}}}, "dtype": {"type": "DT_FLOAT"}}}, {"name": "StatefulPartitionedCall/efficientnetv2-xl/blocks_90/se/conv2d_1/BiasAdd/ReadVariableOp", "op": "Const", "attr": {"value": {"tensor": {"dtype": "DT_FLOAT", "tensorShape": {"dim": [{"size": "3072"}]}}}, "dtype": {"type": "DT_FLOAT"}}}, {"name": "StatefulPartitionedCall/efficientnetv2-xl/blocks_89/se/Mean/reduction_indices", "op": "Const", "attr": {"dtype": {"type": "DT_INT32"}, "value": {"tensor": {"dtype": "DT_INT32", "tensorShape": {"dim": [{"size": "2"}]}}}}}, {"name": "StatefulPartitionedCall/efficientnetv2-xl/blocks_89/se/conv2d/Conv2D/ReadVariableOp", "op": "Const", "attr": {"value": {"tensor": {"dtype": "DT_FLOAT", "tensorShape": {"dim": [{"size": "1"}, {"size": "1"}, {"size": "3072"}, {"size": "128"}]}}}, "dtype": {"type": "DT_FLOAT"}}}, {"name": "StatefulPartitionedCall/efficientnetv2-xl/blocks_89/se/conv2d/BiasAdd/ReadVariableOp", "op": "Const", "attr": {"dtype": {"type": "DT_FLOAT"}, "value": {"tensor": {"dtype": "DT_FLOAT", "tensorShape": {"dim": [{"size": "128"}]}}}}}, {"name": "StatefulPartitionedCall/efficientnetv2-xl/blocks_89/se/conv2d_1/Conv2D/ReadVariableOp", "op": "Const", "attr": {"value": {"tensor": {"dtype": "DT_FLOAT", "tensorShape": {"dim": [{"size": "1"}, {"size": "1"}, {"size": "128"}, {"size": "3072"}]}}}, "dtype": {"type": "DT_FLOAT"}}}, {"name": "StatefulPartitionedCall/efficientnetv2-xl/blocks_89/se/conv2d_1/BiasAdd/ReadVariableOp", "op": "Const", "attr": {"value": {"tensor": {"dtype": "DT_FLOAT", "tensorShape": {"dim": [{"size": "3072"}]}}}, "dtype": {"type": "DT_FLOAT"}}}, {"name": "StatefulPartitionedCall/efficientnetv2-xl/blocks_88/se/Mean/reduction_indices", "op": "Const", "attr": {"dtype": {"type": "DT_INT32"}, "value": {"tensor": {"dtype": "DT_INT32", "tensorShape": {"dim": [{"size": "2"}]}}}}}, {"name": "StatefulPartitionedCall/efficientnetv2-xl/blocks_88/se/conv2d/Conv2D/ReadVariableOp", "op": "Const", "attr": {"value": {"tensor": {"dtype": "DT_FLOAT", "tensorShape": {"dim": [{"size": "1"}, {"size": "1"}, {"size": "3072"}, {"size": "128"}]}}}, "dtype": {"type": "DT_FLOAT"}}}, {"name": "StatefulPartitionedCall/efficientnetv2-xl/blocks_88/se/conv2d/BiasAdd/ReadVariableOp", "op": "Const", "attr": {"value": {"tensor": {"dtype": "DT_FLOAT", "tensorShape": {"dim": [{"size": "128"}]}}}, "dtype": {"type": "DT_FLOAT"}}}, {"name": "StatefulPartitionedCall/efficientnetv2-xl/blocks_88/se/conv2d_1/Conv2D/ReadVariableOp", "op": "Const", "attr": {"value": {"tensor": {"dtype": "DT_FLOAT", "tensorShape": {"dim": [{"size": "1"}, {"size": "1"}, {"size": "128"}, {"size": "3072"}]}}}, "dtype": {"type": "DT_FLOAT"}}}, {"name": "StatefulPartitionedCall/efficientnetv2-xl/blocks_88/se/conv2d_1/BiasAdd/ReadVariableOp", "op": "Const", "attr": {"dtype": {"type": "DT_FLOAT"}, "value": {"tensor": {"dtype": "DT_FLOAT", "tensorShape": {"dim": [{"size": "3072"}]}}}}}, {"name": "StatefulPartitionedCall/efficientnetv2-xl/blocks_87/se/Mean/reduction_indices", "op": "Const", "attr": {"value": {"tensor": {"dtype": "DT_INT32", "tensorShape": {"dim": [{"size": "2"}]}}}, "dtype": {"type": "DT_INT32"}}}, {"name": "StatefulPartitionedCall/efficientnetv2-xl/blocks_87/se/conv2d/Conv2D/ReadVariableOp", "op": "Const", "attr": {"dtype": {"type": "DT_FLOAT"}, "value": {"tensor": {"dtype": "DT_FLOAT", "tensorShape": {"dim": [{"size": "1"}, {"size": "1"}, {"size": "3072"}, {"size": "128"}]}}}}}, {"name": "StatefulPartitionedCall/efficientnetv2-xl/blocks_87/se/conv2d/BiasAdd/ReadVariableOp", "op": "Const", "attr": {"value": {"tensor": {"dtype": "DT_FLOAT", "tensorShape": {"dim": [{"size": "128"}]}}}, "dtype": {"type": "DT_FLOAT"}}}, {"name": "StatefulPartitionedCall/efficientnetv2-xl/blocks_87/se/conv2d_1/Conv2D/ReadVariableOp", "op": "Const", "attr": {"dtype": {"type": "DT_FLOAT"}, "value": {"tensor": {"dtype": "DT_FLOAT", "tensorShape": {"dim": [{"size": "1"}, {"size": "1"}, {"size": "128"}, {"size": "3072"}]}}}}}, {"name": "StatefulPartitionedCall/efficientnetv2-xl/blocks_87/se/conv2d_1/BiasAdd/ReadVariableOp", "op": "Const", "attr": {"dtype": {"type": "DT_FLOAT"}, "value": {"tensor": {"dtype": "DT_FLOAT", "tensorShape": {"dim": [{"size": "3072"}]}}}}}, {"name": "StatefulPartitionedCall/efficientnetv2-xl/blocks_86/se/Mean/reduction_indices", "op": "Const", "attr": {"dtype": {"type": "DT_INT32"}, "value": {"tensor": {"dtype": "DT_INT32", "tensorShape": {"dim": [{"size": "2"}]}}}}}, {"name": "StatefulPartitionedCall/efficientnetv2-xl/blocks_86/se/conv2d/Conv2D/ReadVariableOp", "op": "Const", "attr": {"dtype": {"type": "DT_FLOAT"}, "value": {"tensor": {"dtype": "DT_FLOAT", "tensorShape": {"dim": [{"size": "1"}, {"size": "1"}, {"size": "3072"}, {"size": "128"}]}}}}}, {"name": "StatefulPartitionedCall/efficientnetv2-xl/blocks_86/se/conv2d/BiasAdd/ReadVariableOp", "op": "Const", "attr": {"dtype": {"type": "DT_FLOAT"}, "value": {"tensor": {"dtype": "DT_FLOAT", "tensorShape": {"dim": [{"size": "128"}]}}}}}, {"name": "StatefulPartitionedCall/efficientnetv2-xl/blocks_86/se/conv2d_1/Conv2D/ReadVariableOp", "op": "Const", "attr": {"value": {"tensor": {"dtype": "DT_FLOAT", "tensorShape": {"dim": [{"size": "1"}, {"size": "1"}, {"size": "128"}, {"size": "3072"}]}}}, "dtype": {"type": "DT_FLOAT"}}}, {"name": "StatefulPartitionedCall/efficientnetv2-xl/blocks_86/se/conv2d_1/BiasAdd/ReadVariableOp", "op": "Const", "attr": {"value": {"tensor": {"dtype": "DT_FLOAT", "tensorShape": {"dim": [{"size": "3072"}]}}}, "dtype": {"type": "DT_FLOAT"}}}, {"name": "StatefulPartitionedCall/efficientnetv2-xl/blocks_85/se/Mean/reduction_indices", "op": "Const", "attr": {"dtype": {"type": "DT_INT32"}, "value": {"tensor": {"dtype": "DT_INT32", "tensorShape": {"dim": [{"size": "2"}]}}}}}, {"name": "StatefulPartitionedCall/efficientnetv2-xl/blocks_85/se/conv2d/Conv2D/ReadVariableOp", "op": "Const", "attr": {"value": {"tensor": {"dtype": "DT_FLOAT", "tensorShape": {"dim": [{"size": "1"}, {"size": "1"}, {"size": "3072"}, {"size": "128"}]}}}, "dtype": {"type": "DT_FLOAT"}}}, {"name": "StatefulPartitionedCall/efficientnetv2-xl/blocks_85/se/conv2d/BiasAdd/ReadVariableOp", "op": "Const", "attr": {"value": {"tensor": {"dtype": "DT_FLOAT", "tensorShape": {"dim": [{"size": "128"}]}}}, "dtype": {"type": "DT_FLOAT"}}}, {"name": "StatefulPartitionedCall/efficientnetv2-xl/blocks_85/se/conv2d_1/Conv2D/ReadVariableOp", "op": "Const", "attr": {"value": {"tensor": {"dtype": "DT_FLOAT", "tensorShape": {"dim": [{"size": "1"}, {"size": "1"}, {"size": "128"}, {"size": "3072"}]}}}, "dtype": {"type": "DT_FLOAT"}}}, {"name": "StatefulPartitionedCall/efficientnetv2-xl/blocks_85/se/conv2d_1/BiasAdd/ReadVariableOp", "op": "Const", "attr": {"value": {"tensor": {"dtype": "DT_FLOAT", "tensorShape": {"dim": [{"size": "3072"}]}}}, "dtype": {"type": "DT_FLOAT"}}}, {"name": "StatefulPartitionedCall/efficientnetv2-xl/blocks_84/se/Mean/reduction_indices", "op": "Const", "attr": {"dtype": {"type": "DT_INT32"}, "value": {"tensor": {"dtype": "DT_INT32", "tensorShape": {"dim": [{"size": "2"}]}}}}}, {"name": "StatefulPartitionedCall/efficientnetv2-xl/blocks_84/se/conv2d/Conv2D/ReadVariableOp", "op": "Const", "attr": {"dtype": {"type": "DT_FLOAT"}, "value": {"tensor": {"dtype": "DT_FLOAT", "tensorShape": {"dim": [{"size": "1"}, {"size": "1"}, {"size": "3072"}, {"size": "128"}]}}}}}, {"name": "StatefulPartitionedCall/efficientnetv2-xl/blocks_84/se/conv2d/BiasAdd/ReadVariableOp", "op": "Const", "attr": {"dtype": {"type": "DT_FLOAT"}, "value": {"tensor": {"dtype": "DT_FLOAT", "tensorShape": {"dim": [{"size": "128"}]}}}}}, {"name": "StatefulPartitionedCall/efficientnetv2-xl/blocks_84/se/conv2d_1/Conv2D/ReadVariableOp", "op": "Const", "attr": {"value": {"tensor": {"dtype": "DT_FLOAT", "tensorShape": {"dim": [{"size": "1"}, {"size": "1"}, {"size": "128"}, {"size": "3072"}]}}}, "dtype": {"type": "DT_FLOAT"}}}, {"name": "StatefulPartitionedCall/efficientnetv2-xl/blocks_84/se/conv2d_1/BiasAdd/ReadVariableOp", "op": "Const", "attr": {"value": {"tensor": {"dtype": "DT_FLOAT", "tensorShape": {"dim": [{"size": "3072"}]}}}, "dtype": {"type": "DT_FLOAT"}}}, {"name": "StatefulPartitionedCall/efficientnetv2-xl/blocks_83/se/Mean/reduction_indices", "op": "Const", "attr": {"value": {"tensor": {"dtype": "DT_INT32", "tensorShape": {"dim": [{"size": "2"}]}}}, "dtype": {"type": "DT_INT32"}}}, {"name": "StatefulPartitionedCall/efficientnetv2-xl/blocks_83/se/conv2d/Conv2D/ReadVariableOp", "op": "Const", "attr": {"dtype": {"type": "DT_FLOAT"}, "value": {"tensor": {"dtype": "DT_FLOAT", "tensorShape": {"dim": [{"size": "1"}, {"size": "1"}, {"size": "3072"}, {"size": "128"}]}}}}}, {"name": "StatefulPartitionedCall/efficientnetv2-xl/blocks_83/se/conv2d/BiasAdd/ReadVariableOp", "op": "Const", "attr": {"value": {"tensor": {"dtype": "DT_FLOAT", "tensorShape": {"dim": [{"size": "128"}]}}}, "dtype": {"type": "DT_FLOAT"}}}, {"name": "StatefulPartitionedCall/efficientnetv2-xl/blocks_83/se/conv2d_1/Conv2D/ReadVariableOp", "op": "Const", "attr": {"value": {"tensor": {"dtype": "DT_FLOAT", "tensorShape": {"dim": [{"size": "1"}, {"size": "1"}, {"size": "128"}, {"size": "3072"}]}}}, "dtype": {"type": "DT_FLOAT"}}}, {"name": "StatefulPartitionedCall/efficientnetv2-xl/blocks_83/se/conv2d_1/BiasAdd/ReadVariableOp", "op": "Const", "attr": {"dtype": {"type": "DT_FLOAT"}, "value": {"tensor": {"dtype": "DT_FLOAT", "tensorShape": {"dim": [{"size": "3072"}]}}}}}, {"name": "StatefulPartitionedCall/efficientnetv2-xl/blocks_82/se/Mean/reduction_indices", "op": "Const", "attr": {"value": {"tensor": {"dtype": "DT_INT32", "tensorShape": {"dim": [{"size": "2"}]}}}, "dtype": {"type": "DT_INT32"}}}, {"name": "StatefulPartitionedCall/efficientnetv2-xl/blocks_82/se/conv2d/Conv2D/ReadVariableOp", "op": "Const", "attr": {"value": {"tensor": {"dtype": "DT_FLOAT", "tensorShape": {"dim": [{"size": "1"}, {"size": "1"}, {"size": "3072"}, {"size": "128"}]}}}, "dtype": {"type": "DT_FLOAT"}}}, {"name": "StatefulPartitionedCall/efficientnetv2-xl/blocks_82/se/conv2d/BiasAdd/ReadVariableOp", "op": "Const", "attr": {"dtype": {"type": "DT_FLOAT"}, "value": {"tensor": {"dtype": "DT_FLOAT", "tensorShape": {"dim": [{"size": "128"}]}}}}}, {"name": "StatefulPartitionedCall/efficientnetv2-xl/blocks_82/se/conv2d_1/Conv2D/ReadVariableOp", "op": "Const", "attr": {"dtype": {"type": "DT_FLOAT"}, "value": {"tensor": {"dtype": "DT_FLOAT", "tensorShape": {"dim": [{"size": "1"}, {"size": "1"}, {"size": "128"}, {"size": "3072"}]}}}}}, {"name": "StatefulPartitionedCall/efficientnetv2-xl/blocks_82/se/conv2d_1/BiasAdd/ReadVariableOp", "op": "Const", "attr": {"dtype": {"type": "DT_FLOAT"}, "value": {"tensor": {"dtype": "DT_FLOAT", "tensorShape": {"dim": [{"size": "3072"}]}}}}}, {"name": "StatefulPartitionedCall/efficientnetv2-xl/blocks_81/se/Mean/reduction_indices", "op": "Const", "attr": {"value": {"tensor": {"dtype": "DT_INT32", "tensorShape": {"dim": [{"size": "2"}]}}}, "dtype": {"type": "DT_INT32"}}}, {"name": "StatefulPartitionedCall/efficientnetv2-xl/blocks_81/se/conv2d/Conv2D/ReadVariableOp", "op": "Const", "attr": {"dtype": {"type": "DT_FLOAT"}, "value": {"tensor": {"dtype": "DT_FLOAT", "tensorShape": {"dim": [{"size": "1"}, {"size": "1"}, {"size": "3072"}, {"size": "128"}]}}}}}, {"name": "StatefulPartitionedCall/efficientnetv2-xl/blocks_81/se/conv2d/BiasAdd/ReadVariableOp", "op": "Const", "attr": {"value": {"tensor": {"dtype": "DT_FLOAT", "tensorShape": {"dim": [{"size": "128"}]}}}, "dtype": {"type": "DT_FLOAT"}}}, {"name": "StatefulPartitionedCall/efficientnetv2-xl/blocks_81/se/conv2d_1/Conv2D/ReadVariableOp", "op": "Const", "attr": {"value": {"tensor": {"dtype": "DT_FLOAT", "tensorShape": {"dim": [{"size": "1"}, {"size": "1"}, {"size": "128"}, {"size": "3072"}]}}}, "dtype": {"type": "DT_FLOAT"}}}, {"name": "StatefulPartitionedCall/efficientnetv2-xl/blocks_81/se/conv2d_1/BiasAdd/ReadVariableOp", "op": "Const", "attr": {"dtype": {"type": "DT_FLOAT"}, "value": {"tensor": {"dtype": "DT_FLOAT", "tensorShape": {"dim": [{"size": "3072"}]}}}}}, {"name": "StatefulPartitionedCall/efficientnetv2-xl/blocks_80/se/Mean/reduction_indices", "op": "Const", "attr": {"value": {"tensor": {"dtype": "DT_INT32", "tensorShape": {"dim": [{"size": "2"}]}}}, "dtype": {"type": "DT_INT32"}}}, {"name": "StatefulPartitionedCall/efficientnetv2-xl/blocks_80/se/conv2d/Conv2D/ReadVariableOp", "op": "Const", "attr": {"value": {"tensor": {"dtype": "DT_FLOAT", "tensorShape": {"dim": [{"size": "1"}, {"size": "1"}, {"size": "3072"}, {"size": "128"}]}}}, "dtype": {"type": "DT_FLOAT"}}}, {"name": "StatefulPartitionedCall/efficientnetv2-xl/blocks_80/se/conv2d/BiasAdd/ReadVariableOp", "op": "Const", "attr": {"value": {"tensor": {"dtype": "DT_FLOAT", "tensorShape": {"dim": [{"size": "128"}]}}}, "dtype": {"type": "DT_FLOAT"}}}, {"name": "StatefulPartitionedCall/efficientnetv2-xl/blocks_80/se/conv2d_1/Conv2D/ReadVariableOp", "op": "Const", "attr": {"value": {"tensor": {"dtype": "DT_FLOAT", "tensorShape": {"dim": [{"size": "1"}, {"size": "1"}, {"size": "128"}, {"size": "3072"}]}}}, "dtype": {"type": "DT_FLOAT"}}}, {"name": "StatefulPartitionedCall/efficientnetv2-xl/blocks_80/se/conv2d_1/BiasAdd/ReadVariableOp", "op": "Const", "attr": {"value": {"tensor": {"dtype": "DT_FLOAT", "tensorShape": {"dim": [{"size": "3072"}]}}}, "dtype": {"type": "DT_FLOAT"}}}, {"name": "StatefulPartitionedCall/efficientnetv2-xl/blocks_79/se/Mean/reduction_indices", "op": "Const", "attr": {"value": {"tensor": {"dtype": "DT_INT32", "tensorShape": {"dim": [{"size": "2"}]}}}, "dtype": {"type": "DT_INT32"}}}, {"name": "StatefulPartitionedCall/efficientnetv2-xl/blocks_79/se/conv2d/Conv2D/ReadVariableOp", "op": "Const", "attr": {"dtype": {"type": "DT_FLOAT"}, "value": {"tensor": {"dtype": "DT_FLOAT", "tensorShape": {"dim": [{"size": "1"}, {"size": "1"}, {"size": "3072"}, {"size": "128"}]}}}}}, {"name": "StatefulPartitionedCall/efficientnetv2-xl/blocks_79/se/conv2d/BiasAdd/ReadVariableOp", "op": "Const", "attr": {"value": {"tensor": {"dtype": "DT_FLOAT", "tensorShape": {"dim": [{"size": "128"}]}}}, "dtype": {"type": "DT_FLOAT"}}}, {"name": "StatefulPartitionedCall/efficientnetv2-xl/blocks_79/se/conv2d_1/Conv2D/ReadVariableOp", "op": "Const", "attr": {"value": {"tensor": {"dtype": "DT_FLOAT", "tensorShape": {"dim": [{"size": "1"}, {"size": "1"}, {"size": "128"}, {"size": "3072"}]}}}, "dtype": {"type": "DT_FLOAT"}}}, {"name": "StatefulPartitionedCall/efficientnetv2-xl/blocks_79/se/conv2d_1/BiasAdd/ReadVariableOp", "op": "Const", "attr": {"value": {"tensor": {"dtype": "DT_FLOAT", "tensorShape": {"dim": [{"size": "3072"}]}}}, "dtype": {"type": "DT_FLOAT"}}}, {"name": "StatefulPartitionedCall/efficientnetv2-xl/blocks_78/se/Mean/reduction_indices", "op": "Const", "attr": {"value": {"tensor": {"dtype": "DT_INT32", "tensorShape": {"dim": [{"size": "2"}]}}}, "dtype": {"type": "DT_INT32"}}}, {"name": "StatefulPartitionedCall/efficientnetv2-xl/blocks_78/se/conv2d/Conv2D/ReadVariableOp", "op": "Const", "attr": {"value": {"tensor": {"dtype": "DT_FLOAT", "tensorShape": {"dim": [{"size": "1"}, {"size": "1"}, {"size": "3072"}, {"size": "128"}]}}}, "dtype": {"type": "DT_FLOAT"}}}, {"name": "StatefulPartitionedCall/efficientnetv2-xl/blocks_78/se/conv2d/BiasAdd/ReadVariableOp", "op": "Const", "attr": {"dtype": {"type": "DT_FLOAT"}, "value": {"tensor": {"dtype": "DT_FLOAT", "tensorShape": {"dim": [{"size": "128"}]}}}}}, {"name": "StatefulPartitionedCall/efficientnetv2-xl/blocks_78/se/conv2d_1/Conv2D/ReadVariableOp", "op": "Const", "attr": {"dtype": {"type": "DT_FLOAT"}, "value": {"tensor": {"dtype": "DT_FLOAT", "tensorShape": {"dim": [{"size": "1"}, {"size": "1"}, {"size": "128"}, {"size": "3072"}]}}}}}, {"name": "StatefulPartitionedCall/efficientnetv2-xl/blocks_78/se/conv2d_1/BiasAdd/ReadVariableOp", "op": "Const", "attr": {"dtype": {"type": "DT_FLOAT"}, "value": {"tensor": {"dtype": "DT_FLOAT", "tensorShape": {"dim": [{"size": "3072"}]}}}}}, {"name": "StatefulPartitionedCall/efficientnetv2-xl/blocks_77/se/Mean/reduction_indices", "op": "Const", "attr": {"dtype": {"type": "DT_INT32"}, "value": {"tensor": {"dtype": "DT_INT32", "tensorShape": {"dim": [{"size": "2"}]}}}}}, {"name": "StatefulPartitionedCall/efficientnetv2-xl/blocks_77/se/conv2d/Conv2D/ReadVariableOp", "op": "Const", "attr": {"dtype": {"type": "DT_FLOAT"}, "value": {"tensor": {"dtype": "DT_FLOAT", "tensorShape": {"dim": [{"size": "1"}, {"size": "1"}, {"size": "3072"}, {"size": "128"}]}}}}}, {"name": "StatefulPartitionedCall/efficientnetv2-xl/blocks_77/se/conv2d/BiasAdd/ReadVariableOp", "op": "Const", "attr": {"dtype": {"type": "DT_FLOAT"}, "value": {"tensor": {"dtype": "DT_FLOAT", "tensorShape": {"dim": [{"size": "128"}]}}}}}, {"name": "StatefulPartitionedCall/efficientnetv2-xl/blocks_77/se/conv2d_1/Conv2D/ReadVariableOp", "op": "Const", "attr": {"dtype": {"type": "DT_FLOAT"}, "value": {"tensor": {"dtype": "DT_FLOAT", "tensorShape": {"dim": [{"size": "1"}, {"size": "1"}, {"size": "128"}, {"size": "3072"}]}}}}}, {"name": "StatefulPartitionedCall/efficientnetv2-xl/blocks_77/se/conv2d_1/BiasAdd/ReadVariableOp", "op": "Const", "attr": {"value": {"tensor": {"dtype": "DT_FLOAT", "tensorShape": {"dim": [{"size": "3072"}]}}}, "dtype": {"type": "DT_FLOAT"}}}, {"name": "StatefulPartitionedCall/efficientnetv2-xl/blocks_76/se/Mean/reduction_indices", "op": "Const", "attr": {"dtype": {"type": "DT_INT32"}, "value": {"tensor": {"dtype": "DT_INT32", "tensorShape": {"dim": [{"size": "2"}]}}}}}, {"name": "StatefulPartitionedCall/efficientnetv2-xl/blocks_76/se/conv2d/Conv2D/ReadVariableOp", "op": "Const", "attr": {"value": {"tensor": {"dtype": "DT_FLOAT", "tensorShape": {"dim": [{"size": "1"}, {"size": "1"}, {"size": "3072"}, {"size": "128"}]}}}, "dtype": {"type": "DT_FLOAT"}}}, {"name": "StatefulPartitionedCall/efficientnetv2-xl/blocks_76/se/conv2d/BiasAdd/ReadVariableOp", "op": "Const", "attr": {"dtype": {"type": "DT_FLOAT"}, "value": {"tensor": {"dtype": "DT_FLOAT", "tensorShape": {"dim": [{"size": "128"}]}}}}}, {"name": "StatefulPartitionedCall/efficientnetv2-xl/blocks_76/se/conv2d_1/Conv2D/ReadVariableOp", "op": "Const", "attr": {"value": {"tensor": {"dtype": "DT_FLOAT", "tensorShape": {"dim": [{"size": "1"}, {"size": "1"}, {"size": "128"}, {"size": "3072"}]}}}, "dtype": {"type": "DT_FLOAT"}}}, {"name": "StatefulPartitionedCall/efficientnetv2-xl/blocks_76/se/conv2d_1/BiasAdd/ReadVariableOp", "op": "Const", "attr": {"value": {"tensor": {"dtype": "DT_FLOAT", "tensorShape": {"dim": [{"size": "3072"}]}}}, "dtype": {"type": "DT_FLOAT"}}}, {"name": "StatefulPartitionedCall/efficientnetv2-xl/blocks_75/se/Mean/reduction_indices", "op": "Const", "attr": {"value": {"tensor": {"dtype": "DT_INT32", "tensorShape": {"dim": [{"size": "2"}]}}}, "dtype": {"type": "DT_INT32"}}}, {"name": "StatefulPartitionedCall/efficientnetv2-xl/blocks_75/se/conv2d/Conv2D/ReadVariableOp", "op": "Const", "attr": {"dtype": {"type": "DT_FLOAT"}, "value": {"tensor": {"dtype": "DT_FLOAT", "tensorShape": {"dim": [{"size": "1"}, {"size": "1"}, {"size": "3072"}, {"size": "128"}]}}}}}, {"name": "StatefulPartitionedCall/efficientnetv2-xl/blocks_75/se/conv2d/BiasAdd/ReadVariableOp", "op": "Const", "attr": {"value": {"tensor": {"dtype": "DT_FLOAT", "tensorShape": {"dim": [{"size": "128"}]}}}, "dtype": {"type": "DT_FLOAT"}}}, {"name": "StatefulPartitionedCall/efficientnetv2-xl/blocks_75/se/conv2d_1/Conv2D/ReadVariableOp", "op": "Const", "attr": {"value": {"tensor": {"dtype": "DT_FLOAT", "tensorShape": {"dim": [{"size": "1"}, {"size": "1"}, {"size": "128"}, {"size": "3072"}]}}}, "dtype": {"type": "DT_FLOAT"}}}, {"name": "StatefulPartitionedCall/efficientnetv2-xl/blocks_75/se/conv2d_1/BiasAdd/ReadVariableOp", "op": "Const", "attr": {"dtype": {"type": "DT_FLOAT"}, "value": {"tensor": {"dtype": "DT_FLOAT", "tensorShape": {"dim": [{"size": "3072"}]}}}}}, {"name": "StatefulPartitionedCall/efficientnetv2-xl/blocks_74/se/Mean/reduction_indices", "op": "Const", "attr": {"dtype": {"type": "DT_INT32"}, "value": {"tensor": {"dtype": "DT_INT32", "tensorShape": {"dim": [{"size": "2"}]}}}}}, {"name": "StatefulPartitionedCall/efficientnetv2-xl/blocks_74/se/conv2d/Conv2D/ReadVariableOp", "op": "Const", "attr": {"dtype": {"type": "DT_FLOAT"}, "value": {"tensor": {"dtype": "DT_FLOAT", "tensorShape": {"dim": [{"size": "1"}, {"size": "1"}, {"size": "3072"}, {"size": "128"}]}}}}}, {"name": "StatefulPartitionedCall/efficientnetv2-xl/blocks_74/se/conv2d/BiasAdd/ReadVariableOp", "op": "Const", "attr": {"dtype": {"type": "DT_FLOAT"}, "value": {"tensor": {"dtype": "DT_FLOAT", "tensorShape": {"dim": [{"size": "128"}]}}}}}, {"name": "StatefulPartitionedCall/efficientnetv2-xl/blocks_74/se/conv2d_1/Conv2D/ReadVariableOp", "op": "Const", "attr": {"dtype": {"type": "DT_FLOAT"}, "value": {"tensor": {"dtype": "DT_FLOAT", "tensorShape": {"dim": [{"size": "1"}, {"size": "1"}, {"size": "128"}, {"size": "3072"}]}}}}}, {"name": "StatefulPartitionedCall/efficientnetv2-xl/blocks_74/se/conv2d_1/BiasAdd/ReadVariableOp", "op": "Const", "attr": {"dtype": {"type": "DT_FLOAT"}, "value": {"tensor": {"dtype": "DT_FLOAT", "tensorShape": {"dim": [{"size": "3072"}]}}}}}, {"name": "StatefulPartitionedCall/efficientnetv2-xl/blocks_73/se/Mean/reduction_indices", "op": "Const", "attr": {"value": {"tensor": {"dtype": "DT_INT32", "tensorShape": {"dim": [{"size": "2"}]}}}, "dtype": {"type": "DT_INT32"}}}, {"name": "StatefulPartitionedCall/efficientnetv2-xl/blocks_73/se/conv2d/Conv2D/ReadVariableOp", "op": "Const", "attr": {"dtype": {"type": "DT_FLOAT"}, "value": {"tensor": {"dtype": "DT_FLOAT", "tensorShape": {"dim": [{"size": "1"}, {"size": "1"}, {"size": "3072"}, {"size": "128"}]}}}}}, {"name": "StatefulPartitionedCall/efficientnetv2-xl/blocks_73/se/conv2d/BiasAdd/ReadVariableOp", "op": "Const", "attr": {"dtype": {"type": "DT_FLOAT"}, "value": {"tensor": {"dtype": "DT_FLOAT", "tensorShape": {"dim": [{"size": "128"}]}}}}}, {"name": "StatefulPartitionedCall/efficientnetv2-xl/blocks_73/se/conv2d_1/Conv2D/ReadVariableOp", "op": "Const", "attr": {"value": {"tensor": {"dtype": "DT_FLOAT", "tensorShape": {"dim": [{"size": "1"}, {"size": "1"}, {"size": "128"}, {"size": "3072"}]}}}, "dtype": {"type": "DT_FLOAT"}}}, {"name": "StatefulPartitionedCall/efficientnetv2-xl/blocks_73/se/conv2d_1/BiasAdd/ReadVariableOp", "op": "Const", "attr": {"dtype": {"type": "DT_FLOAT"}, "value": {"tensor": {"dtype": "DT_FLOAT", "tensorShape": {"dim": [{"size": "3072"}]}}}}}, {"name": "StatefulPartitionedCall/efficientnetv2-xl/blocks_72/se/Mean/reduction_indices", "op": "Const", "attr": {"dtype": {"type": "DT_INT32"}, "value": {"tensor": {"dtype": "DT_INT32", "tensorShape": {"dim": [{"size": "2"}]}}}}}, {"name": "StatefulPartitionedCall/efficientnetv2-xl/blocks_72/se/conv2d/Conv2D/ReadVariableOp", "op": "Const", "attr": {"value": {"tensor": {"dtype": "DT_FLOAT", "tensorShape": {"dim": [{"size": "1"}, {"size": "1"}, {"size": "3072"}, {"size": "128"}]}}}, "dtype": {"type": "DT_FLOAT"}}}, {"name": "StatefulPartitionedCall/efficientnetv2-xl/blocks_72/se/conv2d/BiasAdd/ReadVariableOp", "op": "Const", "attr": {"dtype": {"type": "DT_FLOAT"}, "value": {"tensor": {"dtype": "DT_FLOAT", "tensorShape": {"dim": [{"size": "128"}]}}}}}, {"name": "StatefulPartitionedCall/efficientnetv2-xl/blocks_72/se/conv2d_1/Conv2D/ReadVariableOp", "op": "Const", "attr": {"dtype": {"type": "DT_FLOAT"}, "value": {"tensor": {"dtype": "DT_FLOAT", "tensorShape": {"dim": [{"size": "1"}, {"size": "1"}, {"size": "128"}, {"size": "3072"}]}}}}}, {"name": "StatefulPartitionedCall/efficientnetv2-xl/blocks_72/se/conv2d_1/BiasAdd/ReadVariableOp", "op": "Const", "attr": {"dtype": {"type": "DT_FLOAT"}, "value": {"tensor": {"dtype": "DT_FLOAT", "tensorShape": {"dim": [{"size": "3072"}]}}}}}, {"name": "StatefulPartitionedCall/efficientnetv2-xl/blocks_71/se/Mean/reduction_indices", "op": "Const", "attr": {"dtype": {"type": "DT_INT32"}, "value": {"tensor": {"dtype": "DT_INT32", "tensorShape": {"dim": [{"size": "2"}]}}}}}, {"name": "StatefulPartitionedCall/efficientnetv2-xl/blocks_71/se/conv2d/Conv2D/ReadVariableOp", "op": "Const", "attr": {"value": {"tensor": {"dtype": "DT_FLOAT", "tensorShape": {"dim": [{"size": "1"}, {"size": "1"}, {"size": "3072"}, {"size": "128"}]}}}, "dtype": {"type": "DT_FLOAT"}}}, {"name": "StatefulPartitionedCall/efficientnetv2-xl/blocks_71/se/conv2d/BiasAdd/ReadVariableOp", "op": "Const", "attr": {"value": {"tensor": {"dtype": "DT_FLOAT", "tensorShape": {"dim": [{"size": "128"}]}}}, "dtype": {"type": "DT_FLOAT"}}}, {"name": "StatefulPartitionedCall/efficientnetv2-xl/blocks_71/se/conv2d_1/Conv2D/ReadVariableOp", "op": "Const", "attr": {"value": {"tensor": {"dtype": "DT_FLOAT", "tensorShape": {"dim": [{"size": "1"}, {"size": "1"}, {"size": "128"}, {"size": "3072"}]}}}, "dtype": {"type": "DT_FLOAT"}}}, {"name": "StatefulPartitionedCall/efficientnetv2-xl/blocks_71/se/conv2d_1/BiasAdd/ReadVariableOp", "op": "Const", "attr": {"value": {"tensor": {"dtype": "DT_FLOAT", "tensorShape": {"dim": [{"size": "3072"}]}}}, "dtype": {"type": "DT_FLOAT"}}}, {"name": "StatefulPartitionedCall/efficientnetv2-xl/blocks_70/se/Mean/reduction_indices", "op": "Const", "attr": {"dtype": {"type": "DT_INT32"}, "value": {"tensor": {"dtype": "DT_INT32", "tensorShape": {"dim": [{"size": "2"}]}}}}}, {"name": "StatefulPartitionedCall/efficientnetv2-xl/blocks_70/se/conv2d/Conv2D/ReadVariableOp", "op": "Const", "attr": {"value": {"tensor": {"dtype": "DT_FLOAT", "tensorShape": {"dim": [{"size": "1"}, {"size": "1"}, {"size": "3072"}, {"size": "128"}]}}}, "dtype": {"type": "DT_FLOAT"}}}, {"name": "StatefulPartitionedCall/efficientnetv2-xl/blocks_70/se/conv2d/BiasAdd/ReadVariableOp", "op": "Const", "attr": {"value": {"tensor": {"dtype": "DT_FLOAT", "tensorShape": {"dim": [{"size": "128"}]}}}, "dtype": {"type": "DT_FLOAT"}}}, {"name": "StatefulPartitionedCall/efficientnetv2-xl/blocks_70/se/conv2d_1/Conv2D/ReadVariableOp", "op": "Const", "attr": {"dtype": {"type": "DT_FLOAT"}, "value": {"tensor": {"dtype": "DT_FLOAT", "tensorShape": {"dim": [{"size": "1"}, {"size": "1"}, {"size": "128"}, {"size": "3072"}]}}}}}, {"name": "StatefulPartitionedCall/efficientnetv2-xl/blocks_70/se/conv2d_1/BiasAdd/ReadVariableOp", "op": "Const", "attr": {"dtype": {"type": "DT_FLOAT"}, "value": {"tensor": {"dtype": "DT_FLOAT", "tensorShape": {"dim": [{"size": "3072"}]}}}}}, {"name": "StatefulPartitionedCall/efficientnetv2-xl/blocks_69/se/Mean/reduction_indices", "op": "Const", "attr": {"dtype": {"type": "DT_INT32"}, "value": {"tensor": {"dtype": "DT_INT32", "tensorShape": {"dim": [{"size": "2"}]}}}}}, {"name": "StatefulPartitionedCall/efficientnetv2-xl/blocks_69/se/conv2d/Conv2D/ReadVariableOp", "op": "Const", "attr": {"dtype": {"type": "DT_FLOAT"}, "value": {"tensor": {"dtype": "DT_FLOAT", "tensorShape": {"dim": [{"size": "1"}, {"size": "1"}, {"size": "3072"}, {"size": "128"}]}}}}}, {"name": "StatefulPartitionedCall/efficientnetv2-xl/blocks_69/se/conv2d/BiasAdd/ReadVariableOp", "op": "Const", "attr": {"value": {"tensor": {"dtype": "DT_FLOAT", "tensorShape": {"dim": [{"size": "128"}]}}}, "dtype": {"type": "DT_FLOAT"}}}, {"name": "StatefulPartitionedCall/efficientnetv2-xl/blocks_69/se/conv2d_1/Conv2D/ReadVariableOp", "op": "Const", "attr": {"value": {"tensor": {"dtype": "DT_FLOAT", "tensorShape": {"dim": [{"size": "1"}, {"size": "1"}, {"size": "128"}, {"size": "3072"}]}}}, "dtype": {"type": "DT_FLOAT"}}}, {"name": "StatefulPartitionedCall/efficientnetv2-xl/blocks_69/se/conv2d_1/BiasAdd/ReadVariableOp", "op": "Const", "attr": {"value": {"tensor": {"dtype": "DT_FLOAT", "tensorShape": {"dim": [{"size": "3072"}]}}}, "dtype": {"type": "DT_FLOAT"}}}, {"name": "StatefulPartitionedCall/efficientnetv2-xl/blocks_68/se/Mean/reduction_indices", "op": "Const", "attr": {"value": {"tensor": {"dtype": "DT_INT32", "tensorShape": {"dim": [{"size": "2"}]}}}, "dtype": {"type": "DT_INT32"}}}, {"name": "StatefulPartitionedCall/efficientnetv2-xl/blocks_68/se/conv2d/Conv2D/ReadVariableOp", "op": "Const", "attr": {"dtype": {"type": "DT_FLOAT"}, "value": {"tensor": {"dtype": "DT_FLOAT", "tensorShape": {"dim": [{"size": "1"}, {"size": "1"}, {"size": "3072"}, {"size": "128"}]}}}}}, {"name": "StatefulPartitionedCall/efficientnetv2-xl/blocks_68/se/conv2d/BiasAdd/ReadVariableOp", "op": "Const", "attr": {"dtype": {"type": "DT_FLOAT"}, "value": {"tensor": {"dtype": "DT_FLOAT", "tensorShape": {"dim": [{"size": "128"}]}}}}}, {"name": "StatefulPartitionedCall/efficientnetv2-xl/blocks_68/se/conv2d_1/Conv2D/ReadVariableOp", "op": "Const", "attr": {"dtype": {"type": "DT_FLOAT"}, "value": {"tensor": {"dtype": "DT_FLOAT", "tensorShape": {"dim": [{"size": "1"}, {"size": "1"}, {"size": "128"}, {"size": "3072"}]}}}}}, {"name": "StatefulPartitionedCall/efficientnetv2-xl/blocks_68/se/conv2d_1/BiasAdd/ReadVariableOp", "op": "Const", "attr": {"value": {"tensor": {"dtype": "DT_FLOAT", "tensorShape": {"dim": [{"size": "3072"}]}}}, "dtype": {"type": "DT_FLOAT"}}}, {"name": "StatefulPartitionedCall/efficientnetv2-xl/blocks_67/se/Mean/reduction_indices", "op": "Const", "attr": {"dtype": {"type": "DT_INT32"}, "value": {"tensor": {"dtype": "DT_INT32", "tensorShape": {"dim": [{"size": "2"}]}}}}}, {"name": "StatefulPartitionedCall/efficientnetv2-xl/blocks_67/se/conv2d/Conv2D/ReadVariableOp", "op": "Const", "attr": {"dtype": {"type": "DT_FLOAT"}, "value": {"tensor": {"dtype": "DT_FLOAT", "tensorShape": {"dim": [{"size": "1"}, {"size": "1"}, {"size": "3072"}, {"size": "128"}]}}}}}, {"name": "StatefulPartitionedCall/efficientnetv2-xl/blocks_67/se/conv2d/BiasAdd/ReadVariableOp", "op": "Const", "attr": {"dtype": {"type": "DT_FLOAT"}, "value": {"tensor": {"dtype": "DT_FLOAT", "tensorShape": {"dim": [{"size": "128"}]}}}}}, {"name": "StatefulPartitionedCall/efficientnetv2-xl/blocks_67/se/conv2d_1/Conv2D/ReadVariableOp", "op": "Const", "attr": {"dtype": {"type": "DT_FLOAT"}, "value": {"tensor": {"dtype": "DT_FLOAT", "tensorShape": {"dim": [{"size": "1"}, {"size": "1"}, {"size": "128"}, {"size": "3072"}]}}}}}, {"name": "StatefulPartitionedCall/efficientnetv2-xl/blocks_67/se/conv2d_1/BiasAdd/ReadVariableOp", "op": "Const", "attr": {"dtype": {"type": "DT_FLOAT"}, "value": {"tensor": {"dtype": "DT_FLOAT", "tensorShape": {"dim": [{"size": "3072"}]}}}}}, {"name": "StatefulPartitionedCall/efficientnetv2-xl/blocks_66/se/Mean/reduction_indices", "op": "Const", "attr": {"dtype": {"type": "DT_INT32"}, "value": {"tensor": {"dtype": "DT_INT32", "tensorShape": {"dim": [{"size": "2"}]}}}}}, {"name": "StatefulPartitionedCall/efficientnetv2-xl/blocks_66/se/conv2d/Conv2D/ReadVariableOp", "op": "Const", "attr": {"value": {"tensor": {"dtype": "DT_FLOAT", "tensorShape": {"dim": [{"size": "1"}, {"size": "1"}, {"size": "3072"}, {"size": "128"}]}}}, "dtype": {"type": "DT_FLOAT"}}}, {"name": "StatefulPartitionedCall/efficientnetv2-xl/blocks_66/se/conv2d/BiasAdd/ReadVariableOp", "op": "Const", "attr": {"dtype": {"type": "DT_FLOAT"}, "value": {"tensor": {"dtype": "DT_FLOAT", "tensorShape": {"dim": [{"size": "128"}]}}}}}, {"name": "StatefulPartitionedCall/efficientnetv2-xl/blocks_66/se/conv2d_1/Conv2D/ReadVariableOp", "op": "Const", "attr": {"dtype": {"type": "DT_FLOAT"}, "value": {"tensor": {"dtype": "DT_FLOAT", "tensorShape": {"dim": [{"size": "1"}, {"size": "1"}, {"size": "128"}, {"size": "3072"}]}}}}}, {"name": "StatefulPartitionedCall/efficientnetv2-xl/blocks_66/se/conv2d_1/BiasAdd/ReadVariableOp", "op": "Const", "attr": {"value": {"tensor": {"dtype": "DT_FLOAT", "tensorShape": {"dim": [{"size": "3072"}]}}}, "dtype": {"type": "DT_FLOAT"}}}, {"name": "StatefulPartitionedCall/efficientnetv2-xl/blocks_65/se/Mean/reduction_indices", "op": "Const", "attr": {"dtype": {"type": "DT_INT32"}, "value": {"tensor": {"dtype": "DT_INT32", "tensorShape": {"dim": [{"size": "2"}]}}}}}, {"name": "StatefulPartitionedCall/efficientnetv2-xl/blocks_65/se/conv2d/Conv2D/ReadVariableOp", "op": "Const", "attr": {"value": {"tensor": {"dtype": "DT_FLOAT", "tensorShape": {"dim": [{"size": "1"}, {"size": "1"}, {"size": "3072"}, {"size": "128"}]}}}, "dtype": {"type": "DT_FLOAT"}}}, {"name": "StatefulPartitionedCall/efficientnetv2-xl/blocks_65/se/conv2d/BiasAdd/ReadVariableOp", "op": "Const", "attr": {"dtype": {"type": "DT_FLOAT"}, "value": {"tensor": {"dtype": "DT_FLOAT", "tensorShape": {"dim": [{"size": "128"}]}}}}}, {"name": "StatefulPartitionedCall/efficientnetv2-xl/blocks_65/se/conv2d_1/Conv2D/ReadVariableOp", "op": "Const", "attr": {"dtype": {"type": "DT_FLOAT"}, "value": {"tensor": {"dtype": "DT_FLOAT", "tensorShape": {"dim": [{"size": "1"}, {"size": "1"}, {"size": "128"}, {"size": "3072"}]}}}}}, {"name": "StatefulPartitionedCall/efficientnetv2-xl/blocks_65/se/conv2d_1/BiasAdd/ReadVariableOp", "op": "Const", "attr": {"dtype": {"type": "DT_FLOAT"}, "value": {"tensor": {"dtype": "DT_FLOAT", "tensorShape": {"dim": [{"size": "3072"}]}}}}}, {"name": "StatefulPartitionedCall/efficientnetv2-xl/blocks_64/se/Mean/reduction_indices", "op": "Const", "attr": {"dtype": {"type": "DT_INT32"}, "value": {"tensor": {"dtype": "DT_INT32", "tensorShape": {"dim": [{"size": "2"}]}}}}}, {"name": "StatefulPartitionedCall/efficientnetv2-xl/blocks_64/se/conv2d/Conv2D/ReadVariableOp", "op": "Const", "attr": {"dtype": {"type": "DT_FLOAT"}, "value": {"tensor": {"dtype": "DT_FLOAT", "tensorShape": {"dim": [{"size": "1"}, {"size": "1"}, {"size": "3072"}, {"size": "128"}]}}}}}, {"name": "StatefulPartitionedCall/efficientnetv2-xl/blocks_64/se/conv2d/BiasAdd/ReadVariableOp", "op": "Const", "attr": {"value": {"tensor": {"dtype": "DT_FLOAT", "tensorShape": {"dim": [{"size": "128"}]}}}, "dtype": {"type": "DT_FLOAT"}}}, {"name": "StatefulPartitionedCall/efficientnetv2-xl/blocks_64/se/conv2d_1/Conv2D/ReadVariableOp", "op": "Const", "attr": {"value": {"tensor": {"dtype": "DT_FLOAT", "tensorShape": {"dim": [{"size": "1"}, {"size": "1"}, {"size": "128"}, {"size": "3072"}]}}}, "dtype": {"type": "DT_FLOAT"}}}, {"name": "StatefulPartitionedCall/efficientnetv2-xl/blocks_64/se/conv2d_1/BiasAdd/ReadVariableOp", "op": "Const", "attr": {"value": {"tensor": {"dtype": "DT_FLOAT", "tensorShape": {"dim": [{"size": "3072"}]}}}, "dtype": {"type": "DT_FLOAT"}}}, {"name": "StatefulPartitionedCall/efficientnetv2-xl/blocks_63/se/Mean/reduction_indices", "op": "Const", "attr": {"dtype": {"type": "DT_INT32"}, "value": {"tensor": {"dtype": "DT_INT32", "tensorShape": {"dim": [{"size": "2"}]}}}}}, {"name": "StatefulPartitionedCall/efficientnetv2-xl/blocks_63/se/conv2d/Conv2D/ReadVariableOp", "op": "Const", "attr": {"value": {"tensor": {"dtype": "DT_FLOAT", "tensorShape": {"dim": [{"size": "1"}, {"size": "1"}, {"size": "3072"}, {"size": "128"}]}}}, "dtype": {"type": "DT_FLOAT"}}}, {"name": "StatefulPartitionedCall/efficientnetv2-xl/blocks_63/se/conv2d/BiasAdd/ReadVariableOp", "op": "Const", "attr": {"value": {"tensor": {"dtype": "DT_FLOAT", "tensorShape": {"dim": [{"size": "128"}]}}}, "dtype": {"type": "DT_FLOAT"}}}, {"name": "StatefulPartitionedCall/efficientnetv2-xl/blocks_63/se/conv2d_1/Conv2D/ReadVariableOp", "op": "Const", "attr": {"dtype": {"type": "DT_FLOAT"}, "value": {"tensor": {"dtype": "DT_FLOAT", "tensorShape": {"dim": [{"size": "1"}, {"size": "1"}, {"size": "128"}, {"size": "3072"}]}}}}}, {"name": "StatefulPartitionedCall/efficientnetv2-xl/blocks_63/se/conv2d_1/BiasAdd/ReadVariableOp", "op": "Const", "attr": {"value": {"tensor": {"dtype": "DT_FLOAT", "tensorShape": {"dim": [{"size": "3072"}]}}}, "dtype": {"type": "DT_FLOAT"}}}, {"name": "StatefulPartitionedCall/efficientnetv2-xl/blocks_62/se/Mean/reduction_indices", "op": "Const", "attr": {"value": {"tensor": {"dtype": "DT_INT32", "tensorShape": {"dim": [{"size": "2"}]}}}, "dtype": {"type": "DT_INT32"}}}, {"name": "StatefulPartitionedCall/efficientnetv2-xl/blocks_62/se/conv2d/Conv2D/ReadVariableOp", "op": "Const", "attr": {"value": {"tensor": {"dtype": "DT_FLOAT", "tensorShape": {"dim": [{"size": "1"}, {"size": "1"}, {"size": "3072"}, {"size": "128"}]}}}, "dtype": {"type": "DT_FLOAT"}}}, {"name": "StatefulPartitionedCall/efficientnetv2-xl/blocks_62/se/conv2d/BiasAdd/ReadVariableOp", "op": "Const", "attr": {"value": {"tensor": {"dtype": "DT_FLOAT", "tensorShape": {"dim": [{"size": "128"}]}}}, "dtype": {"type": "DT_FLOAT"}}}, {"name": "StatefulPartitionedCall/efficientnetv2-xl/blocks_62/se/conv2d_1/Conv2D/ReadVariableOp", "op": "Const", "attr": {"dtype": {"type": "DT_FLOAT"}, "value": {"tensor": {"dtype": "DT_FLOAT", "tensorShape": {"dim": [{"size": "1"}, {"size": "1"}, {"size": "128"}, {"size": "3072"}]}}}}}, {"name": "StatefulPartitionedCall/efficientnetv2-xl/blocks_62/se/conv2d_1/BiasAdd/ReadVariableOp", "op": "Const", "attr": {"dtype": {"type": "DT_FLOAT"}, "value": {"tensor": {"dtype": "DT_FLOAT", "tensorShape": {"dim": [{"size": "3072"}]}}}}}, {"name": "StatefulPartitionedCall/efficientnetv2-xl/blocks_61/se/Mean/reduction_indices", "op": "Const", "attr": {"dtype": {"type": "DT_INT32"}, "value": {"tensor": {"dtype": "DT_INT32", "tensorShape": {"dim": [{"size": "2"}]}}}}}, {"name": "StatefulPartitionedCall/efficientnetv2-xl/blocks_61/se/conv2d/Conv2D/ReadVariableOp", "op": "Const", "attr": {"dtype": {"type": "DT_FLOAT"}, "value": {"tensor": {"dtype": "DT_FLOAT", "tensorShape": {"dim": [{"size": "1"}, {"size": "1"}, {"size": "3072"}, {"size": "128"}]}}}}}, {"name": "StatefulPartitionedCall/efficientnetv2-xl/blocks_61/se/conv2d/BiasAdd/ReadVariableOp", "op": "Const", "attr": {"value": {"tensor": {"dtype": "DT_FLOAT", "tensorShape": {"dim": [{"size": "128"}]}}}, "dtype": {"type": "DT_FLOAT"}}}, {"name": "StatefulPartitionedCall/efficientnetv2-xl/blocks_61/se/conv2d_1/Conv2D/ReadVariableOp", "op": "Const", "attr": {"value": {"tensor": {"dtype": "DT_FLOAT", "tensorShape": {"dim": [{"size": "1"}, {"size": "1"}, {"size": "128"}, {"size": "3072"}]}}}, "dtype": {"type": "DT_FLOAT"}}}, {"name": "StatefulPartitionedCall/efficientnetv2-xl/blocks_61/se/conv2d_1/BiasAdd/ReadVariableOp", "op": "Const", "attr": {"dtype": {"type": "DT_FLOAT"}, "value": {"tensor": {"dtype": "DT_FLOAT", "tensorShape": {"dim": [{"size": "3072"}]}}}}}, {"name": "StatefulPartitionedCall/efficientnetv2-xl/blocks_60/se/Mean/reduction_indices", "op": "Const", "attr": {"value": {"tensor": {"dtype": "DT_INT32", "tensorShape": {"dim": [{"size": "2"}]}}}, "dtype": {"type": "DT_INT32"}}}, {"name": "StatefulPartitionedCall/efficientnetv2-xl/blocks_60/se/conv2d/Conv2D/ReadVariableOp", "op": "Const", "attr": {"value": {"tensor": {"dtype": "DT_FLOAT", "tensorShape": {"dim": [{"size": "1"}, {"size": "1"}, {"size": "1536"}, {"size": "64"}]}}}, "dtype": {"type": "DT_FLOAT"}}}, {"name": "StatefulPartitionedCall/efficientnetv2-xl/blocks_60/se/conv2d/BiasAdd/ReadVariableOp", "op": "Const", "attr": {"value": {"tensor": {"dtype": "DT_FLOAT", "tensorShape": {"dim": [{"size": "64"}]}}}, "dtype": {"type": "DT_FLOAT"}}}, {"name": "StatefulPartitionedCall/efficientnetv2-xl/blocks_60/se/conv2d_1/Conv2D/ReadVariableOp", "op": "Const", "attr": {"dtype": {"type": "DT_FLOAT"}, "value": {"tensor": {"dtype": "DT_FLOAT", "tensorShape": {"dim": [{"size": "1"}, {"size": "1"}, {"size": "64"}, {"size": "1536"}]}}}}}, {"name": "StatefulPartitionedCall/efficientnetv2-xl/blocks_60/se/conv2d_1/BiasAdd/ReadVariableOp", "op": "Const", "attr": {"dtype": {"type": "DT_FLOAT"}, "value": {"tensor": {"dtype": "DT_FLOAT", "tensorShape": {"dim": [{"size": "1536"}]}}}}}, {"name": "StatefulPartitionedCall/efficientnetv2-xl/blocks_59/se/Mean/reduction_indices", "op": "Const", "attr": {"value": {"tensor": {"dtype": "DT_INT32", "tensorShape": {"dim": [{"size": "2"}]}}}, "dtype": {"type": "DT_INT32"}}}, {"name": "StatefulPartitionedCall/efficientnetv2-xl/blocks_59/se/conv2d/Conv2D/ReadVariableOp", "op": "Const", "attr": {"dtype": {"type": "DT_FLOAT"}, "value": {"tensor": {"dtype": "DT_FLOAT", "tensorShape": {"dim": [{"size": "1"}, {"size": "1"}, {"size": "1536"}, {"size": "64"}]}}}}}, {"name": "StatefulPartitionedCall/efficientnetv2-xl/blocks_59/se/conv2d/BiasAdd/ReadVariableOp", "op": "Const", "attr": {"value": {"tensor": {"dtype": "DT_FLOAT", "tensorShape": {"dim": [{"size": "64"}]}}}, "dtype": {"type": "DT_FLOAT"}}}, {"name": "StatefulPartitionedCall/efficientnetv2-xl/blocks_59/se/conv2d_1/Conv2D/ReadVariableOp", "op": "Const", "attr": {"dtype": {"type": "DT_FLOAT"}, "value": {"tensor": {"dtype": "DT_FLOAT", "tensorShape": {"dim": [{"size": "1"}, {"size": "1"}, {"size": "64"}, {"size": "1536"}]}}}}}, {"name": "StatefulPartitionedCall/efficientnetv2-xl/blocks_59/se/conv2d_1/BiasAdd/ReadVariableOp", "op": "Const", "attr": {"value": {"tensor": {"dtype": "DT_FLOAT", "tensorShape": {"dim": [{"size": "1536"}]}}}, "dtype": {"type": "DT_FLOAT"}}}, {"name": "StatefulPartitionedCall/efficientnetv2-xl/blocks_58/se/Mean/reduction_indices", "op": "Const", "attr": {"dtype": {"type": "DT_INT32"}, "value": {"tensor": {"dtype": "DT_INT32", "tensorShape": {"dim": [{"size": "2"}]}}}}}, {"name": "StatefulPartitionedCall/efficientnetv2-xl/blocks_58/se/conv2d/Conv2D/ReadVariableOp", "op": "Const", "attr": {"value": {"tensor": {"dtype": "DT_FLOAT", "tensorShape": {"dim": [{"size": "1"}, {"size": "1"}, {"size": "1536"}, {"size": "64"}]}}}, "dtype": {"type": "DT_FLOAT"}}}, {"name": "StatefulPartitionedCall/efficientnetv2-xl/blocks_58/se/conv2d/BiasAdd/ReadVariableOp", "op": "Const", "attr": {"value": {"tensor": {"dtype": "DT_FLOAT", "tensorShape": {"dim": [{"size": "64"}]}}}, "dtype": {"type": "DT_FLOAT"}}}, {"name": "StatefulPartitionedCall/efficientnetv2-xl/blocks_58/se/conv2d_1/Conv2D/ReadVariableOp", "op": "Const", "attr": {"value": {"tensor": {"dtype": "DT_FLOAT", "tensorShape": {"dim": [{"size": "1"}, {"size": "1"}, {"size": "64"}, {"size": "1536"}]}}}, "dtype": {"type": "DT_FLOAT"}}}, {"name": "StatefulPartitionedCall/efficientnetv2-xl/blocks_58/se/conv2d_1/BiasAdd/ReadVariableOp", "op": "Const", "attr": {"value": {"tensor": {"dtype": "DT_FLOAT", "tensorShape": {"dim": [{"size": "1536"}]}}}, "dtype": {"type": "DT_FLOAT"}}}, {"name": "StatefulPartitionedCall/efficientnetv2-xl/blocks_57/se/Mean/reduction_indices", "op": "Const", "attr": {"value": {"tensor": {"dtype": "DT_INT32", "tensorShape": {"dim": [{"size": "2"}]}}}, "dtype": {"type": "DT_INT32"}}}, {"name": "StatefulPartitionedCall/efficientnetv2-xl/blocks_57/se/conv2d/Conv2D/ReadVariableOp", "op": "Const", "attr": {"value": {"tensor": {"dtype": "DT_FLOAT", "tensorShape": {"dim": [{"size": "1"}, {"size": "1"}, {"size": "1536"}, {"size": "64"}]}}}, "dtype": {"type": "DT_FLOAT"}}}, {"name": "StatefulPartitionedCall/efficientnetv2-xl/blocks_57/se/conv2d/BiasAdd/ReadVariableOp", "op": "Const", "attr": {"dtype": {"type": "DT_FLOAT"}, "value": {"tensor": {"dtype": "DT_FLOAT", "tensorShape": {"dim": [{"size": "64"}]}}}}}, {"name": "StatefulPartitionedCall/efficientnetv2-xl/blocks_57/se/conv2d_1/Conv2D/ReadVariableOp", "op": "Const", "attr": {"value": {"tensor": {"dtype": "DT_FLOAT", "tensorShape": {"dim": [{"size": "1"}, {"size": "1"}, {"size": "64"}, {"size": "1536"}]}}}, "dtype": {"type": "DT_FLOAT"}}}, {"name": "StatefulPartitionedCall/efficientnetv2-xl/blocks_57/se/conv2d_1/BiasAdd/ReadVariableOp", "op": "Const", "attr": {"dtype": {"type": "DT_FLOAT"}, "value": {"tensor": {"dtype": "DT_FLOAT", "tensorShape": {"dim": [{"size": "1536"}]}}}}}, {"name": "StatefulPartitionedCall/efficientnetv2-xl/blocks_56/se/Mean/reduction_indices", "op": "Const", "attr": {"value": {"tensor": {"dtype": "DT_INT32", "tensorShape": {"dim": [{"size": "2"}]}}}, "dtype": {"type": "DT_INT32"}}}, {"name": "StatefulPartitionedCall/efficientnetv2-xl/blocks_56/se/conv2d/Conv2D/ReadVariableOp", "op": "Const", "attr": {"value": {"tensor": {"dtype": "DT_FLOAT", "tensorShape": {"dim": [{"size": "1"}, {"size": "1"}, {"size": "1536"}, {"size": "64"}]}}}, "dtype": {"type": "DT_FLOAT"}}}, {"name": "StatefulPartitionedCall/efficientnetv2-xl/blocks_56/se/conv2d/BiasAdd/ReadVariableOp", "op": "Const", "attr": {"value": {"tensor": {"dtype": "DT_FLOAT", "tensorShape": {"dim": [{"size": "64"}]}}}, "dtype": {"type": "DT_FLOAT"}}}, {"name": "StatefulPartitionedCall/efficientnetv2-xl/blocks_56/se/conv2d_1/Conv2D/ReadVariableOp", "op": "Const", "attr": {"dtype": {"type": "DT_FLOAT"}, "value": {"tensor": {"dtype": "DT_FLOAT", "tensorShape": {"dim": [{"size": "1"}, {"size": "1"}, {"size": "64"}, {"size": "1536"}]}}}}}, {"name": "StatefulPartitionedCall/efficientnetv2-xl/blocks_56/se/conv2d_1/BiasAdd/ReadVariableOp", "op": "Const", "attr": {"dtype": {"type": "DT_FLOAT"}, "value": {"tensor": {"dtype": "DT_FLOAT", "tensorShape": {"dim": [{"size": "1536"}]}}}}}, {"name": "StatefulPartitionedCall/efficientnetv2-xl/blocks_55/se/Mean/reduction_indices", "op": "Const", "attr": {"dtype": {"type": "DT_INT32"}, "value": {"tensor": {"dtype": "DT_INT32", "tensorShape": {"dim": [{"size": "2"}]}}}}}, {"name": "StatefulPartitionedCall/efficientnetv2-xl/blocks_55/se/conv2d/Conv2D/ReadVariableOp", "op": "Const", "attr": {"value": {"tensor": {"dtype": "DT_FLOAT", "tensorShape": {"dim": [{"size": "1"}, {"size": "1"}, {"size": "1536"}, {"size": "64"}]}}}, "dtype": {"type": "DT_FLOAT"}}}, {"name": "StatefulPartitionedCall/efficientnetv2-xl/blocks_55/se/conv2d/BiasAdd/ReadVariableOp", "op": "Const", "attr": {"dtype": {"type": "DT_FLOAT"}, "value": {"tensor": {"dtype": "DT_FLOAT", "tensorShape": {"dim": [{"size": "64"}]}}}}}, {"name": "StatefulPartitionedCall/efficientnetv2-xl/blocks_55/se/conv2d_1/Conv2D/ReadVariableOp", "op": "Const", "attr": {"dtype": {"type": "DT_FLOAT"}, "value": {"tensor": {"dtype": "DT_FLOAT", "tensorShape": {"dim": [{"size": "1"}, {"size": "1"}, {"size": "64"}, {"size": "1536"}]}}}}}, {"name": "StatefulPartitionedCall/efficientnetv2-xl/blocks_55/se/conv2d_1/BiasAdd/ReadVariableOp", "op": "Const", "attr": {"dtype": {"type": "DT_FLOAT"}, "value": {"tensor": {"dtype": "DT_FLOAT", "tensorShape": {"dim": [{"size": "1536"}]}}}}}, {"name": "StatefulPartitionedCall/efficientnetv2-xl/blocks_54/se/Mean/reduction_indices", "op": "Const", "attr": {"dtype": {"type": "DT_INT32"}, "value": {"tensor": {"dtype": "DT_INT32", "tensorShape": {"dim": [{"size": "2"}]}}}}}, {"name": "StatefulPartitionedCall/efficientnetv2-xl/blocks_54/se/conv2d/Conv2D/ReadVariableOp", "op": "Const", "attr": {"dtype": {"type": "DT_FLOAT"}, "value": {"tensor": {"dtype": "DT_FLOAT", "tensorShape": {"dim": [{"size": "1"}, {"size": "1"}, {"size": "1536"}, {"size": "64"}]}}}}}, {"name": "StatefulPartitionedCall/efficientnetv2-xl/blocks_54/se/conv2d/BiasAdd/ReadVariableOp", "op": "Const", "attr": {"value": {"tensor": {"dtype": "DT_FLOAT", "tensorShape": {"dim": [{"size": "64"}]}}}, "dtype": {"type": "DT_FLOAT"}}}, {"name": "StatefulPartitionedCall/efficientnetv2-xl/blocks_54/se/conv2d_1/Conv2D/ReadVariableOp", "op": "Const", "attr": {"dtype": {"type": "DT_FLOAT"}, "value": {"tensor": {"dtype": "DT_FLOAT", "tensorShape": {"dim": [{"size": "1"}, {"size": "1"}, {"size": "64"}, {"size": "1536"}]}}}}}, {"name": "StatefulPartitionedCall/efficientnetv2-xl/blocks_54/se/conv2d_1/BiasAdd/ReadVariableOp", "op": "Const", "attr": {"dtype": {"type": "DT_FLOAT"}, "value": {"tensor": {"dtype": "DT_FLOAT", "tensorShape": {"dim": [{"size": "1536"}]}}}}}, {"name": "StatefulPartitionedCall/efficientnetv2-xl/blocks_53/se/Mean/reduction_indices", "op": "Const", "attr": {"value": {"tensor": {"dtype": "DT_INT32", "tensorShape": {"dim": [{"size": "2"}]}}}, "dtype": {"type": "DT_INT32"}}}, {"name": "StatefulPartitionedCall/efficientnetv2-xl/blocks_53/se/conv2d/Conv2D/ReadVariableOp", "op": "Const", "attr": {"dtype": {"type": "DT_FLOAT"}, "value": {"tensor": {"dtype": "DT_FLOAT", "tensorShape": {"dim": [{"size": "1"}, {"size": "1"}, {"size": "1536"}, {"size": "64"}]}}}}}, {"name": "StatefulPartitionedCall/efficientnetv2-xl/blocks_53/se/conv2d/BiasAdd/ReadVariableOp", "op": "Const", "attr": {"dtype": {"type": "DT_FLOAT"}, "value": {"tensor": {"dtype": "DT_FLOAT", "tensorShape": {"dim": [{"size": "64"}]}}}}}, {"name": "StatefulPartitionedCall/efficientnetv2-xl/blocks_53/se/conv2d_1/Conv2D/ReadVariableOp", "op": "Const", "attr": {"value": {"tensor": {"dtype": "DT_FLOAT", "tensorShape": {"dim": [{"size": "1"}, {"size": "1"}, {"size": "64"}, {"size": "1536"}]}}}, "dtype": {"type": "DT_FLOAT"}}}, {"name": "StatefulPartitionedCall/efficientnetv2-xl/blocks_53/se/conv2d_1/BiasAdd/ReadVariableOp", "op": "Const", "attr": {"value": {"tensor": {"dtype": "DT_FLOAT", "tensorShape": {"dim": [{"size": "1536"}]}}}, "dtype": {"type": "DT_FLOAT"}}}, {"name": "StatefulPartitionedCall/efficientnetv2-xl/blocks_52/se/Mean/reduction_indices", "op": "Const", "attr": {"dtype": {"type": "DT_INT32"}, "value": {"tensor": {"dtype": "DT_INT32", "tensorShape": {"dim": [{"size": "2"}]}}}}}, {"name": "StatefulPartitionedCall/efficientnetv2-xl/blocks_52/se/conv2d/Conv2D/ReadVariableOp", "op": "Const", "attr": {"value": {"tensor": {"dtype": "DT_FLOAT", "tensorShape": {"dim": [{"size": "1"}, {"size": "1"}, {"size": "1536"}, {"size": "64"}]}}}, "dtype": {"type": "DT_FLOAT"}}}, {"name": "StatefulPartitionedCall/efficientnetv2-xl/blocks_52/se/conv2d/BiasAdd/ReadVariableOp", "op": "Const", "attr": {"dtype": {"type": "DT_FLOAT"}, "value": {"tensor": {"dtype": "DT_FLOAT", "tensorShape": {"dim": [{"size": "64"}]}}}}}, {"name": "StatefulPartitionedCall/efficientnetv2-xl/blocks_52/se/conv2d_1/Conv2D/ReadVariableOp", "op": "Const", "attr": {"dtype": {"type": "DT_FLOAT"}, "value": {"tensor": {"dtype": "DT_FLOAT", "tensorShape": {"dim": [{"size": "1"}, {"size": "1"}, {"size": "64"}, {"size": "1536"}]}}}}}, {"name": "StatefulPartitionedCall/efficientnetv2-xl/blocks_52/se/conv2d_1/BiasAdd/ReadVariableOp", "op": "Const", "attr": {"dtype": {"type": "DT_FLOAT"}, "value": {"tensor": {"dtype": "DT_FLOAT", "tensorShape": {"dim": [{"size": "1536"}]}}}}}, {"name": "StatefulPartitionedCall/efficientnetv2-xl/blocks_51/se/Mean/reduction_indices", "op": "Const", "attr": {"dtype": {"type": "DT_INT32"}, "value": {"tensor": {"dtype": "DT_INT32", "tensorShape": {"dim": [{"size": "2"}]}}}}}, {"name": "StatefulPartitionedCall/efficientnetv2-xl/blocks_51/se/conv2d/Conv2D/ReadVariableOp", "op": "Const", "attr": {"value": {"tensor": {"dtype": "DT_FLOAT", "tensorShape": {"dim": [{"size": "1"}, {"size": "1"}, {"size": "1536"}, {"size": "64"}]}}}, "dtype": {"type": "DT_FLOAT"}}}, {"name": "StatefulPartitionedCall/efficientnetv2-xl/blocks_51/se/conv2d/BiasAdd/ReadVariableOp", "op": "Const", "attr": {"value": {"tensor": {"dtype": "DT_FLOAT", "tensorShape": {"dim": [{"size": "64"}]}}}, "dtype": {"type": "DT_FLOAT"}}}, {"name": "StatefulPartitionedCall/efficientnetv2-xl/blocks_51/se/conv2d_1/Conv2D/ReadVariableOp", "op": "Const", "attr": {"value": {"tensor": {"dtype": "DT_FLOAT", "tensorShape": {"dim": [{"size": "1"}, {"size": "1"}, {"size": "64"}, {"size": "1536"}]}}}, "dtype": {"type": "DT_FLOAT"}}}, {"name": "StatefulPartitionedCall/efficientnetv2-xl/blocks_51/se/conv2d_1/BiasAdd/ReadVariableOp", "op": "Const", "attr": {"dtype": {"type": "DT_FLOAT"}, "value": {"tensor": {"dtype": "DT_FLOAT", "tensorShape": {"dim": [{"size": "1536"}]}}}}}, {"name": "StatefulPartitionedCall/efficientnetv2-xl/blocks_50/se/Mean/reduction_indices", "op": "Const", "attr": {"value": {"tensor": {"dtype": "DT_INT32", "tensorShape": {"dim": [{"size": "2"}]}}}, "dtype": {"type": "DT_INT32"}}}, {"name": "StatefulPartitionedCall/efficientnetv2-xl/blocks_50/se/conv2d/Conv2D/ReadVariableOp", "op": "Const", "attr": {"value": {"tensor": {"dtype": "DT_FLOAT", "tensorShape": {"dim": [{"size": "1"}, {"size": "1"}, {"size": "1536"}, {"size": "64"}]}}}, "dtype": {"type": "DT_FLOAT"}}}, {"name": "StatefulPartitionedCall/efficientnetv2-xl/blocks_50/se/conv2d/BiasAdd/ReadVariableOp", "op": "Const", "attr": {"dtype": {"type": "DT_FLOAT"}, "value": {"tensor": {"dtype": "DT_FLOAT", "tensorShape": {"dim": [{"size": "64"}]}}}}}, {"name": "StatefulPartitionedCall/efficientnetv2-xl/blocks_50/se/conv2d_1/Conv2D/ReadVariableOp", "op": "Const", "attr": {"dtype": {"type": "DT_FLOAT"}, "value": {"tensor": {"dtype": "DT_FLOAT", "tensorShape": {"dim": [{"size": "1"}, {"size": "1"}, {"size": "64"}, {"size": "1536"}]}}}}}, {"name": "StatefulPartitionedCall/efficientnetv2-xl/blocks_50/se/conv2d_1/BiasAdd/ReadVariableOp", "op": "Const", "attr": {"dtype": {"type": "DT_FLOAT"}, "value": {"tensor": {"dtype": "DT_FLOAT", "tensorShape": {"dim": [{"size": "1536"}]}}}}}, {"name": "StatefulPartitionedCall/efficientnetv2-xl/blocks_49/se/Mean/reduction_indices", "op": "Const", "attr": {"dtype": {"type": "DT_INT32"}, "value": {"tensor": {"dtype": "DT_INT32", "tensorShape": {"dim": [{"size": "2"}]}}}}}, {"name": "StatefulPartitionedCall/efficientnetv2-xl/blocks_49/se/conv2d/Conv2D/ReadVariableOp", "op": "Const", "attr": {"value": {"tensor": {"dtype": "DT_FLOAT", "tensorShape": {"dim": [{"size": "1"}, {"size": "1"}, {"size": "1536"}, {"size": "64"}]}}}, "dtype": {"type": "DT_FLOAT"}}}, {"name": "StatefulPartitionedCall/efficientnetv2-xl/blocks_49/se/conv2d/BiasAdd/ReadVariableOp", "op": "Const", "attr": {"value": {"tensor": {"dtype": "DT_FLOAT", "tensorShape": {"dim": [{"size": "64"}]}}}, "dtype": {"type": "DT_FLOAT"}}}, {"name": "StatefulPartitionedCall/efficientnetv2-xl/blocks_49/se/conv2d_1/Conv2D/ReadVariableOp", "op": "Const", "attr": {"value": {"tensor": {"dtype": "DT_FLOAT", "tensorShape": {"dim": [{"size": "1"}, {"size": "1"}, {"size": "64"}, {"size": "1536"}]}}}, "dtype": {"type": "DT_FLOAT"}}}, {"name": "StatefulPartitionedCall/efficientnetv2-xl/blocks_49/se/conv2d_1/BiasAdd/ReadVariableOp", "op": "Const", "attr": {"value": {"tensor": {"dtype": "DT_FLOAT", "tensorShape": {"dim": [{"size": "1536"}]}}}, "dtype": {"type": "DT_FLOAT"}}}, {"name": "StatefulPartitionedCall/efficientnetv2-xl/blocks_48/se/Mean/reduction_indices", "op": "Const", "attr": {"value": {"tensor": {"dtype": "DT_INT32", "tensorShape": {"dim": [{"size": "2"}]}}}, "dtype": {"type": "DT_INT32"}}}, {"name": "StatefulPartitionedCall/efficientnetv2-xl/blocks_48/se/conv2d/Conv2D/ReadVariableOp", "op": "Const", "attr": {"dtype": {"type": "DT_FLOAT"}, "value": {"tensor": {"dtype": "DT_FLOAT", "tensorShape": {"dim": [{"size": "1"}, {"size": "1"}, {"size": "1536"}, {"size": "64"}]}}}}}, {"name": "StatefulPartitionedCall/efficientnetv2-xl/blocks_48/se/conv2d/BiasAdd/ReadVariableOp", "op": "Const", "attr": {"dtype": {"type": "DT_FLOAT"}, "value": {"tensor": {"dtype": "DT_FLOAT", "tensorShape": {"dim": [{"size": "64"}]}}}}}, {"name": "StatefulPartitionedCall/efficientnetv2-xl/blocks_48/se/conv2d_1/Conv2D/ReadVariableOp", "op": "Const", "attr": {"value": {"tensor": {"dtype": "DT_FLOAT", "tensorShape": {"dim": [{"size": "1"}, {"size": "1"}, {"size": "64"}, {"size": "1536"}]}}}, "dtype": {"type": "DT_FLOAT"}}}, {"name": "StatefulPartitionedCall/efficientnetv2-xl/blocks_48/se/conv2d_1/BiasAdd/ReadVariableOp", "op": "Const", "attr": {"value": {"tensor": {"dtype": "DT_FLOAT", "tensorShape": {"dim": [{"size": "1536"}]}}}, "dtype": {"type": "DT_FLOAT"}}}, {"name": "StatefulPartitionedCall/efficientnetv2-xl/blocks_47/se/Mean/reduction_indices", "op": "Const", "attr": {"dtype": {"type": "DT_INT32"}, "value": {"tensor": {"dtype": "DT_INT32", "tensorShape": {"dim": [{"size": "2"}]}}}}}, {"name": "StatefulPartitionedCall/efficientnetv2-xl/blocks_47/se/conv2d/Conv2D/ReadVariableOp", "op": "Const", "attr": {"value": {"tensor": {"dtype": "DT_FLOAT", "tensorShape": {"dim": [{"size": "1"}, {"size": "1"}, {"size": "1536"}, {"size": "64"}]}}}, "dtype": {"type": "DT_FLOAT"}}}, {"name": "StatefulPartitionedCall/efficientnetv2-xl/blocks_47/se/conv2d/BiasAdd/ReadVariableOp", "op": "Const", "attr": {"value": {"tensor": {"dtype": "DT_FLOAT", "tensorShape": {"dim": [{"size": "64"}]}}}, "dtype": {"type": "DT_FLOAT"}}}, {"name": "StatefulPartitionedCall/efficientnetv2-xl/blocks_47/se/conv2d_1/Conv2D/ReadVariableOp", "op": "Const", "attr": {"dtype": {"type": "DT_FLOAT"}, "value": {"tensor": {"dtype": "DT_FLOAT", "tensorShape": {"dim": [{"size": "1"}, {"size": "1"}, {"size": "64"}, {"size": "1536"}]}}}}}, {"name": "StatefulPartitionedCall/efficientnetv2-xl/blocks_47/se/conv2d_1/BiasAdd/ReadVariableOp", "op": "Const", "attr": {"dtype": {"type": "DT_FLOAT"}, "value": {"tensor": {"dtype": "DT_FLOAT", "tensorShape": {"dim": [{"size": "1536"}]}}}}}, {"name": "StatefulPartitionedCall/efficientnetv2-xl/blocks_46/se/Mean/reduction_indices", "op": "Const", "attr": {"value": {"tensor": {"dtype": "DT_INT32", "tensorShape": {"dim": [{"size": "2"}]}}}, "dtype": {"type": "DT_INT32"}}}, {"name": "StatefulPartitionedCall/efficientnetv2-xl/blocks_46/se/conv2d/Conv2D/ReadVariableOp", "op": "Const", "attr": {"value": {"tensor": {"dtype": "DT_FLOAT", "tensorShape": {"dim": [{"size": "1"}, {"size": "1"}, {"size": "1536"}, {"size": "64"}]}}}, "dtype": {"type": "DT_FLOAT"}}}, {"name": "StatefulPartitionedCall/efficientnetv2-xl/blocks_46/se/conv2d/BiasAdd/ReadVariableOp", "op": "Const", "attr": {"value": {"tensor": {"dtype": "DT_FLOAT", "tensorShape": {"dim": [{"size": "64"}]}}}, "dtype": {"type": "DT_FLOAT"}}}, {"name": "StatefulPartitionedCall/efficientnetv2-xl/blocks_46/se/conv2d_1/Conv2D/ReadVariableOp", "op": "Const", "attr": {"value": {"tensor": {"dtype": "DT_FLOAT", "tensorShape": {"dim": [{"size": "1"}, {"size": "1"}, {"size": "64"}, {"size": "1536"}]}}}, "dtype": {"type": "DT_FLOAT"}}}, {"name": "StatefulPartitionedCall/efficientnetv2-xl/blocks_46/se/conv2d_1/BiasAdd/ReadVariableOp", "op": "Const", "attr": {"dtype": {"type": "DT_FLOAT"}, "value": {"tensor": {"dtype": "DT_FLOAT", "tensorShape": {"dim": [{"size": "1536"}]}}}}}, {"name": "StatefulPartitionedCall/efficientnetv2-xl/blocks_45/se/Mean/reduction_indices", "op": "Const", "attr": {"dtype": {"type": "DT_INT32"}, "value": {"tensor": {"dtype": "DT_INT32", "tensorShape": {"dim": [{"size": "2"}]}}}}}, {"name": "StatefulPartitionedCall/efficientnetv2-xl/blocks_45/se/conv2d/Conv2D/ReadVariableOp", "op": "Const", "attr": {"dtype": {"type": "DT_FLOAT"}, "value": {"tensor": {"dtype": "DT_FLOAT", "tensorShape": {"dim": [{"size": "1"}, {"size": "1"}, {"size": "1536"}, {"size": "64"}]}}}}}, {"name": "StatefulPartitionedCall/efficientnetv2-xl/blocks_45/se/conv2d/BiasAdd/ReadVariableOp", "op": "Const", "attr": {"value": {"tensor": {"dtype": "DT_FLOAT", "tensorShape": {"dim": [{"size": "64"}]}}}, "dtype": {"type": "DT_FLOAT"}}}, {"name": "StatefulPartitionedCall/efficientnetv2-xl/blocks_45/se/conv2d_1/Conv2D/ReadVariableOp", "op": "Const", "attr": {"value": {"tensor": {"dtype": "DT_FLOAT", "tensorShape": {"dim": [{"size": "1"}, {"size": "1"}, {"size": "64"}, {"size": "1536"}]}}}, "dtype": {"type": "DT_FLOAT"}}}, {"name": "StatefulPartitionedCall/efficientnetv2-xl/blocks_45/se/conv2d_1/BiasAdd/ReadVariableOp", "op": "Const", "attr": {"dtype": {"type": "DT_FLOAT"}, "value": {"tensor": {"dtype": "DT_FLOAT", "tensorShape": {"dim": [{"size": "1536"}]}}}}}, {"name": "StatefulPartitionedCall/efficientnetv2-xl/blocks_44/se/Mean/reduction_indices", "op": "Const", "attr": {"value": {"tensor": {"dtype": "DT_INT32", "tensorShape": {"dim": [{"size": "2"}]}}}, "dtype": {"type": "DT_INT32"}}}, {"name": "StatefulPartitionedCall/efficientnetv2-xl/blocks_44/se/conv2d/Conv2D/ReadVariableOp", "op": "Const", "attr": {"dtype": {"type": "DT_FLOAT"}, "value": {"tensor": {"dtype": "DT_FLOAT", "tensorShape": {"dim": [{"size": "1"}, {"size": "1"}, {"size": "1536"}, {"size": "64"}]}}}}}, {"name": "StatefulPartitionedCall/efficientnetv2-xl/blocks_44/se/conv2d/BiasAdd/ReadVariableOp", "op": "Const", "attr": {"dtype": {"type": "DT_FLOAT"}, "value": {"tensor": {"dtype": "DT_FLOAT", "tensorShape": {"dim": [{"size": "64"}]}}}}}, {"name": "StatefulPartitionedCall/efficientnetv2-xl/blocks_44/se/conv2d_1/Conv2D/ReadVariableOp", "op": "Const", "attr": {"value": {"tensor": {"dtype": "DT_FLOAT", "tensorShape": {"dim": [{"size": "1"}, {"size": "1"}, {"size": "64"}, {"size": "1536"}]}}}, "dtype": {"type": "DT_FLOAT"}}}, {"name": "StatefulPartitionedCall/efficientnetv2-xl/blocks_44/se/conv2d_1/BiasAdd/ReadVariableOp", "op": "Const", "attr": {"dtype": {"type": "DT_FLOAT"}, "value": {"tensor": {"dtype": "DT_FLOAT", "tensorShape": {"dim": [{"size": "1536"}]}}}}}, {"name": "StatefulPartitionedCall/efficientnetv2-xl/blocks_43/se/Mean/reduction_indices", "op": "Const", "attr": {"value": {"tensor": {"dtype": "DT_INT32", "tensorShape": {"dim": [{"size": "2"}]}}}, "dtype": {"type": "DT_INT32"}}}, {"name": "StatefulPartitionedCall/efficientnetv2-xl/blocks_43/se/conv2d/Conv2D/ReadVariableOp", "op": "Const", "attr": {"value": {"tensor": {"dtype": "DT_FLOAT", "tensorShape": {"dim": [{"size": "1"}, {"size": "1"}, {"size": "1536"}, {"size": "64"}]}}}, "dtype": {"type": "DT_FLOAT"}}}, {"name": "StatefulPartitionedCall/efficientnetv2-xl/blocks_43/se/conv2d/BiasAdd/ReadVariableOp", "op": "Const", "attr": {"value": {"tensor": {"dtype": "DT_FLOAT", "tensorShape": {"dim": [{"size": "64"}]}}}, "dtype": {"type": "DT_FLOAT"}}}, {"name": "StatefulPartitionedCall/efficientnetv2-xl/blocks_43/se/conv2d_1/Conv2D/ReadVariableOp", "op": "Const", "attr": {"value": {"tensor": {"dtype": "DT_FLOAT", "tensorShape": {"dim": [{"size": "1"}, {"size": "1"}, {"size": "64"}, {"size": "1536"}]}}}, "dtype": {"type": "DT_FLOAT"}}}, {"name": "StatefulPartitionedCall/efficientnetv2-xl/blocks_43/se/conv2d_1/BiasAdd/ReadVariableOp", "op": "Const", "attr": {"dtype": {"type": "DT_FLOAT"}, "value": {"tensor": {"dtype": "DT_FLOAT", "tensorShape": {"dim": [{"size": "1536"}]}}}}}, {"name": "StatefulPartitionedCall/efficientnetv2-xl/blocks_42/se/Mean/reduction_indices", "op": "Const", "attr": {"value": {"tensor": {"dtype": "DT_INT32", "tensorShape": {"dim": [{"size": "2"}]}}}, "dtype": {"type": "DT_INT32"}}}, {"name": "StatefulPartitionedCall/efficientnetv2-xl/blocks_42/se/conv2d/Conv2D/ReadVariableOp", "op": "Const", "attr": {"value": {"tensor": {"dtype": "DT_FLOAT", "tensorShape": {"dim": [{"size": "1"}, {"size": "1"}, {"size": "1536"}, {"size": "64"}]}}}, "dtype": {"type": "DT_FLOAT"}}}, {"name": "StatefulPartitionedCall/efficientnetv2-xl/blocks_42/se/conv2d/BiasAdd/ReadVariableOp", "op": "Const", "attr": {"value": {"tensor": {"dtype": "DT_FLOAT", "tensorShape": {"dim": [{"size": "64"}]}}}, "dtype": {"type": "DT_FLOAT"}}}, {"name": "StatefulPartitionedCall/efficientnetv2-xl/blocks_42/se/conv2d_1/Conv2D/ReadVariableOp", "op": "Const", "attr": {"dtype": {"type": "DT_FLOAT"}, "value": {"tensor": {"dtype": "DT_FLOAT", "tensorShape": {"dim": [{"size": "1"}, {"size": "1"}, {"size": "64"}, {"size": "1536"}]}}}}}, {"name": "StatefulPartitionedCall/efficientnetv2-xl/blocks_42/se/conv2d_1/BiasAdd/ReadVariableOp", "op": "Const", "attr": {"value": {"tensor": {"dtype": "DT_FLOAT", "tensorShape": {"dim": [{"size": "1536"}]}}}, "dtype": {"type": "DT_FLOAT"}}}, {"name": "StatefulPartitionedCall/efficientnetv2-xl/blocks_41/se/Mean/reduction_indices", "op": "Const", "attr": {"value": {"tensor": {"dtype": "DT_INT32", "tensorShape": {"dim": [{"size": "2"}]}}}, "dtype": {"type": "DT_INT32"}}}, {"name": "StatefulPartitionedCall/efficientnetv2-xl/blocks_41/se/conv2d/Conv2D/ReadVariableOp", "op": "Const", "attr": {"dtype": {"type": "DT_FLOAT"}, "value": {"tensor": {"dtype": "DT_FLOAT", "tensorShape": {"dim": [{"size": "1"}, {"size": "1"}, {"size": "1536"}, {"size": "64"}]}}}}}, {"name": "StatefulPartitionedCall/efficientnetv2-xl/blocks_41/se/conv2d/BiasAdd/ReadVariableOp", "op": "Const", "attr": {"dtype": {"type": "DT_FLOAT"}, "value": {"tensor": {"dtype": "DT_FLOAT", "tensorShape": {"dim": [{"size": "64"}]}}}}}, {"name": "StatefulPartitionedCall/efficientnetv2-xl/blocks_41/se/conv2d_1/Conv2D/ReadVariableOp", "op": "Const", "attr": {"dtype": {"type": "DT_FLOAT"}, "value": {"tensor": {"dtype": "DT_FLOAT", "tensorShape": {"dim": [{"size": "1"}, {"size": "1"}, {"size": "64"}, {"size": "1536"}]}}}}}, {"name": "StatefulPartitionedCall/efficientnetv2-xl/blocks_41/se/conv2d_1/BiasAdd/ReadVariableOp", "op": "Const", "attr": {"value": {"tensor": {"dtype": "DT_FLOAT", "tensorShape": {"dim": [{"size": "1536"}]}}}, "dtype": {"type": "DT_FLOAT"}}}, {"name": "StatefulPartitionedCall/efficientnetv2-xl/blocks_40/se/Mean/reduction_indices", "op": "Const", "attr": {"dtype": {"type": "DT_INT32"}, "value": {"tensor": {"dtype": "DT_INT32", "tensorShape": {"dim": [{"size": "2"}]}}}}}, {"name": "StatefulPartitionedCall/efficientnetv2-xl/blocks_40/se/conv2d/Conv2D/ReadVariableOp", "op": "Const", "attr": {"value": {"tensor": {"dtype": "DT_FLOAT", "tensorShape": {"dim": [{"size": "1"}, {"size": "1"}, {"size": "1536"}, {"size": "64"}]}}}, "dtype": {"type": "DT_FLOAT"}}}, {"name": "StatefulPartitionedCall/efficientnetv2-xl/blocks_40/se/conv2d/BiasAdd/ReadVariableOp", "op": "Const", "attr": {"dtype": {"type": "DT_FLOAT"}, "value": {"tensor": {"dtype": "DT_FLOAT", "tensorShape": {"dim": [{"size": "64"}]}}}}}, {"name": "StatefulPartitionedCall/efficientnetv2-xl/blocks_40/se/conv2d_1/Conv2D/ReadVariableOp", "op": "Const", "attr": {"value": {"tensor": {"dtype": "DT_FLOAT", "tensorShape": {"dim": [{"size": "1"}, {"size": "1"}, {"size": "64"}, {"size": "1536"}]}}}, "dtype": {"type": "DT_FLOAT"}}}, {"name": "StatefulPartitionedCall/efficientnetv2-xl/blocks_40/se/conv2d_1/BiasAdd/ReadVariableOp", "op": "Const", "attr": {"value": {"tensor": {"dtype": "DT_FLOAT", "tensorShape": {"dim": [{"size": "1536"}]}}}, "dtype": {"type": "DT_FLOAT"}}}, {"name": "StatefulPartitionedCall/efficientnetv2-xl/blocks_39/se/Mean/reduction_indices", "op": "Const", "attr": {"value": {"tensor": {"dtype": "DT_INT32", "tensorShape": {"dim": [{"size": "2"}]}}}, "dtype": {"type": "DT_INT32"}}}, {"name": "StatefulPartitionedCall/efficientnetv2-xl/blocks_39/se/conv2d/Conv2D/ReadVariableOp", "op": "Const", "attr": {"value": {"tensor": {"dtype": "DT_FLOAT", "tensorShape": {"dim": [{"size": "1"}, {"size": "1"}, {"size": "1536"}, {"size": "64"}]}}}, "dtype": {"type": "DT_FLOAT"}}}, {"name": "StatefulPartitionedCall/efficientnetv2-xl/blocks_39/se/conv2d/BiasAdd/ReadVariableOp", "op": "Const", "attr": {"value": {"tensor": {"dtype": "DT_FLOAT", "tensorShape": {"dim": [{"size": "64"}]}}}, "dtype": {"type": "DT_FLOAT"}}}, {"name": "StatefulPartitionedCall/efficientnetv2-xl/blocks_39/se/conv2d_1/Conv2D/ReadVariableOp", "op": "Const", "attr": {"value": {"tensor": {"dtype": "DT_FLOAT", "tensorShape": {"dim": [{"size": "1"}, {"size": "1"}, {"size": "64"}, {"size": "1536"}]}}}, "dtype": {"type": "DT_FLOAT"}}}, {"name": "StatefulPartitionedCall/efficientnetv2-xl/blocks_39/se/conv2d_1/BiasAdd/ReadVariableOp", "op": "Const", "attr": {"value": {"tensor": {"dtype": "DT_FLOAT", "tensorShape": {"dim": [{"size": "1536"}]}}}, "dtype": {"type": "DT_FLOAT"}}}, {"name": "StatefulPartitionedCall/efficientnetv2-xl/blocks_38/se/Mean/reduction_indices", "op": "Const", "attr": {"dtype": {"type": "DT_INT32"}, "value": {"tensor": {"dtype": "DT_INT32", "tensorShape": {"dim": [{"size": "2"}]}}}}}, {"name": "StatefulPartitionedCall/efficientnetv2-xl/blocks_38/se/conv2d/Conv2D/ReadVariableOp", "op": "Const", "attr": {"dtype": {"type": "DT_FLOAT"}, "value": {"tensor": {"dtype": "DT_FLOAT", "tensorShape": {"dim": [{"size": "1"}, {"size": "1"}, {"size": "1536"}, {"size": "64"}]}}}}}, {"name": "StatefulPartitionedCall/efficientnetv2-xl/blocks_38/se/conv2d/BiasAdd/ReadVariableOp", "op": "Const", "attr": {"dtype": {"type": "DT_FLOAT"}, "value": {"tensor": {"dtype": "DT_FLOAT", "tensorShape": {"dim": [{"size": "64"}]}}}}}, {"name": "StatefulPartitionedCall/efficientnetv2-xl/blocks_38/se/conv2d_1/Conv2D/ReadVariableOp", "op": "Const", "attr": {"value": {"tensor": {"dtype": "DT_FLOAT", "tensorShape": {"dim": [{"size": "1"}, {"size": "1"}, {"size": "64"}, {"size": "1536"}]}}}, "dtype": {"type": "DT_FLOAT"}}}, {"name": "StatefulPartitionedCall/efficientnetv2-xl/blocks_38/se/conv2d_1/BiasAdd/ReadVariableOp", "op": "Const", "attr": {"value": {"tensor": {"dtype": "DT_FLOAT", "tensorShape": {"dim": [{"size": "1536"}]}}}, "dtype": {"type": "DT_FLOAT"}}}, {"name": "StatefulPartitionedCall/efficientnetv2-xl/blocks_37/se/Mean/reduction_indices", "op": "Const", "attr": {"value": {"tensor": {"dtype": "DT_INT32", "tensorShape": {"dim": [{"size": "2"}]}}}, "dtype": {"type": "DT_INT32"}}}, {"name": "StatefulPartitionedCall/efficientnetv2-xl/blocks_37/se/conv2d/Conv2D/ReadVariableOp", "op": "Const", "attr": {"dtype": {"type": "DT_FLOAT"}, "value": {"tensor": {"dtype": "DT_FLOAT", "tensorShape": {"dim": [{"size": "1"}, {"size": "1"}, {"size": "1536"}, {"size": "64"}]}}}}}, {"name": "StatefulPartitionedCall/efficientnetv2-xl/blocks_37/se/conv2d/BiasAdd/ReadVariableOp", "op": "Const", "attr": {"value": {"tensor": {"dtype": "DT_FLOAT", "tensorShape": {"dim": [{"size": "64"}]}}}, "dtype": {"type": "DT_FLOAT"}}}, {"name": "StatefulPartitionedCall/efficientnetv2-xl/blocks_37/se/conv2d_1/Conv2D/ReadVariableOp", "op": "Const", "attr": {"dtype": {"type": "DT_FLOAT"}, "value": {"tensor": {"dtype": "DT_FLOAT", "tensorShape": {"dim": [{"size": "1"}, {"size": "1"}, {"size": "64"}, {"size": "1536"}]}}}}}, {"name": "StatefulPartitionedCall/efficientnetv2-xl/blocks_37/se/conv2d_1/BiasAdd/ReadVariableOp", "op": "Const", "attr": {"value": {"tensor": {"dtype": "DT_FLOAT", "tensorShape": {"dim": [{"size": "1536"}]}}}, "dtype": {"type": "DT_FLOAT"}}}, {"name": "StatefulPartitionedCall/efficientnetv2-xl/blocks_36/se/Mean/reduction_indices", "op": "Const", "attr": {"value": {"tensor": {"dtype": "DT_INT32", "tensorShape": {"dim": [{"size": "2"}]}}}, "dtype": {"type": "DT_INT32"}}}, {"name": "StatefulPartitionedCall/efficientnetv2-xl/blocks_36/se/conv2d/Conv2D/ReadVariableOp", "op": "Const", "attr": {"value": {"tensor": {"dtype": "DT_FLOAT", "tensorShape": {"dim": [{"size": "1"}, {"size": "1"}, {"size": "1152"}, {"size": "48"}]}}}, "dtype": {"type": "DT_FLOAT"}}}, {"name": "StatefulPartitionedCall/efficientnetv2-xl/blocks_36/se/conv2d/BiasAdd/ReadVariableOp", "op": "Const", "attr": {"value": {"tensor": {"dtype": "DT_FLOAT", "tensorShape": {"dim": [{"size": "48"}]}}}, "dtype": {"type": "DT_FLOAT"}}}, {"name": "StatefulPartitionedCall/efficientnetv2-xl/blocks_36/se/conv2d_1/Conv2D/ReadVariableOp", "op": "Const", "attr": {"value": {"tensor": {"dtype": "DT_FLOAT", "tensorShape": {"dim": [{"size": "1"}, {"size": "1"}, {"size": "48"}, {"size": "1152"}]}}}, "dtype": {"type": "DT_FLOAT"}}}, {"name": "StatefulPartitionedCall/efficientnetv2-xl/blocks_36/se/conv2d_1/BiasAdd/ReadVariableOp", "op": "Const", "attr": {"value": {"tensor": {"dtype": "DT_FLOAT", "tensorShape": {"dim": [{"size": "1152"}]}}}, "dtype": {"type": "DT_FLOAT"}}}, {"name": "StatefulPartitionedCall/efficientnetv2-xl/blocks_35/se/Mean/reduction_indices", "op": "Const", "attr": {"value": {"tensor": {"dtype": "DT_INT32", "tensorShape": {"dim": [{"size": "2"}]}}}, "dtype": {"type": "DT_INT32"}}}, {"name": "StatefulPartitionedCall/efficientnetv2-xl/blocks_35/se/conv2d/Conv2D/ReadVariableOp", "op": "Const", "attr": {"value": {"tensor": {"dtype": "DT_FLOAT", "tensorShape": {"dim": [{"size": "1"}, {"size": "1"}, {"size": "768"}, {"size": "48"}]}}}, "dtype": {"type": "DT_FLOAT"}}}, {"name": "StatefulPartitionedCall/efficientnetv2-xl/blocks_35/se/conv2d/BiasAdd/ReadVariableOp", "op": "Const", "attr": {"value": {"tensor": {"dtype": "DT_FLOAT", "tensorShape": {"dim": [{"size": "48"}]}}}, "dtype": {"type": "DT_FLOAT"}}}, {"name": "StatefulPartitionedCall/efficientnetv2-xl/blocks_35/se/conv2d_1/Conv2D/ReadVariableOp", "op": "Const", "attr": {"value": {"tensor": {"dtype": "DT_FLOAT", "tensorShape": {"dim": [{"size": "1"}, {"size": "1"}, {"size": "48"}, {"size": "768"}]}}}, "dtype": {"type": "DT_FLOAT"}}}, {"name": "StatefulPartitionedCall/efficientnetv2-xl/blocks_35/se/conv2d_1/BiasAdd/ReadVariableOp", "op": "Const", "attr": {"dtype": {"type": "DT_FLOAT"}, "value": {"tensor": {"dtype": "DT_FLOAT", "tensorShape": {"dim": [{"size": "768"}]}}}}}, {"name": "StatefulPartitionedCall/efficientnetv2-xl/blocks_34/se/Mean/reduction_indices", "op": "Const", "attr": {"dtype": {"type": "DT_INT32"}, "value": {"tensor": {"dtype": "DT_INT32", "tensorShape": {"dim": [{"size": "2"}]}}}}}, {"name": "StatefulPartitionedCall/efficientnetv2-xl/blocks_34/se/conv2d/Conv2D/ReadVariableOp", "op": "Const", "attr": {"value": {"tensor": {"dtype": "DT_FLOAT", "tensorShape": {"dim": [{"size": "1"}, {"size": "1"}, {"size": "768"}, {"size": "48"}]}}}, "dtype": {"type": "DT_FLOAT"}}}, {"name": "StatefulPartitionedCall/efficientnetv2-xl/blocks_34/se/conv2d/BiasAdd/ReadVariableOp", "op": "Const", "attr": {"value": {"tensor": {"dtype": "DT_FLOAT", "tensorShape": {"dim": [{"size": "48"}]}}}, "dtype": {"type": "DT_FLOAT"}}}, {"name": "StatefulPartitionedCall/efficientnetv2-xl/blocks_34/se/conv2d_1/Conv2D/ReadVariableOp", "op": "Const", "attr": {"dtype": {"type": "DT_FLOAT"}, "value": {"tensor": {"dtype": "DT_FLOAT", "tensorShape": {"dim": [{"size": "1"}, {"size": "1"}, {"size": "48"}, {"size": "768"}]}}}}}, {"name": "StatefulPartitionedCall/efficientnetv2-xl/blocks_34/se/conv2d_1/BiasAdd/ReadVariableOp", "op": "Const", "attr": {"value": {"tensor": {"dtype": "DT_FLOAT", "tensorShape": {"dim": [{"size": "768"}]}}}, "dtype": {"type": "DT_FLOAT"}}}, {"name": "StatefulPartitionedCall/efficientnetv2-xl/blocks_33/se/Mean/reduction_indices", "op": "Const", "attr": {"dtype": {"type": "DT_INT32"}, "value": {"tensor": {"dtype": "DT_INT32", "tensorShape": {"dim": [{"size": "2"}]}}}}}, {"name": "StatefulPartitionedCall/efficientnetv2-xl/blocks_33/se/conv2d/Conv2D/ReadVariableOp", "op": "Const", "attr": {"value": {"tensor": {"dtype": "DT_FLOAT", "tensorShape": {"dim": [{"size": "1"}, {"size": "1"}, {"size": "768"}, {"size": "48"}]}}}, "dtype": {"type": "DT_FLOAT"}}}, {"name": "StatefulPartitionedCall/efficientnetv2-xl/blocks_33/se/conv2d/BiasAdd/ReadVariableOp", "op": "Const", "attr": {"value": {"tensor": {"dtype": "DT_FLOAT", "tensorShape": {"dim": [{"size": "48"}]}}}, "dtype": {"type": "DT_FLOAT"}}}, {"name": "StatefulPartitionedCall/efficientnetv2-xl/blocks_33/se/conv2d_1/Conv2D/ReadVariableOp", "op": "Const", "attr": {"value": {"tensor": {"dtype": "DT_FLOAT", "tensorShape": {"dim": [{"size": "1"}, {"size": "1"}, {"size": "48"}, {"size": "768"}]}}}, "dtype": {"type": "DT_FLOAT"}}}, {"name": "StatefulPartitionedCall/efficientnetv2-xl/blocks_33/se/conv2d_1/BiasAdd/ReadVariableOp", "op": "Const", "attr": {"value": {"tensor": {"dtype": "DT_FLOAT", "tensorShape": {"dim": [{"size": "768"}]}}}, "dtype": {"type": "DT_FLOAT"}}}, {"name": "StatefulPartitionedCall/efficientnetv2-xl/blocks_32/se/Mean/reduction_indices", "op": "Const", "attr": {"value": {"tensor": {"dtype": "DT_INT32", "tensorShape": {"dim": [{"size": "2"}]}}}, "dtype": {"type": "DT_INT32"}}}, {"name": "StatefulPartitionedCall/efficientnetv2-xl/blocks_32/se/conv2d/Conv2D/ReadVariableOp", "op": "Const", "attr": {"value": {"tensor": {"dtype": "DT_FLOAT", "tensorShape": {"dim": [{"size": "1"}, {"size": "1"}, {"size": "768"}, {"size": "48"}]}}}, "dtype": {"type": "DT_FLOAT"}}}, {"name": "StatefulPartitionedCall/efficientnetv2-xl/blocks_32/se/conv2d/BiasAdd/ReadVariableOp", "op": "Const", "attr": {"dtype": {"type": "DT_FLOAT"}, "value": {"tensor": {"dtype": "DT_FLOAT", "tensorShape": {"dim": [{"size": "48"}]}}}}}, {"name": "StatefulPartitionedCall/efficientnetv2-xl/blocks_32/se/conv2d_1/Conv2D/ReadVariableOp", "op": "Const", "attr": {"dtype": {"type": "DT_FLOAT"}, "value": {"tensor": {"dtype": "DT_FLOAT", "tensorShape": {"dim": [{"size": "1"}, {"size": "1"}, {"size": "48"}, {"size": "768"}]}}}}}, {"name": "StatefulPartitionedCall/efficientnetv2-xl/blocks_32/se/conv2d_1/BiasAdd/ReadVariableOp", "op": "Const", "attr": {"value": {"tensor": {"dtype": "DT_FLOAT", "tensorShape": {"dim": [{"size": "768"}]}}}, "dtype": {"type": "DT_FLOAT"}}}, {"name": "StatefulPartitionedCall/efficientnetv2-xl/blocks_31/se/Mean/reduction_indices", "op": "Const", "attr": {"dtype": {"type": "DT_INT32"}, "value": {"tensor": {"dtype": "DT_INT32", "tensorShape": {"dim": [{"size": "2"}]}}}}}, {"name": "StatefulPartitionedCall/efficientnetv2-xl/blocks_31/se/conv2d/Conv2D/ReadVariableOp", "op": "Const", "attr": {"value": {"tensor": {"dtype": "DT_FLOAT", "tensorShape": {"dim": [{"size": "1"}, {"size": "1"}, {"size": "768"}, {"size": "48"}]}}}, "dtype": {"type": "DT_FLOAT"}}}, {"name": "StatefulPartitionedCall/efficientnetv2-xl/blocks_31/se/conv2d/BiasAdd/ReadVariableOp", "op": "Const", "attr": {"value": {"tensor": {"dtype": "DT_FLOAT", "tensorShape": {"dim": [{"size": "48"}]}}}, "dtype": {"type": "DT_FLOAT"}}}, {"name": "StatefulPartitionedCall/efficientnetv2-xl/blocks_31/se/conv2d_1/Conv2D/ReadVariableOp", "op": "Const", "attr": {"dtype": {"type": "DT_FLOAT"}, "value": {"tensor": {"dtype": "DT_FLOAT", "tensorShape": {"dim": [{"size": "1"}, {"size": "1"}, {"size": "48"}, {"size": "768"}]}}}}}, {"name": "StatefulPartitionedCall/efficientnetv2-xl/blocks_31/se/conv2d_1/BiasAdd/ReadVariableOp", "op": "Const", "attr": {"dtype": {"type": "DT_FLOAT"}, "value": {"tensor": {"dtype": "DT_FLOAT", "tensorShape": {"dim": [{"size": "768"}]}}}}}, {"name": "StatefulPartitionedCall/efficientnetv2-xl/blocks_30/se/Mean/reduction_indices", "op": "Const", "attr": {"value": {"tensor": {"dtype": "DT_INT32", "tensorShape": {"dim": [{"size": "2"}]}}}, "dtype": {"type": "DT_INT32"}}}, {"name": "StatefulPartitionedCall/efficientnetv2-xl/blocks_30/se/conv2d/Conv2D/ReadVariableOp", "op": "Const", "attr": {"value": {"tensor": {"dtype": "DT_FLOAT", "tensorShape": {"dim": [{"size": "1"}, {"size": "1"}, {"size": "768"}, {"size": "48"}]}}}, "dtype": {"type": "DT_FLOAT"}}}, {"name": "StatefulPartitionedCall/efficientnetv2-xl/blocks_30/se/conv2d/BiasAdd/ReadVariableOp", "op": "Const", "attr": {"dtype": {"type": "DT_FLOAT"}, "value": {"tensor": {"dtype": "DT_FLOAT", "tensorShape": {"dim": [{"size": "48"}]}}}}}, {"name": "StatefulPartitionedCall/efficientnetv2-xl/blocks_30/se/conv2d_1/Conv2D/ReadVariableOp", "op": "Const", "attr": {"dtype": {"type": "DT_FLOAT"}, "value": {"tensor": {"dtype": "DT_FLOAT", "tensorShape": {"dim": [{"size": "1"}, {"size": "1"}, {"size": "48"}, {"size": "768"}]}}}}}, {"name": "StatefulPartitionedCall/efficientnetv2-xl/blocks_30/se/conv2d_1/BiasAdd/ReadVariableOp", "op": "Const", "attr": {"value": {"tensor": {"dtype": "DT_FLOAT", "tensorShape": {"dim": [{"size": "768"}]}}}, "dtype": {"type": "DT_FLOAT"}}}, {"name": "StatefulPartitionedCall/efficientnetv2-xl/blocks_29/se/Mean/reduction_indices", "op": "Const", "attr": {"value": {"tensor": {"dtype": "DT_INT32", "tensorShape": {"dim": [{"size": "2"}]}}}, "dtype": {"type": "DT_INT32"}}}, {"name": "StatefulPartitionedCall/efficientnetv2-xl/blocks_29/se/conv2d/Conv2D/ReadVariableOp", "op": "Const", "attr": {"dtype": {"type": "DT_FLOAT"}, "value": {"tensor": {"dtype": "DT_FLOAT", "tensorShape": {"dim": [{"size": "1"}, {"size": "1"}, {"size": "768"}, {"size": "48"}]}}}}}, {"name": "StatefulPartitionedCall/efficientnetv2-xl/blocks_29/se/conv2d/BiasAdd/ReadVariableOp", "op": "Const", "attr": {"dtype": {"type": "DT_FLOAT"}, "value": {"tensor": {"dtype": "DT_FLOAT", "tensorShape": {"dim": [{"size": "48"}]}}}}}, {"name": "StatefulPartitionedCall/efficientnetv2-xl/blocks_29/se/conv2d_1/Conv2D/ReadVariableOp", "op": "Const", "attr": {"value": {"tensor": {"dtype": "DT_FLOAT", "tensorShape": {"dim": [{"size": "1"}, {"size": "1"}, {"size": "48"}, {"size": "768"}]}}}, "dtype": {"type": "DT_FLOAT"}}}, {"name": "StatefulPartitionedCall/efficientnetv2-xl/blocks_29/se/conv2d_1/BiasAdd/ReadVariableOp", "op": "Const", "attr": {"dtype": {"type": "DT_FLOAT"}, "value": {"tensor": {"dtype": "DT_FLOAT", "tensorShape": {"dim": [{"size": "768"}]}}}}}, {"name": "StatefulPartitionedCall/efficientnetv2-xl/blocks_28/se/Mean/reduction_indices", "op": "Const", "attr": {"dtype": {"type": "DT_INT32"}, "value": {"tensor": {"dtype": "DT_INT32", "tensorShape": {"dim": [{"size": "2"}]}}}}}, {"name": "StatefulPartitionedCall/efficientnetv2-xl/blocks_28/se/conv2d/Conv2D/ReadVariableOp", "op": "Const", "attr": {"value": {"tensor": {"dtype": "DT_FLOAT", "tensorShape": {"dim": [{"size": "1"}, {"size": "1"}, {"size": "768"}, {"size": "48"}]}}}, "dtype": {"type": "DT_FLOAT"}}}, {"name": "StatefulPartitionedCall/efficientnetv2-xl/blocks_28/se/conv2d/BiasAdd/ReadVariableOp", "op": "Const", "attr": {"dtype": {"type": "DT_FLOAT"}, "value": {"tensor": {"dtype": "DT_FLOAT", "tensorShape": {"dim": [{"size": "48"}]}}}}}, {"name": "StatefulPartitionedCall/efficientnetv2-xl/blocks_28/se/conv2d_1/Conv2D/ReadVariableOp", "op": "Const", "attr": {"value": {"tensor": {"dtype": "DT_FLOAT", "tensorShape": {"dim": [{"size": "1"}, {"size": "1"}, {"size": "48"}, {"size": "768"}]}}}, "dtype": {"type": "DT_FLOAT"}}}, {"name": "StatefulPartitionedCall/efficientnetv2-xl/blocks_28/se/conv2d_1/BiasAdd/ReadVariableOp", "op": "Const", "attr": {"dtype": {"type": "DT_FLOAT"}, "value": {"tensor": {"dtype": "DT_FLOAT", "tensorShape": {"dim": [{"size": "768"}]}}}}}, {"name": "StatefulPartitionedCall/efficientnetv2-xl/blocks_27/se/Mean/reduction_indices", "op": "Const", "attr": {"dtype": {"type": "DT_INT32"}, "value": {"tensor": {"dtype": "DT_INT32", "tensorShape": {"dim": [{"size": "2"}]}}}}}, {"name": "StatefulPartitionedCall/efficientnetv2-xl/blocks_27/se/conv2d/Conv2D/ReadVariableOp", "op": "Const", "attr": {"dtype": {"type": "DT_FLOAT"}, "value": {"tensor": {"dtype": "DT_FLOAT", "tensorShape": {"dim": [{"size": "1"}, {"size": "1"}, {"size": "768"}, {"size": "48"}]}}}}}, {"name": "StatefulPartitionedCall/efficientnetv2-xl/blocks_27/se/conv2d/BiasAdd/ReadVariableOp", "op": "Const", "attr": {"dtype": {"type": "DT_FLOAT"}, "value": {"tensor": {"dtype": "DT_FLOAT", "tensorShape": {"dim": [{"size": "48"}]}}}}}, {"name": "StatefulPartitionedCall/efficientnetv2-xl/blocks_27/se/conv2d_1/Conv2D/ReadVariableOp", "op": "Const", "attr": {"value": {"tensor": {"dtype": "DT_FLOAT", "tensorShape": {"dim": [{"size": "1"}, {"size": "1"}, {"size": "48"}, {"size": "768"}]}}}, "dtype": {"type": "DT_FLOAT"}}}, {"name": "StatefulPartitionedCall/efficientnetv2-xl/blocks_27/se/conv2d_1/BiasAdd/ReadVariableOp", "op": "Const", "attr": {"dtype": {"type": "DT_FLOAT"}, "value": {"tensor": {"dtype": "DT_FLOAT", "tensorShape": {"dim": [{"size": "768"}]}}}}}, {"name": "StatefulPartitionedCall/efficientnetv2-xl/blocks_26/se/Mean/reduction_indices", "op": "Const", "attr": {"dtype": {"type": "DT_INT32"}, "value": {"tensor": {"dtype": "DT_INT32", "tensorShape": {"dim": [{"size": "2"}]}}}}}, {"name": "StatefulPartitionedCall/efficientnetv2-xl/blocks_26/se/conv2d/Conv2D/ReadVariableOp", "op": "Const", "attr": {"dtype": {"type": "DT_FLOAT"}, "value": {"tensor": {"dtype": "DT_FLOAT", "tensorShape": {"dim": [{"size": "1"}, {"size": "1"}, {"size": "768"}, {"size": "48"}]}}}}}, {"name": "StatefulPartitionedCall/efficientnetv2-xl/blocks_26/se/conv2d/BiasAdd/ReadVariableOp", "op": "Const", "attr": {"dtype": {"type": "DT_FLOAT"}, "value": {"tensor": {"dtype": "DT_FLOAT", "tensorShape": {"dim": [{"size": "48"}]}}}}}, {"name": "StatefulPartitionedCall/efficientnetv2-xl/blocks_26/se/conv2d_1/Conv2D/ReadVariableOp", "op": "Const", "attr": {"value": {"tensor": {"dtype": "DT_FLOAT", "tensorShape": {"dim": [{"size": "1"}, {"size": "1"}, {"size": "48"}, {"size": "768"}]}}}, "dtype": {"type": "DT_FLOAT"}}}, {"name": "StatefulPartitionedCall/efficientnetv2-xl/blocks_26/se/conv2d_1/BiasAdd/ReadVariableOp", "op": "Const", "attr": {"dtype": {"type": "DT_FLOAT"}, "value": {"tensor": {"dtype": "DT_FLOAT", "tensorShape": {"dim": [{"size": "768"}]}}}}}, {"name": "StatefulPartitionedCall/efficientnetv2-xl/blocks_25/se/Mean/reduction_indices", "op": "Const", "attr": {"value": {"tensor": {"dtype": "DT_INT32", "tensorShape": {"dim": [{"size": "2"}]}}}, "dtype": {"type": "DT_INT32"}}}, {"name": "StatefulPartitionedCall/efficientnetv2-xl/blocks_25/se/conv2d/Conv2D/ReadVariableOp", "op": "Const", "attr": {"value": {"tensor": {"dtype": "DT_FLOAT", "tensorShape": {"dim": [{"size": "1"}, {"size": "1"}, {"size": "768"}, {"size": "48"}]}}}, "dtype": {"type": "DT_FLOAT"}}}, {"name": "StatefulPartitionedCall/efficientnetv2-xl/blocks_25/se/conv2d/BiasAdd/ReadVariableOp", "op": "Const", "attr": {"dtype": {"type": "DT_FLOAT"}, "value": {"tensor": {"dtype": "DT_FLOAT", "tensorShape": {"dim": [{"size": "48"}]}}}}}, {"name": "StatefulPartitionedCall/efficientnetv2-xl/blocks_25/se/conv2d_1/Conv2D/ReadVariableOp", "op": "Const", "attr": {"value": {"tensor": {"dtype": "DT_FLOAT", "tensorShape": {"dim": [{"size": "1"}, {"size": "1"}, {"size": "48"}, {"size": "768"}]}}}, "dtype": {"type": "DT_FLOAT"}}}, {"name": "StatefulPartitionedCall/efficientnetv2-xl/blocks_25/se/conv2d_1/BiasAdd/ReadVariableOp", "op": "Const", "attr": {"dtype": {"type": "DT_FLOAT"}, "value": {"tensor": {"dtype": "DT_FLOAT", "tensorShape": {"dim": [{"size": "768"}]}}}}}, {"name": "StatefulPartitionedCall/efficientnetv2-xl/blocks_24/se/Mean/reduction_indices", "op": "Const", "attr": {"dtype": {"type": "DT_INT32"}, "value": {"tensor": {"dtype": "DT_INT32", "tensorShape": {"dim": [{"size": "2"}]}}}}}, {"name": "StatefulPartitionedCall/efficientnetv2-xl/blocks_24/se/conv2d/Conv2D/ReadVariableOp", "op": "Const", "attr": {"value": {"tensor": {"dtype": "DT_FLOAT", "tensorShape": {"dim": [{"size": "1"}, {"size": "1"}, {"size": "768"}, {"size": "48"}]}}}, "dtype": {"type": "DT_FLOAT"}}}, {"name": "StatefulPartitionedCall/efficientnetv2-xl/blocks_24/se/conv2d/BiasAdd/ReadVariableOp", "op": "Const", "attr": {"dtype": {"type": "DT_FLOAT"}, "value": {"tensor": {"dtype": "DT_FLOAT", "tensorShape": {"dim": [{"size": "48"}]}}}}}, {"name": "StatefulPartitionedCall/efficientnetv2-xl/blocks_24/se/conv2d_1/Conv2D/ReadVariableOp", "op": "Const", "attr": {"dtype": {"type": "DT_FLOAT"}, "value": {"tensor": {"dtype": "DT_FLOAT", "tensorShape": {"dim": [{"size": "1"}, {"size": "1"}, {"size": "48"}, {"size": "768"}]}}}}}, {"name": "StatefulPartitionedCall/efficientnetv2-xl/blocks_24/se/conv2d_1/BiasAdd/ReadVariableOp", "op": "Const", "attr": {"dtype": {"type": "DT_FLOAT"}, "value": {"tensor": {"dtype": "DT_FLOAT", "tensorShape": {"dim": [{"size": "768"}]}}}}}, {"name": "StatefulPartitionedCall/efficientnetv2-xl/blocks_23/se/Mean/reduction_indices", "op": "Const", "attr": {"value": {"tensor": {"dtype": "DT_INT32", "tensorShape": {"dim": [{"size": "2"}]}}}, "dtype": {"type": "DT_INT32"}}}, {"name": "StatefulPartitionedCall/efficientnetv2-xl/blocks_23/se/conv2d/Conv2D/ReadVariableOp", "op": "Const", "attr": {"value": {"tensor": {"dtype": "DT_FLOAT", "tensorShape": {"dim": [{"size": "1"}, {"size": "1"}, {"size": "768"}, {"size": "48"}]}}}, "dtype": {"type": "DT_FLOAT"}}}, {"name": "StatefulPartitionedCall/efficientnetv2-xl/blocks_23/se/conv2d/BiasAdd/ReadVariableOp", "op": "Const", "attr": {"dtype": {"type": "DT_FLOAT"}, "value": {"tensor": {"dtype": "DT_FLOAT", "tensorShape": {"dim": [{"size": "48"}]}}}}}, {"name": "StatefulPartitionedCall/efficientnetv2-xl/blocks_23/se/conv2d_1/Conv2D/ReadVariableOp", "op": "Const", "attr": {"value": {"tensor": {"dtype": "DT_FLOAT", "tensorShape": {"dim": [{"size": "1"}, {"size": "1"}, {"size": "48"}, {"size": "768"}]}}}, "dtype": {"type": "DT_FLOAT"}}}, {"name": "StatefulPartitionedCall/efficientnetv2-xl/blocks_23/se/conv2d_1/BiasAdd/ReadVariableOp", "op": "Const", "attr": {"value": {"tensor": {"dtype": "DT_FLOAT", "tensorShape": {"dim": [{"size": "768"}]}}}, "dtype": {"type": "DT_FLOAT"}}}, {"name": "StatefulPartitionedCall/efficientnetv2-xl/blocks_22/se/Mean/reduction_indices", "op": "Const", "attr": {"dtype": {"type": "DT_INT32"}, "value": {"tensor": {"dtype": "DT_INT32", "tensorShape": {"dim": [{"size": "2"}]}}}}}, {"name": "StatefulPartitionedCall/efficientnetv2-xl/blocks_22/se/conv2d/Conv2D/ReadVariableOp", "op": "Const", "attr": {"dtype": {"type": "DT_FLOAT"}, "value": {"tensor": {"dtype": "DT_FLOAT", "tensorShape": {"dim": [{"size": "1"}, {"size": "1"}, {"size": "768"}, {"size": "48"}]}}}}}, {"name": "StatefulPartitionedCall/efficientnetv2-xl/blocks_22/se/conv2d/BiasAdd/ReadVariableOp", "op": "Const", "attr": {"dtype": {"type": "DT_FLOAT"}, "value": {"tensor": {"dtype": "DT_FLOAT", "tensorShape": {"dim": [{"size": "48"}]}}}}}, {"name": "StatefulPartitionedCall/efficientnetv2-xl/blocks_22/se/conv2d_1/Conv2D/ReadVariableOp", "op": "Const", "attr": {"dtype": {"type": "DT_FLOAT"}, "value": {"tensor": {"dtype": "DT_FLOAT", "tensorShape": {"dim": [{"size": "1"}, {"size": "1"}, {"size": "48"}, {"size": "768"}]}}}}}, {"name": "StatefulPartitionedCall/efficientnetv2-xl/blocks_22/se/conv2d_1/BiasAdd/ReadVariableOp", "op": "Const", "attr": {"value": {"tensor": {"dtype": "DT_FLOAT", "tensorShape": {"dim": [{"size": "768"}]}}}, "dtype": {"type": "DT_FLOAT"}}}, {"name": "StatefulPartitionedCall/efficientnetv2-xl/blocks_21/se/Mean/reduction_indices", "op": "Const", "attr": {"value": {"tensor": {"dtype": "DT_INT32", "tensorShape": {"dim": [{"size": "2"}]}}}, "dtype": {"type": "DT_INT32"}}}, {"name": "StatefulPartitionedCall/efficientnetv2-xl/blocks_21/se/conv2d/Conv2D/ReadVariableOp", "op": "Const", "attr": {"dtype": {"type": "DT_FLOAT"}, "value": {"tensor": {"dtype": "DT_FLOAT", "tensorShape": {"dim": [{"size": "1"}, {"size": "1"}, {"size": "768"}, {"size": "48"}]}}}}}, {"name": "StatefulPartitionedCall/efficientnetv2-xl/blocks_21/se/conv2d/BiasAdd/ReadVariableOp", "op": "Const", "attr": {"value": {"tensor": {"dtype": "DT_FLOAT", "tensorShape": {"dim": [{"size": "48"}]}}}, "dtype": {"type": "DT_FLOAT"}}}, {"name": "StatefulPartitionedCall/efficientnetv2-xl/blocks_21/se/conv2d_1/Conv2D/ReadVariableOp", "op": "Const", "attr": {"value": {"tensor": {"dtype": "DT_FLOAT", "tensorShape": {"dim": [{"size": "1"}, {"size": "1"}, {"size": "48"}, {"size": "768"}]}}}, "dtype": {"type": "DT_FLOAT"}}}, {"name": "StatefulPartitionedCall/efficientnetv2-xl/blocks_21/se/conv2d_1/BiasAdd/ReadVariableOp", "op": "Const", "attr": {"value": {"tensor": {"dtype": "DT_FLOAT", "tensorShape": {"dim": [{"size": "768"}]}}}, "dtype": {"type": "DT_FLOAT"}}}, {"name": "StatefulPartitionedCall/efficientnetv2-xl/blocks_20/se/Mean/reduction_indices", "op": "Const", "attr": {"dtype": {"type": "DT_INT32"}, "value": {"tensor": {"dtype": "DT_INT32", "tensorShape": {"dim": [{"size": "2"}]}}}}}, {"name": "StatefulPartitionedCall/efficientnetv2-xl/blocks_20/se/conv2d/Conv2D/ReadVariableOp", "op": "Const", "attr": {"value": {"tensor": {"dtype": "DT_FLOAT", "tensorShape": {"dim": [{"size": "1"}, {"size": "1"}, {"size": "384"}, {"size": "24"}]}}}, "dtype": {"type": "DT_FLOAT"}}}, {"name": "StatefulPartitionedCall/efficientnetv2-xl/blocks_20/se/conv2d/BiasAdd/ReadVariableOp", "op": "Const", "attr": {"dtype": {"type": "DT_FLOAT"}, "value": {"tensor": {"dtype": "DT_FLOAT", "tensorShape": {"dim": [{"size": "24"}]}}}}}, {"name": "StatefulPartitionedCall/efficientnetv2-xl/blocks_20/se/conv2d_1/Conv2D/ReadVariableOp", "op": "Const", "attr": {"value": {"tensor": {"dtype": "DT_FLOAT", "tensorShape": {"dim": [{"size": "1"}, {"size": "1"}, {"size": "24"}, {"size": "384"}]}}}, "dtype": {"type": "DT_FLOAT"}}}, {"name": "StatefulPartitionedCall/efficientnetv2-xl/blocks_20/se/conv2d_1/BiasAdd/ReadVariableOp", "op": "Const", "attr": {"value": {"tensor": {"dtype": "DT_FLOAT", "tensorShape": {"dim": [{"size": "384"}]}}}, "dtype": {"type": "DT_FLOAT"}}}, {"name": "StatefulPartitionedCall/efficientnetv2-xl/head/global_average_pooling2d/Mean/reduction_indices", "op": "Const", "attr": {"dtype": {"type": "DT_INT32"}, "value": {"tensor": {"dtype": "DT_INT32", "tensorShape": {"dim": [{"size": "2"}]}}}}}, {"name": "StatefulPartitionedCall/efficientnetv2-xl/head_1/dense/MatMul/ReadVariableOp", "op": "Const", "attr": {"dtype": {"type": "DT_FLOAT"}, "value": {"tensor": {"dtype": "DT_FLOAT", "tensorShape": {"dim": [{"size": "1280"}, {"size": "1000"}]}}}}}, {"name": "StatefulPartitionedCall/efficientnetv2-xl/head_1/dense/BiasAdd/ReadVariableOp", "op": "Const", "attr": {"value": {"tensor": {"dtype": "DT_FLOAT", "tensorShape": {"dim": [{"size": "1000"}]}}}, "dtype": {"type": "DT_FLOAT"}}}, {"name": "input_1", "op": "Placeholder", "attr": {"dtype": {"type": "DT_FLOAT"}, "shape": {"shape": {"dim": [{"size": "-1"}, {"size": "-1"}, {"size": "-1"}, {"size": "3"}]}}}}, {"name": "StatefulPartitionedCall/efficientnetv2-xl/stem/conv2d/Conv2D_weights", "op": "Const", "attr": {"dtype": {"type": "DT_FLOAT"}, "value": {"tensor": {"dtype": "DT_FLOAT", "tensorShape": {"dim": [{"size": "3"}, {"size": "3"}, {"size": "3"}, {"size": "32"}]}}}}}, {"name": "StatefulPartitionedCall/efficientnetv2-xl/stem/conv2d/Conv2D_bn_offset", "op": "Const", "attr": {"dtype": {"type": "DT_FLOAT"}, "value": {"tensor": {"dtype": "DT_FLOAT", "tensorShape": {"dim": [{"size": "32"}]}}}}}, {"name": "StatefulPartitionedCall/efficientnetv2-xl/blocks_0/conv2d/Conv2D_weights", "op": "Const", "attr": {"value": {"tensor": {"dtype": "DT_FLOAT", "tensorShape": {"dim": [{"size": "3"}, {"size": "3"}, {"size": "32"}, {"size": "32"}]}}}, "dtype": {"type": "DT_FLOAT"}}}, {"name": "StatefulPartitionedCall/efficientnetv2-xl/blocks_0/conv2d/Conv2D_bn_offset", "op": "Const", "attr": {"value": {"tensor": {"dtype": "DT_FLOAT", "tensorShape": {"dim": [{"size": "32"}]}}}, "dtype": {"type": "DT_FLOAT"}}}, {"name": "StatefulPartitionedCall/efficientnetv2-xl/blocks_1/conv2d/Conv2D_weights", "op": "Const", "attr": {"value": {"tensor": {"dtype": "DT_FLOAT", "tensorShape": {"dim": [{"size": "3"}, {"size": "3"}, {"size": "32"}, {"size": "32"}]}}}, "dtype": {"type": "DT_FLOAT"}}}, {"name": "StatefulPartitionedCall/efficientnetv2-xl/blocks_1/conv2d/Conv2D_bn_offset", "op": "Const", "attr": {"dtype": {"type": "DT_FLOAT"}, "value": {"tensor": {"dtype": "DT_FLOAT", "tensorShape": {"dim": [{"size": "32"}]}}}}}, {"name": "StatefulPartitionedCall/efficientnetv2-xl/blocks_2/conv2d/Conv2D_weights", "op": "Const", "attr": {"dtype": {"type": "DT_FLOAT"}, "value": {"tensor": {"dtype": "DT_FLOAT", "tensorShape": {"dim": [{"size": "3"}, {"size": "3"}, {"size": "32"}, {"size": "32"}]}}}}}, {"name": "StatefulPartitionedCall/efficientnetv2-xl/blocks_98/depthwise_conv2d/depthwise_weights", "op": "Const", "attr": {"value": {"tensor": {"dtype": "DT_FLOAT", "tensorShape": {"dim": [{"size": "3"}, {"size": "3"}, {"size": "3840"}, {"size": "1"}]}}}, "dtype": {"type": "DT_FLOAT"}}}, {"name": "StatefulPartitionedCall/efficientnetv2-xl/blocks_2/conv2d/Conv2D_bn_offset", "op": "Const", "attr": {"dtype": {"type": "DT_FLOAT"}, "value": {"tensor": {"dtype": "DT_FLOAT", "tensorShape": {"dim": [{"size": "32"}]}}}}}, {"name": "StatefulPartitionedCall/efficientnetv2-xl/blocks_3/conv2d/Conv2D_weights", "op": "Const", "attr": {"value": {"tensor": {"dtype": "DT_FLOAT", "tensorShape": {"dim": [{"size": "3"}, {"size": "3"}, {"size": "32"}, {"size": "32"}]}}}, "dtype": {"type": "DT_FLOAT"}}}, {"name": "StatefulPartitionedCall/efficientnetv2-xl/blocks_3/conv2d/Conv2D_bn_offset", "op": "Const", "attr": {"value": {"tensor": {"dtype": "DT_FLOAT", "tensorShape": {"dim": [{"size": "32"}]}}}, "dtype": {"type": "DT_FLOAT"}}}, {"name": "StatefulPartitionedCall/efficientnetv2-xl/blocks_4/conv2d/Conv2D_weights", "op": "Const", "attr": {"value": {"tensor": {"dtype": "DT_FLOAT", "tensorShape": {"dim": [{"size": "3"}, {"size": "3"}, {"size": "32"}, {"size": "128"}]}}}, "dtype": {"type": "DT_FLOAT"}}}, {"name": "StatefulPartitionedCall/efficientnetv2-xl/blocks_4/conv2d/Conv2D_bn_offset", "op": "Const", "attr": {"dtype": {"type": "DT_FLOAT"}, "value": {"tensor": {"dtype": "DT_FLOAT", "tensorShape": {"dim": [{"size": "128"}]}}}}}, {"name": "StatefulPartitionedCall/efficientnetv2-xl/blocks_4/conv2d_1/Conv2D_weights", "op": "Const", "attr": {"dtype": {"type": "DT_FLOAT"}, "value": {"tensor": {"dtype": "DT_FLOAT", "tensorShape": {"dim": [{"size": "1"}, {"size": "1"}, {"size": "128"}, {"size": "64"}]}}}}}, {"name": "StatefulPartitionedCall/efficientnetv2-xl/blocks_4/conv2d_1/Conv2D_bn_offset", "op": "Const", "attr": {"dtype": {"type": "DT_FLOAT"}, "value": {"tensor": {"dtype": "DT_FLOAT", "tensorShape": {"dim": [{"size": "64"}]}}}}}, {"name": "StatefulPartitionedCall/efficientnetv2-xl/blocks_5/conv2d/Conv2D_weights", "op": "Const", "attr": {"value": {"tensor": {"dtype": "DT_FLOAT", "tensorShape": {"dim": [{"size": "3"}, {"size": "3"}, {"size": "64"}, {"size": "256"}]}}}, "dtype": {"type": "DT_FLOAT"}}}, {"name": "StatefulPartitionedCall/efficientnetv2-xl/blocks_86/conv2d_1/Conv2D_weights", "op": "Const", "attr": {"value": {"tensor": {"dtype": "DT_FLOAT", "tensorShape": {"dim": [{"size": "1"}, {"size": "1"}, {"size": "3072"}, {"size": "512"}]}}}, "dtype": {"type": "DT_FLOAT"}}}, {"name": "StatefulPartitionedCall/efficientnetv2-xl/blocks_5/conv2d/Conv2D_bn_offset", "op": "Const", "attr": {"dtype": {"type": "DT_FLOAT"}, "value": {"tensor": {"dtype": "DT_FLOAT", "tensorShape": {"dim": [{"size": "256"}]}}}}}, {"name": "StatefulPartitionedCall/efficientnetv2-xl/blocks_5/conv2d_1/Conv2D_weights", "op": "Const", "attr": {"value": {"tensor": {"dtype": "DT_FLOAT", "tensorShape": {"dim": [{"size": "1"}, {"size": "1"}, {"size": "256"}, {"size": "64"}]}}}, "dtype": {"type": "DT_FLOAT"}}}, {"name": "StatefulPartitionedCall/efficientnetv2-xl/blocks_5/conv2d_1/Conv2D_bn_offset", "op": "Const", "attr": {"value": {"tensor": {"dtype": "DT_FLOAT", "tensorShape": {"dim": [{"size": "64"}]}}}, "dtype": {"type": "DT_FLOAT"}}}, {"name": "StatefulPartitionedCall/efficientnetv2-xl/blocks_6/conv2d/Conv2D_weights", "op": "Const", "attr": {"dtype": {"type": "DT_FLOAT"}, "value": {"tensor": {"dtype": "DT_FLOAT", "tensorShape": {"dim": [{"size": "3"}, {"size": "3"}, {"size": "64"}, {"size": "256"}]}}}}}, {"name": "StatefulPartitionedCall/efficientnetv2-xl/blocks_86/conv2d_1/Conv2D_bn_offset", "op": "Const", "attr": {"value": {"tensor": {"dtype": "DT_FLOAT", "tensorShape": {"dim": [{"size": "512"}]}}}, "dtype": {"type": "DT_FLOAT"}}}, {"name": "StatefulPartitionedCall/efficientnetv2-xl/blocks_6/conv2d/Conv2D_bn_offset", "op": "Const", "attr": {"dtype": {"type": "DT_FLOAT"}, "value": {"tensor": {"dtype": "DT_FLOAT", "tensorShape": {"dim": [{"size": "256"}]}}}}}, {"name": "StatefulPartitionedCall/efficientnetv2-xl/blocks_6/conv2d_1/Conv2D_weights", "op": "Const", "attr": {"dtype": {"type": "DT_FLOAT"}, "value": {"tensor": {"dtype": "DT_FLOAT", "tensorShape": {"dim": [{"size": "1"}, {"size": "1"}, {"size": "256"}, {"size": "64"}]}}}}}, {"name": "StatefulPartitionedCall/efficientnetv2-xl/blocks_6/conv2d_1/Conv2D_bn_offset", "op": "Const", "attr": {"value": {"tensor": {"dtype": "DT_FLOAT", "tensorShape": {"dim": [{"size": "64"}]}}}, "dtype": {"type": "DT_FLOAT"}}}, {"name": "StatefulPartitionedCall/efficientnetv2-xl/blocks_7/conv2d/Conv2D_weights", "op": "Const", "attr": {"value": {"tensor": {"dtype": "DT_FLOAT", "tensorShape": {"dim": [{"size": "3"}, {"size": "3"}, {"size": "64"}, {"size": "256"}]}}}, "dtype": {"type": "DT_FLOAT"}}}, {"name": "StatefulPartitionedCall/efficientnetv2-xl/blocks_7/conv2d/Conv2D_bn_offset", "op": "Const", "attr": {"value": {"tensor": {"dtype": "DT_FLOAT", "tensorShape": {"dim": [{"size": "256"}]}}}, "dtype": {"type": "DT_FLOAT"}}}, {"name": "StatefulPartitionedCall/efficientnetv2-xl/blocks_7/conv2d_1/Conv2D_weights", "op": "Const", "attr": {"value": {"tensor": {"dtype": "DT_FLOAT", "tensorShape": {"dim": [{"size": "1"}, {"size": "1"}, {"size": "256"}, {"size": "64"}]}}}, "dtype": {"type": "DT_FLOAT"}}}, {"name": "StatefulPartitionedCall/efficientnetv2-xl/blocks_87/conv2d/Conv2D_weights", "op": "Const", "attr": {"dtype": {"type": "DT_FLOAT"}, "value": {"tensor": {"dtype": "DT_FLOAT", "tensorShape": {"dim": [{"size": "1"}, {"size": "1"}, {"size": "512"}, {"size": "3072"}]}}}}}, {"name": "StatefulPartitionedCall/efficientnetv2-xl/blocks_7/conv2d_1/Conv2D_bn_offset", "op": "Const", "attr": {"dtype": {"type": "DT_FLOAT"}, "value": {"tensor": {"dtype": "DT_FLOAT", "tensorShape": {"dim": [{"size": "64"}]}}}}}, {"name": "StatefulPartitionedCall/efficientnetv2-xl/blocks_8/conv2d/Conv2D_weights", "op": "Const", "attr": {"value": {"tensor": {"dtype": "DT_FLOAT", "tensorShape": {"dim": [{"size": "3"}, {"size": "3"}, {"size": "64"}, {"size": "256"}]}}}, "dtype": {"type": "DT_FLOAT"}}}, {"name": "StatefulPartitionedCall/efficientnetv2-xl/blocks_98/depthwise_conv2d/depthwise_bn_offset", "op": "Const", "attr": {"dtype": {"type": "DT_FLOAT"}, "value": {"tensor": {"dtype": "DT_FLOAT", "tensorShape": {"dim": [{"size": "3840"}]}}}}}, {"name": "StatefulPartitionedCall/efficientnetv2-xl/blocks_8/conv2d/Conv2D_bn_offset", "op": "Const", "attr": {"dtype": {"type": "DT_FLOAT"}, "value": {"tensor": {"dtype": "DT_FLOAT", "tensorShape": {"dim": [{"size": "256"}]}}}}}, {"name": "StatefulPartitionedCall/efficientnetv2-xl/blocks_8/conv2d_1/Conv2D_weights", "op": "Const", "attr": {"value": {"tensor": {"dtype": "DT_FLOAT", "tensorShape": {"dim": [{"size": "1"}, {"size": "1"}, {"size": "256"}, {"size": "64"}]}}}, "dtype": {"type": "DT_FLOAT"}}}, {"name": "StatefulPartitionedCall/efficientnetv2-xl/blocks_87/conv2d/Conv2D_bn_offset", "op": "Const", "attr": {"value": {"tensor": {"dtype": "DT_FLOAT", "tensorShape": {"dim": [{"size": "3072"}]}}}, "dtype": {"type": "DT_FLOAT"}}}, {"name": "StatefulPartitionedCall/efficientnetv2-xl/blocks_8/conv2d_1/Conv2D_bn_offset", "op": "Const", "attr": {"dtype": {"type": "DT_FLOAT"}, "value": {"tensor": {"dtype": "DT_FLOAT", "tensorShape": {"dim": [{"size": "64"}]}}}}}, {"name": "StatefulPartitionedCall/efficientnetv2-xl/blocks_9/conv2d/Conv2D_weights", "op": "Const", "attr": {"value": {"tensor": {"dtype": "DT_FLOAT", "tensorShape": {"dim": [{"size": "3"}, {"size": "3"}, {"size": "64"}, {"size": "256"}]}}}, "dtype": {"type": "DT_FLOAT"}}}, {"name": "StatefulPartitionedCall/efficientnetv2-xl/blocks_9/conv2d/Conv2D_bn_offset", "op": "Const", "attr": {"value": {"tensor": {"dtype": "DT_FLOAT", "tensorShape": {"dim": [{"size": "256"}]}}}, "dtype": {"type": "DT_FLOAT"}}}, {"name": "StatefulPartitionedCall/efficientnetv2-xl/blocks_9/conv2d_1/Conv2D_weights", "op": "Const", "attr": {"dtype": {"type": "DT_FLOAT"}, "value": {"tensor": {"dtype": "DT_FLOAT", "tensorShape": {"dim": [{"size": "1"}, {"size": "1"}, {"size": "256"}, {"size": "64"}]}}}}}, {"name": "StatefulPartitionedCall/efficientnetv2-xl/blocks_9/conv2d_1/Conv2D_bn_offset", "op": "Const", "attr": {"dtype": {"type": "DT_FLOAT"}, "value": {"tensor": {"dtype": "DT_FLOAT", "tensorShape": {"dim": [{"size": "64"}]}}}}}, {"name": "StatefulPartitionedCall/efficientnetv2-xl/blocks_10/conv2d/Conv2D_weights", "op": "Const", "attr": {"dtype": {"type": "DT_FLOAT"}, "value": {"tensor": {"dtype": "DT_FLOAT", "tensorShape": {"dim": [{"size": "3"}, {"size": "3"}, {"size": "64"}, {"size": "256"}]}}}}}, {"name": "StatefulPartitionedCall/efficientnetv2-xl/blocks_10/conv2d/Conv2D_bn_offset", "op": "Const", "attr": {"value": {"tensor": {"dtype": "DT_FLOAT", "tensorShape": {"dim": [{"size": "256"}]}}}, "dtype": {"type": "DT_FLOAT"}}}, {"name": "StatefulPartitionedCall/efficientnetv2-xl/blocks_10/conv2d_1/Conv2D_weights", "op": "Const", "attr": {"dtype": {"type": "DT_FLOAT"}, "value": {"tensor": {"dtype": "DT_FLOAT", "tensorShape": {"dim": [{"size": "1"}, {"size": "1"}, {"size": "256"}, {"size": "64"}]}}}}}, {"name": "StatefulPartitionedCall/efficientnetv2-xl/blocks_87/depthwise_conv2d/depthwise_weights", "op": "Const", "attr": {"dtype": {"type": "DT_FLOAT"}, "value": {"tensor": {"dtype": "DT_FLOAT", "tensorShape": {"dim": [{"size": "3"}, {"size": "3"}, {"size": "3072"}, {"size": "1"}]}}}}}, {"name": "StatefulPartitionedCall/efficientnetv2-xl/blocks_10/conv2d_1/Conv2D_bn_offset", "op": "Const", "attr": {"value": {"tensor": {"dtype": "DT_FLOAT", "tensorShape": {"dim": [{"size": "64"}]}}}, "dtype": {"type": "DT_FLOAT"}}}, {"name": "StatefulPartitionedCall/efficientnetv2-xl/blocks_11/conv2d/Conv2D_weights", "op": "Const", "attr": {"dtype": {"type": "DT_FLOAT"}, "value": {"tensor": {"dtype": "DT_FLOAT", "tensorShape": {"dim": [{"size": "3"}, {"size": "3"}, {"size": "64"}, {"size": "256"}]}}}}}, {"name": "StatefulPartitionedCall/efficientnetv2-xl/blocks_11/conv2d/Conv2D_bn_offset", "op": "Const", "attr": {"dtype": {"type": "DT_FLOAT"}, "value": {"tensor": {"dtype": "DT_FLOAT", "tensorShape": {"dim": [{"size": "256"}]}}}}}, {"name": "StatefulPartitionedCall/efficientnetv2-xl/blocks_11/conv2d_1/Conv2D_weights", "op": "Const", "attr": {"value": {"tensor": {"dtype": "DT_FLOAT", "tensorShape": {"dim": [{"size": "1"}, {"size": "1"}, {"size": "256"}, {"size": "64"}]}}}, "dtype": {"type": "DT_FLOAT"}}}, {"name": "StatefulPartitionedCall/efficientnetv2-xl/blocks_87/depthwise_conv2d/depthwise_bn_offset", "op": "Const", "attr": {"dtype": {"type": "DT_FLOAT"}, "value": {"tensor": {"dtype": "DT_FLOAT", "tensorShape": {"dim": [{"size": "3072"}]}}}}}, {"name": "StatefulPartitionedCall/efficientnetv2-xl/blocks_11/conv2d_1/Conv2D_bn_offset", "op": "Const", "attr": {"value": {"tensor": {"dtype": "DT_FLOAT", "tensorShape": {"dim": [{"size": "64"}]}}}, "dtype": {"type": "DT_FLOAT"}}}, {"name": "StatefulPartitionedCall/efficientnetv2-xl/blocks_12/conv2d/Conv2D_weights", "op": "Const", "attr": {"dtype": {"type": "DT_FLOAT"}, "value": {"tensor": {"dtype": "DT_FLOAT", "tensorShape": {"dim": [{"size": "3"}, {"size": "3"}, {"size": "64"}, {"size": "256"}]}}}}}, {"name": "StatefulPartitionedCall/efficientnetv2-xl/blocks_12/conv2d/Conv2D_bn_offset", "op": "Const", "attr": {"dtype": {"type": "DT_FLOAT"}, "value": {"tensor": {"dtype": "DT_FLOAT", "tensorShape": {"dim": [{"size": "256"}]}}}}}, {"name": "StatefulPartitionedCall/efficientnetv2-xl/blocks_12/conv2d_1/Conv2D_weights", "op": "Const", "attr": {"dtype": {"type": "DT_FLOAT"}, "value": {"tensor": {"dtype": "DT_FLOAT", "tensorShape": {"dim": [{"size": "1"}, {"size": "1"}, {"size": "256"}, {"size": "96"}]}}}}}, {"name": "StatefulPartitionedCall/efficientnetv2-xl/blocks_12/conv2d_1/Conv2D_bn_offset", "op": "Const", "attr": {"value": {"tensor": {"dtype": "DT_FLOAT", "tensorShape": {"dim": [{"size": "96"}]}}}, "dtype": {"type": "DT_FLOAT"}}}, {"name": "StatefulPartitionedCall/efficientnetv2-xl/blocks_13/conv2d/Conv2D_weights", "op": "Const", "attr": {"dtype": {"type": "DT_FLOAT"}, "value": {"tensor": {"dtype": "DT_FLOAT", "tensorShape": {"dim": [{"size": "3"}, {"size": "3"}, {"size": "96"}, {"size": "384"}]}}}}}, {"name": "StatefulPartitionedCall/efficientnetv2-xl/blocks_13/conv2d/Conv2D_bn_offset", "op": "Const", "attr": {"dtype": {"type": "DT_FLOAT"}, "value": {"tensor": {"dtype": "DT_FLOAT", "tensorShape": {"dim": [{"size": "384"}]}}}}}, {"name": "StatefulPartitionedCall/efficientnetv2-xl/blocks_13/conv2d_1/Conv2D_weights", "op": "Const", "attr": {"dtype": {"type": "DT_FLOAT"}, "value": {"tensor": {"dtype": "DT_FLOAT", "tensorShape": {"dim": [{"size": "1"}, {"size": "1"}, {"size": "384"}, {"size": "96"}]}}}}}, {"name": "StatefulPartitionedCall/efficientnetv2-xl/blocks_13/conv2d_1/Conv2D_bn_offset", "op": "Const", "attr": {"value": {"tensor": {"dtype": "DT_FLOAT", "tensorShape": {"dim": [{"size": "96"}]}}}, "dtype": {"type": "DT_FLOAT"}}}, {"name": "StatefulPartitionedCall/efficientnetv2-xl/blocks_14/conv2d/Conv2D_weights", "op": "Const", "attr": {"dtype": {"type": "DT_FLOAT"}, "value": {"tensor": {"dtype": "DT_FLOAT", "tensorShape": {"dim": [{"size": "3"}, {"size": "3"}, {"size": "96"}, {"size": "384"}]}}}}}, {"name": "StatefulPartitionedCall/efficientnetv2-xl/blocks_14/conv2d/Conv2D_bn_offset", "op": "Const", "attr": {"dtype": {"type": "DT_FLOAT"}, "value": {"tensor": {"dtype": "DT_FLOAT", "tensorShape": {"dim": [{"size": "384"}]}}}}}, {"name": "StatefulPartitionedCall/efficientnetv2-xl/blocks_14/conv2d_1/Conv2D_weights", "op": "Const", "attr": {"value": {"tensor": {"dtype": "DT_FLOAT", "tensorShape": {"dim": [{"size": "1"}, {"size": "1"}, {"size": "384"}, {"size": "96"}]}}}, "dtype": {"type": "DT_FLOAT"}}}, {"name": "StatefulPartitionedCall/efficientnetv2-xl/blocks_14/conv2d_1/Conv2D_bn_offset", "op": "Const", "attr": {"dtype": {"type": "DT_FLOAT"}, "value": {"tensor": {"dtype": "DT_FLOAT", "tensorShape": {"dim": [{"size": "96"}]}}}}}, {"name": "StatefulPartitionedCall/efficientnetv2-xl/blocks_15/conv2d/Conv2D_weights", "op": "Const", "attr": {"dtype": {"type": "DT_FLOAT"}, "value": {"tensor": {"dtype": "DT_FLOAT", "tensorShape": {"dim": [{"size": "3"}, {"size": "3"}, {"size": "96"}, {"size": "384"}]}}}}}, {"name": "StatefulPartitionedCall/efficientnetv2-xl/blocks_15/conv2d/Conv2D_bn_offset", "op": "Const", "attr": {"value": {"tensor": {"dtype": "DT_FLOAT", "tensorShape": {"dim": [{"size": "384"}]}}}, "dtype": {"type": "DT_FLOAT"}}}, {"name": "StatefulPartitionedCall/efficientnetv2-xl/blocks_15/conv2d_1/Conv2D_weights", "op": "Const", "attr": {"value": {"tensor": {"dtype": "DT_FLOAT", "tensorShape": {"dim": [{"size": "1"}, {"size": "1"}, {"size": "384"}, {"size": "96"}]}}}, "dtype": {"type": "DT_FLOAT"}}}, {"name": "StatefulPartitionedCall/efficientnetv2-xl/blocks_15/conv2d_1/Conv2D_bn_offset", "op": "Const", "attr": {"dtype": {"type": "DT_FLOAT"}, "value": {"tensor": {"dtype": "DT_FLOAT", "tensorShape": {"dim": [{"size": "96"}]}}}}}, {"name": "StatefulPartitionedCall/efficientnetv2-xl/blocks_16/conv2d/Conv2D_weights", "op": "Const", "attr": {"value": {"tensor": {"dtype": "DT_FLOAT", "tensorShape": {"dim": [{"size": "3"}, {"size": "3"}, {"size": "96"}, {"size": "384"}]}}}, "dtype": {"type": "DT_FLOAT"}}}, {"name": "StatefulPartitionedCall/efficientnetv2-xl/blocks_16/conv2d/Conv2D_bn_offset", "op": "Const", "attr": {"value": {"tensor": {"dtype": "DT_FLOAT", "tensorShape": {"dim": [{"size": "384"}]}}}, "dtype": {"type": "DT_FLOAT"}}}, {"name": "StatefulPartitionedCall/efficientnetv2-xl/blocks_16/conv2d_1/Conv2D_weights", "op": "Const", "attr": {"value": {"tensor": {"dtype": "DT_FLOAT", "tensorShape": {"dim": [{"size": "1"}, {"size": "1"}, {"size": "384"}, {"size": "96"}]}}}, "dtype": {"type": "DT_FLOAT"}}}, {"name": "StatefulPartitionedCall/efficientnetv2-xl/blocks_16/conv2d_1/Conv2D_bn_offset", "op": "Const", "attr": {"dtype": {"type": "DT_FLOAT"}, "value": {"tensor": {"dtype": "DT_FLOAT", "tensorShape": {"dim": [{"size": "96"}]}}}}}, {"name": "StatefulPartitionedCall/efficientnetv2-xl/blocks_17/conv2d/Conv2D_weights", "op": "Const", "attr": {"value": {"tensor": {"dtype": "DT_FLOAT", "tensorShape": {"dim": [{"size": "3"}, {"size": "3"}, {"size": "96"}, {"size": "384"}]}}}, "dtype": {"type": "DT_FLOAT"}}}, {"name": "StatefulPartitionedCall/efficientnetv2-xl/blocks_17/conv2d/Conv2D_bn_offset", "op": "Const", "attr": {"value": {"tensor": {"dtype": "DT_FLOAT", "tensorShape": {"dim": [{"size": "384"}]}}}, "dtype": {"type": "DT_FLOAT"}}}, {"name": "StatefulPartitionedCall/efficientnetv2-xl/blocks_17/conv2d_1/Conv2D_weights", "op": "Const", "attr": {"value": {"tensor": {"dtype": "DT_FLOAT", "tensorShape": {"dim": [{"size": "1"}, {"size": "1"}, {"size": "384"}, {"size": "96"}]}}}, "dtype": {"type": "DT_FLOAT"}}}, {"name": "StatefulPartitionedCall/efficientnetv2-xl/blocks_17/conv2d_1/Conv2D_bn_offset", "op": "Const", "attr": {"value": {"tensor": {"dtype": "DT_FLOAT", "tensorShape": {"dim": [{"size": "96"}]}}}, "dtype": {"type": "DT_FLOAT"}}}, {"name": "StatefulPartitionedCall/efficientnetv2-xl/blocks_18/conv2d/Conv2D_weights", "op": "Const", "attr": {"value": {"tensor": {"dtype": "DT_FLOAT", "tensorShape": {"dim": [{"size": "3"}, {"size": "3"}, {"size": "96"}, {"size": "384"}]}}}, "dtype": {"type": "DT_FLOAT"}}}, {"name": "StatefulPartitionedCall/efficientnetv2-xl/blocks_87/conv2d_1/Conv2D_weights", "op": "Const", "attr": {"value": {"tensor": {"dtype": "DT_FLOAT", "tensorShape": {"dim": [{"size": "1"}, {"size": "1"}, {"size": "3072"}, {"size": "512"}]}}}, "dtype": {"type": "DT_FLOAT"}}}, {"name": "StatefulPartitionedCall/efficientnetv2-xl/blocks_18/conv2d/Conv2D_bn_offset", "op": "Const", "attr": {"value": {"tensor": {"dtype": "DT_FLOAT", "tensorShape": {"dim": [{"size": "384"}]}}}, "dtype": {"type": "DT_FLOAT"}}}, {"name": "StatefulPartitionedCall/efficientnetv2-xl/blocks_18/conv2d_1/Conv2D_weights", "op": "Const", "attr": {"dtype": {"type": "DT_FLOAT"}, "value": {"tensor": {"dtype": "DT_FLOAT", "tensorShape": {"dim": [{"size": "1"}, {"size": "1"}, {"size": "384"}, {"size": "96"}]}}}}}, {"name": "StatefulPartitionedCall/efficientnetv2-xl/blocks_18/conv2d_1/Conv2D_bn_offset", "op": "Const", "attr": {"value": {"tensor": {"dtype": "DT_FLOAT", "tensorShape": {"dim": [{"size": "96"}]}}}, "dtype": {"type": "DT_FLOAT"}}}, {"name": "StatefulPartitionedCall/efficientnetv2-xl/blocks_19/conv2d/Conv2D_weights", "op": "Const", "attr": {"value": {"tensor": {"dtype": "DT_FLOAT", "tensorShape": {"dim": [{"size": "3"}, {"size": "3"}, {"size": "96"}, {"size": "384"}]}}}, "dtype": {"type": "DT_FLOAT"}}}, {"name": "StatefulPartitionedCall/efficientnetv2-xl/blocks_87/conv2d_1/Conv2D_bn_offset", "op": "Const", "attr": {"dtype": {"type": "DT_FLOAT"}, "value": {"tensor": {"dtype": "DT_FLOAT", "tensorShape": {"dim": [{"size": "512"}]}}}}}, {"name": "StatefulPartitionedCall/efficientnetv2-xl/blocks_19/conv2d/Conv2D_bn_offset", "op": "Const", "attr": {"value": {"tensor": {"dtype": "DT_FLOAT", "tensorShape": {"dim": [{"size": "384"}]}}}, "dtype": {"type": "DT_FLOAT"}}}, {"name": "StatefulPartitionedCall/efficientnetv2-xl/blocks_19/conv2d_1/Conv2D_weights", "op": "Const", "attr": {"value": {"tensor": {"dtype": "DT_FLOAT", "tensorShape": {"dim": [{"size": "1"}, {"size": "1"}, {"size": "384"}, {"size": "96"}]}}}, "dtype": {"type": "DT_FLOAT"}}}, {"name": "StatefulPartitionedCall/efficientnetv2-xl/blocks_19/conv2d_1/Conv2D_bn_offset", "op": "Const", "attr": {"dtype": {"type": "DT_FLOAT"}, "value": {"tensor": {"dtype": "DT_FLOAT", "tensorShape": {"dim": [{"size": "96"}]}}}}}, {"name": "StatefulPartitionedCall/efficientnetv2-xl/blocks_20/conv2d/Conv2D_weights", "op": "Const", "attr": {"dtype": {"type": "DT_FLOAT"}, "value": {"tensor": {"dtype": "DT_FLOAT", "tensorShape": {"dim": [{"size": "1"}, {"size": "1"}, {"size": "96"}, {"size": "384"}]}}}}}, {"name": "StatefulPartitionedCall/efficientnetv2-xl/blocks_20/conv2d/Conv2D_bn_offset", "op": "Const", "attr": {"dtype": {"type": "DT_FLOAT"}, "value": {"tensor": {"dtype": "DT_FLOAT", "tensorShape": {"dim": [{"size": "384"}]}}}}}, {"name": "StatefulPartitionedCall/efficientnetv2-xl/blocks_20/depthwise_conv2d/depthwise_weights", "op": "Const", "attr": {"value": {"tensor": {"dtype": "DT_FLOAT", "tensorShape": {"dim": [{"size": "3"}, {"size": "3"}, {"size": "384"}, {"size": "1"}]}}}, "dtype": {"type": "DT_FLOAT"}}}, {"name": "StatefulPartitionedCall/efficientnetv2-xl/blocks_20/depthwise_conv2d/depthwise_bn_offset", "op": "Const", "attr": {"dtype": {"type": "DT_FLOAT"}, "value": {"tensor": {"dtype": "DT_FLOAT", "tensorShape": {"dim": [{"size": "384"}]}}}}}, {"name": "StatefulPartitionedCall/efficientnetv2-xl/blocks_88/conv2d/Conv2D_weights", "op": "Const", "attr": {"value": {"tensor": {"dtype": "DT_FLOAT", "tensorShape": {"dim": [{"size": "1"}, {"size": "1"}, {"size": "512"}, {"size": "3072"}]}}}, "dtype": {"type": "DT_FLOAT"}}}, {"name": "StatefulPartitionedCall/efficientnetv2-xl/blocks_20/conv2d_1/Conv2D_weights", "op": "Const", "attr": {"dtype": {"type": "DT_FLOAT"}, "value": {"tensor": {"dtype": "DT_FLOAT", "tensorShape": {"dim": [{"size": "1"}, {"size": "1"}, {"size": "384"}, {"size": "192"}]}}}}}, {"name": "StatefulPartitionedCall/efficientnetv2-xl/blocks_88/conv2d/Conv2D_bn_offset", "op": "Const", "attr": {"value": {"tensor": {"dtype": "DT_FLOAT", "tensorShape": {"dim": [{"size": "3072"}]}}}, "dtype": {"type": "DT_FLOAT"}}}, {"name": "StatefulPartitionedCall/efficientnetv2-xl/blocks_20/conv2d_1/Conv2D_bn_offset", "op": "Const", "attr": {"value": {"tensor": {"dtype": "DT_FLOAT", "tensorShape": {"dim": [{"size": "192"}]}}}, "dtype": {"type": "DT_FLOAT"}}}, {"name": "StatefulPartitionedCall/efficientnetv2-xl/blocks_21/conv2d/Conv2D_weights", "op": "Const", "attr": {"dtype": {"type": "DT_FLOAT"}, "value": {"tensor": {"dtype": "DT_FLOAT", "tensorShape": {"dim": [{"size": "1"}, {"size": "1"}, {"size": "192"}, {"size": "768"}]}}}}}, {"name": "StatefulPartitionedCall/efficientnetv2-xl/blocks_21/conv2d/Conv2D_bn_offset", "op": "Const", "attr": {"dtype": {"type": "DT_FLOAT"}, "value": {"tensor": {"dtype": "DT_FLOAT", "tensorShape": {"dim": [{"size": "768"}]}}}}}, {"name": "StatefulPartitionedCall/efficientnetv2-xl/blocks_21/depthwise_conv2d/depthwise_weights", "op": "Const", "attr": {"dtype": {"type": "DT_FLOAT"}, "value": {"tensor": {"dtype": "DT_FLOAT", "tensorShape": {"dim": [{"size": "3"}, {"size": "3"}, {"size": "768"}, {"size": "1"}]}}}}}, {"name": "StatefulPartitionedCall/efficientnetv2-xl/blocks_21/depthwise_conv2d/depthwise_bn_offset", "op": "Const", "attr": {"dtype": {"type": "DT_FLOAT"}, "value": {"tensor": {"dtype": "DT_FLOAT", "tensorShape": {"dim": [{"size": "768"}]}}}}}, {"name": "StatefulPartitionedCall/efficientnetv2-xl/blocks_21/conv2d_1/Conv2D_weights", "op": "Const", "attr": {"dtype": {"type": "DT_FLOAT"}, "value": {"tensor": {"dtype": "DT_FLOAT", "tensorShape": {"dim": [{"size": "1"}, {"size": "1"}, {"size": "768"}, {"size": "192"}]}}}}}, {"name": "StatefulPartitionedCall/efficientnetv2-xl/blocks_88/depthwise_conv2d/depthwise_weights", "op": "Const", "attr": {"dtype": {"type": "DT_FLOAT"}, "value": {"tensor": {"dtype": "DT_FLOAT", "tensorShape": {"dim": [{"size": "3"}, {"size": "3"}, {"size": "3072"}, {"size": "1"}]}}}}}, {"name": "StatefulPartitionedCall/efficientnetv2-xl/blocks_21/conv2d_1/Conv2D_bn_offset", "op": "Const", "attr": {"dtype": {"type": "DT_FLOAT"}, "value": {"tensor": {"dtype": "DT_FLOAT", "tensorShape": {"dim": [{"size": "192"}]}}}}}, {"name": "StatefulPartitionedCall/efficientnetv2-xl/blocks_22/conv2d/Conv2D_weights", "op": "Const", "attr": {"value": {"tensor": {"dtype": "DT_FLOAT", "tensorShape": {"dim": [{"size": "1"}, {"size": "1"}, {"size": "192"}, {"size": "768"}]}}}, "dtype": {"type": "DT_FLOAT"}}}, {"name": "StatefulPartitionedCall/efficientnetv2-xl/blocks_22/conv2d/Conv2D_bn_offset", "op": "Const", "attr": {"dtype": {"type": "DT_FLOAT"}, "value": {"tensor": {"dtype": "DT_FLOAT", "tensorShape": {"dim": [{"size": "768"}]}}}}}, {"name": "StatefulPartitionedCall/efficientnetv2-xl/blocks_22/depthwise_conv2d/depthwise_weights", "op": "Const", "attr": {"value": {"tensor": {"dtype": "DT_FLOAT", "tensorShape": {"dim": [{"size": "3"}, {"size": "3"}, {"size": "768"}, {"size": "1"}]}}}, "dtype": {"type": "DT_FLOAT"}}}, {"name": "StatefulPartitionedCall/efficientnetv2-xl/blocks_22/depthwise_conv2d/depthwise_bn_offset", "op": "Const", "attr": {"dtype": {"type": "DT_FLOAT"}, "value": {"tensor": {"dtype": "DT_FLOAT", "tensorShape": {"dim": [{"size": "768"}]}}}}}, {"name": "StatefulPartitionedCall/efficientnetv2-xl/blocks_88/depthwise_conv2d/depthwise_bn_offset", "op": "Const", "attr": {"value": {"tensor": {"dtype": "DT_FLOAT", "tensorShape": {"dim": [{"size": "3072"}]}}}, "dtype": {"type": "DT_FLOAT"}}}, {"name": "StatefulPartitionedCall/efficientnetv2-xl/blocks_22/conv2d_1/Conv2D_weights", "op": "Const", "attr": {"value": {"tensor": {"dtype": "DT_FLOAT", "tensorShape": {"dim": [{"size": "1"}, {"size": "1"}, {"size": "768"}, {"size": "192"}]}}}, "dtype": {"type": "DT_FLOAT"}}}, {"name": "StatefulPartitionedCall/efficientnetv2-xl/blocks_22/conv2d_1/Conv2D_bn_offset", "op": "Const", "attr": {"value": {"tensor": {"dtype": "DT_FLOAT", "tensorShape": {"dim": [{"size": "192"}]}}}, "dtype": {"type": "DT_FLOAT"}}}, {"name": "StatefulPartitionedCall/efficientnetv2-xl/blocks_23/conv2d/Conv2D_weights", "op": "Const", "attr": {"value": {"tensor": {"dtype": "DT_FLOAT", "tensorShape": {"dim": [{"size": "1"}, {"size": "1"}, {"size": "192"}, {"size": "768"}]}}}, "dtype": {"type": "DT_FLOAT"}}}, {"name": "StatefulPartitionedCall/efficientnetv2-xl/blocks_23/conv2d/Conv2D_bn_offset", "op": "Const", "attr": {"dtype": {"type": "DT_FLOAT"}, "value": {"tensor": {"dtype": "DT_FLOAT", "tensorShape": {"dim": [{"size": "768"}]}}}}}, {"name": "StatefulPartitionedCall/efficientnetv2-xl/blocks_23/depthwise_conv2d/depthwise_weights", "op": "Const", "attr": {"value": {"tensor": {"dtype": "DT_FLOAT", "tensorShape": {"dim": [{"size": "3"}, {"size": "3"}, {"size": "768"}, {"size": "1"}]}}}, "dtype": {"type": "DT_FLOAT"}}}, {"name": "StatefulPartitionedCall/efficientnetv2-xl/blocks_23/depthwise_conv2d/depthwise_bn_offset", "op": "Const", "attr": {"value": {"tensor": {"dtype": "DT_FLOAT", "tensorShape": {"dim": [{"size": "768"}]}}}, "dtype": {"type": "DT_FLOAT"}}}, {"name": "StatefulPartitionedCall/efficientnetv2-xl/blocks_23/conv2d_1/Conv2D_weights", "op": "Const", "attr": {"value": {"tensor": {"dtype": "DT_FLOAT", "tensorShape": {"dim": [{"size": "1"}, {"size": "1"}, {"size": "768"}, {"size": "192"}]}}}, "dtype": {"type": "DT_FLOAT"}}}, {"name": "StatefulPartitionedCall/efficientnetv2-xl/blocks_23/conv2d_1/Conv2D_bn_offset", "op": "Const", "attr": {"dtype": {"type": "DT_FLOAT"}, "value": {"tensor": {"dtype": "DT_FLOAT", "tensorShape": {"dim": [{"size": "192"}]}}}}}, {"name": "StatefulPartitionedCall/efficientnetv2-xl/blocks_24/conv2d/Conv2D_weights", "op": "Const", "attr": {"value": {"tensor": {"dtype": "DT_FLOAT", "tensorShape": {"dim": [{"size": "1"}, {"size": "1"}, {"size": "192"}, {"size": "768"}]}}}, "dtype": {"type": "DT_FLOAT"}}}, {"name": "StatefulPartitionedCall/efficientnetv2-xl/blocks_24/conv2d/Conv2D_bn_offset", "op": "Const", "attr": {"value": {"tensor": {"dtype": "DT_FLOAT", "tensorShape": {"dim": [{"size": "768"}]}}}, "dtype": {"type": "DT_FLOAT"}}}, {"name": "StatefulPartitionedCall/efficientnetv2-xl/blocks_24/depthwise_conv2d/depthwise_weights", "op": "Const", "attr": {"value": {"tensor": {"dtype": "DT_FLOAT", "tensorShape": {"dim": [{"size": "3"}, {"size": "3"}, {"size": "768"}, {"size": "1"}]}}}, "dtype": {"type": "DT_FLOAT"}}}, {"name": "StatefulPartitionedCall/efficientnetv2-xl/blocks_24/depthwise_conv2d/depthwise_bn_offset", "op": "Const", "attr": {"dtype": {"type": "DT_FLOAT"}, "value": {"tensor": {"dtype": "DT_FLOAT", "tensorShape": {"dim": [{"size": "768"}]}}}}}, {"name": "StatefulPartitionedCall/efficientnetv2-xl/blocks_24/conv2d_1/Conv2D_weights", "op": "Const", "attr": {"dtype": {"type": "DT_FLOAT"}, "value": {"tensor": {"dtype": "DT_FLOAT", "tensorShape": {"dim": [{"size": "1"}, {"size": "1"}, {"size": "768"}, {"size": "192"}]}}}}}, {"name": "StatefulPartitionedCall/efficientnetv2-xl/blocks_24/conv2d_1/Conv2D_bn_offset", "op": "Const", "attr": {"value": {"tensor": {"dtype": "DT_FLOAT", "tensorShape": {"dim": [{"size": "192"}]}}}, "dtype": {"type": "DT_FLOAT"}}}, {"name": "StatefulPartitionedCall/efficientnetv2-xl/blocks_25/conv2d/Conv2D_weights", "op": "Const", "attr": {"value": {"tensor": {"dtype": "DT_FLOAT", "tensorShape": {"dim": [{"size": "1"}, {"size": "1"}, {"size": "192"}, {"size": "768"}]}}}, "dtype": {"type": "DT_FLOAT"}}}, {"name": "StatefulPartitionedCall/efficientnetv2-xl/blocks_25/conv2d/Conv2D_bn_offset", "op": "Const", "attr": {"value": {"tensor": {"dtype": "DT_FLOAT", "tensorShape": {"dim": [{"size": "768"}]}}}, "dtype": {"type": "DT_FLOAT"}}}, {"name": "StatefulPartitionedCall/efficientnetv2-xl/blocks_25/depthwise_conv2d/depthwise_weights", "op": "Const", "attr": {"value": {"tensor": {"dtype": "DT_FLOAT", "tensorShape": {"dim": [{"size": "3"}, {"size": "3"}, {"size": "768"}, {"size": "1"}]}}}, "dtype": {"type": "DT_FLOAT"}}}, {"name": "StatefulPartitionedCall/efficientnetv2-xl/blocks_25/depthwise_conv2d/depthwise_bn_offset", "op": "Const", "attr": {"dtype": {"type": "DT_FLOAT"}, "value": {"tensor": {"dtype": "DT_FLOAT", "tensorShape": {"dim": [{"size": "768"}]}}}}}, {"name": "StatefulPartitionedCall/efficientnetv2-xl/blocks_88/conv2d_1/Conv2D_weights", "op": "Const", "attr": {"dtype": {"type": "DT_FLOAT"}, "value": {"tensor": {"dtype": "DT_FLOAT", "tensorShape": {"dim": [{"size": "1"}, {"size": "1"}, {"size": "3072"}, {"size": "512"}]}}}}}, {"name": "StatefulPartitionedCall/efficientnetv2-xl/blocks_25/conv2d_1/Conv2D_weights", "op": "Const", "attr": {"value": {"tensor": {"dtype": "DT_FLOAT", "tensorShape": {"dim": [{"size": "1"}, {"size": "1"}, {"size": "768"}, {"size": "192"}]}}}, "dtype": {"type": "DT_FLOAT"}}}, {"name": "StatefulPartitionedCall/efficientnetv2-xl/blocks_25/conv2d_1/Conv2D_bn_offset", "op": "Const", "attr": {"dtype": {"type": "DT_FLOAT"}, "value": {"tensor": {"dtype": "DT_FLOAT", "tensorShape": {"dim": [{"size": "192"}]}}}}}, {"name": "StatefulPartitionedCall/efficientnetv2-xl/blocks_26/conv2d/Conv2D_weights", "op": "Const", "attr": {"dtype": {"type": "DT_FLOAT"}, "value": {"tensor": {"dtype": "DT_FLOAT", "tensorShape": {"dim": [{"size": "1"}, {"size": "1"}, {"size": "192"}, {"size": "768"}]}}}}}, {"name": "StatefulPartitionedCall/efficientnetv2-xl/blocks_88/conv2d_1/Conv2D_bn_offset", "op": "Const", "attr": {"value": {"tensor": {"dtype": "DT_FLOAT", "tensorShape": {"dim": [{"size": "512"}]}}}, "dtype": {"type": "DT_FLOAT"}}}, {"name": "StatefulPartitionedCall/efficientnetv2-xl/blocks_26/conv2d/Conv2D_bn_offset", "op": "Const", "attr": {"value": {"tensor": {"dtype": "DT_FLOAT", "tensorShape": {"dim": [{"size": "768"}]}}}, "dtype": {"type": "DT_FLOAT"}}}, {"name": "StatefulPartitionedCall/efficientnetv2-xl/blocks_26/depthwise_conv2d/depthwise_weights", "op": "Const", "attr": {"value": {"tensor": {"dtype": "DT_FLOAT", "tensorShape": {"dim": [{"size": "3"}, {"size": "3"}, {"size": "768"}, {"size": "1"}]}}}, "dtype": {"type": "DT_FLOAT"}}}, {"name": "StatefulPartitionedCall/efficientnetv2-xl/blocks_26/depthwise_conv2d/depthwise_bn_offset", "op": "Const", "attr": {"dtype": {"type": "DT_FLOAT"}, "value": {"tensor": {"dtype": "DT_FLOAT", "tensorShape": {"dim": [{"size": "768"}]}}}}}, {"name": "StatefulPartitionedCall/efficientnetv2-xl/blocks_26/conv2d_1/Conv2D_weights", "op": "Const", "attr": {"value": {"tensor": {"dtype": "DT_FLOAT", "tensorShape": {"dim": [{"size": "1"}, {"size": "1"}, {"size": "768"}, {"size": "192"}]}}}, "dtype": {"type": "DT_FLOAT"}}}, {"name": "StatefulPartitionedCall/efficientnetv2-xl/blocks_89/conv2d/Conv2D_weights", "op": "Const", "attr": {"value": {"tensor": {"dtype": "DT_FLOAT", "tensorShape": {"dim": [{"size": "1"}, {"size": "1"}, {"size": "512"}, {"size": "3072"}]}}}, "dtype": {"type": "DT_FLOAT"}}}, {"name": "StatefulPartitionedCall/efficientnetv2-xl/blocks_26/conv2d_1/Conv2D_bn_offset", "op": "Const", "attr": {"value": {"tensor": {"dtype": "DT_FLOAT", "tensorShape": {"dim": [{"size": "192"}]}}}, "dtype": {"type": "DT_FLOAT"}}}, {"name": "StatefulPartitionedCall/efficientnetv2-xl/blocks_27/conv2d/Conv2D_weights", "op": "Const", "attr": {"value": {"tensor": {"dtype": "DT_FLOAT", "tensorShape": {"dim": [{"size": "1"}, {"size": "1"}, {"size": "192"}, {"size": "768"}]}}}, "dtype": {"type": "DT_FLOAT"}}}, {"name": "StatefulPartitionedCall/efficientnetv2-xl/blocks_27/conv2d/Conv2D_bn_offset", "op": "Const", "attr": {"value": {"tensor": {"dtype": "DT_FLOAT", "tensorShape": {"dim": [{"size": "768"}]}}}, "dtype": {"type": "DT_FLOAT"}}}, {"name": "StatefulPartitionedCall/efficientnetv2-xl/blocks_27/depthwise_conv2d/depthwise_weights", "op": "Const", "attr": {"dtype": {"type": "DT_FLOAT"}, "value": {"tensor": {"dtype": "DT_FLOAT", "tensorShape": {"dim": [{"size": "3"}, {"size": "3"}, {"size": "768"}, {"size": "1"}]}}}}}, {"name": "StatefulPartitionedCall/efficientnetv2-xl/blocks_27/depthwise_conv2d/depthwise_bn_offset", "op": "Const", "attr": {"value": {"tensor": {"dtype": "DT_FLOAT", "tensorShape": {"dim": [{"size": "768"}]}}}, "dtype": {"type": "DT_FLOAT"}}}, {"name": "StatefulPartitionedCall/efficientnetv2-xl/blocks_89/conv2d/Conv2D_bn_offset", "op": "Const", "attr": {"value": {"tensor": {"dtype": "DT_FLOAT", "tensorShape": {"dim": [{"size": "3072"}]}}}, "dtype": {"type": "DT_FLOAT"}}}, {"name": "StatefulPartitionedCall/efficientnetv2-xl/blocks_27/conv2d_1/Conv2D_weights", "op": "Const", "attr": {"dtype": {"type": "DT_FLOAT"}, "value": {"tensor": {"dtype": "DT_FLOAT", "tensorShape": {"dim": [{"size": "1"}, {"size": "1"}, {"size": "768"}, {"size": "192"}]}}}}}, {"name": "StatefulPartitionedCall/efficientnetv2-xl/blocks_27/conv2d_1/Conv2D_bn_offset", "op": "Const", "attr": {"value": {"tensor": {"dtype": "DT_FLOAT", "tensorShape": {"dim": [{"size": "192"}]}}}, "dtype": {"type": "DT_FLOAT"}}}, {"name": "StatefulPartitionedCall/efficientnetv2-xl/blocks_28/conv2d/Conv2D_weights", "op": "Const", "attr": {"value": {"tensor": {"dtype": "DT_FLOAT", "tensorShape": {"dim": [{"size": "1"}, {"size": "1"}, {"size": "192"}, {"size": "768"}]}}}, "dtype": {"type": "DT_FLOAT"}}}, {"name": "StatefulPartitionedCall/efficientnetv2-xl/blocks_28/conv2d/Conv2D_bn_offset", "op": "Const", "attr": {"dtype": {"type": "DT_FLOAT"}, "value": {"tensor": {"dtype": "DT_FLOAT", "tensorShape": {"dim": [{"size": "768"}]}}}}}, {"name": "StatefulPartitionedCall/efficientnetv2-xl/blocks_28/depthwise_conv2d/depthwise_weights", "op": "Const", "attr": {"value": {"tensor": {"dtype": "DT_FLOAT", "tensorShape": {"dim": [{"size": "3"}, {"size": "3"}, {"size": "768"}, {"size": "1"}]}}}, "dtype": {"type": "DT_FLOAT"}}}, {"name": "StatefulPartitionedCall/efficientnetv2-xl/blocks_28/depthwise_conv2d/depthwise_bn_offset", "op": "Const", "attr": {"dtype": {"type": "DT_FLOAT"}, "value": {"tensor": {"dtype": "DT_FLOAT", "tensorShape": {"dim": [{"size": "768"}]}}}}}, {"name": "StatefulPartitionedCall/efficientnetv2-xl/blocks_89/depthwise_conv2d/depthwise_weights", "op": "Const", "attr": {"dtype": {"type": "DT_FLOAT"}, "value": {"tensor": {"dtype": "DT_FLOAT", "tensorShape": {"dim": [{"size": "3"}, {"size": "3"}, {"size": "3072"}, {"size": "1"}]}}}}}, {"name": "StatefulPartitionedCall/efficientnetv2-xl/blocks_28/conv2d_1/Conv2D_weights", "op": "Const", "attr": {"value": {"tensor": {"dtype": "DT_FLOAT", "tensorShape": {"dim": [{"size": "1"}, {"size": "1"}, {"size": "768"}, {"size": "192"}]}}}, "dtype": {"type": "DT_FLOAT"}}}, {"name": "StatefulPartitionedCall/efficientnetv2-xl/blocks_89/depthwise_conv2d/depthwise_bn_offset", "op": "Const", "attr": {"dtype": {"type": "DT_FLOAT"}, "value": {"tensor": {"dtype": "DT_FLOAT", "tensorShape": {"dim": [{"size": "3072"}]}}}}}, {"name": "StatefulPartitionedCall/efficientnetv2-xl/blocks_28/conv2d_1/Conv2D_bn_offset", "op": "Const", "attr": {"value": {"tensor": {"dtype": "DT_FLOAT", "tensorShape": {"dim": [{"size": "192"}]}}}, "dtype": {"type": "DT_FLOAT"}}}, {"name": "StatefulPartitionedCall/efficientnetv2-xl/blocks_29/conv2d/Conv2D_weights", "op": "Const", "attr": {"dtype": {"type": "DT_FLOAT"}, "value": {"tensor": {"dtype": "DT_FLOAT", "tensorShape": {"dim": [{"size": "1"}, {"size": "1"}, {"size": "192"}, {"size": "768"}]}}}}}, {"name": "StatefulPartitionedCall/efficientnetv2-xl/blocks_29/conv2d/Conv2D_bn_offset", "op": "Const", "attr": {"value": {"tensor": {"dtype": "DT_FLOAT", "tensorShape": {"dim": [{"size": "768"}]}}}, "dtype": {"type": "DT_FLOAT"}}}, {"name": "StatefulPartitionedCall/efficientnetv2-xl/blocks_29/depthwise_conv2d/depthwise_weights", "op": "Const", "attr": {"value": {"tensor": {"dtype": "DT_FLOAT", "tensorShape": {"dim": [{"size": "3"}, {"size": "3"}, {"size": "768"}, {"size": "1"}]}}}, "dtype": {"type": "DT_FLOAT"}}}, {"name": "StatefulPartitionedCall/efficientnetv2-xl/blocks_29/depthwise_conv2d/depthwise_bn_offset", "op": "Const", "attr": {"value": {"tensor": {"dtype": "DT_FLOAT", "tensorShape": {"dim": [{"size": "768"}]}}}, "dtype": {"type": "DT_FLOAT"}}}, {"name": "StatefulPartitionedCall/efficientnetv2-xl/blocks_29/conv2d_1/Conv2D_weights", "op": "Const", "attr": {"dtype": {"type": "DT_FLOAT"}, "value": {"tensor": {"dtype": "DT_FLOAT", "tensorShape": {"dim": [{"size": "1"}, {"size": "1"}, {"size": "768"}, {"size": "192"}]}}}}}, {"name": "StatefulPartitionedCall/efficientnetv2-xl/blocks_29/conv2d_1/Conv2D_bn_offset", "op": "Const", "attr": {"dtype": {"type": "DT_FLOAT"}, "value": {"tensor": {"dtype": "DT_FLOAT", "tensorShape": {"dim": [{"size": "192"}]}}}}}, {"name": "StatefulPartitionedCall/efficientnetv2-xl/blocks_30/conv2d/Conv2D_weights", "op": "Const", "attr": {"dtype": {"type": "DT_FLOAT"}, "value": {"tensor": {"dtype": "DT_FLOAT", "tensorShape": {"dim": [{"size": "1"}, {"size": "1"}, {"size": "192"}, {"size": "768"}]}}}}}, {"name": "StatefulPartitionedCall/efficientnetv2-xl/head/conv2d/Conv2D_bn_offset", "op": "Const", "attr": {"dtype": {"type": "DT_FLOAT"}, "value": {"tensor": {"dtype": "DT_FLOAT", "tensorShape": {"dim": [{"size": "1280"}]}}}}}, {"name": "StatefulPartitionedCall/efficientnetv2-xl/blocks_30/conv2d/Conv2D_bn_offset", "op": "Const", "attr": {"dtype": {"type": "DT_FLOAT"}, "value": {"tensor": {"dtype": "DT_FLOAT", "tensorShape": {"dim": [{"size": "768"}]}}}}}, {"name": "StatefulPartitionedCall/efficientnetv2-xl/blocks_30/depthwise_conv2d/depthwise_weights", "op": "Const", "attr": {"value": {"tensor": {"dtype": "DT_FLOAT", "tensorShape": {"dim": [{"size": "3"}, {"size": "3"}, {"size": "768"}, {"size": "1"}]}}}, "dtype": {"type": "DT_FLOAT"}}}, {"name": "StatefulPartitionedCall/efficientnetv2-xl/blocks_30/depthwise_conv2d/depthwise_bn_offset", "op": "Const", "attr": {"value": {"tensor": {"dtype": "DT_FLOAT", "tensorShape": {"dim": [{"size": "768"}]}}}, "dtype": {"type": "DT_FLOAT"}}}, {"name": "StatefulPartitionedCall/efficientnetv2-xl/blocks_30/conv2d_1/Conv2D_weights", "op": "Const", "attr": {"dtype": {"type": "DT_FLOAT"}, "value": {"tensor": {"dtype": "DT_FLOAT", "tensorShape": {"dim": [{"size": "1"}, {"size": "1"}, {"size": "768"}, {"size": "192"}]}}}}}, {"name": "StatefulPartitionedCall/efficientnetv2-xl/blocks_30/conv2d_1/Conv2D_bn_offset", "op": "Const", "attr": {"dtype": {"type": "DT_FLOAT"}, "value": {"tensor": {"dtype": "DT_FLOAT", "tensorShape": {"dim": [{"size": "192"}]}}}}}, {"name": "StatefulPartitionedCall/efficientnetv2-xl/blocks_31/conv2d/Conv2D_weights", "op": "Const", "attr": {"dtype": {"type": "DT_FLOAT"}, "value": {"tensor": {"dtype": "DT_FLOAT", "tensorShape": {"dim": [{"size": "1"}, {"size": "1"}, {"size": "192"}, {"size": "768"}]}}}}}, {"name": "StatefulPartitionedCall/efficientnetv2-xl/blocks_31/conv2d/Conv2D_bn_offset", "op": "Const", "attr": {"value": {"tensor": {"dtype": "DT_FLOAT", "tensorShape": {"dim": [{"size": "768"}]}}}, "dtype": {"type": "DT_FLOAT"}}}, {"name": "StatefulPartitionedCall/efficientnetv2-xl/blocks_31/depthwise_conv2d/depthwise_weights", "op": "Const", "attr": {"dtype": {"type": "DT_FLOAT"}, "value": {"tensor": {"dtype": "DT_FLOAT", "tensorShape": {"dim": [{"size": "3"}, {"size": "3"}, {"size": "768"}, {"size": "1"}]}}}}}, {"name": "StatefulPartitionedCall/efficientnetv2-xl/blocks_31/depthwise_conv2d/depthwise_bn_offset", "op": "Const", "attr": {"value": {"tensor": {"dtype": "DT_FLOAT", "tensorShape": {"dim": [{"size": "768"}]}}}, "dtype": {"type": "DT_FLOAT"}}}, {"name": "StatefulPartitionedCall/efficientnetv2-xl/blocks_31/conv2d_1/Conv2D_weights", "op": "Const", "attr": {"value": {"tensor": {"dtype": "DT_FLOAT", "tensorShape": {"dim": [{"size": "1"}, {"size": "1"}, {"size": "768"}, {"size": "192"}]}}}, "dtype": {"type": "DT_FLOAT"}}}, {"name": "StatefulPartitionedCall/efficientnetv2-xl/blocks_31/conv2d_1/Conv2D_bn_offset", "op": "Const", "attr": {"value": {"tensor": {"dtype": "DT_FLOAT", "tensorShape": {"dim": [{"size": "192"}]}}}, "dtype": {"type": "DT_FLOAT"}}}, {"name": "StatefulPartitionedCall/efficientnetv2-xl/blocks_32/conv2d/Conv2D_weights", "op": "Const", "attr": {"value": {"tensor": {"dtype": "DT_FLOAT", "tensorShape": {"dim": [{"size": "1"}, {"size": "1"}, {"size": "192"}, {"size": "768"}]}}}, "dtype": {"type": "DT_FLOAT"}}}, {"name": "StatefulPartitionedCall/efficientnetv2-xl/blocks_89/conv2d_1/Conv2D_weights", "op": "Const", "attr": {"value": {"tensor": {"dtype": "DT_FLOAT", "tensorShape": {"dim": [{"size": "1"}, {"size": "1"}, {"size": "3072"}, {"size": "512"}]}}}, "dtype": {"type": "DT_FLOAT"}}}, {"name": "StatefulPartitionedCall/efficientnetv2-xl/blocks_32/conv2d/Conv2D_bn_offset", "op": "Const", "attr": {"dtype": {"type": "DT_FLOAT"}, "value": {"tensor": {"dtype": "DT_FLOAT", "tensorShape": {"dim": [{"size": "768"}]}}}}}, {"name": "StatefulPartitionedCall/efficientnetv2-xl/blocks_32/depthwise_conv2d/depthwise_weights", "op": "Const", "attr": {"dtype": {"type": "DT_FLOAT"}, "value": {"tensor": {"dtype": "DT_FLOAT", "tensorShape": {"dim": [{"size": "3"}, {"size": "3"}, {"size": "768"}, {"size": "1"}]}}}}}, {"name": "StatefulPartitionedCall/efficientnetv2-xl/blocks_32/depthwise_conv2d/depthwise_bn_offset", "op": "Const", "attr": {"dtype": {"type": "DT_FLOAT"}, "value": {"tensor": {"dtype": "DT_FLOAT", "tensorShape": {"dim": [{"size": "768"}]}}}}}, {"name": "StatefulPartitionedCall/efficientnetv2-xl/blocks_89/conv2d_1/Conv2D_bn_offset", "op": "Const", "attr": {"value": {"tensor": {"dtype": "DT_FLOAT", "tensorShape": {"dim": [{"size": "512"}]}}}, "dtype": {"type": "DT_FLOAT"}}}, {"name": "StatefulPartitionedCall/efficientnetv2-xl/blocks_32/conv2d_1/Conv2D_weights", "op": "Const", "attr": {"value": {"tensor": {"dtype": "DT_FLOAT", "tensorShape": {"dim": [{"size": "1"}, {"size": "1"}, {"size": "768"}, {"size": "192"}]}}}, "dtype": {"type": "DT_FLOAT"}}}, {"name": "StatefulPartitionedCall/efficientnetv2-xl/blocks_32/conv2d_1/Conv2D_bn_offset", "op": "Const", "attr": {"dtype": {"type": "DT_FLOAT"}, "value": {"tensor": {"dtype": "DT_FLOAT", "tensorShape": {"dim": [{"size": "192"}]}}}}}, {"name": "StatefulPartitionedCall/efficientnetv2-xl/blocks_33/conv2d/Conv2D_weights", "op": "Const", "attr": {"dtype": {"type": "DT_FLOAT"}, "value": {"tensor": {"dtype": "DT_FLOAT", "tensorShape": {"dim": [{"size": "1"}, {"size": "1"}, {"size": "192"}, {"size": "7…
hwise_weights", "shape": [3, 3, 768, 1], "dtype": "float32"}, {"name": "StatefulPartitionedCall/efficientnetv2-xl/blocks_34/depthwise_conv2d/depthwise_bn_offset", "shape": [768], "dtype": "float32"}, {"name": "StatefulPartitionedCall/efficientnetv2-xl/blocks_34/conv2d_1/Conv2D_weights", "shape": [1, 1, 768, 192], "dtype": "float32"}, {"name": "StatefulPartitionedCall/efficientnetv2-xl/blocks_90/depthwise_conv2d/depthwise_weights", "shape": [3, 3, 3072, 1], "dtype": "float32"}, {"name": "StatefulPartitionedCall/efficientnetv2-xl/blocks_34/conv2d_1/Conv2D_bn_offset", "shape": [192], "dtype": "float32"}, {"name": "StatefulPartitionedCall/efficientnetv2-xl/blocks_35/conv2d/Conv2D_weights", "shape": [1, 1, 192, 768], "dtype": "float32"}, {"name": "StatefulPartitionedCall/efficientnetv2-xl/blocks_35/conv2d/Conv2D_bn_offset", "shape": [768], "dtype": "float32"}, {"name": "StatefulPartitionedCall/efficientnetv2-xl/blocks_35/depthwise_conv2d/depthwise_weights", "shape": [3, 3, 768, 1], "dtype": "float32"}, {"name": "StatefulPartitionedCall/efficientnetv2-xl/blocks_35/depthwise_conv2d/depthwise_bn_offset", "shape": [768], "dtype": "float32"}, {"name": "StatefulPartitionedCall/efficientnetv2-xl/blocks_90/depthwise_conv2d/depthwise_bn_offset", "shape": [3072], "dtype": "float32"}, {"name": "StatefulPartitionedCall/efficientnetv2-xl/blocks_35/conv2d_1/Conv2D_weights", "shape": [1, 1, 768, 192], "dtype": "float32"}, {"name": "StatefulPartitionedCall/efficientnetv2-xl/blocks_35/conv2d_1/Conv2D_bn_offset", "shape": [192], "dtype": "float32"}, {"name": "StatefulPartitionedCall/efficientnetv2-xl/blocks_36/conv2d/Conv2D_weights", "shape": [1, 1, 192, 1152], "dtype": "float32"}, {"name": "StatefulPartitionedCall/efficientnetv2-xl/blocks_36/conv2d/Conv2D_bn_offset", "shape": [1152], "dtype": "float32"}, {"name": "StatefulPartitionedCall/efficientnetv2-xl/blocks_36/depthwise_conv2d/depthwise_weights", "shape": [3, 3, 1152, 1], "dtype": "float32"}, {"name": "StatefulPartitionedCall/efficientnetv2-xl/blocks_36/depthwise_conv2d/depthwise_bn_offset", "shape": [1152], "dtype": "float32"}, {"name": "StatefulPartitionedCall/efficientnetv2-xl/blocks_98/conv2d_1/Conv2D_weights", "shape": [1, 1, 3840, 640], "dtype": "float32"}, {"name": "StatefulPartitionedCall/efficientnetv2-xl/blocks_36/conv2d_1/Conv2D_weights", "shape": [1, 1, 1152, 256], "dtype": "float32"}, {"name": "StatefulPartitionedCall/efficientnetv2-xl/blocks_36/conv2d_1/Conv2D_bn_offset", "shape": [256], "dtype": "float32"}, {"name": "StatefulPartitionedCall/efficientnetv2-xl/blocks_37/conv2d/Conv2D_weights", "shape": [1, 1, 256, 1536], "dtype": "float32"}, {"name": "StatefulPartitionedCall/efficientnetv2-xl/blocks_37/conv2d/Conv2D_bn_offset", "shape": [1536], "dtype": "float32"}, {"name": "StatefulPartitionedCall/efficientnetv2-xl/blocks_37/depthwise_conv2d/depthwise_weights", "shape": [3, 3, 1536, 1], "dtype": "float32"}, {"name": "StatefulPartitionedCall/efficientnetv2-xl/blocks_37/depthwise_conv2d/depthwise_bn_offset", "shape": [1536], "dtype": "float32"}, {"name": "StatefulPartitionedCall/efficientnetv2-xl/blocks_37/conv2d_1/Conv2D_weights", "shape": [1, 1, 1536, 256], "dtype": "float32"}, {"name": "StatefulPartitionedCall/efficientnetv2-xl/blocks_37/conv2d_1/Conv2D_bn_offset", "shape": [256], "dtype": "float32"}, {"name": "StatefulPartitionedCall/efficientnetv2-xl/blocks_38/conv2d/Conv2D_weights", "shape": [1, 1, 256, 1536], "dtype": "float32"}, {"name": "StatefulPartitionedCall/efficientnetv2-xl/blocks_38/conv2d/Conv2D_bn_offset", "shape": [1536], "dtype": "float32"}, {"name": "StatefulPartitionedCall/efficientnetv2-xl/blocks_38/depthwise_conv2d/depthwise_weights", "shape": [3, 3, 1536, 1], "dtype": "float32"}, {"name": "StatefulPartitionedCall/efficientnetv2-xl/blocks_38/depthwise_conv2d/depthwise_bn_offset", "shape": [1536], "dtype": "float32"}, {"name": "StatefulPartitionedCall/efficientnetv2-xl/blocks_90/conv2d_1/Conv2D_weights", "shape": [1, 1, 3072, 512], "dtype": "float32"}, {"name": "StatefulPartitionedCall/efficientnetv2-xl/blocks_38/conv2d_1/Conv2D_weights", "shape": [1, 1, 1536, 256], "dtype": "float32"}, {"name": "StatefulPartitionedCall/efficientnetv2-xl/blocks_98/conv2d_1/Conv2D_bn_offset", "shape": [640], "dtype": "float32"}, {"name": "StatefulPartitionedCall/efficientnetv2-xl/blocks_38/conv2d_1/Conv2D_bn_offset", "shape": [256], "dtype": "float32"}, {"name": "StatefulPartitionedCall/efficientnetv2-xl/blocks_39/conv2d/Conv2D_weights", "shape": [1, 1, 256, 1536], "dtype": "float32"}, {"name": "StatefulPartitionedCall/efficientnetv2-xl/blocks_90/conv2d_1/Conv2D_bn_offset", "shape": [512], "dtype": "float32"}, {"name": "StatefulPartitionedCall/efficientnetv2-xl/blocks_39/conv2d/Conv2D_bn_offset", "shape": [1536], "dtype": "float32"}, {"name": "StatefulPartitionedCall/efficientnetv2-xl/blocks_39/depthwise_conv2d/depthwise_weights", "shape": [3, 3, 1536, 1], "dtype": "float32"}, {"name": "StatefulPartitionedCall/efficientnetv2-xl/blocks_39/depthwise_conv2d/depthwise_bn_offset", "shape": [1536], "dtype": "float32"}, {"name": "StatefulPartitionedCall/efficientnetv2-xl/blocks_39/conv2d_1/Conv2D_weights", "shape": [1, 1, 1536, 256], "dtype": "float32"}, {"name": "StatefulPartitionedCall/efficientnetv2-xl/blocks_91/conv2d/Conv2D_weights", "shape": [1, 1, 512, 3072], "dtype": "float32"}, {"name": "StatefulPartitionedCall/efficientnetv2-xl/blocks_39/conv2d_1/Conv2D_bn_offset", "shape": [256], "dtype": "float32"}, {"name": "StatefulPartitionedCall/efficientnetv2-xl/blocks_40/conv2d/Conv2D_weights", "shape": [1, 1, 256, 1536], "dtype": "float32"}, {"name": "StatefulPartitionedCall/efficientnetv2-xl/blocks_40/conv2d/Conv2D_bn_offset", "shape": [1536], "dtype": "float32"}, {"name": "StatefulPartitionedCall/efficientnetv2-xl/blocks_40/depthwise_conv2d/depthwise_weights", "shape": [3, 3, 1536, 1], "dtype": "float32"}, {"name": "StatefulPartitionedCall/efficientnetv2-xl/blocks_40/depthwise_conv2d/depthwise_bn_offset", "shape": [1536], "dtype": "float32"}, {"name": "StatefulPartitionedCall/efficientnetv2-xl/blocks_91/conv2d/Conv2D_bn_offset", "shape": [3072], "dtype": "float32"}, {"name": "StatefulPartitionedCall/efficientnetv2-xl/blocks_40/conv2d_1/Conv2D_weights", "shape": [1, 1, 1536, 256], "dtype": "float32"}, {"name": "StatefulPartitionedCall/efficientnetv2-xl/blocks_40/conv2d_1/Conv2D_bn_offset", "shape": [256], "dtype": "float32"}, {"name": "StatefulPartitionedCall/efficientnetv2-xl/blocks_41/conv2d/Conv2D_weights", "shape": [1, 1, 256, 1536], "dtype": "float32"}, {"name": "StatefulPartitionedCall/efficientnetv2-xl/blocks_41/conv2d/Conv2D_bn_offset", "shape": [1536], "dtype": "float32"}, {"name": "StatefulPartitionedCall/efficientnetv2-xl/blocks_41/depthwise_conv2d/depthwise_weights", "shape": [3, 3, 1536, 1], "dtype": "float32"}, {"name": "StatefulPartitionedCall/efficientnetv2-xl/blocks_41/depthwise_conv2d/depthwise_bn_offset", "shape": [1536], "dtype": "float32"}, {"name": "StatefulPartitionedCall/efficientnetv2-xl/blocks_91/depthwise_conv2d/depthwise_weights", "shape": [3, 3, 3072, 1], "dtype": "float32"}, {"name": "StatefulPartitionedCall/efficientnetv2-xl/blocks_41/conv2d_1/Conv2D_weights", "shape": [1, 1, 1536, 256], "dtype": "float32"}, {"name": "StatefulPartitionedCall/efficientnetv2-xl/blocks_91/depthwise_conv2d/depthwise_bn_offset", "shape": [3072], "dtype": "float32"}, {"name": "StatefulPartitionedCall/efficientnetv2-xl/blocks_41/conv2d_1/Conv2D_bn_offset", "shape": [256], "dtype": "float32"}, {"name": "StatefulPartitionedCall/efficientnetv2-xl/blocks_42/conv2d/Conv2D_weights", "shape": [1, 1, 256, 1536], "dtype": "float32"}, {"name": "StatefulPartitionedCall/efficientnetv2-xl/blocks_42/conv2d/Conv2D_bn_offset", "shape": [1536], "dtype": "float32"}, {"name": "StatefulPartitionedCall/efficientnetv2-xl/blocks_42/depthwise_conv2d/depthwise_weights", "shape": [3, 3, 1536, 1], "dtype": "float32"}, {"name": "StatefulPartitionedCall/efficientnetv2-xl/blocks_42/depthwise_conv2d/depthwise_bn_offset", "shape": [1536], "dtype": "float32"}, {"name": "StatefulPartitionedCall/efficientnetv2-xl/blocks_42/conv2d_1/Conv2D_weights", "shape": [1, 1, 1536, 256], "dtype": "float32"}, {"name": "StatefulPartitionedCall/efficientnetv2-xl/blocks_42/conv2d_1/Conv2D_bn_offset", "shape": [256], "dtype": "float32"}, {"name": "StatefulPartitionedCall/efficientnetv2-xl/blocks_43/conv2d/Conv2D_weights", "shape": [1, 1, 256, 1536], "dtype": "float32"}, {"name": "StatefulPartitionedCall/efficientnetv2-xl/blocks_43/conv2d/Conv2D_bn_offset", "shape": [1536], "dtype": "float32"}, {"name": "StatefulPartitionedCall/efficientnetv2-xl/blocks_43/depthwise_conv2d/depthwise_weights", "shape": [3, 3, 1536, 1], "dtype": "float32"}, {"name": "StatefulPartitionedCall/efficientnetv2-xl/blocks_43/depthwise_conv2d/depthwise_bn_offset", "shape": [1536], "dtype": "float32"}, {"name": "StatefulPartitionedCall/efficientnetv2-xl/blocks_43/conv2d_1/Conv2D_weights", "shape": [1, 1, 1536, 256], "dtype": "float32"}, {"name": "StatefulPartitionedCall/efficientnetv2-xl/blocks_43/conv2d_1/Conv2D_bn_offset", "shape": [256], "dtype": "float32"}, {"name": "StatefulPartitionedCall/efficientnetv2-xl/blocks_44/conv2d/Conv2D_weights", "shape": [1, 1, 256, 1536], "dtype": "float32"}, {"name": "StatefulPartitionedCall/efficientnetv2-xl/blocks_99/conv2d/Conv2D_weights", "shape": [1, 1, 640, 3840], "dtype": "float32"}, {"name": "StatefulPartitionedCall/efficientnetv2-xl/blocks_44/conv2d/Conv2D_bn_offset", "shape": [1536], "dtype": "float32"}, {"name": "StatefulPartitionedCall/efficientnetv2-xl/blocks_44/depthwise_conv2d/depthwise_weights", "shape": [3, 3, 1536, 1], "dtype": "float32"}, {"name": "StatefulPartitionedCall/efficientnetv2-xl/blocks_44/depthwise_conv2d/depthwise_bn_offset", "shape": [1536], "dtype": "float32"}, {"name": "StatefulPartitionedCall/efficientnetv2-xl/blocks_44/conv2d_1/Conv2D_weights", "shape": [1, 1, 1536, 256], "dtype": "float32"}, {"name": "StatefulPartitionedCall/efficientnetv2-xl/blocks_44/conv2d_1/Conv2D_bn_offset", "shape": [256], "dtype": "float32"}, {"name": "StatefulPartitionedCall/efficientnetv2-xl/blocks_45/conv2d/Conv2D_weights", "shape": [1, 1, 256, 1536], "dtype": "float32"}, {"name": "StatefulPartitionedCall/efficientnetv2-xl/blocks_91/conv2d_1/Conv2D_weights", "shape": [1, 1, 3072, 512], "dtype": "float32"}, {"name": "StatefulPartitionedCall/efficientnetv2-xl/blocks_45/conv2d/Conv2D_bn_offset", "shape": [1536], "dtype": "float32"}, {"name": "StatefulPartitionedCall/efficientnetv2-xl/blocks_45/depthwise_conv2d/depthwise_weights", "shape": [3, 3, 1536, 1], "dtype": "float32"}, {"name": "StatefulPartitionedCall/efficientnetv2-xl/blocks_45/depthwise_conv2d/depthwise_bn_offset", "shape": [1536], "dtype": "float32"}, {"name": "StatefulPartitionedCall/efficientnetv2-xl/blocks_91/conv2d_1/Conv2D_bn_offset", "shape": [512], "dtype": "float32"}, {"name": "StatefulPartitionedCall/efficientnetv2-xl/blocks_45/conv2d_1/Conv2D_weights", "shape": [1, 1, 1536, 256], "dtype": "float32"}, {"name": "StatefulPartitionedCall/efficientnetv2-xl/blocks_45/conv2d_1/Conv2D_bn_offset", "shape": [256], "dtype": "float32"}, {"name": "StatefulPartitionedCall/efficientnetv2-xl/blocks_46/conv2d/Conv2D_weights", "shape": [1, 1, 256, 1536], "dtype": "float32"}, {"name": "StatefulPartitionedCall/efficientnetv2-xl/blocks_46/conv2d/Conv2D_bn_offset", "shape": [1536], "dtype": "float32"}, {"name": "StatefulPartitionedCall/efficientnetv2-xl/blocks_46/depthwise_conv2d/depthwise_weights", "shape": [3, 3, 1536, 1], "dtype": "float32"}, {"name": "StatefulPartitionedCall/efficientnetv2-xl/blocks_46/depthwise_conv2d/depthwise_bn_offset", "shape": [1536], "dtype": "float32"}, {"name": "StatefulPartitionedCall/efficientnetv2-xl/blocks_92/conv2d/Conv2D_weights", "shape": [1, 1, 512, 3072], "dtype": "float32"}, {"name": "StatefulPartitionedCall/efficientnetv2-xl/blocks_99/conv2d/Conv2D_bn_offset", "shape": [3840], "dtype": "float32"}, {"name": "StatefulPartitionedCall/efficientnetv2-xl/blocks_46/conv2d_1/Conv2D_weights", "shape": [1, 1, 1536, 256], "dtype": "float32"}, {"name": "StatefulPartitionedCall/efficientnetv2-xl/blocks_92/conv2d/Conv2D_bn_offset", "shape": [3072], "dtype": "float32"}, {"name": "StatefulPartitionedCall/efficientnetv2-xl/blocks_46/conv2d_1/Conv2D_bn_offset", "shape": [256], "dtype": "float32"}, {"name": "StatefulPartitionedCall/efficientnetv2-xl/blocks_47/conv2d/Conv2D_weights", "shape": [1, 1, 256, 1536], "dtype": "float32"}, {"name": "StatefulPartitionedCall/efficientnetv2-xl/blocks_47/conv2d/Conv2D_bn_offset", "shape": [1536], "dtype": "float32"}, {"name": "StatefulPartitionedCall/efficientnetv2-xl/blocks_47/depthwise_conv2d/depthwise_weights", "shape": [3, 3, 1536, 1], "dtype": "float32"}, {"name": "StatefulPartitionedCall/efficientnetv2-xl/blocks_47/depthwise_conv2d/depthwise_bn_offset", "shape": [1536], "dtype": "float32"}, {"name": "StatefulPartitionedCall/efficientnetv2-xl/blocks_47/conv2d_1/Conv2D_weights", "shape": [1, 1, 1536, 256], "dtype": "float32"}, {"name": "StatefulPartitionedCall/efficientnetv2-xl/blocks_92/depthwise_conv2d/depthwise_weights", "shape": [3, 3, 3072, 1], "dtype": "float32"}, {"name": "StatefulPartitionedCall/efficientnetv2-xl/blocks_47/conv2d_1/Conv2D_bn_offset", "shape": [256], "dtype": "float32"}, {"name": "StatefulPartitionedCall/efficientnetv2-xl/blocks_48/conv2d/Conv2D_weights", "shape": [1, 1, 256, 1536], "dtype": "float32"}, {"name": "StatefulPartitionedCall/efficientnetv2-xl/blocks_48/conv2d/Conv2D_bn_offset", "shape": [1536], "dtype": "float32"}, {"name": "StatefulPartitionedCall/efficientnetv2-xl/blocks_48/depthwise_conv2d/depthwise_weights", "shape": [3, 3, 1536, 1], "dtype": "float32"}, {"name": "StatefulPartitionedCall/efficientnetv2-xl/blocks_48/depthwise_conv2d/depthwise_bn_offset", "shape": [1536], "dtype": "float32"}, {"name": "StatefulPartitionedCall/efficientnetv2-xl/blocks_92/depthwise_conv2d/depthwise_bn_offset", "shape": [3072], "dtype": "float32"}, {"name": "StatefulPartitionedCall/efficientnetv2-xl/blocks_48/conv2d_1/Conv2D_weights", "shape": [1, 1, 1536, 256], "dtype": "float32"}, {"name": "StatefulPartitionedCall/efficientnetv2-xl/blocks_48/conv2d_1/Conv2D_bn_offset", "shape": [256], "dtype": "float32"}, {"name": "StatefulPartitionedCall/efficientnetv2-xl/blocks_49/conv2d/Conv2D_weights", "shape": [1, 1, 256, 1536], "dtype": "float32"}, {"name": "StatefulPartitionedCall/efficientnetv2-xl/blocks_49/conv2d/Conv2D_bn_offset", "shape": [1536], "dtype": "float32"}, {"name": "StatefulPartitionedCall/efficientnetv2-xl/blocks_49/depthwise_conv2d/depthwise_weights", "shape": [3, 3, 1536, 1], "dtype": "float32"}, {"name": "StatefulPartitionedCall/efficientnetv2-xl/blocks_49/depthwise_conv2d/depthwise_bn_offset", "shape": [1536], "dtype": "float32"}, {"name": "StatefulPartitionedCall/efficientnetv2-xl/blocks_49/conv2d_1/Conv2D_weights", "shape": [1, 1, 1536, 256], "dtype": "float32"}, {"name": "StatefulPartitionedCall/efficientnetv2-xl/blocks_49/conv2d_1/Conv2D_bn_offset", "shape": [256], "dtype": "float32"}, {"name": "StatefulPartitionedCall/efficientnetv2-xl/blocks_50/conv2d/Conv2D_weights", "shape": [1, 1, 256, 1536], "dtype": "float32"}, {"name": "StatefulPartitionedCall/efficientnetv2-xl/blocks_50/conv2d/Conv2D_bn_offset", "shape": [1536], "dtype": "float32"}, {"name": "StatefulPartitionedCall/efficientnetv2-xl/blocks_50/depthwise_conv2d/depthwise_weights", "shape": [3, 3, 1536, 1], "dtype": "float32"}, {"name": "StatefulPartitionedCall/efficientnetv2-xl/blocks_50/depthwise_conv2d/depthwise_bn_offset", "shape": [1536], "dtype": "float32"}, {"name": "StatefulPartitionedCall/efficientnetv2-xl/blocks_50/conv2d_1/Conv2D_weights", "shape": [1, 1, 1536, 256], "dtype": "float32"}, {"name": "StatefulPartitionedCall/efficientnetv2-xl/blocks_50/conv2d_1/Conv2D_bn_offset", "shape": [256], "dtype": "float32"}, {"name": "StatefulPartitionedCall/efficientnetv2-xl/blocks_51/conv2d/Conv2D_weights", "shape": [1, 1, 256, 1536], "dtype": "float32"}, {"name": "StatefulPartitionedCall/efficientnetv2-xl/blocks_51/conv2d/Conv2D_bn_offset", "shape": [1536], "dtype": "float32"}, {"name": "StatefulPartitionedCall/efficientnetv2-xl/blocks_51/depthwise_conv2d/depthwise_weights", "shape": [3, 3, 1536, 1], "dtype": "float32"}, {"name": "StatefulPartitionedCall/efficientnetv2-xl/blocks_51/depthwise_conv2d/depthwise_bn_offset", "shape": [1536], "dtype": "float32"}, {"name": "StatefulPartitionedCall/efficientnetv2-xl/blocks_92/conv2d_1/Conv2D_weights", "shape": [1, 1, 3072, 640], "dtype": "float32"}, {"name": "StatefulPartitionedCall/efficientnetv2-xl/blocks_51/conv2d_1/Conv2D_weights", "shape": [1, 1, 1536, 256], "dtype": "float32"}, {"name": "StatefulPartitionedCall/efficientnetv2-xl/blocks_51/conv2d_1/Conv2D_bn_offset", "shape": [256], "dtype": "float32"}, {"name": "StatefulPartitionedCall/efficientnetv2-xl/blocks_52/conv2d/Conv2D_weights", "shape": [1, 1, 256, 1536], "dtype": "float32"}, {"name": "StatefulPartitionedCall/efficientnetv2-xl/blocks_92/conv2d_1/Conv2D_bn_offset", "shape": [640], "dtype": "float32"}, {"name": "StatefulPartitionedCall/efficientnetv2-xl/blocks_52/conv2d/Conv2D_bn_offset", "shape": [1536], "dtype": "float32"}, {"name": "StatefulPartitionedCall/efficientnetv2-xl/blocks_52/depthwise_conv2d/depthwise_weights", "shape": [3, 3, 1536, 1], "dtype": "float32"}, {"name": "StatefulPartitionedCall/efficientnetv2-xl/blocks_52/depthwise_conv2d/depthwise_bn_offset", "shape": [1536], "dtype": "float32"}, {"name": "StatefulPartitionedCall/efficientnetv2-xl/blocks_93/conv2d/Conv2D_weights", "shape": [1, 1, 640, 3840], "dtype": "float32"}, {"name": "StatefulPartitionedCall/efficientnetv2-xl/blocks_52/conv2d_1/Conv2D_weights", "shape": [1, 1, 1536, 256], "dtype": "float32"}, {"name": "StatefulPartitionedCall/efficientnetv2-xl/blocks_99/depthwise_conv2d/depthwise_weights", "shape": [3, 3, 3840, 1], "dtype": "float32"}, {"name": "StatefulPartitionedCall/efficientnetv2-xl/blocks_52/conv2d_1/Conv2D_bn_offset", "shape": [256], "dtype": "float32"}, {"name": "StatefulPartitionedCall/efficientnetv2-xl/blocks_53/conv2d/Conv2D_weights", "shape": [1, 1, 256, 1536], "dtype": "float32"}, {"name": "StatefulPartitionedCall/efficientnetv2-xl/blocks_93/conv2d/Conv2D_bn_offset", "shape": [3840], "dtype": "float32"}, {"name": "StatefulPartitionedCall/efficientnetv2-xl/blocks_53/conv2d/Conv2D_bn_offset", "shape": [1536], "dtype": "float32"}, {"name": "StatefulPartitionedCall/efficientnetv2-xl/blocks_53/depthwise_conv2d/depthwise_weights", "shape": [3, 3, 1536, 1], "dtype": "float32"}, {"name": "StatefulPartitionedCall/efficientnetv2-xl/blocks_53/depthwise_conv2d/depthwise_bn_offset", "shape": [1536], "dtype": "float32"}, {"name": "StatefulPartitionedCall/efficientnetv2-xl/blocks_53/conv2d_1/Conv2D_weights", "shape": [1, 1, 1536, 256], "dtype": "float32"}, {"name": "StatefulPartitionedCall/efficientnetv2-xl/blocks_53/conv2d_1/Conv2D_bn_offset", "shape": [256], "dtype": "float32"}, {"name": "StatefulPartitionedCall/efficientnetv2-xl/blocks_54/conv2d/Conv2D_weights", "shape": [1, 1, 256, 1536], "dtype": "float32"}, {"name": "StatefulPartitionedCall/efficientnetv2-xl/blocks_93/depthwise_conv2d/depthwise_weights", "shape": [3, 3, 3840, 1], "dtype": "float32"}, {"name": "StatefulPartitionedCall/efficientnetv2-xl/blocks_54/conv2d/Conv2D_bn_offset", "shape": [1536], "dtype": "float32"}, {"name": "StatefulPartitionedCall/efficientnetv2-xl/blocks_54/depthwise_conv2d/depthwise_weights", "shape": [3, 3, 1536, 1], "dtype": "float32"}, {"name": "StatefulPartitionedCall/efficientnetv2-xl/blocks_54/depthwise_conv2d/depthwise_bn_offset", "shape": [1536], "dtype": "float32"}, {"name": "StatefulPartitionedCall/efficientnetv2-xl/blocks_93/depthwise_conv2d/depthwise_bn_offset", "shape": [3840], "dtype": "float32"}, {"name": "StatefulPartitionedCall/efficientnetv2-xl/blocks_54/conv2d_1/Conv2D_weights", "shape": [1, 1, 1536, 256], "dtype": "float32"}, {"name": "StatefulPartitionedCall/efficientnetv2-xl/blocks_54/conv2d_1/Conv2D_bn_offset", "shape": [256], "dtype": "float32"}, {"name": "StatefulPartitionedCall/efficientnetv2-xl/blocks_55/conv2d/Conv2D_weights", "shape": [1, 1, 256, 1536], "dtype": "float32"}, {"name": "StatefulPartitionedCall/efficientnetv2-xl/blocks_55/conv2d/Conv2D_bn_offset", "shape": [1536], "dtype": "float32"}, {"name": "StatefulPartitionedCall/efficientnetv2-xl/blocks_55/depthwise_conv2d/depthwise_weights", "shape": [3, 3, 1536, 1], "dtype": "float32"}, {"name": "StatefulPartitionedCall/efficientnetv2-xl/blocks_55/depthwise_conv2d/depthwise_bn_offset", "shape": [1536], "dtype": "float32"}, {"name": "StatefulPartitionedCall/efficientnetv2-xl/blocks_55/conv2d_1/Conv2D_weights", "shape": [1, 1, 1536, 256], "dtype": "float32"}, {"name": "StatefulPartitionedCall/efficientnetv2-xl/blocks_55/conv2d_1/Conv2D_bn_offset", "shape": [256], "dtype": "float32"}, {"name": "StatefulPartitionedCall/efficientnetv2-xl/blocks_56/conv2d/Conv2D_weights", "shape": [1, 1, 256, 1536], "dtype": "float32"}, {"name": "StatefulPartitionedCall/efficientnetv2-xl/blocks_56/conv2d/Conv2D_bn_offset", "shape": [1536], "dtype": "float32"}, {"name": "StatefulPartitionedCall/efficientnetv2-xl/blocks_56/depthwise_conv2d/depthwise_weights", "shape": [3, 3, 1536, 1], "dtype": "float32"}, {"name": "StatefulPartitionedCall/efficientnetv2-xl/blocks_56/depthwise_conv2d/depthwise_bn_offset", "shape": [1536], "dtype": "float32"}, {"name": "StatefulPartitionedCall/efficientnetv2-xl/blocks_56/conv2d_1/Conv2D_weights", "shape": [1, 1, 1536, 256], "dtype": "float32"}, {"name": "StatefulPartitionedCall/efficientnetv2-xl/blocks_99/depthwise_conv2d/depthwise_bn_offset", "shape": [3840], "dtype": "float32"}, {"name": "StatefulPartitionedCall/efficientnetv2-xl/blocks_56/conv2d_1/Conv2D_bn_offset", "shape": [256], "dtype": "float32"}, {"name": "StatefulPartitionedCall/efficientnetv2-xl/blocks_57/conv2d/Conv2D_weights", "shape": [1, 1, 256, 1536], "dtype": "float32"}, {"name": "StatefulPartitionedCall/efficientnetv2-xl/blocks_57/conv2d/Conv2D_bn_offset", "shape": [1536], "dtype": "float32"}, {"name": "StatefulPartitionedCall/efficientnetv2-xl/blocks_57/depthwise_conv2d/depthwise_weights", "shape": [3, 3, 1536, 1], "dtype": "float32"}, {"name": "StatefulPartitionedCall/efficientnetv2-xl/blocks_57/depthwise_conv2d/depthwise_bn_offset", "shape": [1536], "dtype": "float32"}, {"name": "StatefulPartitionedCall/efficientnetv2-xl/blocks_57/conv2d_1/Conv2D_weights", "shape": [1, 1, 1536, 256], "dtype": "float32"}, {"name": "StatefulPartitionedCall/efficientnetv2-xl/blocks_93/conv2d_1/Conv2D_weights", "shape": [1, 1, 3840, 640], "dtype": "float32"}, {"name": "StatefulPartitionedCall/efficientnetv2-xl/blocks_57/conv2d_1/Conv2D_bn_offset", "shape": [256], "dtype": "float32"}, {"name": "StatefulPartitionedCall/efficientnetv2-xl/blocks_58/conv2d/Conv2D_weights", "shape": [1, 1, 256, 1536], "dtype": "float32"}, {"name": "StatefulPartitionedCall/efficientnetv2-xl/blocks_58/conv2d/Conv2D_bn_offset", "shape": [1536], "dtype": "float32"}, {"name": "StatefulPartitionedCall/efficientnetv2-xl/blocks_58/depthwise_conv2d/depthwise_weights", "shape": [3, 3, 1536, 1], "dtype": "float32"}, {"name": "StatefulPartitionedCall/efficientnetv2-xl/blocks_58/depthwise_conv2d/depthwise_bn_offset", "shape": [1536], "dtype": "float32"}, {"name": "StatefulPartitionedCall/efficientnetv2-xl/blocks_93/conv2d_1/Conv2D_bn_offset", "shape": [640], "dtype": "float32"}, {"name": "StatefulPartitionedCall/efficientnetv2-xl/blocks_58/conv2d_1/Conv2D_weights", "shape": [1, 1, 1536, 256], "dtype": "float32"}, {"name": "StatefulPartitionedCall/efficientnetv2-xl/blocks_58/conv2d_1/Conv2D_bn_offset", "shape": [256], "dtype": "float32"}, {"name": "StatefulPartitionedCall/efficientnetv2-xl/blocks_59/conv2d/Conv2D_weights", "shape": [1, 1, 256, 1536], "dtype": "float32"}, {"name": "StatefulPartitionedCall/efficientnetv2-xl/blocks_94/conv2d/Conv2D_weights", "shape": [1, 1, 640, 3840], "dtype": "float32"}, {"name": "StatefulPartitionedCall/efficientnetv2-xl/blocks_59/conv2d/Conv2D_bn_offset", "shape": [1536], "dtype": "float32"}, {"name": "StatefulPartitionedCall/efficientnetv2-xl/blocks_59/depthwise_conv2d/depthwise_weights", "shape": [3, 3, 1536, 1], "dtype": "float32"}, {"name": "StatefulPartitionedCall/efficientnetv2-xl/blocks_59/depthwise_conv2d/depthwise_bn_offset", "shape": [1536], "dtype": "float32"}, {"name": "StatefulPartitionedCall/efficientnetv2-xl/blocks_94/conv2d/Conv2D_bn_offset", "shape": [3840], "dtype": "float32"}, {"name": "StatefulPartitionedCall/efficientnetv2-xl/blocks_59/conv2d_1/Conv2D_weights", "shape": [1, 1, 1536, 256], "dtype": "float32"}, {"name": "StatefulPartitionedCall/efficientnetv2-xl/blocks_59/conv2d_1/Conv2D_bn_offset", "shape": [256], "dtype": "float32"}, {"name": "StatefulPartitionedCall/efficientnetv2-xl/blocks_60/conv2d/Conv2D_weights", "shape": [1, 1, 256, 1536], "dtype": "float32"}, {"name": "StatefulPartitionedCall/efficientnetv2-xl/blocks_60/conv2d/Conv2D_bn_offset", "shape": [1536], "dtype": "float32"}, {"name": "StatefulPartitionedCall/efficientnetv2-xl/blocks_60/depthwise_conv2d/depthwise_weights", "shape": [3, 3, 1536, 1], "dtype": "float32"}, {"name": "StatefulPartitionedCall/efficientnetv2-xl/blocks_60/depthwise_conv2d/depthwise_bn_offset", "shape": [1536], "dtype": "float32"}, {"name": "StatefulPartitionedCall/efficientnetv2-xl/blocks_94/depthwise_conv2d/depthwise_weights", "shape": [3, 3, 3840, 1], "dtype": "float32"}, {"name": "StatefulPartitionedCall/efficientnetv2-xl/blocks_60/conv2d_1/Conv2D_weights", "shape": [1, 1, 1536, 512], "dtype": "float32"}, {"name": "StatefulPartitionedCall/efficientnetv2-xl/blocks_60/conv2d_1/Conv2D_bn_offset", "shape": [512], "dtype": "float32"}, {"name": "StatefulPartitionedCall/efficientnetv2-xl/blocks_61/conv2d/Conv2D_weights", "shape": [1, 1, 512, 3072], "dtype": "float32"}, {"name": "StatefulPartitionedCall/efficientnetv2-xl/blocks_94/depthwise_conv2d/depthwise_bn_offset", "shape": [3840], "dtype": "float32"}, {"name": "StatefulPartitionedCall/efficientnetv2-xl/blocks_61/conv2d/Conv2D_bn_offset", "shape": [3072], "dtype": "float32"}, {"name": "StatefulPartitionedCall/efficientnetv2-xl/blocks_61/depthwise_conv2d/depthwise_weights", "shape": [3, 3, 3072, 1], "dtype": "float32"}, {"name": "StatefulPartitionedCall/efficientnetv2-xl/blocks_61/depthwise_conv2d/depthwise_bn_offset", "shape": [3072], "dtype": "float32"}, {"name": "StatefulPartitionedCall/efficientnetv2-xl/blocks_61/conv2d_1/Conv2D_weights", "shape": [1, 1, 3072, 512], "dtype": "float32"}, {"name": "StatefulPartitionedCall/efficientnetv2-xl/blocks_61/conv2d_1/Conv2D_bn_offset", "shape": [512], "dtype": "float32"}, {"name": "StatefulPartitionedCall/efficientnetv2-xl/blocks_62/conv2d/Conv2D_weights", "shape": [1, 1, 512, 3072], "dtype": "float32"}, {"name": "StatefulPartitionedCall/efficientnetv2-xl/blocks_62/conv2d/Conv2D_bn_offset", "shape": [3072], "dtype": "float32"}, {"name": "StatefulPartitionedCall/efficientnetv2-xl/blocks_62/depthwise_conv2d/depthwise_weights", "shape": [3, 3, 3072, 1], "dtype": "float32"}, {"name": "StatefulPartitionedCall/efficientnetv2-xl/blocks_62/depthwise_conv2d/depthwise_bn_offset", "shape": [3072], "dtype": "float32"}, {"name": "StatefulPartitionedCall/efficientnetv2-xl/blocks_62/conv2d_1/Conv2D_weights", "shape": [1, 1, 3072, 512], "dtype": "float32"}, {"name": "StatefulPartitionedCall/efficientnetv2-xl/blocks_62/conv2d_1/Conv2D_bn_offset", "shape": [512], "dtype": "float32"}, {"name": "StatefulPartitionedCall/efficientnetv2-xl/blocks_63/conv2d/Conv2D_weights", "shape": [1, 1, 512, 3072], "dtype": "float32"}, {"name": "StatefulPartitionedCall/efficientnetv2-xl/blocks_63/conv2d/Conv2D_bn_offset", "shape": [3072], "dtype": "float32"}, {"name": "StatefulPartitionedCall/efficientnetv2-xl/blocks_63/depthwise_conv2d/depthwise_weights", "shape": [3, 3, 3072, 1], "dtype": "float32"}, {"name": "StatefulPartitionedCall/efficientnetv2-xl/blocks_63/depthwise_conv2d/depthwise_bn_offset", "shape": [3072], "dtype": "float32"}, {"name": "StatefulPartitionedCall/efficientnetv2-xl/blocks_63/conv2d_1/Conv2D_weights", "shape": [1, 1, 3072, 512], "dtype": "float32"}, {"name": "StatefulPartitionedCall/efficientnetv2-xl/blocks_63/conv2d_1/Conv2D_bn_offset", "shape": [512], "dtype": "float32"}, {"name": "StatefulPartitionedCall/efficientnetv2-xl/blocks_64/conv2d/Conv2D_weights", "shape": [1, 1, 512, 3072], "dtype": "float32"}, {"name": "StatefulPartitionedCall/efficientnetv2-xl/blocks_64/conv2d/Conv2D_bn_offset", "shape": [3072], "dtype": "float32"}, {"name": "StatefulPartitionedCall/efficientnetv2-xl/blocks_64/depthwise_conv2d/depthwise_weights", "shape": [3, 3, 3072, 1], "dtype": "float32"}, {"name": "StatefulPartitionedCall/efficientnetv2-xl/blocks_64/depthwise_conv2d/depthwise_bn_offset", "shape": [3072], "dtype": "float32"}, {"name": "StatefulPartitionedCall/efficientnetv2-xl/blocks_94/conv2d_1/Conv2D_weights", "shape": [1, 1, 3840, 640], "dtype": "float32"}, {"name": "StatefulPartitionedCall/efficientnetv2-xl/blocks_64/conv2d_1/Conv2D_weights", "shape": [1, 1, 3072, 512], "dtype": "float32"}, {"name": "StatefulPartitionedCall/efficientnetv2-xl/blocks_94/conv2d_1/Conv2D_bn_offset", "shape": [640], "dtype": "float32"}, {"name": "StatefulPartitionedCall/efficientnetv2-xl/blocks_64/conv2d_1/Conv2D_bn_offset", "shape": [512], "dtype": "float32"}, {"name": "StatefulPartitionedCall/efficientnetv2-xl/blocks_65/conv2d/Conv2D_weights", "shape": [1, 1, 512, 3072], "dtype": "float32"}, {"name": "StatefulPartitionedCall/efficientnetv2-xl/blocks_65/conv2d/Conv2D_bn_offset", "shape": [3072], "dtype": "float32"}, {"name": "StatefulPartitionedCall/efficientnetv2-xl/blocks_65/depthwise_conv2d/depthwise_weights", "shape": [3, 3, 3072, 1], "dtype": "float32"}, {"name": "StatefulPartitionedCall/efficientnetv2-xl/blocks_65/depthwise_conv2d/depthwise_bn_offset", "shape": [3072], "dtype": "float32"}, {"name": "StatefulPartitionedCall/efficientnetv2-xl/blocks_95/conv2d/Conv2D_weights", "shape": [1, 1, 640, 3840], "dtype": "float32"}, {"name": "StatefulPartitionedCall/efficientnetv2-xl/blocks_65/conv2d_1/Conv2D_weights", "shape": [1, 1, 3072, 512], "dtype": "float32"}, {"name": "StatefulPartitionedCall/efficientnetv2-xl/blocks_65/conv2d_1/Conv2D_bn_offset", "shape": [512], "dtype": "float32"}, {"name": "StatefulPartitionedCall/efficientnetv2-xl/blocks_66/conv2d/Conv2D_weights", "shape": [1, 1, 512, 3072], "dtype": "float32"}, {"name": "StatefulPartitionedCall/efficientnetv2-xl/blocks_95/conv2d/Conv2D_bn_offset", "shape": [3840], "dtype": "float32"}, {"name": "StatefulPartitionedCall/efficientnetv2-xl/blocks_66/conv2d/Conv2D_bn_offset", "shape": [3072], "dtype": "float32"}, {"name": "StatefulPartitionedCall/efficientnetv2-xl/blocks_66/depthwise_conv2d/depthwise_weights", "shape": [3, 3, 3072, 1], "dtype": "float32"}, {"name": "StatefulPartitionedCall/efficientnetv2-xl/blocks_66/depthwise_conv2d/depthwise_bn_offset", "shape": [3072], "dtype": "float32"}, {"name": "StatefulPartitionedCall/efficientnetv2-xl/blocks_66/conv2d_1/Conv2D_weights", "shape": [1, 1, 3072, 512], "dtype": "float32"}, {"name": "StatefulPartitionedCall/efficientnetv2-xl/blocks_66/conv2d_1/Conv2D_bn_offset", "shape": [512], "dtype": "float32"}, {"name": "StatefulPartitionedCall/efficientnetv2-xl/blocks_67/conv2d/Conv2D_weights", "shape": [1, 1, 512, 3072], "dtype": "float32"}, {"name": "StatefulPartitionedCall/efficientnetv2-xl/blocks_95/depthwise_conv2d/depthwise_weights", "shape": [3, 3, 3840, 1], "dtype": "float32"}, {"name": "StatefulPartitionedCall/efficientnetv2-xl/blocks_67/conv2d/Conv2D_bn_offset", "shape": [3072], "dtype": "float32"}, {"name": "StatefulPartitionedCall/efficientnetv2-xl/blocks_67/depthwise_conv2d/depthwise_weights", "shape": [3, 3, 3072, 1], "dtype": "float32"}, {"name": "StatefulPartitionedCall/efficientnetv2-xl/blocks_67/depthwise_conv2d/depthwise_bn_offset", "shape": [3072], "dtype": "float32"}, {"name": "StatefulPartitionedCall/efficientnetv2-xl/blocks_95/depthwise_conv2d/depthwise_bn_offset", "shape": [3840], "dtype": "float32"}, {"name": "StatefulPartitionedCall/efficientnetv2-xl/blocks_67/conv2d_1/Conv2D_weights", "shape": [1, 1, 3072, 512], "dtype": "float32"}, {"name": "StatefulPartitionedCall/efficientnetv2-xl/blocks_67/conv2d_1/Conv2D_bn_offset", "shape": [512], "dtype": "float32"}, {"name": "StatefulPartitionedCall/efficientnetv2-xl/blocks_68/conv2d/Conv2D_weights", "shape": [1, 1, 512, 3072], "dtype": "float32"}, {"name": "StatefulPartitionedCall/efficientnetv2-xl/blocks_68/conv2d/Conv2D_bn_offset", "shape": [3072], "dtype": "float32"}, {"name": "StatefulPartitionedCall/efficientnetv2-xl/blocks_68/depthwise_conv2d/depthwise_weights", "shape": [3, 3, 3072, 1], "dtype": "float32"}, {"name": "StatefulPartitionedCall/efficientnetv2-xl/blocks_68/depthwise_conv2d/depthwise_bn_offset", "shape": [3072], "dtype": "float32"}, {"name": "StatefulPartitionedCall/efficientnetv2-xl/blocks_68/conv2d_1/Conv2D_weights", "shape": [1, 1, 3072, 512], "dtype": "float32"}, {"name": "StatefulPartitionedCall/efficientnetv2-xl/blocks_68/conv2d_1/Conv2D_bn_offset", "shape": [512], "dtype": "float32"}, {"name": "StatefulPartitionedCall/efficientnetv2-xl/blocks_69/conv2d/Conv2D_weights", "shape": [1, 1, 512, 3072], "dtype": "float32"}, {"name": "StatefulPartitionedCall/efficientnetv2-xl/blocks_69/conv2d/Conv2D_bn_offset", "shape": [3072], "dtype": "float32"}, {"name": "StatefulPartitionedCall/efficientnetv2-xl/blocks_69/depthwise_conv2d/depthwise_weights", "shape": [3, 3, 3072, 1], "dtype": "float32"}, {"name": "StatefulPartitionedCall/efficientnetv2-xl/blocks_69/depthwise_conv2d/depthwise_bn_offset", "shape": [3072], "dtype": "float32"}, {"name": "StatefulPartitionedCall/efficientnetv2-xl/blocks_69/conv2d_1/Conv2D_weights", "shape": [1, 1, 3072, 512], "dtype": "float32"}, {"name": "StatefulPartitionedCall/efficientnetv2-xl/blocks_69/conv2d_1/Conv2D_bn_offset", "shape": [512], "dtype": "float32"}, {"name": "StatefulPartitionedCall/efficientnetv2-xl/blocks_70/conv2d/Conv2D_weights", "shape": [1, 1, 512, 3072], "dtype": "float32"}, {"name": "StatefulPartitionedCall/efficientnetv2-xl/blocks_70/conv2d/Conv2D_bn_offset", "shape": [3072], "dtype": "float32"}, {"name": "StatefulPartitionedCall/efficientnetv2-xl/blocks_70/depthwise_conv2d/depthwise_weights", "shape": [3, 3, 3072, 1], "dtype": "float32"}, {"name": "StatefulPartitionedCall/efficientnetv2-xl/blocks_70/depthwise_conv2d/depthwise_bn_offset", "shape": [3072], "dtype": "float32"}, {"name": "StatefulPartitionedCall/efficientnetv2-xl/blocks_70/conv2d_1/Conv2D_weights", "shape": [1, 1, 3072, 512], "dtype": "float32"}, {"name": "StatefulPartitionedCall/efficientnetv2-xl/blocks_95/conv2d_1/Conv2D_weights", "shape": [1, 1, 3840, 640], "dtype": "float32"}, {"name": "StatefulPartitionedCall/efficientnetv2-xl/blocks_70/conv2d_1/Conv2D_bn_offset", "shape": [512], "dtype": "float32"}, {"name": "StatefulPartitionedCall/efficientnetv2-xl/blocks_71/conv2d/Conv2D_weights", "shape": [1, 1, 512, 3072], "dtype": "float32"}, {"name": "StatefulPartitionedCall/efficientnetv2-xl/blocks_71/conv2d/Conv2D_bn_offset", "shape": [3072], "dtype": "float32"}, {"name": "StatefulPartitionedCall/efficientnetv2-xl/blocks_71/depthwise_conv2d/depthwise_weights", "shape": [3, 3, 3072, 1], "dtype": "float32"}, {"name": "StatefulPartitionedCall/efficientnetv2-xl/blocks_71/depthwise_conv2d/depthwise_bn_offset", "shape": [3072], "dtype": "float32"}, {"name": "StatefulPartitionedCall/efficientnetv2-xl/blocks_95/conv2d_1/Conv2D_bn_offset", "shape": [640], "dtype": "float32"}, {"name": "StatefulPartitionedCall/efficientnetv2-xl/blocks_71/conv2d_1/Conv2D_weights", "shape": [1, 1, 3072, 512], "dtype": "float32"}, {"name": "StatefulPartitionedCall/efficientnetv2-xl/blocks_71/conv2d_1/Conv2D_bn_offset", "shape": [512], "dtype": "float32"}, {"name": "StatefulPartitionedCall/efficientnetv2-xl/blocks_72/conv2d/Conv2D_weights", "shape": [1, 1, 512, 3072], "dtype": "float32"}, {"name": "StatefulPartitionedCall/efficientnetv2-xl/blocks_96/conv2d/Conv2D_weights", "shape": [1, 1, 640, 3840], "dtype": "float32"}, {"name": "StatefulPartitionedCall/efficientnetv2-xl/blocks_72/conv2d/Conv2D_bn_offset", "shape": [3072], "dtype": "float32"}, {"name": "StatefulPartitionedCall/efficientnetv2-xl/blocks_72/depthwise_conv2d/depthwise_weights", "shape": [3, 3, 3072, 1], "dtype": "float32"}, {"name": "StatefulPartitionedCall/efficientnetv2-xl/blocks_72/depthwise_conv2d/depthwise_bn_offset", "shape": [3072], "dtype": "float32"}, {"name": "StatefulPartitionedCall/efficientnetv2-xl/blocks_96/conv2d/Conv2D_bn_offset", "shape": [3840], "dtype": "float32"}, {"name": "StatefulPartitionedCall/efficientnetv2-xl/blocks_72/conv2d_1/Conv2D_weights", "shape": [1, 1, 3072, 512], "dtype": "float32"}, {"name": "StatefulPartitionedCall/efficientnetv2-xl/blocks_72/conv2d_1/Conv2D_bn_offset", "shape": [512], "dtype": "float32"}, {"name": "StatefulPartitionedCall/efficientnetv2-xl/blocks_73/conv2d/Conv2D_weights", "shape": [1, 1, 512, 3072], "dtype": "float32"}, {"name": "StatefulPartitionedCall/efficientnetv2-xl/blocks_73/conv2d/Conv2D_bn_offset", "shape": [3072], "dtype": "float32"}, {"name": "StatefulPartitionedCall/efficientnetv2-xl/blocks_73/depthwise_conv2d/depthwise_weights", "shape": [3, 3, 3072, 1], "dtype": "float32"}, {"name": "StatefulPartitionedCall/efficientnetv2-xl/blocks_73/depthwise_conv2d/depthwise_bn_offset", "shape": [3072], "dtype": "float32"}, {"name": "StatefulPartitionedCall/efficientnetv2-xl/blocks_96/depthwise_conv2d/depthwise_weights", "shape": [3, 3, 3840, 1], "dtype": "float32"}, {"name": "StatefulPartitionedCall/efficientnetv2-xl/blocks_73/conv2d_1/Conv2D_weights", "shape": [1, 1, 3072, 512], "dtype": "float32"}, {"name": "StatefulPartitionedCall/efficientnetv2-xl/blocks_73/conv2d_1/Conv2D_bn_offset", "shape": [512], "dtype": "float32"}, {"name": "StatefulPartitionedCall/efficientnetv2-xl/blocks_74/conv2d/Conv2D_weights", "shape": [1, 1, 512, 3072], "dtype": "float32"}, {"name": "StatefulPartitionedCall/efficientnetv2-xl/blocks_96/depthwise_conv2d/depthwise_bn_offset", "shape": [3840], "dtype": "float32"}, {"name": "StatefulPartitionedCall/efficientnetv2-xl/blocks_74/conv2d/Conv2D_bn_offset", "shape": [3072], "dtype": "float32"}, {"name": "StatefulPartitionedCall/efficientnetv2-xl/blocks_74/depthwise_conv2d/depthwise_weights", "shape": [3, 3, 3072, 1], "dtype": "float32"}, {"name": "StatefulPartitionedCall/efficientnetv2-xl/blocks_74/depthwise_conv2d/depthwise_bn_offset", "shape": [3072], "dtype": "float32"}, {"name": "StatefulPartitionedCall/efficientnetv2-xl/blocks_74/conv2d_1/Conv2D_weights", "shape": [1, 1, 3072, 512], "dtype": "float32"}, {"name": "StatefulPartitionedCall/efficientnetv2-xl/blocks_74/conv2d_1/Conv2D_bn_offset", "shape": [512], "dtype": "float32"}, {"name": "StatefulPartitionedCall/efficientnetv2-xl/blocks_75/conv2d/Conv2D_weights", "shape": [1, 1, 512, 3072], "dtype": "float32"}, {"name": "StatefulPartitionedCall/efficientnetv2-xl/blocks_75/conv2d/Conv2D_bn_offset", "shape": [3072], "dtype": "float32"}, {"name": "StatefulPartitionedCall/efficientnetv2-xl/blocks_75/depthwise_conv2d/depthwise_weights", "shape": [3, 3, 3072, 1], "dtype": "float32"}, {"name": "StatefulPartitionedCall/efficientnetv2-xl/blocks_75/depthwise_conv2d/depthwise_bn_offset", "shape": [3072], "dtype": "float32"}, {"name": "StatefulPartitionedCall/efficientnetv2-xl/blocks_75/conv2d_1/Conv2D_weights", "shape": [1, 1, 3072, 512], "dtype": "float32"}, {"name": "StatefulPartitionedCall/efficientnetv2-xl/blocks_75/conv2d_1/Conv2D_bn_offset", "shape": [512], "dtype": "float32"}, {"name": "StatefulPartitionedCall/efficientnetv2-xl/blocks_76/conv2d/Conv2D_weights", "shape": [1, 1, 512, 3072], "dtype": "float32"}, {"name": "StatefulPartitionedCall/efficientnetv2-xl/blocks_76/conv2d/Conv2D_bn_offset", "shape": [3072], "dtype": "float32"}, {"name": "StatefulPartitionedCall/efficientnetv2-xl/blocks_76/depthwise_conv2d/depthwise_weights", "shape": [3, 3, 3072, 1], "dtype": "float32"}, {"name": "StatefulPartitionedCall/efficientnetv2-xl/blocks_76/depthwise_conv2d/depthwise_bn_offset", "shape": [3072], "dtype": "float32"}, {"name": "StatefulPartitionedCall/efficientnetv2-xl/blocks_76/conv2d_1/Conv2D_weights", "shape": [1, 1, 3072, 512], "dtype": "float32"}, {"name": "StatefulPartitionedCall/efficientnetv2-xl/blocks_76/conv2d_1/Conv2D_bn_offset", "shape": [512], "dtype": "float32"}, {"name": "StatefulPartitionedCall/efficientnetv2-xl/blocks_77/conv2d/Conv2D_weights", "shape": [1, 1, 512, 3072], "dtype": "float32"}, {"name": "StatefulPartitionedCall/efficientnetv2-xl/blocks_77/conv2d/Conv2D_bn_offset", "shape": [3072], "dtype": "float32"}, {"name": "StatefulPartitionedCall/efficientnetv2-xl/blocks_77/depthwise_conv2d/depthwise_weights", "shape": [3, 3, 3072, 1], "dtype": "float32"}, {"name": "StatefulPartitionedCall/efficientnetv2-xl/blocks_77/depthwise_conv2d/depthwise_bn_offset", "shape": [3072], "dtype": "float32"}, {"name": "StatefulPartitionedCall/efficientnetv2-xl/blocks_96/conv2d_1/Conv2D_weights", "shape": [1, 1, 3840, 640], "dtype": "float32"}, {"name": "StatefulPartitionedCall/efficientnetv2-xl/blocks_99/conv2d_1/Conv2D_weights", "shape": [1, 1, 3840, 640], "dtype": "float32"}, {"name": "StatefulPartitionedCall/efficientnetv2-xl/blocks_77/conv2d_1/Conv2D_weights", "shape": [1, 1, 3072, 512], "dtype": "float32"}, {"name": "StatefulPartitionedCall/efficientnetv2-xl/blocks_96/conv2d_1/Conv2D_bn_offset", "shape": [640], "dtype": "float32"}, {"name": "StatefulPartitionedCall/efficientnetv2-xl/blocks_77/conv2d_1/Conv2D_bn_offset", "shape": [512], "dtype": "float32"}, {"name": "StatefulPartitionedCall/efficientnetv2-xl/blocks_78/conv2d/Conv2D_weights", "shape": [1, 1, 512, 3072], "dtype": "float32"}, {"name": "StatefulPartitionedCall/efficientnetv2-xl/blocks_78/conv2d/Conv2D_bn_offset", "shape": [3072], "dtype": "float32"}, {"name": "StatefulPartitionedCall/efficientnetv2-xl/blocks_78/depthwise_conv2d/depthwise_weights", "shape": [3, 3, 3072, 1], "dtype": "float32"}, {"name": "StatefulPartitionedCall/efficientnetv2-xl/blocks_78/depthwise_conv2d/depthwise_bn_offset", "shape": [3072], "dtype": "float32"}, {"name": "StatefulPartitionedCall/efficientnetv2-xl/blocks_97/conv2d/Conv2D_weights", "shape": [1, 1, 640, 3840], "dtype": "float32"}, {"name": "StatefulPartitionedCall/efficientnetv2-xl/blocks_78/conv2d_1/Conv2D_weights", "shape": [1, 1, 3072, 512], "dtype": "float32"}, {"name": "StatefulPartitionedCall/efficientnetv2-xl/blocks_78/conv2d_1/Conv2D_bn_offset", "shape": [512], "dtype": "float32"}, {"name": "StatefulPartitionedCall/efficientnetv2-xl/blocks_79/conv2d/Conv2D_weights", "shape": [1, 1, 512, 3072], "dtype": "float32"}, {"name": "StatefulPartitionedCall/efficientnetv2-xl/blocks_97/conv2d/Conv2D_bn_offset", "shape": [3840], "dtype": "float32"}, {"name": "StatefulPartitionedCall/efficientnetv2-xl/blocks_79/conv2d/Conv2D_bn_offset", "shape": [3072], "dtype": "float32"}, {"name": "StatefulPartitionedCall/efficientnetv2-xl/blocks_79/depthwise_conv2d/depthwise_weights", "shape": [3, 3, 3072, 1], "dtype": "float32"}, {"name": "StatefulPartitionedCall/efficientnetv2-xl/blocks_79/depthwise_conv2d/depthwise_bn_offset", "shape": [3072], "dtype": "float32"}, {"name": "StatefulPartitionedCall/efficientnetv2-xl/blocks_79/conv2d_1/Conv2D_weights", "shape": [1, 1, 3072, 512], "dtype": "float32"}, {"name": "StatefulPartitionedCall/efficientnetv2-xl/blocks_79/conv2d_1/Conv2D_bn_offset", "shape": [512], "dtype": "float32"}, {"name": "StatefulPartitionedCall/efficientnetv2-xl/blocks_80/conv2d/Conv2D_weights", "shape": [1, 1, 512, 3072], "dtype": "float32"}, {"name": "StatefulPartitionedCall/efficientnetv2-xl/blocks_97/depthwise_conv2d/depthwise_weights", "shape": [3, 3, 3840, 1], "dtype": "float32"}, {"name": "StatefulPartitionedCall/efficientnetv2-xl/blocks_80/conv2d/Conv2D_bn_offset", "shape": [3072], "dtype": "float32"}, {"name": "StatefulPartitionedCall/efficientnetv2-xl/blocks_80/depthwise_conv2d/depthwise_weights", "shape": [3, 3, 3072, 1], "dtype": "float32"}, {"name": "StatefulPartitionedCall/efficientnetv2-xl/blocks_80/depthwise_conv2d/depthwise_bn_offset", "shape": [3072], "dtype": "float32"}, {"name": "StatefulPartitionedCall/efficientnetv2-xl/blocks_97/depthwise_conv2d/depthwise_bn_offset", "shape": [3840], "dtype": "float32"}, {"name": "StatefulPartitionedCall/efficientnetv2-xl/blocks_80/conv2d_1/Conv2D_weights", "shape": [1, 1, 3072, 512], "dtype": "float32"}, {"name": "StatefulPartitionedCall/efficientnetv2-xl/blocks_80/conv2d_1/Conv2D_bn_offset", "shape": [512], "dtype": "float32"}, {"name": "StatefulPartitionedCall/efficientnetv2-xl/blocks_81/conv2d/Conv2D_weights", "shape": [1, 1, 512, 3072], "dtype": "float32"}, {"name": "StatefulPartitionedCall/efficientnetv2-xl/blocks_81/conv2d/Conv2D_bn_offset", "shape": [3072], "dtype": "float32"}, {"name": "StatefulPartitionedCall/efficientnetv2-xl/blocks_81/depthwise_conv2d/depthwise_weights", "shape": [3, 3, 3072, 1], "dtype": "float32"}, {"name": "StatefulPartitionedCall/efficientnetv2-xl/blocks_81/depthwise_conv2d/depthwise_bn_offset", "shape": [3072], "dtype": "float32"}, {"name": "StatefulPartitionedCall/efficientnetv2-xl/blocks_81/conv2d_1/Conv2D_weights", "shape": [1, 1, 3072, 512], "dtype": "float32"}, {"name": "StatefulPartitionedCall/efficientnetv2-xl/blocks_99/conv2d_1/Conv2D_bn_offset", "shape": [640], "dtype": "float32"}, {"name": "StatefulPartitionedCall/efficientnetv2-xl/blocks_81/conv2d_1/Conv2D_bn_offset", "shape": [512], "dtype": "float32"}, {"name": "StatefulPartitionedCall/efficientnetv2-xl/blocks_82/conv2d/Conv2D_weights", "shape": [1, 1, 512, 3072], "dtype": "float32"}, {"name": "StatefulPartitionedCall/efficientnetv2-xl/blocks_82/conv2d/Conv2D_bn_offset", "shape": [3072], "dtype": "float32"}, {"name": "StatefulPartitionedCall/efficientnetv2-xl/blocks_82/depthwise_conv2d/depthwise_weights", "shape": [3, 3, 3072, 1], "dtype": "float32"}, {"name": "StatefulPartitionedCall/efficientnetv2-xl/blocks_82/depthwise_conv2d/depthwise_bn_offset", "shape": [3072], "dtype": "float32"}, {"name": "StatefulPartitionedCall/efficientnetv2-xl/blocks_82/conv2d_1/Conv2D_weights", "shape": [1, 1, 3072, 512], "dtype": "float32"}, {"name": "StatefulPartitionedCall/efficientnetv2-xl/blocks_82/conv2d_1/Conv2D_bn_offset", "shape": [512], "dtype": "float32"}, {"name": "StatefulPartitionedCall/efficientnetv2-xl/blocks_83/conv2d/Conv2D_weights", "shape": [1, 1, 512, 3072], "dtype": "float32"}, {"name": "StatefulPartitionedCall/efficientnetv2-xl/blocks_83/conv2d/Conv2D_bn_offset", "shape": [3072], "dtype": "float32"}, {"name": "StatefulPartitionedCall/efficientnetv2-xl/blocks_83/depthwise_conv2d/depthwise_weights", "shape": [3, 3, 3072, 1], "dtype": "float32"}, {"name": "StatefulPartitionedCall/efficientnetv2-xl/blocks_83/depthwise_conv2d/depthwise_bn_offset", "shape": [3072], "dtype": "float32"}, {"name": "StatefulPartitionedCall/efficientnetv2-xl/blocks_83/conv2d_1/Conv2D_weights", "shape": [1, 1, 3072, 512], "dtype": "float32"}, {"name": "StatefulPartitionedCall/efficientnetv2-xl/blocks_97/conv2d_1/Conv2D_weights", "shape": [1, 1, 3840, 640], "dtype": "float32"}, {"name": "StatefulPartitionedCall/efficientnetv2-xl/blocks_83/conv2d_1/Conv2D_bn_offset", "shape": [512], "dtype": "float32"}, {"name": "StatefulPartitionedCall/efficientnetv2-xl/blocks_84/conv2d/Conv2D_weights", "shape": [1, 1, 512, 3072], "dtype": "float32"}, {"name": "StatefulPartitionedCall/efficientnetv2-xl/blocks_84/conv2d/Conv2D_bn_offset", "shape": [3072], "dtype": "float32"}, {"name": "StatefulPartitionedCall/efficientnetv2-xl/blocks_84/depthwise_conv2d/depthwise_weights", "shape": [3, 3, 3072, 1], "dtype": "float32"}, {"name": "StatefulPartitionedCall/efficientnetv2-xl/blocks_84/depthwise_conv2d/depthwise_bn_offset", "shape": [3072], "dtype": "float32"}, {"name": "StatefulPartitionedCall/efficientnetv2-xl/blocks_97/conv2d_1/Conv2D_bn_offset", "shape": [640], "dtype": "float32"}, {"name": "StatefulPartitionedCall/efficientnetv2-xl/blocks_84/conv2d_1/Conv2D_weights", "shape": [1, 1, 3072, 512], "dtype": "float32"}, {"name": "StatefulPartitionedCall/efficientnetv2-xl/blocks_84/conv2d_1/Conv2D_bn_offset", "shape": [512], "dtype": "float32"}, {"name": "StatefulPartitionedCall/efficientnetv2-xl/blocks_85/conv2d/Conv2D_weights", "shape": [1, 1, 512, 3072], "dtype": "float32"}, {"name": "StatefulPartitionedCall/efficientnetv2-xl/blocks_98/conv2d/Conv2D_weights", "shape": [1, 1, 640, 3840], "dtype": "float32"}, {"name": "StatefulPartitionedCall/efficientnetv2-xl/blocks_85/conv2d/Conv2D_bn_offset", "shape": [3072], "dtype": "float32"}, {"name": "StatefulPartitionedCall/efficientnetv2-xl/blocks_85/depthwise_conv2d/depthwise_weights", "shape": [3, 3, 3072, 1], "dtype": "float32"}, {"name": "StatefulPartitionedCall/efficientnetv2-xl/blocks_85/depthwise_conv2d/depthwise_bn_offset", "shape": [3072], "dtype": "float32"}, {"name": "StatefulPartitionedCall/efficientnetv2-xl/head/conv2d/Conv2D_weights", "shape": [1, 1, 640, 1280], "dtype": "float32"}, {"name": "StatefulPartitionedCall/efficientnetv2-xl/blocks_98/conv2d/Conv2D_bn_offset", "shape": [3840], "dtype": "float32"}, {"name": "StatefulPartitionedCall/efficientnetv2-xl/blocks_85/conv2d_1/Conv2D_weights", "shape": [1, 1, 3072, 512], "dtype": "float32"}, {"name": "StatefulPartitionedCall/efficientnetv2-xl/blocks_85/conv2d_1/Conv2D_bn_offset", "shape": [512], "dtype": "float32"}, {"name": "StatefulPartitionedCall/efficientnetv2-xl/blocks_86/conv2d/Conv2D_weights", "shape": [1, 1, 512, 3072], "dtype": "float32"}, {"name": "StatefulPartitionedCall/efficientnetv2-xl/blocks_86/conv2d/Conv2D_bn_offset", "shape": [3072], "dtype": "float32"}, {"name": "StatefulPartitionedCall/efficientnetv2-xl/blocks_86/depthwise_conv2d/depthwise_weights", "shape": [3, 3, 3072, 1], "dtype": "float32"}, {"name": "StatefulPartitionedCall/efficientnetv2-xl/blocks_86/depthwise_conv2d/depthwise_bn_offset", "shape": [3072], "dtype": "float32"}]}]}