{"format": "graph-model", "generatedBy": "2.7.0", "convertedBy": "TensorFlow.js Converter v2.8.1", "signature": {"inputs": {"input_1:0": {"name": "input_1:0", "dtype": "DT_FLOAT", "tensorShape": {"dim": [{"size": "-1"}, {"size": "-1"}, {"size": "-1"}, {"size": "3"}]}}}, "outputs": {"Identity:0": {"name": "Identity:0", "dtype": "DT_FLOAT", "tensorShape": {"dim": [{"size": "-1"}, {"size": "1000"}]}}}}, "modelTopology": {"node": [{"name": "StatefulPartitionedCall/efficientnetv2-b2/blocks_27/se/Mean/reduction_indices", "op": "Const", "attr": {"dtype": {"type": "DT_INT32"}, "value": {"tensor": {"dtype": "DT_INT32", "tensorShape": {"dim": [{"size": "2"}]}}}}}, {"name": "StatefulPartitionedCall/efficientnetv2-b2/blocks_27/se/conv2d/Conv2D/ReadVariableOp", "op": "Const", "attr": {"value": {"tensor": {"dtype": "DT_FLOAT", "tensorShape": {"dim": [{"size": "1"}, {"size": "1"}, {"size": "1248"}, {"size": "52"}]}}}, "dtype": {"type": "DT_FLOAT"}}}, {"name": "StatefulPartitionedCall/efficientnetv2-b2/blocks_27/se/conv2d/BiasAdd/ReadVariableOp", "op": "Const", "attr": {"value": {"tensor": {"dtype": "DT_FLOAT", "tensorShape": {"dim": [{"size": "52"}]}}}, "dtype": {"type": "DT_FLOAT"}}}, {"name": "StatefulPartitionedCall/efficientnetv2-b2/blocks_27/se/conv2d_1/Conv2D/ReadVariableOp", "op": "Const", "attr": {"value": {"tensor": {"dtype": "DT_FLOAT", "tensorShape": {"dim": [{"size": "1"}, {"size": "1"}, {"size": "52"}, {"size": "1248"}]}}}, "dtype": {"type": "DT_FLOAT"}}}, {"name": "StatefulPartitionedCall/efficientnetv2-b2/blocks_27/se/conv2d_1/BiasAdd/ReadVariableOp", "op": "Const", "attr": {"value": {"tensor": {"dtype": "DT_FLOAT", "tensorShape": {"dim": [{"size": "1248"}]}}}, "dtype": {"type": "DT_FLOAT"}}}, {"name": "StatefulPartitionedCall/efficientnetv2-b2/blocks_26/se/Mean/reduction_indices", "op": "Const", "attr": {"value": {"tensor": {"dtype": "DT_INT32", "tensorShape": {"dim": [{"size": "2"}]}}}, "dtype": {"type": "DT_INT32"}}}, {"name": "StatefulPartitionedCall/efficientnetv2-b2/blocks_26/se/conv2d/Conv2D/ReadVariableOp", "op": "Const", "attr": {"dtype": {"type": "DT_FLOAT"}, "value": {"tensor": {"dtype": "DT_FLOAT", "tensorShape": {"dim": [{"size": "1"}, {"size": "1"}, {"size": "1248"}, {"size": "52"}]}}}}}, {"name": "StatefulPartitionedCall/efficientnetv2-b2/blocks_26/se/conv2d/BiasAdd/ReadVariableOp", "op": "Const", "attr": {"value": {"tensor": {"dtype": "DT_FLOAT", "tensorShape": {"dim": [{"size": "52"}]}}}, "dtype": {"type": "DT_FLOAT"}}}, {"name": "StatefulPartitionedCall/efficientnetv2-b2/blocks_26/se/conv2d_1/Conv2D/ReadVariableOp", "op": "Const", "attr": {"dtype": {"type": "DT_FLOAT"}, "value": {"tensor": {"dtype": "DT_FLOAT", "tensorShape": {"dim": [{"size": "1"}, {"size": "1"}, {"size": "52"}, {"size": "1248"}]}}}}}, {"name": "StatefulPartitionedCall/efficientnetv2-b2/blocks_26/se/conv2d_1/BiasAdd/ReadVariableOp", "op": "Const", "attr": {"dtype": {"type": "DT_FLOAT"}, "value": {"tensor": {"dtype": "DT_FLOAT", "tensorShape": {"dim": [{"size": "1248"}]}}}}}, {"name": "StatefulPartitionedCall/efficientnetv2-b2/blocks_25/se/Mean/reduction_indices", "op": "Const", "attr": {"value": {"tensor": {"dtype": "DT_INT32", "tensorShape": {"dim": [{"size": "2"}]}}}, "dtype": {"type": "DT_INT32"}}}, {"name": "StatefulPartitionedCall/efficientnetv2-b2/blocks_25/se/conv2d/Conv2D/ReadVariableOp", "op": "Const", "attr": {"value": {"tensor": {"dtype": "DT_FLOAT", "tensorShape": {"dim": [{"size": "1"}, {"size": "1"}, {"size": "1248"}, {"size": "52"}]}}}, "dtype": {"type": "DT_FLOAT"}}}, {"name": "StatefulPartitionedCall/efficientnetv2-b2/blocks_25/se/conv2d/BiasAdd/ReadVariableOp", "op": "Const", "attr": {"value": {"tensor": {"dtype": "DT_FLOAT", "tensorShape": {"dim": [{"size": "52"}]}}}, "dtype": {"type": "DT_FLOAT"}}}, {"name": "StatefulPartitionedCall/efficientnetv2-b2/blocks_25/se/conv2d_1/Conv2D/ReadVariableOp", "op": "Const", "attr": {"value": {"tensor": {"dtype": "DT_FLOAT", "tensorShape": {"dim": [{"size": "1"}, {"size": "1"}, {"size": "52"}, {"size": "1248"}]}}}, "dtype": {"type": "DT_FLOAT"}}}, {"name": "StatefulPartitionedCall/efficientnetv2-b2/blocks_25/se/conv2d_1/BiasAdd/ReadVariableOp", "op": "Const", "attr": {"dtype": {"type": "DT_FLOAT"}, "value": {"tensor": {"dtype": "DT_FLOAT", "tensorShape": {"dim": [{"size": "1248"}]}}}}}, {"name": "StatefulPartitionedCall/efficientnetv2-b2/blocks_24/se/Mean/reduction_indices", "op": "Const", "attr": {"dtype": {"type": "DT_INT32"}, "value": {"tensor": {"dtype": "DT_INT32", "tensorShape": {"dim": [{"size": "2"}]}}}}}, {"name": "StatefulPartitionedCall/efficientnetv2-b2/blocks_24/se/conv2d/Conv2D/ReadVariableOp", "op": "Const", "attr": {"value": {"tensor": {"dtype": "DT_FLOAT", "tensorShape": {"dim": [{"size": "1"}, {"size": "1"}, {"size": "1248"}, {"size": "52"}]}}}, "dtype": {"type": "DT_FLOAT"}}}, {"name": "StatefulPartitionedCall/efficientnetv2-b2/blocks_24/se/conv2d/BiasAdd/ReadVariableOp", "op": "Const", "attr": {"dtype": {"type": "DT_FLOAT"}, "value": {"tensor": {"dtype": "DT_FLOAT", "tensorShape": {"dim": [{"size": "52"}]}}}}}, {"name": "StatefulPartitionedCall/efficientnetv2-b2/blocks_24/se/conv2d_1/Conv2D/ReadVariableOp", "op": "Const", "attr": {"value": {"tensor": {"dtype": "DT_FLOAT", "tensorShape": {"dim": [{"size": "1"}, {"size": "1"}, {"size": "52"}, {"size": "1248"}]}}}, "dtype": {"type": "DT_FLOAT"}}}, {"name": "StatefulPartitionedCall/efficientnetv2-b2/blocks_24/se/conv2d_1/BiasAdd/ReadVariableOp", "op": "Const", "attr": {"dtype": {"type": "DT_FLOAT"}, "value": {"tensor": {"dtype": "DT_FLOAT", "tensorShape": {"dim": [{"size": "1248"}]}}}}}, {"name": "StatefulPartitionedCall/efficientnetv2-b2/blocks_23/se/Mean/reduction_indices", "op": "Const", "attr": {"dtype": {"type": "DT_INT32"}, "value": {"tensor": {"dtype": "DT_INT32", "tensorShape": {"dim": [{"size": "2"}]}}}}}, {"name": "StatefulPartitionedCall/efficientnetv2-b2/blocks_23/se/conv2d/Conv2D/ReadVariableOp", "op": "Const", "attr": {"value": {"tensor": {"dtype": "DT_FLOAT", "tensorShape": {"dim": [{"size": "1"}, {"size": "1"}, {"size": "1248"}, {"size": "52"}]}}}, "dtype": {"type": "DT_FLOAT"}}}, {"name": "StatefulPartitionedCall/efficientnetv2-b2/blocks_23/se/conv2d/BiasAdd/ReadVariableOp", "op": "Const", "attr": {"dtype": {"type": "DT_FLOAT"}, "value": {"tensor": {"dtype": "DT_FLOAT", "tensorShape": {"dim": [{"size": "52"}]}}}}}, {"name": "StatefulPartitionedCall/efficientnetv2-b2/blocks_23/se/conv2d_1/Conv2D/ReadVariableOp", "op": "Const", "attr": {"dtype": {"type": "DT_FLOAT"}, "value": {"tensor": {"dtype": "DT_FLOAT", "tensorShape": {"dim": [{"size": "1"}, {"size": "1"}, {"size": "52"}, {"size": "1248"}]}}}}}, {"name": "StatefulPartitionedCall/efficientnetv2-b2/blocks_23/se/conv2d_1/BiasAdd/ReadVariableOp", "op": "Const", "attr": {"dtype": {"type": "DT_FLOAT"}, "value": {"tensor": {"dtype": "DT_FLOAT", "tensorShape": {"dim": [{"size": "1248"}]}}}}}, {"name": "StatefulPartitionedCall/efficientnetv2-b2/blocks_22/se/Mean/reduction_indices", "op": "Const", "attr": {"value": {"tensor": {"dtype": "DT_INT32", "tensorShape": {"dim": [{"size": "2"}]}}}, "dtype": {"type": "DT_INT32"}}}, {"name": "StatefulPartitionedCall/efficientnetv2-b2/blocks_22/se/conv2d/Conv2D/ReadVariableOp", "op": "Const", "attr": {"dtype": {"type": "DT_FLOAT"}, "value": {"tensor": {"dtype": "DT_FLOAT", "tensorShape": {"dim": [{"size": "1"}, {"size": "1"}, {"size": "1248"}, {"size": "52"}]}}}}}, {"name": "StatefulPartitionedCall/efficientnetv2-b2/blocks_22/se/conv2d/BiasAdd/ReadVariableOp", "op": "Const", "attr": {"dtype": {"type": "DT_FLOAT"}, "value": {"tensor": {"dtype": "DT_FLOAT", "tensorShape": {"dim": [{"size": "52"}]}}}}}, {"name": "StatefulPartitionedCall/efficientnetv2-b2/blocks_22/se/conv2d_1/Conv2D/ReadVariableOp", "op": "Const", "attr": {"dtype": {"type": "DT_FLOAT"}, "value": {"tensor": {"dtype": "DT_FLOAT", "tensorShape": {"dim": [{"size": "1"}, {"size": "1"}, {"size": "52"}, {"size": "1248"}]}}}}}, {"name": "StatefulPartitionedCall/efficientnetv2-b2/blocks_22/se/conv2d_1/BiasAdd/ReadVariableOp", "op": "Const", "attr": {"value": {"tensor": {"dtype": "DT_FLOAT", "tensorShape": {"dim": [{"size": "1248"}]}}}, "dtype": {"type": "DT_FLOAT"}}}, {"name": "StatefulPartitionedCall/efficientnetv2-b2/blocks_21/se/Mean/reduction_indices", "op": "Const", "attr": {"dtype": {"type": "DT_INT32"}, "value": {"tensor": {"dtype": "DT_INT32", "tensorShape": {"dim": [{"size": "2"}]}}}}}, {"name": "StatefulPartitionedCall/efficientnetv2-b2/blocks_21/se/conv2d/Conv2D/ReadVariableOp", "op": "Const", "attr": {"value": {"tensor": {"dtype": "DT_FLOAT", "tensorShape": {"dim": [{"size": "1"}, {"size": "1"}, {"size": "1248"}, {"size": "52"}]}}}, "dtype": {"type": "DT_FLOAT"}}}, {"name": "StatefulPartitionedCall/efficientnetv2-b2/blocks_21/se/conv2d/BiasAdd/ReadVariableOp", "op": "Const", "attr": {"value": {"tensor": {"dtype": "DT_FLOAT", "tensorShape": {"dim": [{"size": "52"}]}}}, "dtype": {"type": "DT_FLOAT"}}}, {"name": "StatefulPartitionedCall/efficientnetv2-b2/blocks_21/se/conv2d_1/Conv2D/ReadVariableOp", "op": "Const", "attr": {"dtype": {"type": "DT_FLOAT"}, "value": {"tensor": {"dtype": "DT_FLOAT", "tensorShape": {"dim": [{"size": "1"}, {"size": "1"}, {"size": "52"}, {"size": "1248"}]}}}}}, {"name": "StatefulPartitionedCall/efficientnetv2-b2/blocks_21/se/conv2d_1/BiasAdd/ReadVariableOp", "op": "Const", "attr": {"value": {"tensor": {"dtype": "DT_FLOAT", "tensorShape": {"dim": [{"size": "1248"}]}}}, "dtype": {"type": "DT_FLOAT"}}}, {"name": "StatefulPartitionedCall/efficientnetv2-b2/blocks_20/se/Mean/reduction_indices", "op": "Const", "attr": {"dtype": {"type": "DT_INT32"}, "value": {"tensor": {"dtype": "DT_INT32", "tensorShape": {"dim": [{"size": "2"}]}}}}}, {"name": "StatefulPartitionedCall/efficientnetv2-b2/blocks_20/se/conv2d/Conv2D/ReadVariableOp", "op": "Const", "attr": {"dtype": {"type": "DT_FLOAT"}, "value": {"tensor": {"dtype": "DT_FLOAT", "tensorShape": {"dim": [{"size": "1"}, {"size": "1"}, {"size": "1248"}, {"size": "52"}]}}}}}, {"name": "StatefulPartitionedCall/efficientnetv2-b2/blocks_20/se/conv2d/BiasAdd/ReadVariableOp", "op": "Const", "attr": {"value": {"tensor": {"dtype": "DT_FLOAT", "tensorShape": {"dim": [{"size": "52"}]}}}, "dtype": {"type": "DT_FLOAT"}}}, {"name": "StatefulPartitionedCall/efficientnetv2-b2/blocks_20/se/conv2d_1/Conv2D/ReadVariableOp", "op": "Const", "attr": {"dtype": {"type": "DT_FLOAT"}, "value": {"tensor": {"dtype": "DT_FLOAT", "tensorShape": {"dim": [{"size": "1"}, {"size": "1"}, {"size": "52"}, {"size": "1248"}]}}}}}, {"name": "StatefulPartitionedCall/efficientnetv2-b2/blocks_20/se/conv2d_1/BiasAdd/ReadVariableOp", "op": "Const", "attr": {"dtype": {"type": "DT_FLOAT"}, "value": {"tensor": {"dtype": "DT_FLOAT", "tensorShape": {"dim": [{"size": "1248"}]}}}}}, {"name": "StatefulPartitionedCall/efficientnetv2-b2/blocks_19/se/Mean/reduction_indices", "op": "Const", "attr": {"dtype": {"type": "DT_INT32"}, "value": {"tensor": {"dtype": "DT_INT32", "tensorShape": {"dim": [{"size": "2"}]}}}}}, {"name": "StatefulPartitionedCall/efficientnetv2-b2/blocks_19/se/conv2d/Conv2D/ReadVariableOp", "op": "Const", "attr": {"dtype": {"type": "DT_FLOAT"}, "value": {"tensor": {"dtype": "DT_FLOAT", "tensorShape": {"dim": [{"size": "1"}, {"size": "1"}, {"size": "1248"}, {"size": "52"}]}}}}}, {"name": "StatefulPartitionedCall/efficientnetv2-b2/blocks_19/se/conv2d/BiasAdd/ReadVariableOp", "op": "Const", "attr": {"dtype": {"type": "DT_FLOAT"}, "value": {"tensor": {"dtype": "DT_FLOAT", "tensorShape": {"dim": [{"size": "52"}]}}}}}, {"name": "StatefulPartitionedCall/efficientnetv2-b2/blocks_19/se/conv2d_1/Conv2D/ReadVariableOp", "op": "Const", "attr": {"dtype": {"type": "DT_FLOAT"}, "value": {"tensor": {"dtype": "DT_FLOAT", "tensorShape": {"dim": [{"size": "1"}, {"size": "1"}, {"size": "52"}, {"size": "1248"}]}}}}}, {"name": "StatefulPartitionedCall/efficientnetv2-b2/blocks_19/se/conv2d_1/BiasAdd/ReadVariableOp", "op": "Const", "attr": {"dtype": {"type": "DT_FLOAT"}, "value": {"tensor": {"dtype": "DT_FLOAT", "tensorShape": {"dim": [{"size": "1248"}]}}}}}, {"name": "StatefulPartitionedCall/efficientnetv2-b2/blocks_18/se/Mean/reduction_indices", "op": "Const", "attr": {"value": {"tensor": {"dtype": "DT_INT32", "tensorShape": {"dim": [{"size": "2"}]}}}, "dtype": {"type": "DT_INT32"}}}, {"name": "StatefulPartitionedCall/efficientnetv2-b2/blocks_18/se/conv2d/Conv2D/ReadVariableOp", "op": "Const", "attr": {"dtype": {"type": "DT_FLOAT"}, "value": {"tensor": {"dtype": "DT_FLOAT", "tensorShape": {"dim": [{"size": "1"}, {"size": "1"}, {"size": "720"}, {"size": "30"}]}}}}}, {"name": "StatefulPartitionedCall/efficientnetv2-b2/blocks_18/se/conv2d/BiasAdd/ReadVariableOp", "op": "Const", "attr": {"dtype": {"type": "DT_FLOAT"}, "value": {"tensor": {"dtype": "DT_FLOAT", "tensorShape": {"dim": [{"size": "30"}]}}}}}, {"name": "StatefulPartitionedCall/efficientnetv2-b2/blocks_18/se/conv2d_1/Conv2D/ReadVariableOp", "op": "Const", "attr": {"dtype": {"type": "DT_FLOAT"}, "value": {"tensor": {"dtype": "DT_FLOAT", "tensorShape": {"dim": [{"size": "1"}, {"size": "1"}, {"size": "30"}, {"size": "720"}]}}}}}, {"name": "StatefulPartitionedCall/efficientnetv2-b2/blocks_18/se/conv2d_1/BiasAdd/ReadVariableOp", "op": "Const", "attr": {"value": {"tensor": {"dtype": "DT_FLOAT", "tensorShape": {"dim": [{"size": "720"}]}}}, "dtype": {"type": "DT_FLOAT"}}}, {"name": "StatefulPartitionedCall/efficientnetv2-b2/blocks_17/se/Mean/reduction_indices", "op": "Const", "attr": {"value": {"tensor": {"dtype": "DT_INT32", "tensorShape": {"dim": [{"size": "2"}]}}}, "dtype": {"type": "DT_INT32"}}}, {"name": "StatefulPartitionedCall/efficientnetv2-b2/blocks_17/se/conv2d/Conv2D/ReadVariableOp", "op": "Const", "attr": {"dtype": {"type": "DT_FLOAT"}, "value": {"tensor": {"dtype": "DT_FLOAT", "tensorShape": {"dim": [{"size": "1"}, {"size": "1"}, {"size": "720"}, {"size": "30"}]}}}}}, {"name": "StatefulPartitionedCall/efficientnetv2-b2/blocks_17/se/conv2d/BiasAdd/ReadVariableOp", "op": "Const", "attr": {"value": {"tensor": {"dtype": "DT_FLOAT", "tensorShape": {"dim": [{"size": "30"}]}}}, "dtype": {"type": "DT_FLOAT"}}}, {"name": "StatefulPartitionedCall/efficientnetv2-b2/blocks_17/se/conv2d_1/Conv2D/ReadVariableOp", "op": "Const", "attr": {"dtype": {"type": "DT_FLOAT"}, "value": {"tensor": {"dtype": "DT_FLOAT", "tensorShape": {"dim": [{"size": "1"}, {"size": "1"}, {"size": "30"}, {"size": "720"}]}}}}}, {"name": "StatefulPartitionedCall/efficientnetv2-b2/blocks_17/se/conv2d_1/BiasAdd/ReadVariableOp", "op": "Const", "attr": {"dtype": {"type": "DT_FLOAT"}, "value": {"tensor": {"dtype": "DT_FLOAT", "tensorShape": {"dim": [{"size": "720"}]}}}}}, {"name": "StatefulPartitionedCall/efficientnetv2-b2/blocks_16/se/Mean/reduction_indices", "op": "Const", "attr": {"dtype": {"type": "DT_INT32"}, "value": {"tensor": {"dtype": "DT_INT32", "tensorShape": {"dim": [{"size": "2"}]}}}}}, {"name": "StatefulPartitionedCall/efficientnetv2-b2/blocks_16/se/conv2d/Conv2D/ReadVariableOp", "op": "Const", "attr": {"dtype": {"type": "DT_FLOAT"}, "value": {"tensor": {"dtype": "DT_FLOAT", "tensorShape": {"dim": [{"size": "1"}, {"size": "1"}, {"size": "720"}, {"size": "30"}]}}}}}, {"name": "StatefulPartitionedCall/efficientnetv2-b2/blocks_16/se/conv2d/BiasAdd/ReadVariableOp", "op": "Const", "attr": {"dtype": {"type": "DT_FLOAT"}, "value": {"tensor": {"dtype": "DT_FLOAT", "tensorShape": {"dim": [{"size": "30"}]}}}}}, {"name": "StatefulPartitionedCall/efficientnetv2-b2/blocks_16/se/conv2d_1/Conv2D/ReadVariableOp", "op": "Const", "attr": {"dtype": {"type": "DT_FLOAT"}, "value": {"tensor": {"dtype": "DT_FLOAT", "tensorShape": {"dim": [{"size": "1"}, {"size": "1"}, {"size": "30"}, {"size": "720"}]}}}}}, {"name": "StatefulPartitionedCall/efficientnetv2-b2/blocks_16/se/conv2d_1/BiasAdd/ReadVariableOp", "op": "Const", "attr": {"dtype": {"type": "DT_FLOAT"}, "value": {"tensor": {"dtype": "DT_FLOAT", "tensorShape": {"dim": [{"size": "720"}]}}}}}, {"name": "StatefulPartitionedCall/efficientnetv2-b2/blocks_15/se/Mean/reduction_indices", "op": "Const", "attr": {"value": {"tensor": {"dtype": "DT_INT32", "tensorShape": {"dim": [{"size": "2"}]}}}, "dtype": {"type": "DT_INT32"}}}, {"name": "StatefulPartitionedCall/efficientnetv2-b2/blocks_15/se/conv2d/Conv2D/ReadVariableOp", "op": "Const", "attr": {"value": {"tensor": {"dtype": "DT_FLOAT", "tensorShape": {"dim": [{"size": "1"}, {"size": "1"}, {"size": "720"}, {"size": "30"}]}}}, "dtype": {"type": "DT_FLOAT"}}}, {"name": "StatefulPartitionedCall/efficientnetv2-b2/blocks_15/se/conv2d/BiasAdd/ReadVariableOp", "op": "Const", "attr": {"value": {"tensor": {"dtype": "DT_FLOAT", "tensorShape": {"dim": [{"size": "30"}]}}}, "dtype": {"type": "DT_FLOAT"}}}, {"name": "StatefulPartitionedCall/efficientnetv2-b2/blocks_15/se/conv2d_1/Conv2D/ReadVariableOp", "op": "Const", "attr": {"dtype": {"type": "DT_FLOAT"}, "value": {"tensor": {"dtype": "DT_FLOAT", "tensorShape": {"dim": [{"size": "1"}, {"size": "1"}, {"size": "30"}, {"size": "720"}]}}}}}, {"name": "StatefulPartitionedCall/efficientnetv2-b2/blocks_15/se/conv2d_1/BiasAdd/ReadVariableOp", "op": "Const", "attr": {"value": {"tensor": {"dtype": "DT_FLOAT", "tensorShape": {"dim": [{"size": "720"}]}}}, "dtype": {"type": "DT_FLOAT"}}}, {"name": "StatefulPartitionedCall/efficientnetv2-b2/blocks_14/se/Mean/reduction_indices", "op": "Const", "attr": {"value": {"tensor": {"dtype": "DT_INT32", "tensorShape": {"dim": [{"size": "2"}]}}}, "dtype": {"type": "DT_INT32"}}}, {"name": "StatefulPartitionedCall/efficientnetv2-b2/blocks_14/se/conv2d/Conv2D/ReadVariableOp", "op": "Const", "attr": {"dtype": {"type": "DT_FLOAT"}, "value": {"tensor": {"dtype": "DT_FLOAT", "tensorShape": {"dim": [{"size": "1"}, {"size": "1"}, {"size": "720"}, {"size": "30"}]}}}}}, {"name": "StatefulPartitionedCall/efficientnetv2-b2/blocks_14/se/conv2d/BiasAdd/ReadVariableOp", "op": "Const", "attr": {"value": {"tensor": {"dtype": "DT_FLOAT", "tensorShape": {"dim": [{"size": "30"}]}}}, "dtype": {"type": "DT_FLOAT"}}}, {"name": "StatefulPartitionedCall/efficientnetv2-b2/blocks_14/se/conv2d_1/Conv2D/ReadVariableOp", "op": "Const", "attr": {"dtype": {"type": "DT_FLOAT"}, "value": {"tensor": {"dtype": "DT_FLOAT", "tensorShape": {"dim": [{"size": "1"}, {"size": "1"}, {"size": "30"}, {"size": "720"}]}}}}}, {"name": "StatefulPartitionedCall/efficientnetv2-b2/blocks_14/se/conv2d_1/BiasAdd/ReadVariableOp", "op": "Const", "attr": {"dtype": {"type": "DT_FLOAT"}, "value": {"tensor": {"dtype": "DT_FLOAT", "tensorShape": {"dim": [{"size": "720"}]}}}}}, {"name": "StatefulPartitionedCall/efficientnetv2-b2/blocks_13/se/Mean/reduction_indices", "op": "Const", "attr": {"value": {"tensor": {"dtype": "DT_INT32", "tensorShape": {"dim": [{"size": "2"}]}}}, "dtype": {"type": "DT_INT32"}}}, {"name": "StatefulPartitionedCall/efficientnetv2-b2/blocks_13/se/conv2d/Conv2D/ReadVariableOp", "op": "Const", "attr": {"value": {"tensor": {"dtype": "DT_FLOAT", "tensorShape": {"dim": [{"size": "1"}, {"size": "1"}, {"size": "720"}, {"size": "30"}]}}}, "dtype": {"type": "DT_FLOAT"}}}, {"name": "StatefulPartitionedCall/efficientnetv2-b2/blocks_13/se/conv2d/BiasAdd/ReadVariableOp", "op": "Const", "attr": {"value": {"tensor": {"dtype": "DT_FLOAT", "tensorShape": {"dim": [{"size": "30"}]}}}, "dtype": {"type": "DT_FLOAT"}}}, {"name": "StatefulPartitionedCall/efficientnetv2-b2/blocks_13/se/conv2d_1/Conv2D/ReadVariableOp", "op": "Const", "attr": {"dtype": {"type": "DT_FLOAT"}, "value": {"tensor": {"dtype": "DT_FLOAT", "tensorShape": {"dim": [{"size": "1"}, {"size": "1"}, {"size": "30"}, {"size": "720"}]}}}}}, {"name": "StatefulPartitionedCall/efficientnetv2-b2/blocks_13/se/conv2d_1/BiasAdd/ReadVariableOp", "op": "Const", "attr": {"dtype": {"type": "DT_FLOAT"}, "value": {"tensor": {"dtype": "DT_FLOAT", "tensorShape": {"dim": [{"size": "720"}]}}}}}, {"name": "StatefulPartitionedCall/efficientnetv2-b2/blocks_12/se/Mean/reduction_indices", "op": "Const", "attr": {"dtype": {"type": "DT_INT32"}, "value": {"tensor": {"dtype": "DT_INT32", "tensorShape": {"dim": [{"size": "2"}]}}}}}, {"name": "StatefulPartitionedCall/efficientnetv2-b2/blocks_12/se/conv2d/Conv2D/ReadVariableOp", "op": "Const", "attr": {"value": {"tensor": {"dtype": "DT_FLOAT", "tensorShape": {"dim": [{"size": "1"}, {"size": "1"}, {"size": "624"}, {"size": "26"}]}}}, "dtype": {"type": "DT_FLOAT"}}}, {"name": "StatefulPartitionedCall/efficientnetv2-b2/blocks_12/se/conv2d/BiasAdd/ReadVariableOp", "op": "Const", "attr": {"value": {"tensor": {"dtype": "DT_FLOAT", "tensorShape": {"dim": [{"size": "26"}]}}}, "dtype": {"type": "DT_FLOAT"}}}, {"name": "StatefulPartitionedCall/efficientnetv2-b2/blocks_12/se/conv2d_1/Conv2D/ReadVariableOp", "op": "Const", "attr": {"value": {"tensor": {"dtype": "DT_FLOAT", "tensorShape": {"dim": [{"size": "1"}, {"size": "1"}, {"size": "26"}, {"size": "624"}]}}}, "dtype": {"type": "DT_FLOAT"}}}, {"name": "StatefulPartitionedCall/efficientnetv2-b2/blocks_12/se/conv2d_1/BiasAdd/ReadVariableOp", "op": "Const", "attr": {"dtype": {"type": "DT_FLOAT"}, "value": {"tensor": {"dtype": "DT_FLOAT", "tensorShape": {"dim": [{"size": "624"}]}}}}}, {"name": "StatefulPartitionedCall/efficientnetv2-b2/blocks_11/se/Mean/reduction_indices", "op": "Const", "attr": {"value": {"tensor": {"dtype": "DT_INT32", "tensorShape": {"dim": [{"size": "2"}]}}}, "dtype": {"type": "DT_INT32"}}}, {"name": "StatefulPartitionedCall/efficientnetv2-b2/blocks_11/se/conv2d/Conv2D/ReadVariableOp", "op": "Const", "attr": {"value": {"tensor": {"dtype": "DT_FLOAT", "tensorShape": {"dim": [{"size": "1"}, {"size": "1"}, {"size": "416"}, {"size": "26"}]}}}, "dtype": {"type": "DT_FLOAT"}}}, {"name": "StatefulPartitionedCall/efficientnetv2-b2/blocks_11/se/conv2d/BiasAdd/ReadVariableOp", "op": "Const", "attr": {"dtype": {"type": "DT_FLOAT"}, "value": {"tensor": {"dtype": "DT_FLOAT", "tensorShape": {"dim": [{"size": "26"}]}}}}}, {"name": "StatefulPartitionedCall/efficientnetv2-b2/blocks_11/se/conv2d_1/Conv2D/ReadVariableOp", "op": "Const", "attr": {"dtype": {"type": "DT_FLOAT"}, "value": {"tensor": {"dtype": "DT_FLOAT", "tensorShape": {"dim": [{"size": "1"}, {"size": "1"}, {"size": "26"}, {"size": "416"}]}}}}}, {"name": "StatefulPartitionedCall/efficientnetv2-b2/blocks_11/se/conv2d_1/BiasAdd/ReadVariableOp", "op": "Const", "attr": {"value": {"tensor": {"dtype": "DT_FLOAT", "tensorShape": {"dim": [{"size": "416"}]}}}, "dtype": {"type": "DT_FLOAT"}}}, {"name": "StatefulPartitionedCall/efficientnetv2-b2/blocks_10/se/Mean/reduction_indices", "op": "Const", "attr": {"dtype": {"type": "DT_INT32"}, "value": {"tensor": {"dtype": "DT_INT32", "tensorShape": {"dim": [{"size": "2"}]}}}}}, {"name": "StatefulPartitionedCall/efficientnetv2-b2/blocks_10/se/conv2d/Conv2D/ReadVariableOp", "op": "Const", "attr": {"dtype": {"type": "DT_FLOAT"}, "value": {"tensor": {"dtype": "DT_FLOAT", "tensorShape": {"dim": [{"size": "1"}, {"size": "1"}, {"size": "416"}, {"size": "26"}]}}}}}, {"name": "StatefulPartitionedCall/efficientnetv2-b2/blocks_10/se/conv2d/BiasAdd/ReadVariableOp", "op": "Const", "attr": {"dtype": {"type": "DT_FLOAT"}, "value": {"tensor": {"dtype": "DT_FLOAT", "tensorShape": {"dim": [{"size": "26"}]}}}}}, {"name": "StatefulPartitionedCall/efficientnetv2-b2/blocks_10/se/conv2d_1/Conv2D/ReadVariableOp", "op": "Const", "attr": {"value": {"tensor": {"dtype": "DT_FLOAT", "tensorShape": {"dim": [{"size": "1"}, {"size": "1"}, {"size": "26"}, {"size": "416"}]}}}, "dtype": {"type": "DT_FLOAT"}}}, {"name": "StatefulPartitionedCall/efficientnetv2-b2/blocks_10/se/conv2d_1/BiasAdd/ReadVariableOp", "op": "Const", "attr": {"dtype": {"type": "DT_FLOAT"}, "value": {"tensor": {"dtype": "DT_FLOAT", "tensorShape": {"dim": [{"size": "416"}]}}}}}, {"name": "StatefulPartitionedCall/efficientnetv2-b2/blocks_9/se/Mean/reduction_indices", "op": "Const", "attr": {"value": {"tensor": {"dtype": "DT_INT32", "tensorShape": {"dim": [{"size": "2"}]}}}, "dtype": {"type": "DT_INT32"}}}, {"name": "StatefulPartitionedCall/efficientnetv2-b2/blocks_9/se/conv2d/Conv2D/ReadVariableOp", "op": "Const", "attr": {"value": {"tensor": {"dtype": "DT_FLOAT", "tensorShape": {"dim": [{"size": "1"}, {"size": "1"}, {"size": "416"}, {"size": "26"}]}}}, "dtype": {"type": "DT_FLOAT"}}}, {"name": "StatefulPartitionedCall/efficientnetv2-b2/blocks_9/se/conv2d/BiasAdd/ReadVariableOp", "op": "Const", "attr": {"value": {"tensor": {"dtype": "DT_FLOAT", "tensorShape": {"dim": [{"size": "26"}]}}}, "dtype": {"type": "DT_FLOAT"}}}, {"name": "StatefulPartitionedCall/efficientnetv2-b2/blocks_9/se/conv2d_1/Conv2D/ReadVariableOp", "op": "Const", "attr": {"value": {"tensor": {"dtype": "DT_FLOAT", "tensorShape": {"dim": [{"size": "1"}, {"size": "1"}, {"size": "26"}, {"size": "416"}]}}}, "dtype": {"type": "DT_FLOAT"}}}, {"name": "StatefulPartitionedCall/efficientnetv2-b2/blocks_9/se/conv2d_1/BiasAdd/ReadVariableOp", "op": "Const", "attr": {"value": {"tensor": {"dtype": "DT_FLOAT", "tensorShape": {"dim": [{"size": "416"}]}}}, "dtype": {"type": "DT_FLOAT"}}}, {"name": "StatefulPartitionedCall/efficientnetv2-b2/blocks_8/se/Mean/reduction_indices", "op": "Const", "attr": {"value": {"tensor": {"dtype": "DT_INT32", "tensorShape": {"dim": [{"size": "2"}]}}}, "dtype": {"type": "DT_INT32"}}}, {"name": "StatefulPartitionedCall/efficientnetv2-b2/blocks_8/se/conv2d/Conv2D/ReadVariableOp", "op": "Const", "attr": {"dtype": {"type": "DT_FLOAT"}, "value": {"tensor": {"dtype": "DT_FLOAT", "tensorShape": {"dim": [{"size": "1"}, {"size": "1"}, {"size": "224"}, {"size": "14"}]}}}}}, {"name": "StatefulPartitionedCall/efficientnetv2-b2/blocks_8/se/conv2d/BiasAdd/ReadVariableOp", "op": "Const", "attr": {"value": {"tensor": {"dtype": "DT_FLOAT", "tensorShape": {"dim": [{"size": "14"}]}}}, "dtype": {"type": "DT_FLOAT"}}}, {"name": "StatefulPartitionedCall/efficientnetv2-b2/blocks_8/se/conv2d_1/Conv2D/ReadVariableOp", "op": "Const", "attr": {"dtype": {"type": "DT_FLOAT"}, "value": {"tensor": {"dtype": "DT_FLOAT", "tensorShape": {"dim": [{"size": "1"}, {"size": "1"}, {"size": "14"}, {"size": "224"}]}}}}}, {"name": "StatefulPartitionedCall/efficientnetv2-b2/blocks_8/se/conv2d_1/BiasAdd/ReadVariableOp", "op": "Const", "attr": {"dtype": {"type": "DT_FLOAT"}, "value": {"tensor": {"dtype": "DT_FLOAT", "tensorShape": {"dim": [{"size": "224"}]}}}}}, {"name": "StatefulPartitionedCall/efficientnetv2-b2/head/global_average_pooling2d/Mean/reduction_indices", "op": "Const", "attr": {"value": {"tensor": {"dtype": "DT_INT32", "tensorShape": {"dim": [{"size": "2"}]}}}, "dtype": {"type": "DT_INT32"}}}, {"name": "StatefulPartitionedCall/efficientnetv2-b2/head_1/dense/MatMul/ReadVariableOp", "op": "Const", "attr": {"dtype": {"type": "DT_FLOAT"}, "value": {"tensor": {"dtype": "DT_FLOAT", "tensorShape": {"dim": [{"size": "1408"}, {"size": "1000"}]}}}}}, {"name": "StatefulPartitionedCall/efficientnetv2-b2/head_1/dense/BiasAdd/ReadVariableOp", "op": "Const", "attr": {"value": {"tensor": {"dtype": "DT_FLOAT", "tensorShape": {"dim": [{"size": "1000"}]}}}, "dtype": {"type": "DT_FLOAT"}}}, {"name": "input_1", "op": "Placeholder", "attr": {"shape": {"shape": {"dim": [{"size": "-1"}, {"size": "-1"}, {"size": "-1"}, {"size": "3"}]}}, "dtype": {"type": "DT_FLOAT"}}}, {"name": "StatefulPartitionedCall/efficientnetv2-b2/stem/conv2d/Conv2D_weights", "op": "Const", "attr": {"value": {"tensor": {"dtype": "DT_FLOAT", "tensorShape": {"dim": [{"size": "3"}, {"size": "3"}, {"size": "3"}, {"size": "32"}]}}}, "dtype": {"type": "DT_FLOAT"}}}, {"name": "StatefulPartitionedCall/efficientnetv2-b2/stem/conv2d/Conv2D_bn_offset", "op": "Const", "attr": {"value": {"tensor": {"dtype": "DT_FLOAT", "tensorShape": {"dim": [{"size": "32"}]}}}, "dtype": {"type": "DT_FLOAT"}}}, {"name": "StatefulPartitionedCall/efficientnetv2-b2/blocks_0/conv2d/Conv2D_weights", "op": "Const", "attr": {"dtype": {"type": "DT_FLOAT"}, "value": {"tensor": {"dtype": "DT_FLOAT", "tensorShape": {"dim": [{"size": "3"}, {"size": "3"}, {"size": "32"}, {"size": "16"}]}}}}}, {"name": "StatefulPartitionedCall/efficientnetv2-b2/blocks_0/conv2d/Conv2D_bn_offset", "op": "Const", "attr": {"value": {"tensor": {"dtype": "DT_FLOAT", "tensorShape": {"dim": [{"size": "16"}]}}}, "dtype": {"type": "DT_FLOAT"}}}, {"name": "StatefulPartitionedCall/efficientnetv2-b2/blocks_1/conv2d/Conv2D_weights", "op": "Const", "attr": {"dtype": {"type": "DT_FLOAT"}, "value": {"tensor": {"dtype": "DT_FLOAT", "tensorShape": {"dim": [{"size": "3"}, {"size": "3"}, {"size": "16"}, {"size": "16"}]}}}}}, {"name": "StatefulPartitionedCall/efficientnetv2-b2/blocks_1/conv2d/Conv2D_bn_offset", "op": "Const", "attr": {"value": {"tensor": {"dtype": "DT_FLOAT", "tensorShape": {"dim": [{"size": "16"}]}}}, "dtype": {"type": "DT_FLOAT"}}}, {"name": "StatefulPartitionedCall/efficientnetv2-b2/blocks_2/conv2d/Conv2D_weights", "op": "Const", "attr": {"dtype": {"type": "DT_FLOAT"}, "value": {"tensor": {"dtype": "DT_FLOAT", "tensorShape": {"dim": [{"size": "3"}, {"size": "3"}, {"size": "16"}, {"size": "64"}]}}}}}, {"name": "StatefulPartitionedCall/efficientnetv2-b2/blocks_2/conv2d/Conv2D_bn_offset", "op": "Const", "attr": {"value": {"tensor": {"dtype": "DT_FLOAT", "tensorShape": {"dim": [{"size": "64"}]}}}, "dtype": {"type": "DT_FLOAT"}}}, {"name": "StatefulPartitionedCall/efficientnetv2-b2/blocks_2/conv2d_1/Conv2D_weights", "op": "Const", "attr": {"value": {"tensor": {"dtype": "DT_FLOAT", "tensorShape": {"dim": [{"size": "1"}, {"size": "1"}, {"size": "64"}, {"size": "32"}]}}}, "dtype": {"type": "DT_FLOAT"}}}, {"name": "StatefulPartitionedCall/efficientnetv2-b2/blocks_24/conv2d_1/Conv2D_weights", "op": "Const", "attr": {"dtype": {"type": "DT_FLOAT"}, "value": {"tensor": {"dtype": "DT_FLOAT", "tensorShape": {"dim": [{"size": "1"}, {"size": "1"}, {"size": "1248"}, {"size": "208"}]}}}}}, {"name": "StatefulPartitionedCall/efficientnetv2-b2/blocks_2/conv2d_1/Conv2D_bn_offset", "op": "Const", "attr": {"value": {"tensor": {"dtype": "DT_FLOAT", "tensorShape": {"dim": [{"size": "32"}]}}}, "dtype": {"type": "DT_FLOAT"}}}, {"name": "StatefulPartitionedCall/efficientnetv2-b2/blocks_3/conv2d/Conv2D_weights", "op": "Const", "attr": {"dtype": {"type": "DT_FLOAT"}, "value": {"tensor": {"dtype": "DT_FLOAT", "tensorShape": {"dim": [{"size": "3"}, {"size": "3"}, {"size": "32"}, {"size": "128"}]}}}}}, {"name": "StatefulPartitionedCall/efficientnetv2-b2/blocks_27/conv2d_1/Conv2D_weights", "op": "Const", "attr": {"dtype": {"type": "DT_FLOAT"}, "value": {"tensor": {"dtype": "DT_FLOAT", "tensorShape": {"dim": [{"size": "1"}, {"size": "1"}, {"size": "1248"}, {"size": "208"}]}}}}}, {"name": "StatefulPartitionedCall/efficientnetv2-b2/blocks_3/conv2d/Conv2D_bn_offset", "op": "Const", "attr": {"value": {"tensor": {"dtype": "DT_FLOAT", "tensorShape": {"dim": [{"size": "128"}]}}}, "dtype": {"type": "DT_FLOAT"}}}, {"name": "StatefulPartitionedCall/efficientnetv2-b2/blocks_3/conv2d_1/Conv2D_weights", "op": "Const", "attr": {"value": {"tensor": {"dtype": "DT_FLOAT", "tensorShape": {"dim": [{"size": "1"}, {"size": "1"}, {"size": "128"}, {"size": "32"}]}}}, "dtype": {"type": "DT_FLOAT"}}}, {"name": "StatefulPartitionedCall/efficientnetv2-b2/blocks_24/conv2d_1/Conv2D_bn_offset", "op": "Const", "attr": {"dtype": {"type": "DT_FLOAT"}, "value": {"tensor": {"dtype": "DT_FLOAT", "tensorShape": {"dim": [{"size": "208"}]}}}}}, {"name": "StatefulPartitionedCall/efficientnetv2-b2/blocks_3/conv2d_1/Conv2D_bn_offset", "op": "Const", "attr": {"value": {"tensor": {"dtype": "DT_FLOAT", "tensorShape": {"dim": [{"size": "32"}]}}}, "dtype": {"type": "DT_FLOAT"}}}, {"name": "StatefulPartitionedCall/efficientnetv2-b2/blocks_4/conv2d/Conv2D_weights", "op": "Const", "attr": {"value": {"tensor": {"dtype": "DT_FLOAT", "tensorShape": {"dim": [{"size": "3"}, {"size": "3"}, {"size": "32"}, {"size": "128"}]}}}, "dtype": {"type": "DT_FLOAT"}}}, {"name": "StatefulPartitionedCall/efficientnetv2-b2/blocks_4/conv2d/Conv2D_bn_offset", "op": "Const", "attr": {"dtype": {"type": "DT_FLOAT"}, "value": {"tensor": {"dtype": "DT_FLOAT", "tensorShape": {"dim": [{"size": "128"}]}}}}}, {"name": "StatefulPartitionedCall/efficientnetv2-b2/blocks_4/conv2d_1/Conv2D_weights", "op": "Const", "attr": {"value": {"tensor": {"dtype": "DT_FLOAT", "tensorShape": {"dim": [{"size": "1"}, {"size": "1"}, {"size": "128"}, {"size": "32"}]}}}, "dtype": {"type": "DT_FLOAT"}}}, {"name": "StatefulPartitionedCall/efficientnetv2-b2/blocks_4/conv2d_1/Conv2D_bn_offset", "op": "Const", "attr": {"dtype": {"type": "DT_FLOAT"}, "value": {"tensor": {"dtype": "DT_FLOAT", "tensorShape": {"dim": [{"size": "32"}]}}}}}, {"name": "StatefulPartitionedCall/efficientnetv2-b2/blocks_5/conv2d/Conv2D_weights", "op": "Const", "attr": {"value": {"tensor": {"dtype": "DT_FLOAT", "tensorShape": {"dim": [{"size": "3"}, {"size": "3"}, {"size": "32"}, {"size": "128"}]}}}, "dtype": {"type": "DT_FLOAT"}}}, {"name": "StatefulPartitionedCall/efficientnetv2-b2/blocks_25/conv2d/Conv2D_weights", "op": "Const", "attr": {"value": {"tensor": {"dtype": "DT_FLOAT", "tensorShape": {"dim": [{"size": "1"}, {"size": "1"}, {"size": "208"}, {"size": "1248"}]}}}, "dtype": {"type": "DT_FLOAT"}}}, {"name": "StatefulPartitionedCall/efficientnetv2-b2/blocks_5/conv2d/Conv2D_bn_offset", "op": "Const", "attr": {"value": {"tensor": {"dtype": "DT_FLOAT", "tensorShape": {"dim": [{"size": "128"}]}}}, "dtype": {"type": "DT_FLOAT"}}}, {"name": "StatefulPartitionedCall/efficientnetv2-b2/blocks_5/conv2d_1/Conv2D_weights", "op": "Const", "attr": {"value": {"tensor": {"dtype": "DT_FLOAT", "tensorShape": {"dim": [{"size": "1"}, {"size": "1"}, {"size": "128"}, {"size": "56"}]}}}, "dtype": {"type": "DT_FLOAT"}}}, {"name": "StatefulPartitionedCall/efficientnetv2-b2/blocks_5/conv2d_1/Conv2D_bn_offset", "op": "Const", "attr": {"dtype": {"type": "DT_FLOAT"}, "value": {"tensor": {"dtype": "DT_FLOAT", "tensorShape": {"dim": [{"size": "56"}]}}}}}, {"name": "StatefulPartitionedCall/efficientnetv2-b2/blocks_6/conv2d/Conv2D_weights", "op": "Const", "attr": {"value": {"tensor": {"dtype": "DT_FLOAT", "tensorShape": {"dim": [{"size": "3"}, {"size": "3"}, {"size": "56"}, {"size": "224"}]}}}, "dtype": {"type": "DT_FLOAT"}}}, {"name": "StatefulPartitionedCall/efficientnetv2-b2/blocks_25/conv2d/Conv2D_bn_offset", "op": "Const", "attr": {"value": {"tensor": {"dtype": "DT_FLOAT", "tensorShape": {"dim": [{"size": "1248"}]}}}, "dtype": {"type": "DT_FLOAT"}}}, {"name": "StatefulPartitionedCall/efficientnetv2-b2/blocks_6/conv2d/Conv2D_bn_offset", "op": "Const", "attr": {"dtype": {"type": "DT_FLOAT"}, "value": {"tensor": {"dtype": "DT_FLOAT", "tensorShape": {"dim": [{"size": "224"}]}}}}}, {"name": "StatefulPartitionedCall/efficientnetv2-b2/blocks_6/conv2d_1/Conv2D_weights", "op": "Const", "attr": {"value": {"tensor": {"dtype": "DT_FLOAT", "tensorShape": {"dim": [{"size": "1"}, {"size": "1"}, {"size": "224"}, {"size": "56"}]}}}, "dtype": {"type": "DT_FLOAT"}}}, {"name": "StatefulPartitionedCall/efficientnetv2-b2/blocks_6/conv2d_1/Conv2D_bn_offset", "op": "Const", "attr": {"dtype": {"type": "DT_FLOAT"}, "value": {"tensor": {"dtype": "DT_FLOAT", "tensorShape": {"dim": [{"size": "56"}]}}}}}, {"name": "StatefulPartitionedCall/efficientnetv2-b2/blocks_7/conv2d/Conv2D_weights", "op": "Const", "attr": {"value": {"tensor": {"dtype": "DT_FLOAT", "tensorShape": {"dim": [{"size": "3"}, {"size": "3"}, {"size": "56"}, {"size": "224"}]}}}, "dtype": {"type": "DT_FLOAT"}}}, {"name": "StatefulPartitionedCall/efficientnetv2-b2/blocks_7/conv2d/Conv2D_bn_offset", "op": "Const", "attr": {"value": {"tensor": {"dtype": "DT_FLOAT", "tensorShape": {"dim": [{"size": "224"}]}}}, "dtype": {"type": "DT_FLOAT"}}}, {"name": "StatefulPartitionedCall/efficientnetv2-b2/blocks_7/conv2d_1/Conv2D_weights", "op": "Const", "attr": {"dtype": {"type": "DT_FLOAT"}, "value": {"tensor": {"dtype": "DT_FLOAT", "tensorShape": {"dim": [{"size": "1"}, {"size": "1"}, {"size": "224"}, {"size": "56"}]}}}}}, {"name": "StatefulPartitionedCall/efficientnetv2-b2/blocks_7/conv2d_1/Conv2D_bn_offset", "op": "Const", "attr": {"value": {"tensor": {"dtype": "DT_FLOAT", "tensorShape": {"dim": [{"size": "56"}]}}}, "dtype": {"type": "DT_FLOAT"}}}, {"name": "StatefulPartitionedCall/efficientnetv2-b2/blocks_8/conv2d/Conv2D_weights", "op": "Const", "attr": {"dtype": {"type": "DT_FLOAT"}, "value": {"tensor": {"dtype": "DT_FLOAT", "tensorShape": {"dim": [{"size": "1"}, {"size": "1"}, {"size": "56"}, {"size": "224"}]}}}}}, {"name": "StatefulPartitionedCall/efficientnetv2-b2/blocks_25/depthwise_conv2d/depthwise_weights", "op": "Const", "attr": {"value": {"tensor": {"dtype": "DT_FLOAT", "tensorShape": {"dim": [{"size": "3"}, {"size": "3"}, {"size": "1248"}, {"size": "1"}]}}}, "dtype": {"type": "DT_FLOAT"}}}, {"name": "StatefulPartitionedCall/efficientnetv2-b2/blocks_8/conv2d/Conv2D_bn_offset", "op": "Const", "attr": {"value": {"tensor": {"dtype": "DT_FLOAT", "tensorShape": {"dim": [{"size": "224"}]}}}, "dtype": {"type": "DT_FLOAT"}}}, {"name": "StatefulPartitionedCall/efficientnetv2-b2/blocks_8/depthwise_conv2d/depthwise_weights", "op": "Const", "attr": {"dtype": {"type": "DT_FLOAT"}, "value": {"tensor": {"dtype": "DT_FLOAT", "tensorShape": {"dim": [{"size": "3"}, {"size": "3"}, {"size": "224"}, {"size": "1"}]}}}}}, {"name": "StatefulPartitionedCall/efficientnetv2-b2/blocks_8/depthwise_conv2d/depthwise_bn_offset", "op": "Const", "attr": {"value": {"tensor": {"dtype": "DT_FLOAT", "tensorShape": {"dim": [{"size": "224"}]}}}, "dtype": {"type": "DT_FLOAT"}}}, {"name": "StatefulPartitionedCall/efficientnetv2-b2/blocks_25/depthwise_conv2d/depthwise_bn_offset", "op": "Const", "attr": {"dtype": {"type": "DT_FLOAT"}, "value": {"tensor": {"dtype": "DT_FLOAT", "tensorShape": {"dim": [{"size": "1248"}]}}}}}, {"name": "StatefulPartitionedCall/efficientnetv2-b2/blocks_8/conv2d_1/Conv2D_weights", "op": "Const", "attr": {"dtype": {"type": "DT_FLOAT"}, "value": {"tensor": {"dtype": "DT_FLOAT", "tensorShape": {"dim": [{"size": "1"}, {"size": "1"}, {"size": "224"}, {"size": "104"}]}}}}}, {"name": "StatefulPartitionedCall/efficientnetv2-b2/blocks_8/conv2d_1/Conv2D_bn_offset", "op": "Const", "attr": {"value": {"tensor": {"dtype": "DT_FLOAT", "tensorShape": {"dim": [{"size": "104"}]}}}, "dtype": {"type": "DT_FLOAT"}}}, {"name": "StatefulPartitionedCall/efficientnetv2-b2/blocks_9/conv2d/Conv2D_weights", "op": "Const", "attr": {"dtype": {"type": "DT_FLOAT"}, "value": {"tensor": {"dtype": "DT_FLOAT", "tensorShape": {"dim": [{"size": "1"}, {"size": "1"}, {"size": "104"}, {"size": "416"}]}}}}}, {"name": "StatefulPartitionedCall/efficientnetv2-b2/blocks_9/conv2d/Conv2D_bn_offset", "op": "Const", "attr": {"value": {"tensor": {"dtype": "DT_FLOAT", "tensorShape": {"dim": [{"size": "416"}]}}}, "dtype": {"type": "DT_FLOAT"}}}, {"name": "StatefulPartitionedCall/efficientnetv2-b2/blocks_9/depthwise_conv2d/depthwise_weights", "op": "Const", "attr": {"dtype": {"type": "DT_FLOAT"}, "value": {"tensor": {"dtype": "DT_FLOAT", "tensorShape": {"dim": [{"size": "3"}, {"size": "3"}, {"size": "416"}, {"size": "1"}]}}}}}, {"name": "StatefulPartitionedCall/efficientnetv2-b2/blocks_9/depthwise_conv2d/depthwise_bn_offset", "op": "Const", "attr": {"dtype": {"type": "DT_FLOAT"}, "value": {"tensor": {"dtype": "DT_FLOAT", "tensorShape": {"dim": [{"size": "416"}]}}}}}, {"name": "StatefulPartitionedCall/efficientnetv2-b2/blocks_9/conv2d_1/Conv2D_weights", "op": "Const", "attr": {"dtype": {"type": "DT_FLOAT"}, "value": {"tensor": {"dtype": "DT_FLOAT", "tensorShape": {"dim": [{"size": "1"}, {"size": "1"}, {"size": "416"}, {"size": "104"}]}}}}}, {"name": "StatefulPartitionedCall/efficientnetv2-b2/blocks_27/conv2d_1/Conv2D_bn_offset", "op": "Const", "attr": {"value": {"tensor": {"dtype": "DT_FLOAT", "tensorShape": {"dim": [{"size": "208"}]}}}, "dtype": {"type": "DT_FLOAT"}}}, {"name": "StatefulPartitionedCall/efficientnetv2-b2/blocks_9/conv2d_1/Conv2D_bn_offset", "op": "Const", "attr": {"value": {"tensor": {"dtype": "DT_FLOAT", "tensorShape": {"dim": [{"size": "104"}]}}}, "dtype": {"type": "DT_FLOAT"}}}, {"name": "StatefulPartitionedCall/efficientnetv2-b2/blocks_10/conv2d/Conv2D_weights", "op": "Const", "attr": {"value": {"tensor": {"dtype": "DT_FLOAT", "tensorShape": {"dim": [{"size": "1"}, {"size": "1"}, {"size": "104"}, {"size": "416"}]}}}, "dtype": {"type": "DT_FLOAT"}}}, {"name": "StatefulPartitionedCall/efficientnetv2-b2/blocks_10/conv2d/Conv2D_bn_offset", "op": "Const", "attr": {"value": {"tensor": {"dtype": "DT_FLOAT", "tensorShape": {"dim": [{"size": "416"}]}}}, "dtype": {"type": "DT_FLOAT"}}}, {"name": "StatefulPartitionedCall/efficientnetv2-b2/blocks_10/depthwise_conv2d/depthwise_weights", "op": "Const", "attr": {"dtype": {"type": "DT_FLOAT"}, "value": {"tensor": {"dtype": "DT_FLOAT", "tensorShape": {"dim": [{"size": "3"}, {"size": "3"}, {"size": "416"}, {"size": "1"}]}}}}}, {"name": "StatefulPartitionedCall/efficientnetv2-b2/blocks_10/depthwise_conv2d/depthwise_bn_offset", "op": "Const", "attr": {"value": {"tensor": {"dtype": "DT_FLOAT", "tensorShape": {"dim": [{"size": "416"}]}}}, "dtype": {"type": "DT_FLOAT"}}}, {"name": "StatefulPartitionedCall/efficientnetv2-b2/blocks_10/conv2d_1/Conv2D_weights", "op": "Const", "attr": {"dtype": {"type": "DT_FLOAT"}, "value": {"tensor": {"dtype": "DT_FLOAT", "tensorShape": {"dim": [{"size": "1"}, {"size": "1"}, {"size": "416"}, {"size": "104"}]}}}}}, {"name": "StatefulPartitionedCall/efficientnetv2-b2/blocks_10/conv2d_1/Conv2D_bn_offset", "op": "Const", "attr": {"value": {"tensor": {"dtype": "DT_FLOAT", "tensorShape": {"dim": [{"size": "104"}]}}}, "dtype": {"type": "DT_FLOAT"}}}, {"name": "StatefulPartitionedCall/efficientnetv2-b2/blocks_11/conv2d/Conv2D_weights", "op": "Const", "attr": {"dtype": {"type": "DT_FLOAT"}, "value": {"tensor": {"dtype": "DT_FLOAT", "tensorShape": {"dim": [{"size": "1"}, {"size": "1"}, {"size": "104"}, {"size": "416"}]}}}}}, {"name": "StatefulPartitionedCall/efficientnetv2-b2/blocks_11/conv2d/Conv2D_bn_offset", "op": "Const", "attr": {"value": {"tensor": {"dtype": "DT_FLOAT", "tensorShape": {"dim": [{"size": "416"}]}}}, "dtype": {"type": "DT_FLOAT"}}}, {"name": "StatefulPartitionedCall/efficientnetv2-b2/blocks_11/depthwise_conv2d/depthwise_weights", "op": "Const", "attr": {"value": {"tensor": {"dtype": "DT_FLOAT", "tensorShape": {"dim": [{"size": "3"}, {"size": "3"}, {"size": "416"}, {"size": "1"}]}}}, "dtype": {"type": "DT_FLOAT"}}}, {"name": "StatefulPartitionedCall/efficientnetv2-b2/blocks_11/depthwise_conv2d/depthwise_bn_offset", "op": "Const", "attr": {"dtype": {"type": "DT_FLOAT"}, "value": {"tensor": {"dtype": "DT_FLOAT", "tensorShape": {"dim": [{"size": "416"}]}}}}}, {"name": "StatefulPartitionedCall/efficientnetv2-b2/blocks_11/conv2d_1/Conv2D_weights", "op": "Const", "attr": {"dtype": {"type": "DT_FLOAT"}, "value": {"tensor": {"dtype": "DT_FLOAT", "tensorShape": {"dim": [{"size": "1"}, {"size": "1"}, {"size": "416"}, {"size": "104"}]}}}}}, {"name": "StatefulPartitionedCall/efficientnetv2-b2/blocks_25/conv2d_1/Conv2D_weights", "op": "Const", "attr": {"value": {"tensor": {"dtype": "DT_FLOAT", "tensorShape": {"dim": [{"size": "1"}, {"size": "1"}, {"size": "1248"}, {"size": "208"}]}}}, "dtype": {"type": "DT_FLOAT"}}}, {"name": "StatefulPartitionedCall/efficientnetv2-b2/blocks_11/conv2d_1/Conv2D_bn_offset", "op": "Const", "attr": {"dtype": {"type": "DT_FLOAT"}, "value": {"tensor": {"dtype": "DT_FLOAT", "tensorShape": {"dim": [{"size": "104"}]}}}}}, {"name": "StatefulPartitionedCall/efficientnetv2-b2/blocks_12/conv2d/Conv2D_weights", "op": "Const", "attr": {"dtype": {"type": "DT_FLOAT"}, "value": {"tensor": {"dtype": "DT_FLOAT", "tensorShape": {"dim": [{"size": "1"}, {"size": "1"}, {"size": "104"}, {"size": "624"}]}}}}}, {"name": "StatefulPartitionedCall/efficientnetv2-b2/blocks_12/conv2d/Conv2D_bn_offset", "op": "Const", "attr": {"value": {"tensor": {"dtype": "DT_FLOAT", "tensorShape": {"dim": [{"size": "624"}]}}}, "dtype": {"type": "DT_FLOAT"}}}, {"name": "StatefulPartitionedCall/efficientnetv2-b2/blocks_12/depthwise_conv2d/depthwise_weights", "op": "Const", "attr": {"dtype": {"type": "DT_FLOAT"}, "value": {"tensor": {"dtype": "DT_FLOAT", "tensorShape": {"dim": [{"size": "3"}, {"size": "3"}, {"size": "624"}, {"size": "1"}]}}}}}, {"name": "StatefulPartitionedCall/efficientnetv2-b2/blocks_12/depthwise_conv2d/depthwise_bn_offset", "op": "Const", "attr": {"dtype": {"type": "DT_FLOAT"}, "value": {"tensor": {"dtype": "DT_FLOAT", "tensorShape": {"dim": [{"size": "624"}]}}}}}, {"name": "StatefulPartitionedCall/efficientnetv2-b2/blocks_25/conv2d_1/Conv2D_bn_offset", "op": "Const", "attr": {"value": {"tensor": {"dtype": "DT_FLOAT", "tensorShape": {"dim": [{"size": "208"}]}}}, "dtype": {"type": "DT_FLOAT"}}}, {"name": "StatefulPartitionedCall/efficientnetv2-b2/blocks_12/conv2d_1/Conv2D_weights", "op": "Const", "attr": {"value": {"tensor": {"dtype": "DT_FLOAT", "tensorShape": {"dim": [{"size": "1"}, {"size": "1"}, {"size": "624"}, {"size": "120"}]}}}, "dtype": {"type": "DT_FLOAT"}}}, {"name": "StatefulPartitionedCall/efficientnetv2-b2/blocks_12/conv2d_1/Conv2D_bn_offset", "op": "Const", "attr": {"dtype": {"type": "DT_FLOAT"}, "value": {"tensor": {"dtype": "DT_FLOAT", "tensorShape": {"dim": [{"size": "120"}]}}}}}, {"name": "StatefulPartitionedCall/efficientnetv2-b2/blocks_13/conv2d/Conv2D_weights", "op": "Const", "attr": {"value": {"tensor": {"dtype": "DT_FLOAT", "tensorShape": {"dim": [{"size": "1"}, {"size": "1"}, {"size": "120"}, {"size": "720"}]}}}, "dtype": {"type": "DT_FLOAT"}}}, {"name": "StatefulPartitionedCall/efficientnetv2-b2/blocks_26/conv2d/Conv2D_weights", "op": "Const", "attr": {"value": {"tensor": {"dtype": "DT_FLOAT", "tensorShape": {"dim": [{"size": "1"}, {"size": "1"}, {"size": "208"}, {"size": "1248"}]}}}, "dtype": {"type": "DT_FLOAT"}}}, {"name": "StatefulPartitionedCall/efficientnetv2-b2/blocks_13/conv2d/Conv2D_bn_offset", "op": "Const", "attr": {"dtype": {"type": "DT_FLOAT"}, "value": {"tensor": {"dtype": "DT_FLOAT", "tensorShape": {"dim": [{"size": "720"}]}}}}}, {"name": "StatefulPartitionedCall/efficientnetv2-b2/blocks_13/depthwise_conv2d/depthwise_weights", "op": "Const", "attr": {"dtype": {"type": "DT_FLOAT"}, "value": {"tensor": {"dtype": "DT_FLOAT", "tensorShape": {"dim": [{"size": "3"}, {"size": "3"}, {"size": "720"}, {"size": "1"}]}}}}}, {"name": "StatefulPartitionedCall/efficientnetv2-b2/blocks_13/depthwise_conv2d/depthwise_bn_offset", "op": "Const", "attr": {"value": {"tensor": {"dtype": "DT_FLOAT", "tensorShape": {"dim": [{"size": "720"}]}}}, "dtype": {"type": "DT_FLOAT"}}}, {"name": "StatefulPartitionedCall/efficientnetv2-b2/head/conv2d/Conv2D_weights", "op": "Const", "attr": {"dtype": {"type": "DT_FLOAT"}, "value": {"tensor": {"dtype": "DT_FLOAT", "tensorShape": {"dim": [{"size": "1"}, {"size": "1"}, {"size": "208"}, {"size": "1408"}]}}}}}, {"name": "StatefulPartitionedCall/efficientnetv2-b2/blocks_26/conv2d/Conv2D_bn_offset", "op": "Const", "attr": {"dtype": {"type": "DT_FLOAT"}, "value": {"tensor": {"dtype": "DT_FLOAT", "tensorShape": {"dim": [{"size": "1248"}]}}}}}, {"name": "StatefulPartitionedCall/efficientnetv2-b2/blocks_13/conv2d_1/Conv2D_weights", "op": "Const", "attr": {"dtype": {"type": "DT_FLOAT"}, "value": {"tensor": {"dtype": "DT_FLOAT", "tensorShape": {"dim": [{"size": "1"}, {"size": "1"}, {"size": "720"}, {"size": "120"}]}}}}}, {"name": "StatefulPartitionedCall/efficientnetv2-b2/blocks_13/conv2d_1/Conv2D_bn_offset", "op": "Const", "attr": {"dtype": {"type": "DT_FLOAT"}, "value": {"tensor": {"dtype": "DT_FLOAT", "tensorShape": {"dim": [{"size": "120"}]}}}}}, {"name": "StatefulPartitionedCall/efficientnetv2-b2/blocks_14/conv2d/Conv2D_weights", "op": "Const", "attr": {"dtype": {"type": "DT_FLOAT"}, "value": {"tensor": {"dtype": "DT_FLOAT", "tensorShape": {"dim": [{"size": "1"}, {"size": "1"}, {"size": "120"}, {"size": "720"}]}}}}}, {"name": "StatefulPartitionedCall/efficientnetv2-b2/blocks_14/conv2d/Conv2D_bn_offset", "op": "Const", "attr": {"value": {"tensor": {"dtype": "DT_FLOAT", "tensorShape": {"dim": [{"size": "720"}]}}}, "dtype": {"type": "DT_FLOAT"}}}, {"name": "StatefulPartitionedCall/efficientnetv2-b2/blocks_14/depthwise_conv2d/depthwise_weights", "op": "Const", "attr": {"value": {"tensor": {"dtype": "DT_FLOAT", "tensorShape": {"dim": [{"size": "3"}, {"size": "3"}, {"size": "720"}, {"size": "1"}]}}}, "dtype": {"type": "DT_FLOAT"}}}, {"name": "StatefulPartitionedCall/efficientnetv2-b2/blocks_14/depthwise_conv2d/depthwise_bn_offset", "op": "Const", "attr": {"dtype": {"type": "DT_FLOAT"}, "value": {"tensor": {"dtype": "DT_FLOAT", "tensorShape": {"dim": [{"size": "720"}]}}}}}, {"name": "StatefulPartitionedCall/efficientnetv2-b2/blocks_26/depthwise_conv2d/depthwise_weights", "op": "Const", "attr": {"dtype": {"type": "DT_FLOAT"}, "value": {"tensor": {"dtype": "DT_FLOAT", "tensorShape": {"dim": [{"size": "3"}, {"size": "3"}, {"size": "1248"}, {"size": "1"}]}}}}}, {"name": "StatefulPartitionedCall/efficientnetv2-b2/blocks_14/conv2d_1/Conv2D_weights", "op": "Const", "attr": {"value": {"tensor": {"dtype": "DT_FLOAT", "tensorShape": {"dim": [{"size": "1"}, {"size": "1"}, {"size": "720"}, {"size": "120"}]}}}, "dtype": {"type": "DT_FLOAT"}}}, {"name": "StatefulPartitionedCall/efficientnetv2-b2/blocks_14/conv2d_1/Conv2D_bn_offset", "op": "Const", "attr": {"value": {"tensor": {"dtype": "DT_FLOAT", "tensorShape": {"dim": [{"size": "120"}]}}}, "dtype": {"type": "DT_FLOAT"}}}, {"name": "StatefulPartitionedCall/efficientnetv2-b2/blocks_15/conv2d/Conv2D_weights", "op": "Const", "attr": {"value": {"tensor": {"dtype": "DT_FLOAT", "tensorShape": {"dim": [{"size": "1"}, {"size": "1"}, {"size": "120"}, {"size": "720"}]}}}, "dtype": {"type": "DT_FLOAT"}}}, {"name": "StatefulPartitionedCall/efficientnetv2-b2/blocks_26/depthwise_conv2d/depthwise_bn_offset", "op": "Const", "attr": {"dtype": {"type": "DT_FLOAT"}, "value": {"tensor": {"dtype": "DT_FLOAT", "tensorShape": {"dim": [{"size": "1248"}]}}}}}, {"name": "StatefulPartitionedCall/efficientnetv2-b2/blocks_15/conv2d/Conv2D_bn_offset", "op": "Const", "attr": {"value": {"tensor": {"dtype": "DT_FLOAT", "tensorShape": {"dim": [{"size": "720"}]}}}, "dtype": {"type": "DT_FLOAT"}}}, {"name": "StatefulPartitionedCall/efficientnetv2-b2/blocks_15/depthwise_conv2d/depthwise_weights", "op": "Const", "attr": {"value": {"tensor": {"dtype": "DT_FLOAT", "tensorShape": {"dim": [{"size": "3"}, {"size": "3"}, {"size": "720"}, {"size": "1"}]}}}, "dtype": {"type": "DT_FLOAT"}}}, {"name": "StatefulPartitionedCall/efficientnetv2-b2/blocks_15/depthwise_conv2d/depthwise_bn_offset", "op": "Const", "attr": {"dtype": {"type": "DT_FLOAT"}, "value": {"tensor": {"dtype": "DT_FLOAT", "tensorShape": {"dim": [{"size": "720"}]}}}}}, {"name": "StatefulPartitionedCall/efficientnetv2-b2/blocks_15/conv2d_1/Conv2D_weights", "op": "Const", "attr": {"dtype": {"type": "DT_FLOAT"}, "value": {"tensor": {"dtype": "DT_FLOAT", "tensorShape": {"dim": [{"size": "1"}, {"size": "1"}, {"size": "720"}, {"size": "120"}]}}}}}, {"name": "StatefulPartitionedCall/efficientnetv2-b2/blocks_15/conv2d_1/Conv2D_bn_offset", "op": "Const", "attr": {"value": {"tensor": {"dtype": "DT_FLOAT", "tensorShape": {"dim": [{"size": "120"}]}}}, "dtype": {"type": "DT_FLOAT"}}}, {"name": "StatefulPartitionedCall/efficientnetv2-b2/blocks_16/conv2d/Conv2D_weights", "op": "Const", "attr": {"value": {"tensor": {"dtype": "DT_FLOAT", "tensorShape": {"dim": [{"size": "1"}, {"size": "1"}, {"size": "120"}, {"size": "720"}]}}}, "dtype": {"type": "DT_FLOAT"}}}, {"name": "StatefulPartitionedCall/efficientnetv2-b2/blocks_16/conv2d/Conv2D_bn_offset", "op": "Const", "attr": {"dtype": {"type": "DT_FLOAT"}, "value": {"tensor": {"dtype": "DT_FLOAT", "tensorShape": {"dim": [{"size": "720"}]}}}}}, {"name": "StatefulPartitionedCall/efficientnetv2-b2/blocks_16/depthwise_conv2d/depthwise_weights", "op": "Const", "attr": {"dtype": {"type": "DT_FLOAT"}, "value": {"tensor": {"dtype": "DT_FLOAT", "tensorShape": {"dim": [{"size": "3"}, {"size": "3"}, {"size": "720"}, {"size": "1"}]}}}}}, {"name": "StatefulPartitionedCall/efficientnetv2-b2/blocks_16/depthwise_conv2d/depthwise_bn_offset", "op": "Const", "attr": {"value": {"tensor": {"dtype": "DT_FLOAT", "tensorShape": {"dim": [{"size": "720"}]}}}, "dtype": {"type": "DT_FLOAT"}}}, {"name": "StatefulPartitionedCall/efficientnetv2-b2/blocks_16/conv2d_1/Conv2D_weights", "op": "Const", "attr": {"value": {"tensor": {"dtype": "DT_FLOAT", "tensorShape": {"dim": [{"size": "1"}, {"size": "1"}, {"size": "720"}, {"size": "120"}]}}}, "dtype": {"type": "DT_FLOAT"}}}, {"name": "StatefulPartitionedCall/efficientnetv2-b2/blocks_16/conv2d_1/Conv2D_bn_offset", "op": "Const", "attr": {"value": {"tensor": {"dtype": "DT_FLOAT", "tensorShape": {"dim": [{"size": "120"}]}}}, "dtype": {"type": "DT_FLOAT"}}}, {"name": "StatefulPartitionedCall/efficientnetv2-b2/blocks_17/conv2d/Conv2D_weights", "op": "Const", "attr": {"dtype": {"type": "DT_FLOAT"}, "value": {"tensor": {"dtype": "DT_FLOAT", "tensorShape": {"dim": [{"size": "1"}, {"size": "1"}, {"size": "120"}, {"size": "720"}]}}}}}, {"name": "StatefulPartitionedCall/efficientnetv2-b2/blocks_17/conv2d/Conv2D_bn_offset", "op": "Const", "attr": {"dtype": {"type": "DT_FLOAT"}, "value": {"tensor": {"dtype": "DT_FLOAT", "tensorShape": {"dim": [{"size": "720"}]}}}}}, {"name": "StatefulPartitionedCall/efficientnetv2-b2/blocks_17/depthwise_conv2d/depthwise_weights", "op": "Const", "attr": {"value": {"tensor": {"dtype": "DT_FLOAT", "tensorShape": {"dim": [{"size": "3"}, {"size": "3"}, {"size": "720"}, {"size": "1"}]}}}, "dtype": {"type": "DT_FLOAT"}}}, {"name": "StatefulPartitionedCall/efficientnetv2-b2/blocks_17/depthwise_conv2d/depthwise_bn_offset", "op": "Const", "attr": {"dtype": {"type": "DT_FLOAT"}, "value": {"tensor": {"dtype": "DT_FLOAT", "tensorShape": {"dim": [{"size": "720"}]}}}}}, {"name": "StatefulPartitionedCall/efficientnetv2-b2/head/conv2d/Conv2D_bn_offset", "op": "Const", "attr": {"value": {"tensor": {"dtype": "DT_FLOAT", "tensorShape": {"dim": [{"size": "1408"}]}}}, "dtype": {"type": "DT_FLOAT"}}}, {"name": "StatefulPartitionedCall/efficientnetv2-b2/blocks_17/conv2d_1/Conv2D_weights", "op": "Const", "attr": {"dtype": {"type": "DT_FLOAT"}, "value": {"tensor": {"dtype": "DT_FLOAT", "tensorShape": {"dim": [{"size": "1"}, {"size": "1"}, {"size": "720"}, {"size": "120"}]}}}}}, {"name": "StatefulPartitionedCall/efficientnetv2-b2/blocks_17/conv2d_1/Conv2D_bn_offset", "op": "Const", "attr": {"value": {"tensor": {"dtype": "DT_FLOAT", "tensorShape": {"dim": [{"size": "120"}]}}}, "dtype": {"type": "DT_FLOAT"}}}, {"name": "StatefulPartitionedCall/efficientnetv2-b2/blocks_18/conv2d/Conv2D_weights", "op": "Const", "attr": {"dtype": {"type": "DT_FLOAT"}, "value": {"tensor": {"dtype": "DT_FLOAT", "tensorShape": {"dim": [{"size": "1"}, {"size": "1"}, {"size": "120"}, {"size": "720"}]}}}}}, {"name": "StatefulPartitionedCall/efficientnetv2-b2/blocks_18/conv2d/Conv2D_bn_offset", "op": "Const", "attr": {"dtype": {"type": "DT_FLOAT"}, "value": {"tensor": {"dtype": "DT_FLOAT", "tensorShape": {"dim": [{"size": "720"}]}}}}}, {"name": "StatefulPartitionedCall/efficientnetv2-b2/blocks_18/depthwise_conv2d/depthwise_weights", "op": "Const", "attr": {"value": {"tensor": {"dtype": "DT_FLOAT", "tensorShape": {"dim": [{"size": "3"}, {"size": "3"}, {"size": "720"}, {"size": "1"}]}}}, "dtype": {"type": "DT_FLOAT"}}}, {"name": "StatefulPartitionedCall/efficientnetv2-b2/blocks_18/depthwise_conv2d/depthwise_bn_offset", "op": "Const", "attr": {"dtype": {"type": "DT_FLOAT"}, "value": {"tensor": {"dtype": "DT_FLOAT", "tensorShape": {"dim": [{"size": "720"}]}}}}}, {"name": "StatefulPartitionedCall/efficientnetv2-b2/blocks_26/conv2d_1/Conv2D_weights", "op": "Const", "attr": {"dtype": {"type": "DT_FLOAT"}, "value": {"tensor": {"dtype": "DT_FLOAT", "tensorShape": {"dim": [{"size": "1"}, {"size": "1"}, {"size": "1248"}, {"size": "208"}]}}}}}, {"name": "StatefulPartitionedCall/efficientnetv2-b2/blocks_18/conv2d_1/Conv2D_weights", "op": "Const", "attr": {"value": {"tensor": {"dtype": "DT_FLOAT", "tensorShape": {"dim": [{"size": "1"}, {"size": "1"}, {"size": "720"}, {"size": "208"}]}}}, "dtype": {"type": "DT_FLOAT"}}}, {"name": "StatefulPartitionedCall/efficientnetv2-b2/blocks_26/conv2d_1/Conv2D_bn_offset", "op": "Const", "attr": {"value": {"tensor": {"dtype": "DT_FLOAT", "tensorShape": {"dim": [{"size": "208"}]}}}, "dtype": {"type": "DT_FLOAT"}}}, {"name": "StatefulPartitionedCall/efficientnetv2-b2/blocks_18/conv2d_1/Conv2D_bn_offset", "op": "Const", "attr": {"value": {"tensor": {"dtype": "DT_FLOAT", "tensorShape": {"dim": [{"size": "208"}]}}}, "dtype": {"type": "DT_FLOAT"}}}, {"name": "StatefulPartitionedCall/efficientnetv2-b2/blocks_19/conv2d/Conv2D_weights", "op": "Const", "attr": {"dtype": {"type": "DT_FLOAT"}, "value": {"tensor": {"dtype": "DT_FLOAT", "tensorShape": {"dim": [{"size": "1"}, {"size": "1"}, {"size": "208"}, {"size": "1248"}]}}}}}, {"name": "StatefulPartitionedCall/efficientnetv2-b2/blocks_19/conv2d/Conv2D_bn_offset", "op": "Const", "attr": {"value": {"tensor": {"dtype": "DT_FLOAT", "tensorShape": {"dim": [{"size": "1248"}]}}}, "dtype": {"type": "DT_FLOAT"}}}, {"name": "StatefulPartitionedCall/efficientnetv2-b2/blocks_19/depthwise_conv2d/depthwise_weights", "op": "Const", "attr": {"dtype": {"type": "DT_FLOAT"}, "value": {"tensor": {"dtype": "DT_FLOAT", "tensorShape": {"dim": [{"size": "3"}, {"size": "3"}, {"size": "1248"}, {"size": "1"}]}}}}}, {"name": "StatefulPartitionedCall/efficientnetv2-b2/blocks_19/depthwise_conv2d/depthwise_bn_offset", "op": "Const", "attr": {"dtype": {"type": "DT_FLOAT"}, "value": {"tensor": {"dtype": "DT_FLOAT", "tensorShape": {"dim": [{"size": "1248"}]}}}}}, {"name": "StatefulPartitionedCall/efficientnetv2-b2/blocks_27/conv2d/Conv2D_weights", "op": "Const", "attr": {"dtype": {"type": "DT_FLOAT"}, "value": {"tensor": {"dtype": "DT_FLOAT", "tensorShape": {"dim": [{"size": "1"}, {"size": "1"}, {"size": "208"}, {"size": "1248"}]}}}}}, {"name": "StatefulPartitionedCall/efficientnetv2-b2/blocks_19/conv2d_1/Conv2D_weights", "op": "Const", "attr": {"value": {"tensor": {"dtype": "DT_FLOAT", "tensorShape": {"dim": [{"size": "1"}, {"size": "1"}, {"size": "1248"}, {"size": "208"}]}}}, "dtype": {"type": "DT_FLOAT"}}}, {"name": "StatefulPartitionedCall/efficientnetv2-b2/blocks_19/conv2d_1/Conv2D_bn_offset", "op": "Const", "attr": {"dtype": {"type": "DT_FLOAT"}, "value": {"tensor": {"dtype": "DT_FLOAT", "tensorShape": {"dim": [{"size": "208"}]}}}}}, {"name": "StatefulPartitionedCall/efficientnetv2-b2/blocks_20/conv2d/Conv2D_weights", "op": "Const", "attr": {"value": {"tensor": {"dtype": "DT_FLOAT", "tensorShape": {"dim": [{"size": "1"}, {"size": "1"}, {"size": "208"}, {"size": "1248"}]}}}, "dtype": {"type": "DT_FLOAT"}}}, {"name": "StatefulPartitionedCall/efficientnetv2-b2/blocks_27/conv2d/Conv2D_bn_offset", "op": "Const", "attr": {"dtype": {"type": "DT_FLOAT"}, "value": {"tensor": {"dtype": "DT_FLOAT", "tensorShape": {"dim": [{"size": "1248"}]}}}}}, {"name": "StatefulPartitionedCall/efficientnetv2-b2/blocks_20/conv2d/Conv2D_bn_offset", "op": "Const", "attr": {"value": {"tensor": {"dtype": "DT_FLOAT", "tensorShape": {"dim": [{"size": "1248"}]}}}, "dtype": {"type": "DT_FLOAT"}}}, {"name": "StatefulPartitionedCall/efficientnetv2-b2/blocks_20/depthwise_conv2d/depthwise_weights", "op": "Const", "attr": {"value": {"tensor": {"dtype": "DT_FLOAT", "tensorShape": {"dim": [{"size": "3"}, {"size": "3"}, {"size": "1248"}, {"size": "1"}]}}}, "dtype": {"type": "DT_FLOAT"}}}, {"name": "StatefulPartitionedCall/efficientnetv2-b2/blocks_20/depthwise_conv2d/depthwise_bn_offset", "op": "Const", "attr": {"value": {"tensor": {"dtype": "DT_FLOAT", "tensorShape": {"dim": [{"size": "1248"}]}}}, "dtype": {"type": "DT_FLOAT"}}}, {"name": "StatefulPartitionedCall/efficientnetv2-b2/blocks_20/conv2d_1/Conv2D_weights", "op": "Const", "attr": {"dtype": {"type": "DT_FLOAT"}, "value": {"tensor": {"dtype": "DT_FLOAT", "tensorShape": {"dim": [{"size": "1"}, {"size": "1"}, {"size": "1248"}, {"size": "208"}]}}}}}, {"name": "StatefulPartitionedCall/efficientnetv2-b2/blocks_20/conv2d_1/Conv2D_bn_offset", "op": "Const", "attr": {"value": {"tensor": {"dtype": "DT_FLOAT", "tensorShape": {"dim": [{"size": "208"}]}}}, "dtype": {"type": "DT_FLOAT"}}}, {"name": "StatefulPartitionedCall/efficientnetv2-b2/blocks_21/conv2d/Conv2D_weights", "op": "Const", "attr": {"value": {"tensor": {"dtype": "DT_FLOAT", "tensorShape": {"dim": [{"size": "1"}, {"size": "1"}, {"size": "208"}, {"size": "1248"}]}}}, "dtype": {"type": "DT_FLOAT"}}}, {"name": "StatefulPartitionedCall/efficientnetv2-b2/blocks_27/depthwise_conv2d/depthwise_weights", "op": "Const", "attr": {"value": {"tensor": {"dtype": "DT_FLOAT", "tensorShape": {"dim": [{"size": "3"}, {"size": "3"}, {"size": "1248"}, {"size": "1"}]}}}, "dtype": {"type": "DT_FLOAT"}}}, {"name": "StatefulPartitionedCall/efficientnetv2-b2/blocks_21/conv2d/Conv2D_bn_offset", "op": "Const", "attr": {"value": {"tensor": {"dtype": "DT_FLOAT", "tensorShape": {"dim": [{"size": "1248"}]}}}, "dtype": {"type": "DT_FLOAT"}}}, {"name": "StatefulPartitionedCall/efficientnetv2-b2/blocks_21/depthwise_conv2d/depthwise_weights", "op": "Const", "attr": {"value": {"tensor": {"dtype": "DT_FLOAT", "tensorShape": {"dim": [{"size": "3"}, {"size": "3"}, {"size": "1248"}, {"size": "1"}]}}}, "dtype": {"type": "DT_FLOAT"}}}, {"name": "StatefulPartitionedCall/efficientnetv2-b2/blocks_21/depthwise_conv2d/depthwise_bn_offset", "op": "Const", "attr": {"dtype": {"type": "DT_FLOAT"}, "value": {"tensor": {"dtype": "DT_FLOAT", "tensorShape": {"dim": [{"size": "1248"}]}}}}}, {"name": "StatefulPartitionedCall/efficientnetv2-b2/blocks_27/depthwise_conv2d/depthwise_bn_offset", "op": "Const", "attr": {"value": {"tensor": {"dtype": "DT_FLOAT", "tensorShape": {"dim": [{"size": "1248"}]}}}, "dtype": {"type": "DT_FLOAT"}}}, {"name": "StatefulPartitionedCall/efficientnetv2-b2/blocks_21/conv2d_1/Conv2D_weights", "op": "Const", "attr": {"dtype": {"type": "DT_FLOAT"}, "value": {"tensor": {"dtype": "DT_FLOAT", "tensorShape": {"dim": [{"size": "1"}, {"size": "1"}, {"size": "1248"}, {"size": "208"}]}}}}}, {"name": "StatefulPartitionedCall/efficientnetv2-b2/blocks_21/conv2d_1/Conv2D_bn_offset", "op": "Const", "attr": {"dtype": {"type": "DT_FLOAT"}, "value": {"tensor": {"dtype": "DT_FLOAT", "tensorShape": {"dim": [{"size": "208"}]}}}}}, {"name": "StatefulPartitionedCall/efficientnetv2-b2/blocks_22/conv2d/Conv2D_weights", "op": "Const", "attr": {"value": {"tensor": {"dtype": "DT_FLOAT", "tensorShape": {"dim": [{"size": "1"}, {"size": "1"}, {"size": "208"}, {"size": "1248"}]}}}, "dtype": {"type": "DT_FLOAT"}}}, {"name": "StatefulPartitionedCall/efficientnetv2-b2/blocks_22/conv2d/Conv2D_bn_offset", "op": "Const", "attr": {"dtype": {"type": "DT_FLOAT"}, "value": {"tensor": {"dtype": "DT_FLOAT", "tensorShape": {"dim": [{"size": "1248"}]}}}}}, {"name": "StatefulPartitionedCall/efficientnetv2-b2/blocks_22/depthwise_conv2d/depthwise_weights", "op": "Const", "attr": {"dtype": {"type": "DT_FLOAT"}, "value": {"tensor": {"dtype": "DT_FLOAT", "tensorShape": {"dim": [{"size": "3"}, {"size": "3"}, {"size": "1248"}, {"size": "1"}]}}}}}, {"name": "StatefulPartitionedCall/efficientnetv2-b2/blocks_22/depthwise_conv2d/depthwise_bn_offset", "op": "Const", "attr": {"value": {"tensor": {"dtype": "DT_FLOAT", "tensorShape": {"dim": [{"size": "1248"}]}}}, "dtype": {"type": "DT_FLOAT"}}}, {"name": "StatefulPartitionedCall/efficientnetv2-b2/blocks_22/conv2d_1/Conv2D_weights", "op": "Const", "attr": {"value": {"tensor": {"dtype": "DT_FLOAT", "tensorShape": {"dim": [{"size": "1"}, {"size": "1"}, {"size": "1248"}, {"size": "208"}]}}}, "dtype": {"type": "DT_FLOAT"}}}, {"name": "StatefulPartitionedCall/efficientnetv2-b2/blocks_22/conv2d_1/Conv2D_bn_offset", "op": "Const", "attr": {"dtype": {"type": "DT_FLOAT"}, "value": {"tensor": {"dtype": "DT_FLOAT", "tensorShape": {"dim": [{"size": "208"}]}}}}}, {"name": "StatefulPartitionedCall/efficientnetv2-b2/blocks_23/conv2d/Conv2D_weights", "op": "Const", "attr": {"dtype": {"type": "DT_FLOAT"}, "value": {"tensor": {"dtype": "DT_FLOAT", "tensorShape": {"dim": [{"size": "1"}, {"size": "1"}, {"size": "208"}, {"size": "1248"}]}}}}}, {"name": "StatefulPartitionedCall/efficientnetv2-b2/blocks_23/conv2d/Conv2D_bn_offset", "op": "Const", "attr": {"value": {"tensor": {"dtype": "DT_FLOAT", "tensorShape": {"dim": [{"size": "1248"}]}}}, "dtype": {"type": "DT_FLOAT"}}}, {"name": "StatefulPartitionedCall/efficientnetv2-b2/blocks_23/depthwise_conv2d/depthwise_weights", "op": "Const", "attr": {"value": {"tensor": {"dtype": "DT_FLOAT", "tensorShape": {"dim": [{"size": "3"}, {"size": "3"}, {"size": "1248"}, {"size": "1"}]}}}, "dtype": {"type": "DT_FLOAT"}}}, {"name": "StatefulPartitionedCall/efficientnetv2-b2/blocks_23/depthwise_conv2d/depthwise_bn_offset", "op": "Const", "attr": {"value": {"tensor": {"dtype": "DT_FLOAT", "tensorShape": {"dim": [{"size": "1248"}]}}}, "dtype": {"type": "DT_FLOAT"}}}, {"name": "StatefulPartitionedCall/efficientnetv2-b2/blocks_23/conv2d_1/Conv2D_weights", "op": "Const", "attr": {"value": {"tensor": {"dtype": "DT_FLOAT", "tensorShape": {"dim": [{"size": "1"}, {"size": "1"}, {"size": "1248"}, {"size": "208"}]}}}, "dtype": {"type": "DT_FLOAT"}}}, {"name": "StatefulPartitionedCall/efficientnetv2-b2/blocks_23/conv2d_1/Conv2D_bn_offset", "op": "Const", "attr": {"value": {"tensor": {"dtype": "DT_FLOAT", "tensorShape": {"dim": [{"size": "208"}]}}}, "dtype": {"type": "DT_FLOAT"}}}, {"name": "StatefulPartitionedCall/efficientnetv2-b2/blocks_24/conv2d/Conv2D_weights", "op": "Const", "attr": {"dtype": {"type": "DT_FLOAT"}, "value": {"tensor": {"dtype": "DT_FLOAT", "tensorShape": {"dim": [{"size": "1"}, {"size": "1"}, {"size": "208"}, {"size": "1248"}]}}}}}, {"name": "StatefulPartitionedCall/efficientnetv2-b2/blocks_24/conv2d/Conv2D_bn_offset", "op": "Const", "attr": {"dtype": {"type": "DT_FLOAT"}, "value": {"tensor": {"dtype": "DT_FLOAT", "tensorShape": {"dim": [{"size": "1248"}]}}}}}, {"name": "StatefulPartitionedCall/efficientnetv2-b2/blocks_24/depthwise_conv2d/depthwise_weights", "op": "Const", "attr": {"value": {"tensor": {"dtype": "DT_FLOAT", "tensorShape": {"dim": [{"size": "3"}, {"size": "3"}, {"size": "1248"}, {"size": "1"}]}}}, "dtype": {"type": "DT_FLOAT"}}}, {"name": "StatefulPartitionedCall/efficientnetv2-b2/blocks_24/depthwise_conv2d/depthwise_bn_offset", "op": "Const", "attr": {"value": {"tensor": {"dtype": "DT_FLOAT", "tensorShape": {"dim": [{"size": "1248"}]}}}, "dtype": {"type": "DT_FLOAT"}}}, {"name": "StatefulPartitionedCall/efficientnetv2-b2/stem/tpu_batch_normalization/FusedBatchNormV3", "op": "_FusedConv2D", "input": ["input_1", "StatefulPartitionedCall/efficientnetv2-b2/stem/conv2d/Conv2D_weights", "StatefulPartitionedCall/efficientnetv2-b2/stem/conv2d/Conv2D_bn_offset"], "device": "/device:CPU:0", "attr": {"explicit_paddings": {"list": {}}, "use_cudnn_on_gpu": {"b": true}, "epsilon": {"f": 0.0}, "fused_ops": {"list": {"s": ["Qmlhc0FkZA=="]}}, "data_format": {"s": "TkhXQw=="}, "T": {"type": "DT_FLOAT"}, "num_args": {"i": "1"}, "padding": {"s": "U0FNRQ=="}, "strides": {"list": {"i": ["1", "2", "2", "1"]}}, "dilations": {"list": {"i": ["1", "1", "1", "1"]}}}}, {"name": "StatefulPartitionedCall/efficientnetv2-b2/stem/Sigmoid", "op": "Sigmoid", "input": ["StatefulPartitionedCall/efficientnetv2-b2/stem/tpu_batch_normalization/FusedBatchNormV3"], "attr": {"T": {"type": "DT_FLOAT"}}}, {"name": "StatefulPartitionedCall/efficientnetv2-b2/stem/mul", "op": "Mul", "input": ["StatefulPartitionedCall/efficientnetv2-b2/stem/tpu_batch_normalization/FusedBatchNormV3", "StatefulPartitionedCall/efficientnetv2-b2/stem/Sigmoid"], "attr": {"T": {"type": "DT_FLOAT"}}}, {"name": "StatefulPartitionedCall/efficientnetv2-b2/blocks_0/tpu_batch_normalization/FusedBatchNormV3", "op": "_FusedConv2D", "input": ["StatefulPartitionedCall/efficientnetv2-b2/stem/mul", "StatefulPartitionedCall/efficientnetv2-b2/blocks_0/conv2d/Conv2D_weights", "StatefulPartitionedCall/efficientnetv2-b2/blocks_0/conv2d/Conv2D_bn_offset"], "device": "/device:CPU:0", "attr": {"dilations": {"list": {"i": ["1", "1", "1", "1"]}}, "explicit_paddings": {"list": {}}, "T": {"type": "DT_FLOAT"}, "epsilon": {"f": 0.0}, "use_cudnn_on_gpu": {"b": true}, "fused_ops": {"list": {"s": ["Qmlhc0FkZA=="]}}, "data_format": {"s": "TkhXQw=="}, "num_args": {"i": "1"}, "strides": {"list": {"i": ["1", "1", "1", "1"]}}, "padding": {"s": "U0FNRQ=="}}}, {"name": "StatefulPartitionedCall/efficientnetv2-b2/blocks_0/Sigmoid", "op": "Sigmoid", "input": ["StatefulPartitionedCall/efficientnetv2-b2/blocks_0/tpu_batch_normalization/FusedBatchNormV3"], "attr": {"T": {"type": "DT_FLOAT"}}}, {"name": "StatefulPartitionedCall/efficientnetv2-b2/blocks_0/mul", "op": "Mul", "input": ["StatefulPartitionedCall/efficientnetv2-b2/blocks_0/tpu_batch_normalization/FusedBatchNormV3", "StatefulPartitionedCall/efficientnetv2-b2/blocks_0/Sigmoid"], "attr": {"T": {"type": "DT_FLOAT"}}}, {"name": "StatefulPartitionedCall/efficientnetv2-b2/blocks_1/tpu_batch_normalization/FusedBatchNormV3", "op": "_FusedConv2D", "input": ["StatefulPartitionedCall/efficientnetv2-b2/blocks_0/mul", "StatefulPartitionedCall/efficientnetv2-b2/blocks_1/conv2d/Conv2D_weights", "StatefulPartitionedCall/efficientnetv2-b2/blocks_1/conv2d/Conv2D_bn_offset"], "device": "/device:CPU:0", "attr": {"num_args": {"i": "1"}, "epsilon": {"f": 0.0}, "padding": {"s": "U0FNRQ=="}, "explicit_paddings": {"list": {}}, "T": {"type": "DT_FLOAT"}, "dilations": {"list": {"i": ["1", "1", "1", "1"]}}, "use_cudnn_on_gpu": {"b": true}, "data_format": {"s": "TkhXQw=="}, "strides": {"list": {"i": ["1", "1", "1", "1"]}}, "fused_ops": {"list": {"s": ["Qmlhc0FkZA=="]}}}}, {"name": "StatefulPartitionedCall/efficientnetv2-b2/blocks_1/Sigmoid", "op": "Sigmoid", "input": ["StatefulPartitionedCall/efficientnetv2-b2/blocks_1/tpu_batch_normalization/FusedBatchNormV3"], "attr": {"T": {"type": "DT_FLOAT"}}}, {"name": "StatefulPartitionedCall/efficientnetv2-b2/blocks_1/mul", "op": "Mul", "input": ["StatefulPartitionedCall/efficientnetv2-b2/blocks_1/tpu_batch_normalization/FusedBatchNormV3", "StatefulPartitionedCall/efficientnetv2-b2/blocks_1/Sigmoid"], "attr": {"T": {"type": "DT_FLOAT"}}}, {"name": "StatefulPartitionedCall/efficientnetv2-b2/blocks_1/Add", "op": "AddV2", "input": ["StatefulPartitionedCall/efficientnetv2-b2/blocks_1/mul", "StatefulPartitionedCall/efficientnetv2-b2/blocks_0/mul"], "attr": {"T": {"type": "DT_FLOAT"}}}, {"name": "StatefulPartitionedCall/efficientnetv2-b2/blocks_2/tpu_batch_normalization/FusedBatchNormV3", "op": "_FusedConv2D", "input": ["StatefulPartitionedCall/efficientnetv2-b2/blocks_1/Add", "StatefulPartitionedCall/efficientnetv2-b2/blocks_2/conv2d/Conv2D_weights", "StatefulPartitionedCall/efficientnetv2-b2/blocks_2/conv2d/Conv2D_bn_offset"], "device": "/device:CPU:0", "attr": {"fused_ops": {"list": {"s": ["Qmlhc0FkZA=="]}}, "epsilon": {"f": 0.0}, "strides": {"list": {"i": ["1", "2", "2", "1"]}}, "use_cudnn_on_gpu": {"b": true}, "data_format": {"s": "TkhXQw=="}, "T": {"type": "DT_FLOAT"}, "explicit_paddings": {"list": {}}, "num_args": {"i": "1"}, "dilations": {"list": {"i": ["1", "1", "1", "1"]}}, "padding": {"s": "U0FNRQ=="}}}, {"name": "StatefulPartitionedCall/efficientnetv2-b2/blocks_2/Sigmoid", "op": "Sigmoid", "input": ["StatefulPartitionedCall/efficientnetv2-b2/blocks_2/tpu_batch_normalization/FusedBatchNormV3"], "attr": {"T": {"type": "DT_FLOAT"}}}, {"name": "StatefulPartitionedCall/efficientnetv2-b2/blocks_2/mul", "op": "Mul", "input": ["StatefulPartitionedCall/efficientnetv2-b2/blocks_2/tpu_batch_normalization/FusedBatchNormV3", "StatefulPartitionedCall/efficientnetv2-b2/blocks_2/Sigmoid"], "attr": {"T": {"type": "DT_FLOAT"}}}, {"name": "StatefulPartitionedCall/efficientnetv2-b2/blocks_2/tpu_batch_normalization_1/FusedBatchNormV3", "op": "_FusedConv2D", "input": ["StatefulPartitionedCall/efficientnetv2-b2/blocks_2/mul", "StatefulPartitionedCall/efficientnetv2-b2/blocks_2/conv2d_1/Conv2D_weights", "StatefulPartitionedCall/efficientnetv2-b2/blocks_2/conv2d_1/Conv2D_bn_offset"], "device": "/device:CPU:0", "attr": {"epsilon": {"f": 0.0}, "data_format": {"s": "TkhXQw=="}, "padding": {"s": "U0FNRQ=="}, "fused_ops": {"list": {"s": ["Qmlhc0FkZA=="]}}, "strides": {"list": {"i": ["1", "1", "1", "1"]}}, "num_args": {"i": "1"}, "use_cudnn_on_gpu": {"b": true}, "dilations": {"list": {"i": ["1", "1", "1", "1"]}}, "explicit_paddings": {"list": {}}, "T": {"type": "DT_FLOAT"}}}, {"name": "StatefulPartitionedCall/efficientnetv2-b2/blocks_3/tpu_batch_normalization/FusedBatchNormV3", "op": "_FusedConv2D", "input": ["StatefulPartitionedCall/efficientnetv2-b2/blocks_2/tpu_batch_normalization_1/FusedBatchNormV3", "StatefulPartitionedCall/efficientnetv2-b2/blocks_3/conv2d/Conv2D_weights", "StatefulPartitionedCall/efficientnetv2-b2/blocks_3/conv2d/Conv2D_bn_offset"], "device": "/device:CPU:0", "attr": {"num_args": {"i": "1"}, "padding": {"s": "U0FNRQ=="}, "data_format": {"s": "TkhXQw=="}, "fused_ops": {"list": {"s": ["Qmlhc0FkZA=="]}}, "use_cudnn_on_gpu": {"b": true}, "dilations": {"list": {"i": ["1", "1", "1", "1"]}}, "T": {"type": "DT_FLOAT"}, "epsilon": {"f": 0.0}, "strides": {"list": {"i": ["1", "1", "1", "1"]}}, "explicit_paddings": {"list": {}}}}, {"name": "StatefulPartitionedCall/efficientnetv2-b2/blocks_3/Sigmoid", "op": "Sigmoid", "input": ["StatefulPartitionedCall/efficientnetv2-b2/blocks_3/tpu_batch_normalization/FusedBatchNormV3"], "attr": {"T": {"type": "DT_FLOAT"}}}, {"name": "StatefulPartitionedCall/efficientnetv2-b2/blocks_3/mul", "op": "Mul", "input": ["StatefulPartitionedCall/efficientnetv2-b2/blocks_3/tpu_batch_normalization/FusedBatchNormV3", "StatefulPartitionedCall/efficientnetv2-b2/blocks_3/Sigmoid"], "attr": {"T": {"type": "DT_FLOAT"}}}, {"name": "StatefulPartitionedCall/efficientnetv2-b2/blocks_3/tpu_batch_normalization_1/FusedBatchNormV3", "op": "_FusedConv2D", "input": ["StatefulPartitionedCall/efficientnetv2-b2/blocks_3/mul", "StatefulPartitionedCall/efficientnetv2-b2/blocks_3/conv2d_1/Conv2D_weights", "StatefulPartitionedCall/efficientnetv2-b2/blocks_3/conv2d_1/Conv2D_bn_offset"], "device": "/device:CPU:0", "attr": {"padding": {"s": "U0FNRQ=="}, "fused_ops": {"list": {"s": ["Qmlhc0FkZA=="]}}, "num_args": {"i": "1"}, "data_format": {"s": "TkhXQw=="}, "strides": {"list": {"i": ["1", "1", "1", "1"]}}, "dilations": {"list": {"i": ["1", "1", "1", "1"]}}, "explicit_paddings": {"list": {}}, "epsilon": {"f": 0.0}, "use_cudnn_on_gpu": {"b": true}, "T": {"type": "DT_FLOAT"}}}, {"name": "StatefulPartitionedCall/efficientnetv2-b2/blocks_3/Add", "op": "AddV2", "input": ["StatefulPartitionedCall/efficientnetv2-b2/blocks_3/tpu_batch_normalization_1/FusedBatchNormV3", "StatefulPartitionedCall/efficientnetv2-b2/blocks_2/tpu_batch_normalization_1/FusedBatchNormV3"], "attr": {"T": {"type": "DT_FLOAT"}}}, {"name": "StatefulPartitionedCall/efficientnetv2-b2/blocks_4/tpu_batch_normalization/FusedBatchNormV3", "op": "_FusedConv2D", "input": ["StatefulPartitionedCall/efficientnetv2-b2/blocks_3/Add", "StatefulPartitionedCall/efficientnetv2-b2/blocks_4/conv2d/Conv2D_weights", "StatefulPartitionedCall/efficientnetv2-b2/blocks_4/conv2d/Conv2D_bn_offset"], "device": "/device:CPU:0", "attr": {"strides": {"list": {"i": ["1", "1", "1", "1"]}}, "fused_ops": {"list": {"s": ["Qmlhc0FkZA=="]}}, "epsilon": {"f": 0.0}, "num_args": {"i": "1"}, "use_cudnn_on_gpu": {"b": true}, "data_format": {"s": "TkhXQw=="}, "explicit_paddings": {"list": {}}, "T": {"type": "DT_FLOAT"}, "padding": {"s": "U0FNRQ=="}, "dilations": {"list": {"i": ["1", "1", "1", "1"]}}}}, {"name": "StatefulPartitionedCall/efficientnetv2-b2/blocks_4/Sigmoid", "op": "Sigmoid", "input": ["StatefulPartitionedCall/efficientnetv2-b2/blocks_4/tpu_batch_normalization/FusedBatchNormV3"], "attr": {"T": {"type": "DT_FLOAT"}}}, {"name": "StatefulPartitionedCall/efficientnetv2-b2/blocks_4/mul", "op": "Mul", "input": ["StatefulPartitionedCall/efficientnetv2-b2/blocks_4/tpu_batch_normalization/FusedBatchNormV3", "StatefulPartitionedCall/efficientnetv2-b2/blocks_4/Sigmoid"], "attr": {"T": {"type": "DT_FLOAT"}}}, {"name": "StatefulPartitionedCall/efficientnetv2-b2/blocks_4/tpu_batch_normalization_1/FusedBatchNormV3", "op": "_FusedConv2D", "input": ["StatefulPartitionedCall/efficientnetv2-b2/blocks_4/mul", "StatefulPartitionedCall/efficientnetv2-b2/blocks_4/conv2d_1/Conv2D_weights", "StatefulPartitionedCall/efficientnetv2-b2/blocks_4/conv2d_1/Conv2D_bn_offset"], "device": "/device:CPU:0", "attr": {"explicit_paddings": {"list": {}}, "data_format": {"s": "TkhXQw=="}, "num_args": {"i": "1"}, "epsilon": {"f": 0.0}, "T": {"type": "DT_FLOAT"}, "dilations": {"list": {"i": ["1", "1", "1", "1"]}}, "strides": {"list": {"i": ["1", "1", "1", "1"]}}, "padding": {"s": "U0FNRQ=="}, "fused_ops": {"list": {"s": ["Qmlhc0FkZA=="]}}, "use_cudnn_on_gpu": {"b": true}}}, {"name": "StatefulPartitionedCall/efficientnetv2-b2/blocks_4/Add", "op": "AddV2", "input": ["StatefulPartitionedCall/efficientnetv2-b2/blocks_4/tpu_batch_normalization_1/FusedBatchNormV3", "StatefulPartitionedCall/efficientnetv2-b2/blocks_3/Add"], "attr": {"T": {"type": "DT_FLOAT"}}}, {"name": "StatefulPartitionedCall/efficientnetv2-b2/blocks_5/tpu_batch_normalization/FusedBatchNormV3", "op": "_FusedConv2D", "input": ["StatefulPartitionedCall/efficientnetv2-b2/blocks_4/Add", "StatefulPartitionedCall/efficientnetv2-b2/blocks_5/conv2d/Conv2D_weights", "StatefulPartitionedCall/efficientnetv2-b2/blocks_5/conv2d/Conv2D_bn_offset"], "device": "/device:CPU:0", "attr": {"fused_ops": {"list": {"s": ["Qmlhc0FkZA=="]}}, "use_cudnn_on_gpu": {"b": true}, "T": {"type": "DT_FLOAT"}, "strides": {"list": {"i": ["1", "2", "2", "1"]}}, "explicit_paddings": {"list": {}}, "num_args": {"i": "1"}, "data_format": {"s": "TkhXQw=="}, "epsilon": {"f": 0.0}, "padding": {"s": "U0FNRQ=="}, "dilations": {"list": {"i": ["1", "1", "1", "1"]}}}}, {"name": "StatefulPartitionedCall/efficientnetv2-b2/blocks_5/Sigmoid", "op": "Sigmoid", "input": ["StatefulPartitionedCall/efficientnetv2-b2/blocks_5/tpu_batch_normalization/FusedBatchNormV3"], "attr": {"T": {"type": "DT_FLOAT"}}}, {"name": "StatefulPartitionedCall/efficientnetv2-b2/blocks_5/mul", "op": "Mul", "input": ["StatefulPartitionedCall/efficientnetv2-b2/blocks_5/tpu_batch_normalization/FusedBatchNormV3", "StatefulPartitionedCall/efficientnetv2-b2/blocks_5/Sigmoid"], "attr": {"T": {"type": "DT_FLOAT"}}}, {"name": "StatefulPartitionedCall/efficientnetv2-b2/blocks_5/tpu_batch_normalization_1/FusedBatchNormV3", "op": "_FusedConv2D", "input": ["StatefulPartitionedCall/efficientnetv2-b2/blocks_5/mul", "StatefulPartitionedCall/efficientnetv2-b2/blocks_5/conv2d_1/Conv2D_weights", "StatefulPartitionedCall/efficientnetv2-b2/blocks_5/conv2d_1/Conv2D_bn_offset"], "device": "/device:CPU:0", "attr": {"use_cudnn_on_gpu": {"b": true}, "fused_ops": {"list": {"s": ["Qmlhc0FkZA=="]}}, "T": {"type": "DT_FLOAT"}, "epsilon": {"f": 0.0}, "dilations": {"list": {"i": ["1", "1", "1", "1"]}}, "num_args": {"i": "1"}, "data_format": {"s": "TkhXQw=="}, "explicit_paddings": {"list": {}}, "strides": {"list": {"i": ["1", "1", "1", "1"]}}, "padding": {"s": "U0FNRQ=="}}}, {"name": "StatefulPartitionedCall/efficientnetv2-b2/blocks_6/tpu_batch_normalization/FusedBatchNormV3", "op": "_FusedConv2D", "input": ["StatefulPartitionedCall/efficientnetv2-b2/blocks_5/tpu_batch_normalization_1/FusedBatchNormV3", "StatefulPartitionedCall/efficientnetv2-b2/blocks_6/conv2d/Conv2D_weights", "StatefulPartitionedCall/efficientnetv2-b2/blocks_6/conv2d/Conv2D_bn_offset"], "device": "/device:CPU:0", "attr": {"T": {"type": "DT_FLOAT"}, "strides": {"list": {"i": ["1", "1", "1", "1"]}}, "num_args": {"i": "1"}, "fused_ops": {"list": {"s": ["Qmlhc0FkZA=="]}}, "use_cudnn_on_gpu": {"b": true}, "explicit_paddings": {"list": {}}, "padding": {"s": "U0FNRQ=="}, "data_format": {"s": "TkhXQw=="}, "epsilon": {"f": 0.0}, "dilations": {"list": {"i": ["1", "1", "1", "1"]}}}}, {"name": "StatefulPartitionedCall/efficientnetv2-b2/blocks_6/Sigmoid", "op": "Sigmoid", "input": ["StatefulPartitionedCall/efficientnetv2-b2/blocks_6/tpu_batch_normalization/FusedBatchNormV3"], "attr": {"T": {"type": "DT_FLOAT"}}}, {"name": "StatefulPartitionedCall/efficientnetv2-b2/blocks_6/mul", "op": "Mul", "input": ["StatefulPartitionedCall/efficientnetv2-b2/blocks_6/tpu_batch_normalization/FusedBatchNormV3", "StatefulPartitionedCall/efficientnetv2-b2/blocks_6/Sigmoid"], "attr": {"T": {"type": "DT_FLOAT"}}}, {"name": "StatefulPartitionedCall/efficientnetv2-b2/blocks_6/tpu_batch_normalization_1/FusedBatchNormV3", "op": "_FusedConv2D", "input": ["StatefulPartitionedCall/efficientnetv2-b2/blocks_6/mul", "StatefulPartitionedCall/efficientnetv2-b2/blocks_6/conv2d_1/Conv2D_weights", "StatefulPartitionedCall/efficientnetv2-b2/blocks_6/conv2d_1/Conv2D_bn_offset"], "device": "/device:CPU:0", "attr": {"data_format": {"s": "TkhXQw=="}, "fused_ops": {"list": {"s": ["Qmlhc0FkZA=="]}}, "use_cudnn_on_gpu": {"b": true}, "num_args": {"i": "1"}, "T": {"type": "DT_FLOAT"}, "dilations": {"list": {"i": ["1", "1", "1", "1"]}}, "epsilon": {"f": 0.0}, "padding": {"s": "U0FNRQ=="}, "explicit_paddings": {"list": {}}, "strides": {"list": {"i": ["1", "1", "1", "1"]}}}}, {"name": "StatefulPartitionedCall/efficientnetv2-b2/blocks_6/Add", "op": "AddV2", "input": ["StatefulPartitionedCall/efficientnetv2-b2/blocks_6/tpu_batch_normalization_1/FusedBatchNormV3", "StatefulPartitionedCall/efficientnetv2-b2/blocks_5/tpu_batch_normalization_1/FusedBatchNormV3"], "attr": {"T": {"type": "DT_FLOAT"}}}, {"name": "StatefulPartitionedCall/efficientnetv2-b2/blocks_7/tpu_batch_normalization/FusedBatchNormV3", "op": "_FusedConv2D", "input": ["StatefulPartitionedCall/efficientnetv2-b2/blocks_6/Add", "StatefulPartitionedCall/efficientnetv2-b2/blocks_7/conv2d/Conv2D_weights", "StatefulPartitionedCall/efficientnetv2-b2/blocks_7/conv2d/Conv2D_bn_offset"], "device": "/device:CPU:0", "attr": {"padding": {"s": "U0FNRQ=="}, "T": {"type": "DT_FLOAT"}, "use_cudnn_on_gpu": {"b": true}, "data_format": {"s": "TkhXQw=="}, "epsilon": {"f": 0.0}, "strides": {"list": {"i": ["1", "1", "1", "1"]}}, "fused_ops": {"list": {"s": ["Qmlhc0FkZA=="]}}, "dilations": {"list": {"i": ["1", "1", "1", "1"]}}, "num_args": {"i": "1"}, "explicit_paddings": {"list": {}}}}, {"name": "StatefulPartitionedCall/efficientnetv2-b2/blocks_7/Sigmoid", "op": "Sigmoid", "input": ["StatefulPartitionedCall/efficientnetv2-b2/blocks_7/tpu_batch_normalization/FusedBatchNormV3"], "attr": {"T": {"type": "DT_FLOAT"}}}, {"name": "StatefulPartitionedCall/efficientnetv2-b2/blocks_7/mul", "op": "Mul", "input": ["StatefulPartitionedCall/efficientnetv2-b2/blocks_7/tpu_batch_normalization/FusedBatchNormV3", "StatefulPartitionedCall/efficientnetv2-b2/blocks_7/Sigmoid"], "attr": {"T": {"type": "DT_FLOAT"}}}, {"name": "StatefulPartitionedCall/efficientnetv2-b2/blocks_7/tpu_batch_normalization_1/FusedBatchNormV3", "op": "_FusedConv2D", "input": ["StatefulPartitionedCall/efficientnetv2-b2/blocks_7/mul", "StatefulPartitionedCall/efficientnetv2-b2/blocks_7/conv2d_1/Conv2D_weights", "StatefulPartitionedCall/efficientnetv2-b2/blocks_7/conv2d_1/Conv2D_bn_offset"], "device": "/device:CPU:0", "attr": {"num_args": {"i": "1"}, "fused_ops": {"list": {"s": ["Qmlhc0FkZA=="]}}, "use_cudnn_on_gpu": {"b": true}, "dilations": {"list": {"i": ["1", "1", "1", "1"]}}, "epsilon": {"f": 0.0}, "explicit_paddings": {"list": {}}, "padding": {"s": "U0FNRQ=="}, "T": {"type": "DT_FLOAT"}, "data_format": {"s": "TkhXQw=="}, "strides": {"list": {"i": ["1", "1", "1", "1"]}}}}, {"name": "StatefulPartitionedCall/efficientnetv2-b2/blocks_7/Add", "op": "AddV2", "input": ["StatefulPartitionedCall/efficientnetv2-b2/blocks_7/tpu_batch_normalization_1/FusedBatchNormV3", "StatefulPartitionedCall/efficientnetv2-b2/blocks_6/Add"], "attr": {"T": {"type": "DT_FLOAT"}}}, {"name": "StatefulPartitionedCall/efficientnetv2-b2/blocks_8/tpu_batch_normalization/FusedBatchNormV3", "op": "_FusedConv2D", "input": ["StatefulPartitionedCall/efficientnetv2-b2/blocks_7/Add", "StatefulPartitionedCall/efficientnetv2-b2/blocks_8/conv2d/Conv2D_weights", "StatefulPartitionedCall/efficientnetv2-b2/blocks_8/conv2d/Conv2D_bn_offset"], "device": "/device:CPU:0", "attr": {"explicit_paddings": {"list": {}}, "padding": {"s": "U0FNRQ=="}, "use_cudnn_on_gpu": {"b": true}, "data_format": {"s": "TkhXQw=="}, "fused_ops": {"list": {"s": ["Qmlhc0FkZA=="]}}, "strides": {"list": {"i": ["1", "1", "1", "1"]}}, "epsilon": {"f": 0.0}, "num_args": {"i": "1"}, "dilations": {"list": {"i": ["1", "1", "1", "1"]}}, "T": {"type": "DT_FLOAT"}}}, {"name": "StatefulPartitionedCall/efficientnetv2-b2/blocks_8/Sigmoid", "op": "Sigmoid", "input": ["StatefulPartitionedCall/efficientnetv2-b2/blocks_8/tpu_batch_normalization/FusedBatchNormV3"], "attr": {"T": {"type": "DT_FLOAT"}}}, {"name": "StatefulPartitionedCall/efficientnetv2-b2/blocks_8/mul", "op": "Mul", "input": ["StatefulPartitionedCall/efficientnetv2-b2/blocks_8/tpu_batch_normalization/FusedBatchNormV3", "StatefulPartitionedCall/efficientnetv2-b2/blocks_8/Sigmoid"], "attr": {"T": {"type": "DT_FLOAT"}}}, {"name": "StatefulPartitionedCall/efficientnetv2-b2/blocks_8/depthwise_conv2d/depthwise", "op": "FusedDepthwiseConv2dNative", "input": ["StatefulPartitionedCall/efficientnetv2-b2/blocks_8/mul", "StatefulPartitionedCall/efficientnetv2-b2/blocks_8/depthwise_conv2d/depthwise_weights", "StatefulPartitionedCall/efficientnetv2-b2/blocks_8/depthwise_conv2d/depthwise_bn_offset"], "attr": {"dilations": {"list": {"i": ["1", "1", "1", "1"]}}, "fused_ops": {"list": {"s": ["Qmlhc0FkZA=="]}}, "explicit_paddings": {"list": {}}, "data_format": {"s": "TkhXQw=="}, "num_args": {"i": "1"}, "strides": {"list": {"i": ["1", "2", "2", "1"]}}, "T": {"type": "DT_FLOAT"}, "padding": {"s": "U0FNRQ=="}}}, {"name": "StatefulPartitionedCall/efficientnetv2-b2/blocks_8/Sigmoid_1", "op": "Sigmoid", "input": ["StatefulPartitionedCall/efficientnetv2-b2/blocks_8/depthwise_conv2d/depthwise"], "attr": {"T": {"type": "DT_FLOAT"}}}, {"name": "StatefulPartitionedCall/efficientnetv2-b2/blocks_8/mul_1", "op": "Mul", "input": ["StatefulPartitionedCall/efficientnetv2-b2/blocks_8/depthwise_conv2d/depthwise", "StatefulPartitionedCall/efficientnetv2-b2/blocks_8/Sigmoid_1"], "attr": {"T": {"type": "DT_FLOAT"}}}, {"name": "StatefulPartitionedCall/efficientnetv2-b2/blocks_8/se/Mean", "op": "Mean", "input": ["StatefulPartitionedCall/efficientnetv2-b2/blocks_8/mul_1", "StatefulPartitionedCall/efficientnetv2-b2/blocks_8/se/Mean/reduction_indices"], "attr": {"Tidx": {"type": "DT_INT32"}, "T": {"type": "DT_FLOAT"}, "keep_dims": {"b": true}}}, {"name": "StatefulPartitionedCall/efficientnetv2-b2/blocks_8/se/conv2d/BiasAdd", "op": "_FusedConv2D", "input": ["StatefulPartitionedCall/efficientnetv2-b2/blocks_8/se/Mean", "StatefulPartitionedCall/efficientnetv2-b2/blocks_8/se/conv2d/Conv2D/ReadVariableOp", "StatefulPartitionedCall/efficientnetv2-b2/blocks_8/se/conv2d/BiasAdd/ReadVariableOp"], "device": "/device:CPU:0", "attr": {"T": {"type": "DT_FLOAT"}, "fused_ops": {"list": {"s": ["Qmlhc0FkZA=="]}}, "strides": {"list": {"i": ["1", "1", "1", "1"]}}, "num_args": {"i": "1"}, "dilations": {"list": {"i": ["1", "1", "1", "1"]}}, "data_format": {"s": "TkhXQw=="}, "explicit_paddings": {"list": {}}, "use_cudnn_on_gpu": {"b": true}, "epsilon": {"f": 0.0}, "padding": {"s": "U0FNRQ=="}}}, {"name": "StatefulPartitionedCall/efficientnetv2-b2/blocks_8/se/Sigmoid", "op": "Sigmoid", "input": ["StatefulPartitionedCall/efficientnetv2-b2/blocks_8/se/conv2d/BiasAdd"], "attr": {"T": {"type": "DT_FLOAT"}}}, {"name": "StatefulPartitionedCall/efficientnetv2-b2/blocks_8/se/mul", "op": "Mul", "input": ["StatefulPartitionedCall/efficientnetv2-b2/blocks_8/se/conv2d/BiasAdd", "StatefulPartitionedCall/efficientnetv2-b2/blocks_8/se/Sigmoid"], "attr": {"T": {"type": "DT_FLOAT"}}}, {"name": "StatefulPartitionedCall/efficientnetv2-b2/blocks_8/se/conv2d_1/BiasAdd", "op": "_FusedConv2D", "input": ["StatefulPartitionedCall/efficientnetv2-b2/blocks_8/se/mul", "StatefulPartitionedCall/efficientnetv2-b2/blocks_8/se/conv2d_1/Conv2D/ReadVariableOp", "StatefulPartitionedCall/efficientnetv2-b2/blocks_8/se/conv2d_1/BiasAdd/ReadVariableOp"], "device": "/device:CPU:0", "attr": {"fused_ops": {"list": {"s": ["Qmlhc0FkZA=="]}}, "explicit_paddings": {"list": {}}, "strides": {"list": {"i": ["1", "1", "1", "1"]}}, "dilations": {"list": {"i": ["1", "1", "1", "1"]}}, "use_cudnn_on_gpu": {"b": true}, "num_args": {"i": "1"}, "T": {"type": "DT_FLOAT"}, "padding": {"s": "U0FNRQ=="}, "epsilon": {"f": 0.0}, "data_format": {"s": "TkhXQw=="}}}, {"name": "StatefulPartitionedCall/efficientnetv2-b2/blocks_8/se/Sigmoid_1", "op": "Sigmoid", "input": ["StatefulPartitionedCall/efficientnetv2-b2/blocks_8/se/conv2d_1/BiasAdd"], "attr": {"T": {"type": "DT_FLOAT"}}}, {"name": "StatefulPartitionedCall/efficientnetv2-b2/blocks_8/se/mul_1", "op": "Mul", "input": ["StatefulPartitionedCall/efficientnetv2-b2/blocks_8/se/Sigmoid_1", "StatefulPartitionedCall/efficientnetv2-b2/blocks_8/mul_1"], "attr": {"T": {"type": "DT_FLOAT"}}}, {"name": "StatefulPartitionedCall/efficientnetv2-b2/blocks_8/tpu_batch_normalization_2/FusedBatchNormV3", "op": "_FusedConv2D", "input": ["StatefulPartitionedCall/efficientnetv2-b2/blocks_8/se/mul_1", "StatefulPartitionedCall/efficientnetv2-b2/blocks_8/conv2d_1/Conv2D_weights", "StatefulPartitionedCall/efficientnetv2-b2/blocks_8/conv2d_1/Conv2D_bn_offset"], "device": "/device:CPU:0", "attr": {"strides": {"list": {"i": ["1", "1", "1", "1"]}}, "use_cudnn_on_gpu": {"b": true}, "epsilon": {"f": 0.0}, "num_args": {"i": "1"}, "dilations": {"list": {"i": ["1", "1", "1", "1"]}}, "T": {"type": "DT_FLOAT"}, "fused_ops": {"list": {"s": ["Qmlhc0FkZA=="]}}, "explicit_paddings": {"list": {}}, "data_format": {"s": "TkhXQw=="}, "padding": {"s": "U0FNRQ=="}}}, {"name": "StatefulPartitionedCall/efficientnetv2-b2/blocks_9/tpu_batch_normalization/FusedBatchNormV3", "op": "_FusedConv2D", "input": ["StatefulPartitionedCall/efficientnetv2-b2/blocks_8/tpu_batch_normalization_2/FusedBatchNormV3", "StatefulPartitionedCall/efficientnetv2-b2/blocks_9/conv2d/Conv2D_weights", "StatefulPartitionedCall/efficientnetv2-b2/blocks_9/conv2d/Conv2D_bn_offset"], "device": "/device:CPU:0", "attr": {"num_args": {"i": "1"}, "use_cudnn_on_gpu": {"b": true}, "epsilon": {"f": 0.0}, "strides": {"list": {"i": ["1", "1", "1", "1"]}}, "T": {"type": "DT_FLOAT"}, "dilations": {"list": {"i": ["1", "1", "1", "1"]}}, "data_format": {"s": "TkhXQw=="}, "explicit_paddings": {"list": {}}, "padding": {"s": "U0FNRQ=="}, "fused_ops": {"list": {"s": ["Qmlhc0FkZA=="]}}}}, {"name": "StatefulPartitionedCall/efficientnetv2-b2/blocks_9/Sigmoid", "op": "Sigmoid", "input": ["StatefulPartitionedCall/efficientnetv2-b2/blocks_9/tpu_batch_normalization/FusedBatchNormV3"], "attr": {"T": {"type": "DT_FLOAT"}}}, {"name": "StatefulPartitionedCall/efficientnetv2-b2/blocks_9/mul", "op": "Mul", "input": ["StatefulPartitionedCall/efficientnetv2-b2/blocks_9/tpu_batch_normalization/FusedBatchNormV3", "StatefulPartitionedCall/efficientnetv2-b2/blocks_9/Sigmoid"], "attr": {"T": {"type": "DT_FLOAT"}}}, {"name": "StatefulPartitionedCall/efficientnetv2-b2/blocks_9/depthwise_conv2d/depthwise", "op": "FusedDepthwiseConv2dNative", "input": ["StatefulPartitionedCall/efficientnetv2-b2/blocks_9/mul", "StatefulPartitionedCall/efficientnetv2-b2/blocks_9/depthwise_conv2d/depthwise_weights", "StatefulPartitionedCall/efficientnetv2-b2/blocks_9/depthwise_conv2d/depthwise_bn_offset"], "attr": {"padding": {"s": "U0FNRQ=="}, "fused_ops": {"list": {"s": ["Qmlhc0FkZA=="]}}, "dilations": {"list": {"i": ["1", "1", "1", "1"]}}, "strides": {"list": {"i": ["1", "1", "1", "1"]}}, "data_format": {"s": "TkhXQw=="}, "T": {"type": "DT_FLOAT"}, "explicit_paddings": {"list": {}}, "num_args": {"i": "1"}}}, {"name": "StatefulPartitionedCall/efficientnetv2-b2/blocks_9/Sigmoid_1", "op": "Sigmoid", "input": ["StatefulPartitionedCall/efficientnetv2-b2/blocks_9/depthwise_conv2d/depthwise"], "attr": {"T": {"type": "DT_FLOAT"}}}, {"name": "StatefulPartitionedCall/efficientnetv2-b2/blocks_9/mul_1", "op": "Mul", "input": ["StatefulPartitionedCall/efficientnetv2-b2/blocks_9/depthwise_conv2d/depthwise", "StatefulPartitionedCall/efficientnetv2-b2/blocks_9/Sigmoid_1"], "attr": {"T": {"type": "DT_FLOAT"}}}, {"name": "StatefulPartitionedCall/efficientnetv2-b2/blocks_9/se/Mean", "op": "Mean", "input": ["StatefulPartitionedCall/efficientnetv2-b2/blocks_9/mul_1", "StatefulPartitionedCall/efficientnetv2-b2/blocks_9/se/Mean/reduction_indices"], "attr": {"Tidx": {"type": "DT_INT32"}, "keep_dims": {"b": true}, "T": {"type": "DT_FLOAT"}}}, {"name": "StatefulPartitionedCall/efficientnetv2-b2/blocks_9/se/conv2d/BiasAdd", "op": "_FusedConv2D", "input": ["StatefulPartitionedCall/efficientnetv2-b2/blocks_9/se/Mean", "StatefulPartitionedCall/efficientnetv2-b2/blocks_9/se/conv2d/Conv2D/ReadVariableOp", "StatefulPartitionedCall/efficientnetv2-b2/blocks_9/se/conv2d/BiasAdd/ReadVariableOp"], "device": "/device:CPU:0", "attr": {"padding": {"s": "U0FNRQ=="}, "use_cudnn_on_gpu": {"b": true}, "data_format": {"s": "TkhXQw=="}, "strides": {"list": {"i": ["1", "1", "1", "1"]}}, "fused_ops": {"list": {"s": ["Qmlhc0FkZA=="]}}, "dilations": {"list": {"i": ["1", "1", "1", "1"]}}, "T": {"type": "DT_FLOAT"}, "num_args": {"i": "1"}, "epsilon": {"f": 0.0}, "explicit_paddings": {"list": {}}}}, {"name": "StatefulPartitionedCall/efficientnetv2-b2/blocks_9/se/Sigmoid", "op": "Sigmoid", "input": ["StatefulPartitionedCall/efficientnetv2-b2/blocks_9/se/conv2d/BiasAdd"], "attr": {"T": {"type": "DT_FLOAT"}}}, {"name": "StatefulPartitionedCall/efficientnetv2-b2/blocks_9/se/mul", "op": "Mul", "input": ["StatefulPartitionedCall/efficientnetv2-b2/blocks_9/se/conv2d/BiasAdd", "StatefulPartitionedCall/efficientnetv2-b2/blocks_9/se/Sigmoid"], "attr": {"T": {"type": "DT_FLOAT"}}}, {"name": "StatefulPartitionedCall/efficientnetv2-b2/blocks_9/se/conv2d_1/BiasAdd", "op": "_FusedConv2D", "input": ["StatefulPartitionedCall/efficientnetv2-b2/blocks_9/se/mul", "StatefulPartitionedCall/efficientnetv2-b2/blocks_9/se/conv2d_1/Conv2D/ReadVariableOp", "StatefulPartitionedCall/efficientnetv2-b2/blocks_9/se/conv2d_1/BiasAdd/ReadVariableOp"], "device": "/device:CPU:0", "attr": {"strides": {"list": {"i": ["1", "1", "1", "1"]}}, "explicit_paddings": {"list": {}}, "T": {"type": "DT_FLOAT"}, "num_args": {"i": "1"}, "padding": {"s": "U0FNRQ=="}, "epsilon": {"f": 0.0}, "fused_ops": {"list": {"s": ["Qmlhc0FkZA=="]}}, "data_format": {"s": "TkhXQw=="}, "dilations": {"list": {"i": ["1", "1", "1", "1"]}}, "use_cudnn_on_gpu": {"b": true}}}, {"name": "StatefulPartitionedCall/efficientnetv2-b2/blocks_9/se/Sigmoid_1", "op": "Sigmoid", "input": ["StatefulPartitionedCall/efficientnetv2-b2/blocks_9/se/conv2d_1/BiasAdd"], "attr": {"T": {"type": "DT_FLOAT"}}}, {"name": "StatefulPartitionedCall/efficientnetv2-b2/blocks_9/se/mul_1", "op": "Mul", "input": ["StatefulPartitionedCall/efficientnetv2-b2/blocks_9/se/Sigmoid_1", "StatefulPartitionedCall/efficientnetv2-b2/blocks_9/mul_1"], "attr": {"T": {"type": "DT_FLOAT"}}}, {"name": "StatefulPartitionedCall/efficientnetv2-b2/blocks_9/tpu_batch_normalization_2/FusedBatchNormV3", "op": "_FusedConv2D", "input": ["StatefulPartitionedCall/efficientnetv2-b2/blocks_9/se/mul_1", "StatefulPartitionedCall/efficientnetv2-b2/blocks_9/conv2d_1/Conv2D_weights", "StatefulPartitionedCall/efficientnetv2-b2/blocks_9/conv2d_1/Conv2D_bn_offset"], "device": "/device:CPU:0", "attr": {"use_cudnn_on_gpu": {"b": true}, "T": {"type": "DT_FLOAT"}, "num_args": {"i": "1"}, "fused_ops": {"list": {"s": ["Qmlhc0FkZA=="]}}, "dilations": {"list": {"i": ["1", "1", "1", "1"]}}, "epsilon": {"f": 0.0}, "strides": {"list": {"i": ["1", "1", "1", "1"]}}, "padding": {"s": "U0FNRQ=="}, "data_format": {"s": "TkhXQw=="}, "explicit_paddings": {"list": {}}}}, {"name": "StatefulPartitionedCall/efficientnetv2-b2/blocks_9/Add", "op": "AddV2", "input": ["StatefulPartitionedCall/efficientnetv2-b2/blocks_9/tpu_batch_normalization_2/FusedBatchNormV3", "StatefulPartitionedCall/efficientnetv2-b2/blocks_8/tpu_batch_normalization_2/FusedBatchNormV3"], "attr": {"T": {"type": "DT_FLOAT"}}}, {"name": "StatefulPartitionedCall/efficientnetv2-b2/blocks_10/tpu_batch_normalization/FusedBatchNormV3", "op": "_FusedConv2D", "input": ["StatefulPartitionedCall/efficientnetv2-b2/blocks_9/Add", "StatefulPartitionedCall/efficientnetv2-b2/blocks_10/conv2d/Conv2D_weights", "StatefulPartitionedCall/efficientnetv2-b2/blocks_10/conv2d/Conv2D_bn_offset"], "device": "/device:CPU:0", "attr": {"data_format": {"s": "TkhXQw=="}, "explicit_paddings": {"list": {}}, "epsilon": {"f": 0.0}, "use_cudnn_on_gpu": {"b": true}, "dilations": {"list": {"i": ["1", "1", "1", "1"]}}, "strides": {"list": {"i": ["1", "1", "1", "1"]}}, "fused_ops": {"list": {"s": ["Qmlhc0FkZA=="]}}, "T": {"type": "DT_FLOAT"}, "num_args": {"i": "1"}, "padding": {"s": "U0FNRQ=="}}}, {"name": "StatefulPartitionedCall/efficientnetv2-b2/blocks_10/Sigmoid", "op": "Sigmoid", "input": ["StatefulPartitionedCall/efficientnetv2-b2/blocks_10/tpu_batch_normalization/FusedBatchNormV3"], "attr": {"T": {"type": "DT_FLOAT"}}}, {"name": "StatefulPartitionedCall/efficientnetv2-b2/blocks_10/mul", "op": "Mul", "input": ["StatefulPartitionedCall/efficientnetv2-b2/blocks_10/tpu_batch_normalization/FusedBatchNormV3", "StatefulPartitionedCall/efficientnetv2-b2/blocks_10/Sigmoid"], "attr": {"T": {"type": "DT_FLOAT"}}}, {"name": "StatefulPartitionedCall/efficientnetv2-b2/blocks_10/depthwise_conv2d/depthwise", "op": "FusedDepthwiseConv2dNative", "input": ["StatefulPartitionedCall/efficientnetv2-b2/blocks_10/mul", "StatefulPartitionedCall/efficientnetv2-b2/blocks_10/depthwise_conv2d/depthwise_weights", "StatefulPartitionedCall/efficientnetv2-b2/blocks_10/depthwise_conv2d/depthwise_bn_offset"], "attr": {"padding": {"s": "U0FNRQ=="}, "strides": {"list": {"i": ["1", "1", "1", "1"]}}, "T": {"type": "DT_FLOAT"}, "num_args": {"i": "1"}, "explicit_paddings": {"list": {}}, "data_format": {"s": "TkhXQw=="}, "fused_ops": {"list": {"s": ["Qmlhc0FkZA=="]}}, "dilations": {"list": {"i": ["1", "1", "1", "1"]}}}}, {"name": "StatefulPartitionedCall/efficientnetv2-b2/blocks_10/Sigmoid_1", "op": "Sigmoid", "input": ["StatefulPartitionedCall/efficientnetv2-b2/blocks_10/depthwise_conv2d/depthwise"], "attr": {"T": {"type": "DT_FLOAT"}}}, {"name": "StatefulPartitionedCall/efficientnetv2-b2/blocks_10/mul_1", "op": "Mul", "input": ["StatefulPartitionedCall/efficientnetv2-b2/blocks_10/depthwise_conv2d/depthwise", "StatefulPartitionedCall/efficientnetv2-b2/blocks_10/Sigmoid_1"], "attr": {"T": {"type": "DT_FLOAT"}}}, {"name": "StatefulPartitionedCall/efficientnetv2-b2/blocks_10/se/Mean", "op": "Mean", "input": ["StatefulPartitionedCall/efficientnetv2-b2/blocks_10/mul_1", "StatefulPartitionedCall/efficientnetv2-b2/blocks_10/se/Mean/reduction_indices"], "attr": {"keep_dims": {"b": true}, "T": {"type": "DT_FLOAT"}, "Tidx": {"type": "DT_INT32"}}}, {"name": "StatefulPartitionedCall/efficientnetv2-b2/blocks_10/se/conv2d/BiasAdd", "op": "_FusedConv2D", "input": ["StatefulPartitionedCall/efficientnetv2-b2/blocks_10/se/Mean", "StatefulPartitionedCall/efficientnetv2-b2/blocks_10/se/conv2d/Conv2D/ReadVariableOp", "StatefulPartitionedCall/efficientnetv2-b2/blocks_10/se/conv2d/BiasAdd/ReadVariableOp"], "device": "/device:CPU:0", "attr": {"data_format": {"s": "TkhXQw=="}, "epsilon": {"f": 0.0}, "dilations": {"list": {"i": ["1", "1", "1", "1"]}}, "explicit_paddings": {"list": {}}, "use_cudnn_on_gpu": {"b": true}, "num_args": {"i": "1"}, "fused_ops": {"list": {"s": ["Qmlhc0FkZA=="]}}, "padding": {"s": "U0FNRQ=="}, "T": {"type": "DT_FLOAT"}, "strides": {"list": {"i": ["1", "1", "1", "1"]}}}}, {"name": "StatefulPartitionedCall/efficientnetv2-b2/blocks_10/se/Sigmoid", "op": "Sigmoid", "input": ["StatefulPartitionedCall/efficientnetv2-b2/blocks_10/se/conv2d/BiasAdd"], "attr": {"T": {"type": "DT_FLOAT"}}}, {"name": "StatefulPartitionedCall/efficientnetv2-b2/blocks_10/se/mul", "op": "Mul", "input": ["StatefulPartitionedCall/efficientnetv2-b2/blocks_10/se/conv2d/BiasAdd", "StatefulPartitionedCall/efficientnetv2-b2/blocks_10/se/Sigmoid"], "attr": {"T": {"type": "DT_FLOAT"}}}, {"name": "StatefulPartitionedCall/efficientnetv2-b2/blocks_10/se/conv2d_1/BiasAdd", "op": "_FusedConv2D", "input": ["StatefulPartitionedCall/efficientnetv2-b2/blocks_10/se/mul", "StatefulPartitionedCall/efficientnetv2-b2/blocks_10/se/conv2d_1/Conv2D/ReadVariableOp", "StatefulPartitionedCall/efficientnetv2-b2/blocks_10/se/conv2d_1/BiasAdd/ReadVariableOp"], "device": "/device:CPU:0", "attr": {"T": {"type": "DT_FLOAT"}, "num_args": {"i": "1"}, "strides": {"list": {"i": ["1", "1", "1", "1"]}}, "use_cudnn_on_gpu": {"b": true}, "padding": {"s": "U0FNRQ=="}, "explicit_paddings": {"list": {}}, "epsilon": {"f": 0.0}, "fused_ops": {"list": {"s": ["Qmlhc0FkZA=="]}}, "dilations": {"list": {"i": ["1", "1", "1", "1"]}}, "data_format": {"s": "TkhXQw=="}}}, {"name": "StatefulPartitionedCall/efficientnetv2-b2/blocks_10/se/Sigmoid_1", "op": "Sigmoid", "input": ["StatefulPartitionedCall/efficientnetv2-b2/blocks_10/se/conv2d_1/BiasAdd"], "attr": {"T": {"type": "DT_FLOAT"}}}, {"name": "StatefulPartitionedCall/efficientnetv2-b2/blocks_10/se/mul_1", "op": "Mul", "input": ["StatefulPartitionedCall/efficientnetv2-b2/blocks_10/se/Sigmoid_1", "StatefulPartitionedCall/efficientnetv2-b2/blocks_10/mul_1"], "attr": {"T": {"type": "DT_FLOAT"}}}, {"name": "StatefulPartitionedCall/efficientnetv2-b2/blocks_10/tpu_batch_normalization_2/FusedBatchNormV3", "op": "_FusedConv2D", "input": ["StatefulPartitionedCall/efficientnetv2-b2/blocks_10/se/mul_1", "StatefulPartitionedCall/efficientnetv2-b2/blocks_10/conv2d_1/Conv2D_weights", "StatefulPartitionedCall/efficientnetv2-b2/blocks_10/conv2d_1/Conv2D_bn_offset"], "device": "/device:CPU:0", "attr": {"fused_ops": {"list": {"s": ["Qmlhc0FkZA=="]}}, "explicit_paddings": {"list": {}}, "data_format": {"s": "TkhXQw=="}, "strides": {"list": {"i": ["1", "1", "1", "1"]}}, "epsilon": {"f": 0.0}, "num_args": {"i": "1"}, "use_cudnn_on_gpu": {"b": true}, "padding": {"s": "U0FNRQ=="}, "T": {"type": "DT_FLOAT"}, "dilations": {"list": {"i": ["1", "1", "1", "1"]}}}}, {"name": "StatefulPartitionedCall/efficientnetv2-b2/blocks_10/Add", "op": "AddV2", "input": ["StatefulPartitionedCall/efficientnetv2-b2/blocks_10/tpu_batch_normalization_2/FusedBatchNormV3", "StatefulPartitionedCall/efficientnetv2-b2/blocks_9/Add"], "attr": {"T": {"type": "DT_FLOAT"}}}, {"name": "StatefulPartitionedCall/efficientnetv2-b2/blocks_11/tpu_batch_normalization/FusedBatchNormV3", "op": "_FusedConv2D", "input": ["StatefulPartitionedCall/efficientnetv2-b2/blocks_10/Add", "StatefulPartitionedCall/efficientnetv2-b2/blocks_11/conv2d/Conv2D_weights", "StatefulPartitionedCall/efficientnetv2-b2/blocks_11/conv2d/Conv2D_bn_offset"], "device": "/device:CPU:0", "attr": {"data_format": {"s": "TkhXQw=="}, "fused_ops": {"list": {"s": ["Qmlhc0FkZA=="]}}, "dilations": {"list": {"i": ["1", "1", "1", "1"]}}, "strides": {"list": {"i": ["1", "1", "1", "1"]}}, "num_args": {"i": "1"}, "use_cudnn_on_gpu": {"b": true}, "T": {"type": "DT_FLOAT"}, "explicit_paddings": {"list": {}}, "epsilon": {"f": 0.0}, "padding": {"s": "U0FNRQ=="}}}, {"name": "StatefulPartitionedCall/efficientnetv2-b2/blocks_11/Sigmoid", "op": "Sigmoid", "input": ["StatefulPartitionedCall/efficientnetv2-b2/blocks_11/tpu_batch_normalization/FusedBatchNormV3"], "attr": {"T": {"type": "DT_FLOAT"}}}, {"name": "StatefulPartitionedCall/efficientnetv2-b2/blocks_11/mul", "op": "Mul", "input": ["StatefulPartitionedCall/efficientnetv2-b2/blocks_11/tpu_batch_normalization/FusedBatchNormV3", "StatefulPartitionedCall/efficientnetv2-b2/blocks_11/Sigmoid"], "attr": {"T": {"type": "DT_FLOAT"}}}, {"name": "StatefulPartitionedCall/efficientnetv2-b2/blocks_11/depthwise_conv2d/depthwise", "op": "FusedDepthwiseConv2dNative", "input": ["StatefulPartitionedCall/efficientnetv2-b2/blocks_11/mul", "StatefulPartitionedCall/efficientnetv2-b2/blocks_11/depthwise_conv2d/depthwise_weights", "StatefulPartitionedCall/efficientnetv2-b2/blocks_11/depthwise_conv2d/depthwise_bn_offset"], "attr": {"explicit_paddings": {"list": {}}, "padding": {"s": "U0FNRQ=="}, "dilations": {"list": {"i": ["1", "1", "1", "1"]}}, "strides": {"list": {"i": ["1", "1", "1", "1"]}}, "fused_ops": {"list": {"s": ["Qmlhc0FkZA=="]}}, "T": {"type": "DT_FLOAT"}, "num_args": {"i": "1"}, "data_format": {"s": "TkhXQw=="}}}, {"name": "StatefulPartitionedCall/efficientnetv2-b2/blocks_11/Sigmoid_1", "op": "Sigmoid", "input": ["StatefulPartitionedCall/efficientnetv2-b2/blocks_11/depthwise_conv2d/depthwise"], "attr": {"T": {"type": "DT_FLOAT"}}}, {"name": "StatefulPartitionedCall/efficientnetv2-b2/blocks_11/mul_1", "op": "Mul", "input": ["StatefulPartitionedCall/efficientnetv2-b2/blocks_11/depthwise_conv2d/depthwise", "StatefulPartitionedCall/efficientnetv2-b2/blocks_11/Sigmoid_1"], "attr": {"T": {"type": "DT_FLOAT"}}}, {"name": "StatefulPartitionedCall/efficientnetv2-b2/blocks_11/se/Mean", "op": "Mean", "input": ["StatefulPartitionedCall/efficientnetv2-b2/blocks_11/mul_1", "StatefulPartitionedCall/efficientnetv2-b2/blocks_11/se/Mean/reduction_indices"], "attr": {"T": {"type": "DT_FLOAT"}, "Tidx": {"type": "DT_INT32"}, "keep_dims": {"b": true}}}, {"name": "StatefulPartitionedCall/efficientnetv2-b2/blocks_11/se/conv2d/BiasAdd", "op": "_FusedConv2D", "input": ["StatefulPartitionedCall/efficientnetv2-b2/blocks_11/se/Mean", "StatefulPartitionedCall/efficientnetv2-b2/blocks_11/se/conv2d/Conv2D/ReadVariableOp", "StatefulPartitionedCall/efficientnetv2-b2/blocks_11/se/conv2d/BiasAdd/ReadVariableOp"], "device": "/device:CPU:0", "attr": {"num_args": {"i": "1"}, "padding": {"s": "U0FNRQ=="}, "use_cudnn_on_gpu": {"b": true}, "data_format": {"s": "TkhXQw=="}, "T": {"type": "DT_FLOAT"}, "explicit_paddings": {"list": {}}, "dilations": {"list": {"i": ["1", "1", "1", "1"]}}, "fused_ops": {"list": {"s": ["Qmlhc0FkZA=="]}}, "strides": {"list": {"i": ["1", "1", "1", "1"]}}, "epsilon": {"f": 0.0}}}, {"name": "StatefulPartitionedCall/efficientnetv2-b2/blocks_11/se/Sigmoid", "op": "Sigmoid", "input": ["StatefulPartitionedCall/efficientnetv2-b2/blocks_11/se/conv2d/BiasAdd"], "attr": {"T": {"type": "DT_FLOAT"}}}, {"name": "StatefulPartitionedCall/efficientnetv2-b2/blocks_11/se/mul", "op": "Mul", "input": ["StatefulPartitionedCall/efficientnetv2-b2/blocks_11/se/conv2d/BiasAdd", "StatefulPartitionedCall/efficientnetv2-b2/blocks_11/se/Sigmoid"], "attr": {"T": {"type": "DT_FLOAT"}}}, {"name": "StatefulPartitionedCall/efficientnetv2-b2/blocks_11/se/conv2d_1/BiasAdd", "op": "_FusedConv2D", "input": ["StatefulPartitionedCall/efficientnetv2-b2/blocks_11/se/mul", "StatefulPartitionedCall/efficientnetv2-b2/blocks_11/se/conv2d_1/Conv2D/ReadVariableOp", "StatefulPartitionedCall/efficientnetv2-b2/blocks_11/se/conv2d_1/BiasAdd/ReadVariableOp"], "device": "/device:CPU:0", "attr": {"dilations": {"list": {"i": ["1", "1", "1", "1"]}}, "use_cudnn_on_gpu": {"b": true}, "num_args": {"i": "1"}, "fused_ops": {"list": {"s": ["Qmlhc0FkZA=="]}}, "strides": {"list": {"i": ["1", "1", "1", "1"]}}, "epsilon": {"f": 0.0}, "data_format": {"s": "TkhXQw=="}, "explicit_paddings": {"list": {}}, "padding": {"s": "U0FNRQ=="}, "T": {"type": "DT_FLOAT"}}}, {"name": "StatefulPartitionedCall/efficientnetv2-b2/blocks_11/se/Sigmoid_1", "op": "Sigmoid", "input": ["StatefulPartitionedCall/efficientnetv2-b2/blocks_11/se/conv2d_1/BiasAdd"], "attr": {"T": {"type": "DT_FLOAT"}}}, {"name": "StatefulPartitionedCall/efficientnetv2-b2/blocks_11/se/mul_1", "op": "Mul", "input": ["StatefulPartitionedCall/efficientnetv2-b2/blocks_11/se/Sigmoid_1", "StatefulPartitionedCall/efficientnetv2-b2/blocks_11/mul_1"], "attr": {"T": {"type": "DT_FLOAT"}}}, {"name": "StatefulPartitionedCall/efficientnetv2-b2/blocks_11/tpu_batch_normalization_2/FusedBatchNormV3", "op": "_FusedConv2D", "input": ["StatefulPartitionedCall/efficientnetv2-b2/blocks_11/se/mul_1", "StatefulPartitionedCall/efficientnetv2-b2/blocks_11/conv2d_1/Conv2D_weights", "StatefulPartitionedCall/efficientnetv2-b2/blocks_11/conv2d_1/Conv2D_bn_offset"], "device": "/device:CPU:0", "attr": {"num_args": {"i": "1"}, "dilations": {"list": {"i": ["1", "1", "1", "1"]}}, "T": {"type": "DT_FLOAT"}, "data_format": {"s": "TkhXQw=="}, "use_cudnn_on_gpu": {"b": true}, "explicit_paddings": {"list": {}}, "fused_ops": {"list": {"s": ["Qmlhc0FkZA=="]}}, "padding": {"s": "U0FNRQ=="}, "epsilon": {"f": 0.0}, "strides": {"list": {"i": ["1", "1", "1", "1"]}}}}, {"name": "StatefulPartitionedCall/efficientnetv2-b2/blocks_11/Add", "op": "AddV2", "input": ["StatefulPartitionedCall/efficientnetv2-b2/blocks_11/tpu_batch_normalization_2/FusedBatchNormV3", "StatefulPartitionedCall/efficientnetv2-b2/blocks_10/Add"], "attr": {"T": {"type": "DT_FLOAT"}}}, {"name": "StatefulPartitionedCall/efficientnetv2-b2/blocks_12/tpu_batch_normalization/FusedBatchNormV3", "op": "_FusedConv2D", "input": ["StatefulPartitionedCall/efficientnetv2-b2/blocks_11/Add", "StatefulPartitionedCall/efficientnetv2-b2/blocks_12/conv2d/Conv2D_weights", "StatefulPartitionedCall/efficientnetv2-b2/blocks_12/conv2d/Conv2D_bn_offset"], "device": "/device:CPU:0", "attr": {"T": {"type": "DT_FLOAT"}, "explicit_paddings": {"list": {}}, "padding": {"s": "U0FNRQ=="}, "fused_ops": {"list": {"s": ["Qmlhc0FkZA=="]}}, "use_cudnn_on_gpu": {"b": true}, "num_args": {"i": "1"}, "epsilon": {"f": 0.0}, "data_format": {"s": "TkhXQw=="}, "strides": {"list": {"i": ["1", "1", "1", "1"]}}, "dilations": {"list": {"i": ["1", "1", "1", "1"]}}}}, {"name": "StatefulPartitionedCall/efficientnetv2-b2/blocks_12/Sigmoid", "op": "Sigmoid", "input": ["StatefulPartitionedCall/efficientnetv2-b2/blocks_12/tpu_batch_normalization/FusedBatchNormV3"], "attr": {"T": {"type": "DT_FLOAT"}}}, {"name": "StatefulPartitionedCall/efficientnetv2-b2/blocks_12/mul", "op": "Mul", "input": ["StatefulPartitionedCall/efficientnetv2-b2/blocks_12/tpu_batch_normalization/FusedBatchNormV3", "StatefulPartitionedCall/efficientnetv2-b2/blocks_12/Sigmoid"], "attr": {"T": {"type": "DT_FLOAT"}}}, {"name": "StatefulPartitionedCall/efficientnetv2-b2/blocks_12/depthwise_conv2d/depthwise", "op": "FusedDepthwiseConv2dNative", "input": ["StatefulPartitionedCall/efficientnetv2-b2/blocks_12/mul", "StatefulPartitionedCall/efficientnetv2-b2/blocks_12/depthwise_conv2d/depthwise_weights", "StatefulPartitionedCall/efficientnetv2-b2/blocks_12/depthwise_conv2d/depthwise_bn_offset"], "attr": {"strides": {"list": {"i": ["1", "1", "1", "1"]}}, "num_args": {"i": "1"}, "data_format": {"s": "TkhXQw=="}, "explicit_paddings": {"list": {}}, "fused_ops": {"list": {"s": ["Qmlhc0FkZA=="]}}, "padding": {"s": "U0FNRQ=="}, "dilations": {"list": {"i": ["1", "1", "1", "1"]}}, "T": {"type": "DT_FLOAT"}}}, {"name": "StatefulPartitionedCall/efficientnetv2-b2/blocks_12/Sigmoid_1", "op": "Sigmoid", "input": ["StatefulPartitionedCall/efficientnetv2-b2/blocks_12/depthwise_conv2d/depthwise"], "attr": {"T": {"type": "DT_FLOAT"}}}, {"name": "StatefulPartitionedCall/efficientnetv2-b2/blocks_12/mul_1", "op": "Mul", "input": ["StatefulPartitionedCall/efficientnetv2-b2/blocks_12/depthwise_conv2d/depthwise", "StatefulPartitionedCall/efficientnetv2-b2/blocks_12/Sigmoid_1"], "attr": {"T": {"type": "DT_FLOAT"}}}, {"name": "StatefulPartitionedCall/efficientnetv2-b2/blocks_12/se/Mean", "op": "Mean", "input": ["StatefulPartitionedCall/efficientnetv2-b2/blocks_12/mul_1", "StatefulPartitionedCall/efficientnetv2-b2/blocks_12/se/Mean/reduction_indices"], "attr": {"T": {"type": "DT_FLOAT"}, "Tidx": {"type": "DT_INT32"}, "keep_dims": {"b": true}}}, {"name": "StatefulPartitionedCall/efficientnetv2-b2/blocks_12/se/conv2d/BiasAdd", "op": "_FusedConv2D", "input": ["StatefulPartitionedCall/efficientnetv2-b2/blocks_12/se/Mean", "StatefulPartitionedCall/efficientnetv2-b2/blocks_12/se/conv2d/Conv2D/ReadVariableOp", "StatefulPartitionedCall/efficientnetv2-b2/blocks_12/se/conv2d/BiasAdd/ReadVariableOp"], "device": "/device:CPU:0", "attr": {"padding": {"s": "U0FNRQ=="}, "strides": {"list": {"i": ["1", "1", "1", "1"]}}, "T": {"type": "DT_FLOAT"}, "use_cudnn_on_gpu": {"b": true}, "data_format": {"s": "TkhXQw=="}, "epsilon": {"f": 0.0}, "fused_ops": {"list": {"s": ["Qmlhc0FkZA=="]}}, "num_args": {"i": "1"}, "dilations": {"list": {"i": ["1", "1", "1", "1"]}}, "explicit_paddings": {"list": {}}}}, {"name": "StatefulPartitionedCall/efficientnetv2-b2/blocks_12/se/Sigmoid", "op": "Sigmoid", "input": ["StatefulPartitionedCall/efficientnetv2-b2/blocks_12/se/conv2d/BiasAdd"], "attr": {"T": {"type": "DT_FLOAT"}}}, {"name": "StatefulPartitionedCall/efficientnetv2-b2/blocks_12/se/mul", "op": "Mul", "input": ["StatefulPartitionedCall/efficientnetv2-b2/blocks_12/se/conv2d/BiasAdd", "StatefulPartitionedCall/efficientnetv2-b2/blocks_12/se/Sigmoid"], "attr": {"T": {"type": "DT_FLOAT"}}}, {"name": "StatefulPartitionedCall/efficientnetv2-b2/blocks_12/se/conv2d_1/BiasAdd", "op": "_FusedConv2D", "input": ["StatefulPartitionedCall/efficientnetv2-b2/blocks_12/se/mul", "StatefulPartitionedCall/efficientnetv2-b2/blocks_12/se/conv2d_1/Conv2D/ReadVariableOp", "StatefulPartitionedCall/efficientnetv2-b2/blocks_12/se/conv2d_1/BiasAdd/ReadVariableOp"], "device": "/device:CPU:0", "attr": {"num_args": {"i": "1"}, "explicit_paddings": {"list": {}}, "padding": {"s": "U0FNRQ=="}, "use_cudnn_on_gpu": {"b": true}, "strides": {"list": {"i": ["1", "1", "1", "1"]}}, "T": {"type": "DT_FLOAT"}, "dilations": {"list": {"i": ["1", "1", "1", "1"]}}, "fused_ops": {"list": {"s": ["Qmlhc0FkZA=="]}}, "epsilon": {"f": 0.0}, "data_format": {"s": "TkhXQw=="}}}, {"name": "StatefulPartitionedCall/efficientnetv2-b2/blocks_12/se/Sigmoid_1", "op": "Sigmoid", "input": ["StatefulPartitionedCall/efficientnetv2-b2/blocks_12/se/conv2d_1/BiasAdd"], "attr": {"T": {"type": "DT_FLOAT"}}}, {"name": "StatefulPartitionedCall/efficientnetv2-b2/blocks_12/se/mul_1", "op": "Mul", "input": ["StatefulPartitionedCall/efficientnetv2-b2/blocks_12/se/Sigmoid_1", "StatefulPartitionedCall/efficientnetv2-b2/blocks_12/mul_1"], "attr": {"T": {"type": "DT_FLOAT"}}}, {"name": "StatefulPartitionedCall/efficientnetv2-b2/blocks_12/tpu_batch_normalization_2/FusedBatchNormV3", "op": "_FusedConv2D", "input": ["StatefulPartitionedCall/efficientnetv2-b2/blocks_12/se/mul_1", "StatefulPartitionedCall/efficientnetv2-b2/blocks_12/conv2d_1/Conv2D_weights", "StatefulPartitionedCall/efficientnetv2-b2/blocks_12/conv2d_1/Conv2D_bn_offset"], "device": "/device:CPU:0", "attr": {"strides": {"list": {"i": ["1", "1", "1", "1"]}}, "num_args": {"i": "1"}, "explicit_paddings": {"list": {}}, "use_cudnn_on_gpu": {"b": true}, "dilations": {"list": {"i": ["1", "1", "1", "1"]}}, "epsilon": {"f": 0.0}, "data_format": {"s": "TkhXQw=="}, "padding": {"s": "U0FNRQ=="}, "T": {"type": "DT_FLOAT"}, "fused_ops": {"list": {"s": ["Qmlhc0FkZA=="]}}}}, {"name": "StatefulPartitionedCall/efficientnetv2-b2/blocks_13/tpu_batch_normalization/FusedBatchNormV3", "op": "_FusedConv2D", "input": ["StatefulPartitionedCall/efficientnetv2-b2/blocks_12/tpu_batch_normalization_2/FusedBatchNormV3", "StatefulPartitionedCall/efficientnetv2-b2/blocks_13/conv2d/Conv2D_weights", "StatefulPartitionedCall/efficientnetv2-b2/blocks_13/conv2d/Conv2D_bn_offset"], "device": "/device:CPU:0", "attr": {"strides": {"list": {"i": ["1", "1", "1", "1"]}}, "dilations": {"list": {"i": ["1", "1", "1", "1"]}}, "epsilon": {"f": 0.0}, "data_format": {"s": "TkhXQw=="}, "fused_ops": {"list": {"s": ["Qmlhc0FkZA=="]}}, "explicit_paddings": {"list": {}}, "use_cudnn_on_gpu": {"b": true}, "num_args": {"i": "1"}, "T": {"type": "DT_FLOAT"}, "padding": {"s": "U0FNRQ=="}}}, {"name": "StatefulPartitionedCall/efficientnetv2-b2/blocks_13/Sigmoid", "op": "Sigmoid", "input": ["StatefulPartitionedCall/efficientnetv2-b2/blocks_13/tpu_batch_normalization/FusedBatchNormV3"], "attr": {"T": {"type": "DT_FLOAT"}}}, {"name": "StatefulPartitionedCall/efficientnetv2-b2/blocks_13/mul", "op": "Mul", "input": ["StatefulPartitionedCall/efficientnetv2-b2/blocks_13/tpu_batch_normalization/FusedBatchNormV3", "StatefulPartitionedCall/efficientnetv2-b2/blocks_13/Sigmoid"], "attr": {"T": {"type": "DT_FLOAT"}}}, {"name": "StatefulPartitionedCall/efficientnetv2-b2/blocks_13/depthwise_conv2d/depthwise", "op": "FusedDepthwiseConv2dNative", "input": ["StatefulPartitionedCall/efficientnetv2-b2/blocks_13/mul", "StatefulPartitionedCall/efficientnetv2-b2/blocks_13/depthwise_conv2d/depthwise_weights", "StatefulPartitionedCall/efficientnetv2-b2/blocks_13/depthwise_conv2d/depthwise_bn_offset"], "attr": {"fused_ops": {"list": {"s": ["Qmlhc0FkZA=="]}}, "strides": {"list": {"i": ["1", "1", "1", "1"]}}, "padding": {"s": "U0FNRQ=="}, "dilations": {"list": {"i": ["1", "1", "1", "1"]}}, "num_args": {"i": "1"}, "explicit_paddings": {"list": {}}, "data_format": {"s": "TkhXQw=="}, "T": {"type": "DT_FLOAT"}}}, {"name": "StatefulPartitionedCall/efficientnetv2-b2/blocks_13/Sigmoid_1", "op": "Sigmoid", "input": ["StatefulPartitionedCall/efficientnetv2-b2/blocks_13/depthwise_conv2d/depthwise"], "attr": {"T": {"type": "DT_FLOAT"}}}, {"name": "StatefulPartitionedCall/efficientnetv2-b2/blocks_13/mul_1", "op": "Mul", "input": ["StatefulPartitionedCall/efficientnetv2-b2/blocks_13/depthwise_conv2d/depthwise", "StatefulPartitionedCall/efficientnetv2-b2/blocks_13/Sigmoid_1"], "attr": {"T": {"type": "DT_FLOAT"}}}, {"name": "StatefulPartitionedCall/efficientnetv2-b2/blocks_13/se/Mean", "op": "Mean", "input": ["StatefulPartitionedCall/efficientnetv2-b2/blocks_13/mul_1", "StatefulPartitionedCall/efficientnetv2-b2/blocks_13/se/Mean/reduction_indices"], "attr": {"Tidx": {"type": "DT_INT32"}, "keep_dims": {"b": true}, "T": {"type": "DT_FLOAT"}}}, {"name": "StatefulPartitionedCall/efficientnetv2-b2/blocks_13/se/conv2d/BiasAdd", "op": "_FusedConv2D", "input": ["StatefulPartitionedCall/efficientnetv2-b2/blocks_13/se/Mean", "StatefulPartitionedCall/efficientnetv2-b2/blocks_13/se/conv2d/Conv2D/ReadVariableOp", "StatefulPartitionedCall/efficientnetv2-b2/blocks_13/se/conv2d/BiasAdd/ReadVariableOp"], "device": "/device:CPU:0", "attr": {"use_cudnn_on_gpu": {"b": true}, "fused_ops": {"list": {"s": ["Qmlhc0FkZA=="]}}, "padding": {"s": "U0FNRQ=="}, "explicit_paddings": {"list": {}}, "T": {"type": "DT_FLOAT"}, "num_args": {"i": "1"}, "strides": {"list": {"i": ["1", "1", "1", "1"]}}, "epsilon": {"f": 0.0}, "data_format": {"s": "TkhXQw=="}, "dilations": {"list": {"i": ["1", "1", "1", "1"]}}}}, {"name": "StatefulPartitionedCall/efficientnetv2-b2/blocks_13/se/Sigmoid", "op": "Sigmoid", "input": ["StatefulPartitionedCall/efficientnetv2-b2/blocks_13/se/conv2d/BiasAdd"], "attr": {"T": {"type": "DT_FLOAT"}}}, {"name": "StatefulPartitionedCall/efficientnetv2-b2/blocks_13/se/mul", "op": "Mul", "input": ["StatefulPartitionedCall/efficientnetv2-b2/blocks_13/se/conv2d/BiasAdd", "StatefulPartitionedCall/efficientnetv2-b2/blocks_13/se/Sigmoid"], "attr": {"T": {"type": "DT_FLOAT"}}}, {"name": "StatefulPartitionedCall/efficientnetv2-b2/blocks_13/se/conv2d_1/BiasAdd", "op": "_FusedConv2D", "input": ["StatefulPartitionedCall/efficientnetv2-b2/blocks_13/se/mul", "StatefulPartitionedCall/efficientnetv2-b2/blocks_13/se/conv2d_1/Conv2D/ReadVariableOp", "StatefulPartitionedCall/efficientnetv2-b2/blocks_13/se/conv2d_1/BiasAdd/ReadVariableOp"], "device": "/device:CPU:0", "attr": {"epsilon": {"f": 0.0}, "strides": {"list": {"i": ["1", "1", "1", "1"]}}, "use_cudnn_on_gpu": {"b": true}, "num_args": {"i": "1"}, "explicit_paddings": {"list": {}}, "T": {"type": "DT_FLOAT"}, "padding": {"s": "U0FNRQ=="}, "fused_ops": {"list": {"s": ["Qmlhc0FkZA=="]}}, "dilations": {"list": {"i": ["1", "1", "1", "1"]}}, "data_format": {"s": "TkhXQw=="}}}, {"name": "StatefulPartitionedCall/efficientnetv2-b2/blocks_13/se/Sigmoid_1", "op": "Sigmoid", "input": ["StatefulPartitionedCall/efficientnetv2-b2/blocks_13/se/conv2d_1/BiasAdd"], "attr": {"T": {"type": "DT_FLOAT"}}}, {"name": "StatefulPartitionedCall/efficientnetv2-b2/blocks_13/se/mul_1", "op": "Mul", "input": ["StatefulPartitionedCall/efficientnetv2-b2/blocks_13/se/Sigmoid_1", "StatefulPartitionedCall/efficientnetv2-b2/blocks_13/mul_1"], "attr": {"T": {"type": "DT_FLOAT"}}}, {"name": "StatefulPartitionedCall/efficientnetv2-b2/blocks_13/tpu_batch_normalization_2/FusedBatchNormV3", "op": "_FusedConv2D", "input": ["StatefulPartitionedCall/efficientnetv2-b2/blocks_13/se/mul_1", "StatefulPartitionedCall/efficientnetv2-b2/blocks_13/conv2d_1/Conv2D_weights", "StatefulPartitionedCall/efficientnetv2-b2/blocks_13/conv2d_1/Conv2D_bn_offset"], "device": "/device:CPU:0", "attr": {"explicit_paddings": {"list": {}}, "epsilon": {"f": 0.0}, "fused_ops": {"list": {"s": ["Qmlhc0FkZA=="]}}, "strides": {"list": {"i": ["1", "1", "1", "1"]}}, "padding": {"s": "U0FNRQ=="}, "T": {"type": "DT_FLOAT"}, "dilations": {"list": {"i": ["1", "1", "1", "1"]}}, "data_format": {"s": "TkhXQw=="}, "num_args": {"i": "1"}, "use_cudnn_on_gpu": {"b": true}}}, {"name": "StatefulPartitionedCall/efficientnetv2-b2/blocks_13/Add", "op": "AddV2", "input": ["StatefulPartitionedCall/efficientnetv2-b2/blocks_13/tpu_batch_normalization_2/FusedBatchNormV3", "StatefulPartitionedCall/efficientnetv2-b2/blocks_12/tpu_batch_normalization_2/FusedBatchNormV3"], "attr": {"T": {"type": "DT_FLOAT"}}}, {"name": "StatefulPartitionedCall/efficientnetv2-b2/blocks_14/tpu_batch_normalization/FusedBatchNormV3", "op": "_FusedConv2D", "input": ["StatefulPartitionedCall/efficientnetv2-b2/blocks_13/Add", "StatefulPartitionedCall/efficientnetv2-b2/blocks_14/conv2d/Conv2D_weights", "StatefulPartitionedCall/efficientnetv2-b2/blocks_14/conv2d/Conv2D_bn_offset"], "device": "/device:CPU:0", "attr": {"explicit_paddings": {"list": {}}, "padding": {"s": "U0FNRQ=="}, "data_format": {"s": "TkhXQw=="}, "T": {"type": "DT_FLOAT"}, "epsilon": {"f": 0.0}, "strides": {"list": {"i": ["1", "1", "1", "1"]}}, "dilations": {"list": {"i": ["1", "1", "1", "1"]}}, "use_cudnn_on_gpu": {"b": true}, "num_args": {"i": "1"}, "fused_ops": {"list": {"s": ["Qmlhc0FkZA=="]}}}}, {"name": "StatefulPartitionedCall/efficientnetv2-b2/blocks_14/Sigmoid", "op": "Sigmoid", "input": ["StatefulPartitionedCall/efficientnetv2-b2/blocks_14/tpu_batch_normalization/FusedBatchNormV3"], "attr": {"T": {"type": "DT_FLOAT"}}}, {"name": "StatefulPartitionedCall/efficientnetv2-b2/blocks_14/mul", "op": "Mul", "input": ["StatefulPartitionedCall/efficientnetv2-b2/blocks_14/tpu_batch_normalization/FusedBatchNormV3", "StatefulPartitionedCall/efficientnetv2-b2/blocks_14/Sigmoid"], "attr": {"T": {"type": "DT_FLOAT"}}}, {"name": "StatefulPartitionedCall/efficientnetv2-b2/blocks_14/depthwise_conv2d/depthwise", "op": "FusedDepthwiseConv2dNative", "input": ["StatefulPartitionedCall/efficientnetv2-b2/blocks_14/mul", "StatefulPartitionedCall/efficientnetv2-b2/blocks_14/depthwise_conv2d/depthwise_weights", "StatefulPartitionedCall/efficientnetv2-b2/blocks_14/depthwise_conv2d/depthwise_bn_offset"], "attr": {"T": {"type": "DT_FLOAT"}, "fused_ops": {"list": {"s": ["Qmlhc0FkZA=="]}}, "explicit_paddings": {"list": {}}, "dilations": {"list": {"i": ["1", "1", "1", "1"]}}, "data_format": {"s": "TkhXQw=="}, "padding": {"s": "U0FNRQ=="}, "num_args": {"i": "1"}, "strides": {"list": {"i": ["1", "1", "1", "1"]}}}}, {"name": "StatefulPartitionedCall/efficientnetv2-b2/blocks_14/Sigmoid_1", "op": "Sigmoid", "input": ["StatefulPartitionedCall/efficientnetv2-b2/blocks_14/depthwise_conv2d/depthwise"], "attr": {"T": {"type": "DT_FLOAT"}}}, {"name": "StatefulPartitionedCall/efficientnetv2-b2/blocks_14/mul_1", "op": "Mul", "input": ["StatefulPartitionedCall/efficientnetv2-b2/blocks_14/depthwise_conv2d/depthwise", "StatefulPartitionedCall/efficientnetv2-b2/blocks_14/Sigmoid_1"], "attr": {"T": {"type": "DT_FLOAT"}}}, {"name": "StatefulPartitionedCall/efficientnetv2-b2/blocks_14/se/Mean", "op": "Mean", "input": ["StatefulPartitionedCall/efficientnetv2-b2/blocks_14/mul_1", "StatefulPartitionedCall/efficientnetv2-b2/blocks_14/se/Mean/reduction_indices"], "attr": {"keep_dims": {"b": true}, "T": {"type": "DT_FLOAT"}, "Tidx": {"type": "DT_INT32"}}}, {"name": "StatefulPartitionedCall/efficientnetv2-b2/blocks_14/se/conv2d/BiasAdd", "op": "_FusedConv2D", "input": ["StatefulPartitionedCall/efficientnetv2-b2/blocks_14/se/Mean", "StatefulPartitionedCall/efficientnetv2-b2/blocks_14/se/conv2d/Conv2D/ReadVariableOp", "StatefulPartitionedCall/efficientnetv2-b2/blocks_14/se/conv2d/BiasAdd/ReadVariableOp"], "device": "/device:CPU:0", "attr": {"padding": {"s": "U0FNRQ=="}, "num_args": {"i": "1"}, "T": {"type": "DT_FLOAT"}, "explicit_paddings": {"list": {}}, "data_format": {"s": "TkhXQw=="}, "use_cudnn_on_gpu": {"b": true}, "strides": {"list": {"i": ["1", "1", "1", "1"]}}, "epsilon": {"f": 0.0}, "fused_ops": {"list": {"s": ["Qmlhc0FkZA=="]}}, "dilations": {"list": {"i": ["1", "1", "1", "1"]}}}}, {"name": "StatefulPartitionedCall/efficientnetv2-b2/blocks_14/se/Sigmoid", "op": "Sigmoid", "input": ["StatefulPartitionedCall/efficientnetv2-b2/blocks_14/se/conv2d/BiasAdd"], "attr": {"T": {"type": "DT_FLOAT"}}}, {"name": "StatefulPartitionedCall/efficientnetv2-b2/blocks_14/se/mul", "op": "Mul", "input": ["StatefulPartitionedCall/efficientnetv2-b2/blocks_14/se/conv2d/BiasAdd", "StatefulPartitionedCall/efficientnetv2-b2/blocks_14/se/Sigmoid"], "attr": {"T": {"type": "DT_FLOAT"}}}, {"name": "StatefulPartitionedCall/efficientnetv2-b2/blocks_14/se/conv2d_1/BiasAdd", "op": "_FusedConv2D", "input": ["StatefulPartitionedCall/efficientnetv2-b2/blocks_14/se/mul", "StatefulPartitionedCall/efficientnetv2-b2/blocks_14/se/conv2d_1/Conv2D/ReadVariableOp", "StatefulPartitionedCall/efficientnetv2-b2/blocks_14/se/conv2d_1/BiasAdd/ReadVariableOp"], "device": "/device:CPU:0", "attr": {"use_cudnn_on_gpu": {"b": true}, "epsilon": {"f": 0.0}, "strides": {"list": {"i": ["1", "1", "1", "1"]}}, "data_format": {"s": "TkhXQw=="}, "padding": {"s": "U0FNRQ=="}, "fused_ops": {"list": {"s": ["Qmlhc0FkZA=="]}}, "num_args": {"i": "1"}, "dilations": {"list": {"i": ["1", "1", "1", "1"]}}, "explicit_paddings": {"list": {}}, "T": {"type": "DT_FLOAT"}}}, {"name": "StatefulPartitionedCall/efficientnetv2-b2/blocks_14/se/Sigmoid_1", "op": "Sigmoid", "input": ["StatefulPartitionedCall/efficientnetv2-b2/blocks_14/se/conv2d_1/BiasAdd"], "attr": {"T": {"type": "DT_FLOAT"}}}, {"name": "StatefulPartitionedCall/efficientnetv2-b2/blocks_14/se/mul_1", "op": "Mul", "input": ["StatefulPartitionedCall/efficientnetv2-b2/blocks_14/se/Sigmoid_1", "StatefulPartitionedCall/efficientnetv2-b2/blocks_14/mul_1"], "attr": {"T": {"type": "DT_FLOAT"}}}, {"name": "StatefulPartitionedCall/efficientnetv2-b2/blocks_14/tpu_batch_normalization_2/FusedBatchNormV3", "op": "_FusedConv2D", "input": ["StatefulPartitionedCall/efficientnetv2-b2/blocks_14/se/mul_1", "StatefulPartitionedCall/efficientnetv2-b2/blocks_14/conv2d_1/Conv2D_weights", "StatefulPartitionedCall/efficientnetv2-b2/blocks_14/conv2d_1/Conv2D_bn_offset"], "device": "/device:CPU:0", "attr": {"data_format": {"s": "TkhXQw=="}, "strides": {"list": {"i": ["1", "1", "1", "1"]}}, "explicit_paddings": {"list": {}}, "num_args": {"i": "1"}, "fused_ops": {"list": {"s": ["Qmlhc0FkZA=="]}}, "epsilon": {"f": 0.0}, "padding": {"s": "U0FNRQ=="}, "T": {"type": "DT_FLOAT"}, "dilations": {"list": {"i": ["1", "1", "1", "1"]}}, "use_cudnn_on_gpu": {"b": true}}}, {"name": "StatefulPartitionedCall/efficientnetv2-b2/blocks_14/Add", "op": "AddV2", "input": ["StatefulPartitionedCall/efficientnetv2-b2/blocks_14/tpu_batch_normalization_2/FusedBatchNormV3", "StatefulPartitionedCall/efficientnetv2-b2/blocks_13/Add"], "attr": {"T": {"type": "DT_FLOAT"}}}, {"name": "StatefulPartitionedCall/efficientnetv2-b2/blocks_15/tpu_batch_normalization/FusedBatchNormV3", "op": "_FusedConv2D", "input": ["StatefulPartitionedCall/efficientnetv2-b2/blocks_14/Add", "StatefulPartitionedCall/efficientnetv2-b2/blocks_15/conv2d/Conv2D_weights", "StatefulPartitionedCall/efficientnetv2-b2/blocks_15/conv2d/Conv2D_bn_offset"], "device": "/device:CPU:0", "attr": {"dilations": {"list": {"i": ["1", "1", "1", "1"]}}, "explicit_paddings": {"list": {}}, "T": {"type": "DT_FLOAT"}, "epsilon": {"f": 0.0}, "padding": {"s": "U0FNRQ=="}, "strides": {"list": {"i": ["1", "1", "1", "1"]}}, "num_args": {"i": "1"}, "use_cudnn_on_gpu": {"b": true}, "fused_ops": {"list": {"s": ["Qmlhc0FkZA=="]}}, "data_format": {"s": "TkhXQw=="}}}, {"name": "StatefulPartitionedCall/efficientnetv2-b2/blocks_15/Sigmoid", "op": "Sigmoid", "input": ["StatefulPartitionedCall/efficientnetv2-b2/blocks_15/tpu_batch_normalization/FusedBatchNormV3"], "attr": {"T": {"type": "DT_FLOAT"}}}, {"name": "StatefulPartitionedCall/efficientnetv2-b2/blocks_15/mul", "op": "Mul", "input": ["StatefulPartitionedCall/efficientnetv2-b2/blocks_15/tpu_batch_normalization/FusedBatchNormV3", "StatefulPartitionedCall/efficientnetv2-b2/blocks_15/Sigmoid"], "attr": {"T": {"type": "DT_FLOAT"}}}, {"name": "StatefulPartitionedCall/efficientnetv2-b2/blocks_15/depthwise_conv2d/depthwise", "op": "FusedDepthwiseConv2dNative", "input": ["StatefulPartitionedCall/efficientnetv2-b2/blocks_15/mul", "StatefulPartitionedCall/efficientnetv2-b2/blocks_15/depthwise_conv2d/depthwise_weights", "StatefulPartitionedCall/efficientnetv2-b2/blocks_15/depthwise_conv2d/depthwise_bn_offset"], "attr": {"data_format": {"s": "TkhXQw=="}, "T": {"type": "DT_FLOAT"}, "fused_ops": {"list": {"s": ["Qmlhc0FkZA=="]}}, "dilations": {"list": {"i": ["1", "1", "1", "1"]}}, "padding": {"s": "U0FNRQ=="}, "explicit_paddings": {"list": {}}, "num_args": {"i": "1"}, "strides": {"list": {"i": ["1", "1", "1", "1"]}}}}, {"name": "StatefulPartitionedCall/efficientnetv2-b2/blocks_15/Sigmoid_1", "op": "Sigmoid", "input": ["StatefulPartitionedCall/efficientnetv2-b2/blocks_15/depthwise_conv2d/depthwise"], "attr": {"T": {"type": "DT_FLOAT"}}}, {"name": "StatefulPartitionedCall/efficientnetv2-b2/blocks_15/mul_1", "op": "Mul", "input": ["StatefulPartitionedCall/efficientnetv2-b2/blocks_15/depthwise_conv2d/depthwise", "StatefulPartitionedCall/efficientnetv2-b2/blocks_15/Sigmoid_1"], "attr": {"T": {"type": "DT_FLOAT"}}}, {"name": "StatefulPartitionedCall/efficientnetv2-b2/blocks_15/se/Mean", "op": "Mean", "input": ["StatefulPartitionedCall/efficientnetv2-b2/blocks_15/mul_1", "StatefulPartitionedCall/efficientnetv2-b2/blocks_15/se/Mean/reduction_indices"], "attr": {"Tidx": {"type": "DT_INT32"}, "keep_dims": {"b": true}, "T": {"type": "DT_FLOAT"}}}, {"name": "StatefulPartitionedCall/efficientnetv2-b2/blocks_15/se/conv2d/BiasAdd", "op": "_FusedConv2D", "input": ["StatefulPartitionedCall/efficientnetv2-b2/blocks_15/se/Mean", "StatefulPartitionedCall/efficientnetv2-b2/blocks_15/se/conv2d/Conv2D/ReadVariableOp", "StatefulPartitionedCall/efficientnetv2-b2/blocks_15/se/conv2d/BiasAdd/ReadVariableOp"], "device": "/device:CPU:0", "attr": {"epsilon": {"f": 0.0}, "use_cudnn_on_gpu": {"b": true}, "T": {"type": "DT_FLOAT"}, "dilations": {"list": {"i": ["1", "1", "1", "1"]}}, "data_format": {"s": "TkhXQw=="}, "explicit_paddings": {"list": {}}, "fused_ops": {"list": {"s": ["Qmlhc0FkZA=="]}}, "padding": {"s": "U0FNRQ=="}, "num_args": {"i": "1"}, "strides": {"list": {"i": ["1", "1", "1", "1"]}}}}, {"name": "StatefulPartitionedCall/efficientnetv2-b2/blocks_15/se/Sigmoid", "op": "Sigmoid", "input": ["StatefulPartitionedCall/efficientnetv2-b2/blocks_15/se/conv2d/BiasAdd"], "attr": {"T": {"type": "DT_FLOAT"}}}, {"name": "StatefulPartitionedCall/efficientnetv2-b2/blocks_15/se/mul", "op": "Mul", "input": ["StatefulPartitionedCall/efficientnetv2-b2/blocks_15/se/conv2d/BiasAdd", "StatefulPartitionedCall/efficientnetv2-b2/blocks_15/se/Sigmoid"], "attr": {"T": {"type": "DT_FLOAT"}}}, {"name": "StatefulPartitionedCall/efficientnetv2-b2/blocks_15/se/conv2d_1/BiasAdd", "op": "_FusedConv2D", "input": ["StatefulPartitionedCall/efficientnetv2-b2/blocks_15/se/mul", "StatefulPartitionedCall/efficientnetv2-b2/blocks_15/se/conv2d_1/Conv2D/ReadVariableOp", "StatefulPartitionedCall/efficientnetv2-b2/blocks_15/se/conv2d_1/BiasAdd/ReadVariableOp"], "device": "/device:CPU:0", "attr": {"explicit_paddings": {"list": {}}, "epsilon": {"f": 0.0}, "data_format": {"s": "TkhXQw=="}, "dilations": {"list": {"i": ["1", "1", "1", "1"]}}, "strides": {"list": {"i": ["1", "1", "1", "1"]}}, "fused_ops": {"list": {"s": ["Qmlhc0FkZA=="]}}, "T": {"type": "DT_FLOAT"}, "padding": {"s": "U0FNRQ=="}, "num_args": {"i": "1"}, "use_cudnn_on_gpu": {"b": true}}}, {"name": "StatefulPartitionedCall/efficientnetv2-b2/blocks_15/se/Sigmoid_1", "op": "Sigmoid", "input": ["StatefulPartitionedCall/efficientnetv2-b2/blocks_15/se/conv2d_1/BiasAdd"], "attr": {"T": {"type": "DT_FLOAT"}}}, {"name": "StatefulPartitionedCall/efficientnetv2-b2/blocks_15/se/mul_1", "op": "Mul", "input": ["StatefulPartitionedCall/efficientnetv2-b2/blocks_15/se/Sigmoid_1", "StatefulPartitionedCall/efficientnetv2-b2/blocks_15/mul_1"], "attr": {"T": {"type": "DT_FLOAT"}}}, {"name": "StatefulPartitionedCall/efficientnetv2-b2/blocks_15/tpu_batch_normalization_2/FusedBatchNormV3", "op": "_FusedConv2D", "input": ["StatefulPartitionedCall/efficientnetv2-b2/blocks_15/se/mul_1", "StatefulPartitionedCall/efficientnetv2-b2/blocks_15/conv2d_1/Conv2D_weights", "StatefulPartitionedCall/efficientnetv2-b2/blocks_15/conv2d_1/Conv2D_bn_offset"], "device": "/device:CPU:0", "attr": {"epsilon": {"f": 0.0}, "T": {"type": "DT_FLOAT"}, "strides": {"list": {"i": ["1", "1", "1", "1"]}}, "use_cudnn_on_gpu": {"b": true}, "explicit_paddings": {"list": {}}, "padding": {"s": "U0FNRQ=="}, "dilations": {"list": {"i": ["1", "1", "1", "1"]}}, "fused_ops": {"list": {"s": ["Qmlhc0FkZA=="]}}, "data_format": {"s": "TkhXQw=="}, "num_args": {"i": "1"}}}, {"name": "StatefulPartitionedCall/efficientnetv2-b2/blocks_15/Add", "op": "AddV2", "input": ["StatefulPartitionedCall/efficientnetv2-b2/blocks_15/tpu_batch_normalization_2/FusedBatchNormV3", "StatefulPartitionedCall/efficientnetv2-b2/blocks_14/Add"], "attr": {"T": {"type": "DT_FLOAT"}}}, {"name": "StatefulPartitionedCall/efficientnetv2-b2/blocks_16/tpu_batch_normalization/FusedBatchNormV3", "op": "_FusedConv2D", "input": ["StatefulPartitionedCall/efficientnetv2-b2/blocks_15/Add", "StatefulPartitionedCall/efficientnetv2-b2/blocks_16/conv2d/Conv2D_weights", "StatefulPartitionedCall/efficientnetv2-b2/blocks_16/conv2d/Conv2D_bn_offset"], "device": "/device:CPU:0", "attr": {"T": {"type": "DT_FLOAT"}, "data_format": {"s": "TkhXQw=="}, "num_args": {"i": "1"}, "dilations": {"list": {"i": ["1", "1", "1", "1"]}}, "explicit_paddings": {"list": {}}, "strides": {"list": {"i": ["1", "1", "1", "1"]}}, "padding": {"s": "U0FNRQ=="}, "epsilon": {"f": 0.0}, "use_cudnn_on_gpu": {"b": true}, "fused_ops": {"list": {"s": ["Qmlhc0FkZA=="]}}}}, {"name": "StatefulPartitionedCall/efficientnetv2-b2/blocks_16/Sigmoid", "op": "Sigmoid", "input": ["StatefulPartitionedCall/efficientnetv2-b2/blocks_16/tpu_batch_normalization/FusedBatchNormV3"], "attr": {"T": {"type": "DT_FLOAT"}}}, {"name": "StatefulPartitionedCall/efficientnetv2-b2/blocks_16/mul", "op": "Mul", "input": ["StatefulPartitionedCall/efficientnetv2-b2/blocks_16/tpu_batch_normalization/FusedBatchNormV3", "StatefulPartitionedCall/efficientnetv2-b2/blocks_16/Sigmoid"], "attr": {"T": {"type": "DT_FLOAT"}}}, {"name": "StatefulPartitionedCall/efficientnetv2-b2/blocks_16/depthwise_conv2d/depthwise", "op": "FusedDepthwiseConv2dNative", "input": ["StatefulPartitionedCall/efficientnetv2-b2/blocks_16/mul", "StatefulPartitionedCall/efficientnetv2-b2/blocks_16/depthwise_conv2d/depthwise_weights", "StatefulPartitionedCall/efficientnetv2-b2/blocks_16/depthwise_conv2d/depthwise_bn_offset"], "attr": {"strides": {"list": {"i": ["1", "1", "1", "1"]}}, "dilations": {"list": {"i": ["1", "1", "1", "1"]}}, "fused_ops": {"list": {"s": ["Qmlhc0FkZA=="]}}, "explicit_paddings": {"list": {}}, "padding": {"s": "U0FNRQ=="}, "T": {"type": "DT_FLOAT"}, "num_args": {"i": "1"}, "data_format": {"s": "TkhXQw=="}}}, {"name": "StatefulPartitionedCall/efficientnetv2-b2/blocks_16/Sigmoid_1", "op": "Sigmoid", "input": ["StatefulPartitionedCall/efficientnetv2-b2/blocks_16/depthwise_conv2d/depthwise"], "attr": {"T": {"type": "DT_FLOAT"}}}, {"name": "StatefulPartitionedCall/efficientnetv2-b2/blocks_16/mul_1", "op": "Mul", "input": ["StatefulPartitionedCall/efficientnetv2-b2/blocks_16/depthwise_conv2d/depthwise", "StatefulPartitionedCall/efficientnetv2-b2/blocks_16/Sigmoid_1"], "attr": {"T": {"type": "DT_FLOAT"}}}, {"name": "StatefulPartitionedCall/efficientnetv2-b2/blocks_16/se/Mean", "op": "Mean", "input": ["StatefulPartitionedCall/efficientnetv2-b2/blocks_16/mul_1", "StatefulPartitionedCall/efficientnetv2-b2/blocks_16/se/Mean/reduction_indices"], "attr": {"Tidx": {"type": "DT_INT32"}, "keep_dims": {"b": true}, "T": {"type": "DT_FLOAT"}}}, {"name": "StatefulPartitionedCall/efficientnetv2-b2/blocks_16/se/conv2d/BiasAdd", "op": "_FusedConv2D", "input": ["StatefulPartitionedCall/efficientnetv2-b2/blocks_16/se/Mean", "StatefulPartitionedCall/efficientnetv2-b2/blocks_16/se/conv2d/Conv2D/ReadVariableOp", "StatefulPartitionedCall/efficientnetv2-b2/blocks_16/se/conv2d/BiasAdd/ReadVariableOp"], "device": "/device:CPU:0", "attr": {"explicit_paddings": {"list": {}}, "data_format": {"s": "TkhXQw=="}, "fused_ops": {"list": {"s": ["Qmlhc0FkZA=="]}}, "use_cudnn_on_gpu": {"b": true}, "padding": {"s": "U0FNRQ=="}, "strides": {"list": {"i": ["1", "1", "1", "1"]}}, "epsilon": {"f": 0.0}, "num_args": {"i": "1"}, "T": {"type": "DT_FLOAT"}, "dilations": {"list": {"i": ["1", "1", "1", "1"]}}}}, {"name": "StatefulPartitionedCall/efficientnetv2-b2/blocks_16/se/Sigmoid", "op": "Sigmoid", "input": ["StatefulPartitionedCall/efficientnetv2-b2/blocks_16/se/conv2d/BiasAdd"], "attr": {"T": {"type": "DT_FLOAT"}}}, {"name": "StatefulPartitionedCall/efficientnetv2-b2/blocks_16/se/mul", "op": "Mul", "input": ["StatefulPartitionedCall/efficientnetv2-b2/blocks_16/se/conv2d/BiasAdd", "StatefulPartitionedCall/efficientnetv2-b2/blocks_16/se/Sigmoid"], "attr": {"T": {"type": "DT_FLOAT"}}}, {"name": "StatefulPartitionedCall/efficientnetv2-b2/blocks_16/se/conv2d_1/BiasAdd", "op": "_FusedConv2D", "input": ["StatefulPartitionedCall/efficientnetv2-b2/blocks_16/se/mul", "StatefulPartitionedCall/efficientnetv2-b2/blocks_16/se/conv2d_1/Conv2D/ReadVariableOp", "StatefulPartitionedCall/efficientnetv2-b2/blocks_16/se/conv2d_1/BiasAdd/ReadVariableOp"], "device": "/device:CPU:0", "attr": {"T": {"type": "DT_FLOAT"}, "data_format": {"s": "TkhXQw=="}, "use_cudnn_on_gpu": {"b": true}, "strides": {"list": {"i": ["1", "1", "1", "1"]}}, "explicit_paddings": {"list": {}}, "padding": {"s": "U0FNRQ=="}, "fused_ops": {"list": {"s": ["Qmlhc0FkZA=="]}}, "num_args": {"i": "1"}, "dilations": {"list": {"i": ["1", "1", "1", "1"]}}, "epsilon": {"f": 0.0}}}, {"name": "StatefulPartitionedCall/efficientnetv2-b2/blocks_16/se/Sigmoid_1", "op": "Sigmoid", "input": ["StatefulPartitionedCall/efficientnetv2-b2/blocks_16/se/conv2d_1/BiasAdd"], "attr": {"T": {"type": "DT_FLOAT"}}}, {"name": "StatefulPartitionedCall/efficientnetv2-b2/blocks_16/se/mul_1", "op": "Mul", "input": ["StatefulPartitionedCall/efficientnetv2-b2/blocks_16/se/Sigmoid_1", "StatefulPartitionedCall/efficientnetv2-b2/blocks_16/mul_1"], "attr": {"T": {"type": "DT_FLOAT"}}}, {"name": "StatefulPartitionedCall/efficientnetv2-b2/blocks_16/tpu_batch_normalization_2/FusedBatchNormV3", "op": "_FusedConv2D", "input": ["StatefulPartitionedCall/efficientnetv2-b2/blocks_16/se/mul_1", "StatefulPartitionedCall/efficientnetv2-b2/blocks_16/conv2d_1/Conv2D_weights", "StatefulPartitionedCall/efficientnetv2-b2/blocks_16/conv2d_1/Conv2D_bn_offset"], "device": "/device:CPU:0", "attr": {"num_args": {"i": "1"}, "fused_ops": {"list": {"s": ["Qmlhc0FkZA=="]}}, "use_cudnn_on_gpu": {"b": true}, "strides": {"list": {"i": ["1", "1", "1", "1"]}}, "epsilon": {"f": 0.0}, "padding": {"s": "U0FNRQ=="}, "dilations": {"list": {"i": ["1", "1", "1", "1"]}}, "data_format": {"s": "TkhXQw=="}, "explicit_paddings": {"list": {}}, "T": {"type": "DT_FLOAT"}}}, {"name": "StatefulPartitionedCall/efficientnetv2-b2/blocks_16/Add", "op": "AddV2", "input": ["StatefulPartitionedCall/efficientnetv2-b2/blocks_16/tpu_batch_normalization_2/FusedBatchNormV3", "StatefulPartitionedCall/efficientnetv2-b2/blocks_15/Add"], "attr": {"T": {"type": "DT_FLOAT"}}}, {"name": "StatefulPartitionedCall/efficientnetv2-b2/blocks_17/tpu_batch_normalization/FusedBatchNormV3", "op": "_FusedConv2D", "input": ["StatefulPartitionedCall/efficientnetv2-b2/blocks_16/Add", "StatefulPartitionedCall/efficientnetv2-b2/blocks_17/conv2d/Conv2D_weights", "StatefulPartitionedCall/efficientnetv2-b2/blocks_17/conv2d/Conv2D_bn_offset"], "device": "/device:CPU:0", "attr": {"num_args": {"i": "1"}, "T": {"type": "DT_FLOAT"}, "use_cudnn_on_gpu": {"b": true}, "strides": {"list": {"i": ["1", "1", "1", "1"]}}, "dilations": {"list": {"i": ["1", "1", "1", "1"]}}, "padding": {"s": "U0FNRQ=="}, "explicit_paddings": {"list": {}}, "epsilon": {"f": 0.0}, "data_format": {"s": "TkhXQw=="}, "fused_ops": {"list": {"s": ["Qmlhc0FkZA=="]}}}}, {"name": "StatefulPartitionedCall/efficientnetv2-b2/blocks_17/Sigmoid", "op": "Sigmoid", "input": ["StatefulPartitionedCall/efficientnetv2-b2/blocks_17/tpu_batch_normalization/FusedBatchNormV3"], "attr": {"T": {"type": "DT_FLOAT"}}}, {"name": "StatefulPartitionedCall/efficientnetv2-b2/blocks_17/mul", "op": "Mul", "input": ["StatefulPartitionedCall/efficientnetv2-b2/blocks_17/tpu_batch_normalization/FusedBatchNormV3", "StatefulPartitionedCall/efficientnetv2-b2/blocks_17/Sigmoid"], "attr": {"T": {"type": "DT_FLOAT"}}}, {"name": "StatefulPartitionedCall/efficientnetv2-b2/blocks_17/depthwise_conv2d/depthwise", "op": "FusedDepthwiseConv2dNative", "input": ["StatefulPartitionedCall/efficientnetv2-b2/blocks_17/mul", "StatefulPartitionedCall/efficientnetv2-b2/blocks_17/depthwise_conv2d/depthwise_weights", "StatefulPartitionedCall/efficientnetv2-b2/blocks_17/depthwise_conv2d/depthwise_bn_offset"], "attr": {"dilations": {"list": {"i": ["1", "1", "1", "1"]}}, "strides": {"list": {"i": ["1", "1", "1", "1"]}}, "padding": {"s": "U0FNRQ=="}, "data_format": {"s": "TkhXQw=="}, "explicit_paddings": {"list": {}}, "T": {"type": "DT_FLOAT"}, "fused_ops": {"list": {"s": ["Qmlhc0FkZA=="]}}, "num_args": {"i": "1"}}}, {"name": "StatefulPartitionedCall/efficientnetv2-b2/blocks_17/Sigmoid_1", "op": "Sigmoid", "input": ["StatefulPartitionedCall/efficientnetv2-b2/blocks_17/depthwise_conv2d/depthwise"], "attr": {"T": {"type": "DT_FLOAT"}}}, {"name": "StatefulPartitionedCall/efficientnetv2-b2/blocks_17/mul_1", "op": "Mul", "input": ["StatefulPartitionedCall/efficientnetv2-b2/blocks_17/depthwise_conv2d/depthwise", "StatefulPartitionedCall/efficientnetv2-b2/blocks_17/Sigmoid_1"], "attr": {"T": {"type": "DT_FLOAT"}}}, {"name": "StatefulPartitionedCall/efficientnetv2-b2/blocks_17/se/Mean", "op": "Mean", "input": ["StatefulPartitionedCall/efficientnetv2-b2/blocks_17/mul_1", "StatefulPartitionedCall/efficientnetv2-b2/blocks_17/se/Mean/reduction_indices"], "attr": {"Tidx": {"type": "DT_INT32"}, "keep_dims": {"b": true}, "T": {"type": "DT_FLOAT"}}}, {"name": "StatefulPartitionedCall/efficientnetv2-b2/blocks_17/se/conv2d/BiasAdd", "op": "_FusedConv2D", "input": ["StatefulPartitionedCall/efficientnetv2-b2/blocks_17/se/Mean", "StatefulPartitionedCall/efficientnetv2-b2/blocks_17/se/conv2d/Conv2D/ReadVariableOp", "StatefulPartitionedCall/efficientnetv2-b2/blocks_17/se/conv2d/BiasAdd/ReadVariableOp"], "device": "/device:CPU:0", "attr": {"dilations": {"list": {"i": ["1", "1", "1", "1"]}}, "data_format": {"s": "TkhXQw=="}, "num_args": {"i": "1"}, "padding": {"s": "U0FNRQ=="}, "fused_ops": {"list": {"s": ["Qmlhc0FkZA=="]}}, "epsilon": {"f": 0.0}, "T": {"type": "DT_FLOAT"}, "use_cudnn_on_gpu": {"b": true}, "explicit_paddings": {"list": {}}, "strides": {"list": {"i": ["1", "1", "1", "1"]}}}}, {"name": "StatefulPartitionedCall/efficientnetv2-b2/blocks_17/se/Sigmoid", "op": "Sigmoid", "input": ["StatefulPartitionedCall/efficientnetv2-b2/blocks_17/se/conv2d/BiasAdd"], "attr": {"T": {"type": "DT_FLOAT"}}}, {"name": "StatefulPartitionedCall/efficientnetv2-b2/blocks_17/se/mul", "op": "Mul", "input": ["StatefulPartitionedCall/efficientnetv2-b2/blocks_17/se/conv2d/BiasAdd", "StatefulPartitionedCall/efficientnetv2-b2/blocks_17/se/Sigmoid"], "attr": {"T": {"type": "DT_FLOAT"}}}, {"name": "StatefulPartitionedCall/efficientnetv2-b2/blocks_17/se/conv2d_1/BiasAdd", "op": "_FusedConv2D", "input": ["StatefulPartitionedCall/efficientnetv2-b2/blocks_17/se/mul", "StatefulPartitionedCall/efficientnetv2-b2/blocks_17/se/conv2d_1/Conv2D/ReadVariableOp", "StatefulPartitionedCall/efficientnetv2-b2/blocks_17/se/conv2d_1/BiasAdd/ReadVariableOp"], "device": "/device:CPU:0", "attr": {"fused_ops": {"list": {"s": ["Qmlhc0FkZA=="]}}, "use_cudnn_on_gpu": {"b": true}, "padding": {"s": "U0FNRQ=="}, "T": {"type": "DT_FLOAT"}, "dilations": {"list": {"i": ["1", "1", "1", "1"]}}, "epsilon": {"f": 0.0}, "strides": {"list": {"i": ["1", "1", "1", "1"]}}, "num_args": {"i": "1"}, "explicit_paddings": {"list": {}}, "data_format": {"s": "TkhXQw=="}}}, {"name": "StatefulPartitionedCall/efficientnetv2-b2/blocks_17/se/Sigmoid_1", "op": "Sigmoid", "input": ["StatefulPartitionedCall/efficientnetv2-b2/blocks_17/se/conv2d_1/BiasAdd"], "attr": {"T": {"type": "DT_FLOAT"}}}, {"name": "StatefulPartitionedCall/efficientnetv2-b2/blocks_17/se/mul_1", "op": "Mul", "input": ["StatefulPartitionedCall/efficientnetv2-b2/blocks_17/se/Sigmoid_1", "StatefulPartitionedCall/efficientnetv2-b2/blocks_17/mul_1"], "attr": {"T": {"type": "DT_FLOAT"}}}, {"name": "StatefulPartitionedCall/efficientnetv2-b2/blocks_17/tpu_batch_normalization_2/FusedBatchNormV3", "op": "_FusedConv2D", "input": ["StatefulPartitionedCall/efficientnetv2-b2/blocks_17/se/mul_1", "StatefulPartitionedCall/efficientnetv2-b2/blocks_17/conv2d_1/Conv2D_weights", "StatefulPartitionedCall/efficientnetv2-b2/blocks_17/conv2d_1/Conv2D_bn_offset"], "device": "/device:CPU:0", "attr": {"num_args": {"i": "1"}, "T": {"type": "DT_FLOAT"}, "padding": {"s": "U0FNRQ=="}, "strides": {"list": {"i": ["1", "1", "1", "1"]}}, "use_cudnn_on_gpu": {"b": true}, "dilations": {"list": {"i": ["1", "1", "1", "1"]}}, "explicit_paddings": {"list": {}}, "fused_ops": {"list": {"s": ["Qmlhc0FkZA=="]}}, "epsilon": {"f": 0.0}, "data_format": {"s": "TkhXQw=="}}}, {"name": "StatefulPartitionedCall/efficientnetv2-b2/blocks_17/Add", "op": "AddV2", "input": ["StatefulPartitionedCall/efficientnetv2-b2/blocks_17/tpu_batch_normalization_2/FusedBatchNormV3", "StatefulPartitionedCall/efficientnetv2-b2/blocks_16/Add"], "attr": {"T": {"type": "DT_FLOAT"}}}, {"name": "StatefulPartitionedCall/efficientnetv2-b2/blocks_18/tpu_batch_normalization/FusedBatchNormV3", "op": "_FusedConv2D", "input": ["StatefulPartitionedCall/efficientnetv2-b2/blocks_17/Add", "StatefulPartitionedCall/efficientnetv2-b2/blocks_18/conv2d/Conv2D_weights", "StatefulPartitionedCall/efficientnetv2-b2/blocks_18/conv2d/Conv2D_bn_offset"], "device": "/device:CPU:0", "attr": {"dilations": {"list": {"i": ["1", "1", "1", "1"]}}, "fused_ops": {"list": {"s": ["Qmlhc0FkZA=="]}}, "use_cudnn_on_gpu": {"b": true}, "explicit_paddings": {"list": {}}, "num_args": {"i": "1"}, "epsilon": {"f": 0.0}, "padding": {"s": "U0FNRQ=="}, "strides": {"list": {"i": ["1", "1", "1", "1"]}}, "data_format": {"s": "TkhXQw=="}, "T": {"type": "DT_FLOAT"}}}, {"name": "StatefulPartitionedCall/efficientnetv2-b2/blocks_18/Sigmoid", "op": "Sigmoid", "input": ["StatefulPartitionedCall/efficientnetv2-b2/blocks_18/tpu_batch_normalization/FusedBatchNormV3"], "attr": {"T": {"type": "DT_FLOAT"}}}, {"name": "StatefulPartitionedCall/efficientnetv2-b2/blocks_18/mul", "op": "Mul", "input": ["StatefulPartitionedCall/efficientnetv2-b2/blocks_18/tpu_batch_normalization/FusedBatchNormV3", "StatefulPartitionedCall/efficientnetv2-b2/blocks_18/Sigmoid"], "attr": {"T": {"type": "DT_FLOAT"}}}, {"name": "StatefulPartitionedCall/efficientnetv2-b2/blocks_18/depthwise_conv2d/depthwise", "op": "FusedDepthwiseConv2dNative", "input": ["StatefulPartitionedCall/efficientnetv2-b2/blocks_18/mul", "StatefulPartitionedCall/efficientnetv2-b2/blocks_18/depthwise_conv2d/depthwise_weights", "StatefulPartitionedCall/efficientnetv2-b2/blocks_18/depthwise_conv2d/depthwise_bn_offset"], "attr": {"data_format": {"s": "TkhXQw=="}, "explicit_paddings": {"list": {}}, "padding": {"s": "U0FNRQ=="}, "strides": {"list": {"i": ["1", "2", "2", "1"]}}, "T": {"type": "DT_FLOAT"}, "num_args": {"i": "1"}, "fused_ops": {"list": {"s": ["Qmlhc0FkZA=="]}}, "dilations": {"list": {"i": ["1", "1", "1", "1"]}}}}, {"name": "StatefulPartitionedCall/efficientnetv2-b2/blocks_18/Sigmoid_1", "op": "Sigmoid", "input": ["StatefulPartitionedCall/efficientnetv2-b2/blocks_18/depthwise_conv2d/depthwise"], "attr": {"T": {"type": "DT_FLOAT"}}}, {"name": "StatefulPartitionedCall/efficientnetv2-b2/blocks_18/mul_1", "op": "Mul", "input": ["StatefulPartitionedCall/efficientnetv2-b2/blocks_18/depthwise_conv2d/depthwise", "StatefulPartitionedCall/efficientnetv2-b2/blocks_18/Sigmoid_1"], "attr": {"T": {"type": "DT_FLOAT"}}}, {"name": "StatefulPartitionedCall/efficientnetv2-b2/blocks_18/se/Mean", "op": "Mean", "input": ["StatefulPartitionedCall/efficientnetv2-b2/blocks_18/mul_1", "StatefulPartitionedCall/efficientnetv2-b2/blocks_18/se/Mean/reduction_indices"], "attr": {"keep_dims": {"b": true}, "T": {"type": "DT_FLOAT"}, "Tidx": {"type": "DT_INT32"}}}, {"name": "StatefulPartitionedCall/efficientnetv2-b2/blocks_18/se/conv2d/BiasAdd", "op": "_FusedConv2D", "input": ["StatefulPartitionedCall/efficientnetv2-b2/blocks_18/se/Mean", "StatefulPartitionedCall/efficientnetv2-b2/blocks_18/se/conv2d/Conv2D/ReadVariableOp", "StatefulPartitionedCall/efficientnetv2-b2/blocks_18/se/conv2d/BiasAdd/ReadVariableOp"], "device": "/device:CPU:0", "attr": {"T": {"type": "DT_FLOAT"}, "fused_ops": {"list": {"s": ["Qmlhc0FkZA=="]}}, "dilations": {"list": {"i": ["1", "1", "1", "1"]}}, "explicit_paddings": {"list": {}}, "use_cudnn_on_gpu": {"b": true}, "strides": {"list": {"i": ["1", "1", "1", "1"]}}, "data_format": {"s": "TkhXQw=="}, "num_args": {"i": "1"}, "padding": {"s": "U0FNRQ=="}, "epsilon": {"f": 0.0}}}, {"name": "StatefulPartitionedCall/efficientnetv2-b2/blocks_18/se/Sigmoid", "op": "Sigmoid", "input": ["StatefulPartitionedCall/efficientnetv2-b2/blocks_18/se/conv2d/BiasAdd"], "attr": {"T": {"type": "DT_FLOAT"}}}, {"name"…
"fused_ops": {"list": {"s": ["Qmlhc0FkZA=="]}}, "use_cudnn_on_gpu": {"b": true}, "padding": {"s": "U0FNRQ=="}, "strides": {"list": {"i": ["1", "1", "1", "1"]}}, "data_format": {"s": "TkhXQw=="}}}, {"name": "StatefulPartitionedCall/efficientnetv2-b2/blocks_25/Add", "op": "AddV2", "input": ["StatefulPartitionedCall/efficientnetv2-b2/blocks_25/tpu_batch_normalization_2/FusedBatchNormV3", "StatefulPartitionedCall/efficientnetv2-b2/blocks_24/Add"], "attr": {"T": {"type": "DT_FLOAT"}}}, {"name": "StatefulPartitionedCall/efficientnetv2-b2/blocks_26/tpu_batch_normalization/FusedBatchNormV3", "op": "_FusedConv2D", "input": ["StatefulPartitionedCall/efficientnetv2-b2/blocks_25/Add", "StatefulPartitionedCall/efficientnetv2-b2/blocks_26/conv2d/Conv2D_weights", "StatefulPartitionedCall/efficientnetv2-b2/blocks_26/conv2d/Conv2D_bn_offset"], "device": "/device:CPU:0", "attr": {"dilations": {"list": {"i": ["1", "1", "1", "1"]}}, "T": {"type": "DT_FLOAT"}, "padding": {"s": "U0FNRQ=="}, "num_args": {"i": "1"}, "data_format": {"s": "TkhXQw=="}, "strides": {"list": {"i": ["1", "1", "1", "1"]}}, "fused_ops": {"list": {"s": ["Qmlhc0FkZA=="]}}, "explicit_paddings": {"list": {}}, "use_cudnn_on_gpu": {"b": true}, "epsilon": {"f": 0.0}}}, {"name": "StatefulPartitionedCall/efficientnetv2-b2/blocks_26/Sigmoid", "op": "Sigmoid", "input": ["StatefulPartitionedCall/efficientnetv2-b2/blocks_26/tpu_batch_normalization/FusedBatchNormV3"], "attr": {"T": {"type": "DT_FLOAT"}}}, {"name": "StatefulPartitionedCall/efficientnetv2-b2/blocks_26/mul", "op": "Mul", "input": ["StatefulPartitionedCall/efficientnetv2-b2/blocks_26/tpu_batch_normalization/FusedBatchNormV3", "StatefulPartitionedCall/efficientnetv2-b2/blocks_26/Sigmoid"], "attr": {"T": {"type": "DT_FLOAT"}}}, {"name": "StatefulPartitionedCall/efficientnetv2-b2/blocks_26/depthwise_conv2d/depthwise", "op": "FusedDepthwiseConv2dNative", "input": ["StatefulPartitionedCall/efficientnetv2-b2/blocks_26/mul", "StatefulPartitionedCall/efficientnetv2-b2/blocks_26/depthwise_conv2d/depthwise_weights", "StatefulPartitionedCall/efficientnetv2-b2/blocks_26/depthwise_conv2d/depthwise_bn_offset"], "attr": {"data_format": {"s": "TkhXQw=="}, "T": {"type": "DT_FLOAT"}, "padding": {"s": "U0FNRQ=="}, "num_args": {"i": "1"}, "fused_ops": {"list": {"s": ["Qmlhc0FkZA=="]}}, "explicit_paddings": {"list": {}}, "dilations": {"list": {"i": ["1", "1", "1", "1"]}}, "strides": {"list": {"i": ["1", "1", "1", "1"]}}}}, {"name": "StatefulPartitionedCall/efficientnetv2-b2/blocks_26/Sigmoid_1", "op": "Sigmoid", "input": ["StatefulPartitionedCall/efficientnetv2-b2/blocks_26/depthwise_conv2d/depthwise"], "attr": {"T": {"type": "DT_FLOAT"}}}, {"name": "StatefulPartitionedCall/efficientnetv2-b2/blocks_26/mul_1", "op": "Mul", "input": ["StatefulPartitionedCall/efficientnetv2-b2/blocks_26/depthwise_conv2d/depthwise", "StatefulPartitionedCall/efficientnetv2-b2/blocks_26/Sigmoid_1"], "attr": {"T": {"type": "DT_FLOAT"}}}, {"name": "StatefulPartitionedCall/efficientnetv2-b2/blocks_26/se/Mean", "op": "Mean", "input": ["StatefulPartitionedCall/efficientnetv2-b2/blocks_26/mul_1", "StatefulPartitionedCall/efficientnetv2-b2/blocks_26/se/Mean/reduction_indices"], "attr": {"Tidx": {"type": "DT_INT32"}, "keep_dims": {"b": true}, "T": {"type": "DT_FLOAT"}}}, {"name": "StatefulPartitionedCall/efficientnetv2-b2/blocks_26/se/conv2d/BiasAdd", "op": "_FusedConv2D", "input": ["StatefulPartitionedCall/efficientnetv2-b2/blocks_26/se/Mean", "StatefulPartitionedCall/efficientnetv2-b2/blocks_26/se/conv2d/Conv2D/ReadVariableOp", "StatefulPartitionedCall/efficientnetv2-b2/blocks_26/se/conv2d/BiasAdd/ReadVariableOp"], "device": "/device:CPU:0", "attr": {"T": {"type": "DT_FLOAT"}, "explicit_paddings": {"list": {}}, "dilations": {"list": {"i": ["1", "1", "1", "1"]}}, "epsilon": {"f": 0.0}, "num_args": {"i": "1"}, "data_format": {"s": "TkhXQw=="}, "padding": {"s": "U0FNRQ=="}, "use_cudnn_on_gpu": {"b": true}, "strides": {"list": {"i": ["1", "1", "1", "1"]}}, "fused_ops": {"list": {"s": ["Qmlhc0FkZA=="]}}}}, {"name": "StatefulPartitionedCall/efficientnetv2-b2/blocks_26/se/Sigmoid", "op": "Sigmoid", "input": ["StatefulPartitionedCall/efficientnetv2-b2/blocks_26/se/conv2d/BiasAdd"], "attr": {"T": {"type": "DT_FLOAT"}}}, {"name": "StatefulPartitionedCall/efficientnetv2-b2/blocks_26/se/mul", "op": "Mul", "input": ["StatefulPartitionedCall/efficientnetv2-b2/blocks_26/se/conv2d/BiasAdd", "StatefulPartitionedCall/efficientnetv2-b2/blocks_26/se/Sigmoid"], "attr": {"T": {"type": "DT_FLOAT"}}}, {"name": "StatefulPartitionedCall/efficientnetv2-b2/blocks_26/se/conv2d_1/BiasAdd", "op": "_FusedConv2D", "input": ["StatefulPartitionedCall/efficientnetv2-b2/blocks_26/se/mul", "StatefulPartitionedCall/efficientnetv2-b2/blocks_26/se/conv2d_1/Conv2D/ReadVariableOp", "StatefulPartitionedCall/efficientnetv2-b2/blocks_26/se/conv2d_1/BiasAdd/ReadVariableOp"], "device": "/device:CPU:0", "attr": {"padding": {"s": "U0FNRQ=="}, "epsilon": {"f": 0.0}, "fused_ops": {"list": {"s": ["Qmlhc0FkZA=="]}}, "data_format": {"s": "TkhXQw=="}, "explicit_paddings": {"list": {}}, "strides": {"list": {"i": ["1", "1", "1", "1"]}}, "T": {"type": "DT_FLOAT"}, "use_cudnn_on_gpu": {"b": true}, "num_args": {"i": "1"}, "dilations": {"list": {"i": ["1", "1", "1", "1"]}}}}, {"name": "StatefulPartitionedCall/efficientnetv2-b2/blocks_26/se/Sigmoid_1", "op": "Sigmoid", "input": ["StatefulPartitionedCall/efficientnetv2-b2/blocks_26/se/conv2d_1/BiasAdd"], "attr": {"T": {"type": "DT_FLOAT"}}}, {"name": "StatefulPartitionedCall/efficientnetv2-b2/blocks_26/se/mul_1", "op": "Mul", "input": ["StatefulPartitionedCall/efficientnetv2-b2/blocks_26/se/Sigmoid_1", "StatefulPartitionedCall/efficientnetv2-b2/blocks_26/mul_1"], "attr": {"T": {"type": "DT_FLOAT"}}}, {"name": "StatefulPartitionedCall/efficientnetv2-b2/blocks_26/tpu_batch_normalization_2/FusedBatchNormV3", "op": "_FusedConv2D", "input": ["StatefulPartitionedCall/efficientnetv2-b2/blocks_26/se/mul_1", "StatefulPartitionedCall/efficientnetv2-b2/blocks_26/conv2d_1/Conv2D_weights", "StatefulPartitionedCall/efficientnetv2-b2/blocks_26/conv2d_1/Conv2D_bn_offset"], "device": "/device:CPU:0", "attr": {"dilations": {"list": {"i": ["1", "1", "1", "1"]}}, "padding": {"s": "U0FNRQ=="}, "explicit_paddings": {"list": {}}, "num_args": {"i": "1"}, "data_format": {"s": "TkhXQw=="}, "use_cudnn_on_gpu": {"b": true}, "epsilon": {"f": 0.0}, "fused_ops": {"list": {"s": ["Qmlhc0FkZA=="]}}, "T": {"type": "DT_FLOAT"}, "strides": {"list": {"i": ["1", "1", "1", "1"]}}}}, {"name": "StatefulPartitionedCall/efficientnetv2-b2/blocks_26/Add", "op": "AddV2", "input": ["StatefulPartitionedCall/efficientnetv2-b2/blocks_26/tpu_batch_normalization_2/FusedBatchNormV3", "StatefulPartitionedCall/efficientnetv2-b2/blocks_25/Add"], "attr": {"T": {"type": "DT_FLOAT"}}}, {"name": "StatefulPartitionedCall/efficientnetv2-b2/blocks_27/tpu_batch_normalization/FusedBatchNormV3", "op": "_FusedConv2D", "input": ["StatefulPartitionedCall/efficientnetv2-b2/blocks_26/Add", "StatefulPartitionedCall/efficientnetv2-b2/blocks_27/conv2d/Conv2D_weights", "StatefulPartitionedCall/efficientnetv2-b2/blocks_27/conv2d/Conv2D_bn_offset"], "device": "/device:CPU:0", "attr": {"data_format": {"s": "TkhXQw=="}, "num_args": {"i": "1"}, "strides": {"list": {"i": ["1", "1", "1", "1"]}}, "dilations": {"list": {"i": ["1", "1", "1", "1"]}}, "use_cudnn_on_gpu": {"b": true}, "explicit_paddings": {"list": {}}, "epsilon": {"f": 0.0}, "padding": {"s": "U0FNRQ=="}, "fused_ops": {"list": {"s": ["Qmlhc0FkZA=="]}}, "T": {"type": "DT_FLOAT"}}}, {"name": "StatefulPartitionedCall/efficientnetv2-b2/blocks_27/Sigmoid", "op": "Sigmoid", "input": ["StatefulPartitionedCall/efficientnetv2-b2/blocks_27/tpu_batch_normalization/FusedBatchNormV3"], "attr": {"T": {"type": "DT_FLOAT"}}}, {"name": "StatefulPartitionedCall/efficientnetv2-b2/blocks_27/mul", "op": "Mul", "input": ["StatefulPartitionedCall/efficientnetv2-b2/blocks_27/tpu_batch_normalization/FusedBatchNormV3", "StatefulPartitionedCall/efficientnetv2-b2/blocks_27/Sigmoid"], "attr": {"T": {"type": "DT_FLOAT"}}}, {"name": "StatefulPartitionedCall/efficientnetv2-b2/blocks_27/depthwise_conv2d/depthwise", "op": "FusedDepthwiseConv2dNative", "input": ["StatefulPartitionedCall/efficientnetv2-b2/blocks_27/mul", "StatefulPartitionedCall/efficientnetv2-b2/blocks_27/depthwise_conv2d/depthwise_weights", "StatefulPartitionedCall/efficientnetv2-b2/blocks_27/depthwise_conv2d/depthwise_bn_offset"], "attr": {"strides": {"list": {"i": ["1", "1", "1", "1"]}}, "num_args": {"i": "1"}, "dilations": {"list": {"i": ["1", "1", "1", "1"]}}, "fused_ops": {"list": {"s": ["Qmlhc0FkZA=="]}}, "T": {"type": "DT_FLOAT"}, "padding": {"s": "U0FNRQ=="}, "data_format": {"s": "TkhXQw=="}, "explicit_paddings": {"list": {}}}}, {"name": "StatefulPartitionedCall/efficientnetv2-b2/blocks_27/Sigmoid_1", "op": "Sigmoid", "input": ["StatefulPartitionedCall/efficientnetv2-b2/blocks_27/depthwise_conv2d/depthwise"], "attr": {"T": {"type": "DT_FLOAT"}}}, {"name": "StatefulPartitionedCall/efficientnetv2-b2/blocks_27/mul_1", "op": "Mul", "input": ["StatefulPartitionedCall/efficientnetv2-b2/blocks_27/depthwise_conv2d/depthwise", "StatefulPartitionedCall/efficientnetv2-b2/blocks_27/Sigmoid_1"], "attr": {"T": {"type": "DT_FLOAT"}}}, {"name": "StatefulPartitionedCall/efficientnetv2-b2/blocks_27/se/Mean", "op": "Mean", "input": ["StatefulPartitionedCall/efficientnetv2-b2/blocks_27/mul_1", "StatefulPartitionedCall/efficientnetv2-b2/blocks_27/se/Mean/reduction_indices"], "attr": {"Tidx": {"type": "DT_INT32"}, "T": {"type": "DT_FLOAT"}, "keep_dims": {"b": true}}}, {"name": "StatefulPartitionedCall/efficientnetv2-b2/blocks_27/se/conv2d/BiasAdd", "op": "_FusedConv2D", "input": ["StatefulPartitionedCall/efficientnetv2-b2/blocks_27/se/Mean", "StatefulPartitionedCall/efficientnetv2-b2/blocks_27/se/conv2d/Conv2D/ReadVariableOp", "StatefulPartitionedCall/efficientnetv2-b2/blocks_27/se/conv2d/BiasAdd/ReadVariableOp"], "device": "/device:CPU:0", "attr": {"strides": {"list": {"i": ["1", "1", "1", "1"]}}, "data_format": {"s": "TkhXQw=="}, "explicit_paddings": {"list": {}}, "padding": {"s": "U0FNRQ=="}, "T": {"type": "DT_FLOAT"}, "dilations": {"list": {"i": ["1", "1", "1", "1"]}}, "num_args": {"i": "1"}, "use_cudnn_on_gpu": {"b": true}, "epsilon": {"f": 0.0}, "fused_ops": {"list": {"s": ["Qmlhc0FkZA=="]}}}}, {"name": "StatefulPartitionedCall/efficientnetv2-b2/blocks_27/se/Sigmoid", "op": "Sigmoid", "input": ["StatefulPartitionedCall/efficientnetv2-b2/blocks_27/se/conv2d/BiasAdd"], "attr": {"T": {"type": "DT_FLOAT"}}}, {"name": "StatefulPartitionedCall/efficientnetv2-b2/blocks_27/se/mul", "op": "Mul", "input": ["StatefulPartitionedCall/efficientnetv2-b2/blocks_27/se/conv2d/BiasAdd", "StatefulPartitionedCall/efficientnetv2-b2/blocks_27/se/Sigmoid"], "attr": {"T": {"type": "DT_FLOAT"}}}, {"name": "StatefulPartitionedCall/efficientnetv2-b2/blocks_27/se/conv2d_1/BiasAdd", "op": "_FusedConv2D", "input": ["StatefulPartitionedCall/efficientnetv2-b2/blocks_27/se/mul", "StatefulPartitionedCall/efficientnetv2-b2/blocks_27/se/conv2d_1/Conv2D/ReadVariableOp", "StatefulPartitionedCall/efficientnetv2-b2/blocks_27/se/conv2d_1/BiasAdd/ReadVariableOp"], "device": "/device:CPU:0", "attr": {"T": {"type": "DT_FLOAT"}, "padding": {"s": "U0FNRQ=="}, "num_args": {"i": "1"}, "use_cudnn_on_gpu": {"b": true}, "fused_ops": {"list": {"s": ["Qmlhc0FkZA=="]}}, "explicit_paddings": {"list": {}}, "epsilon": {"f": 0.0}, "data_format": {"s": "TkhXQw=="}, "dilations": {"list": {"i": ["1", "1", "1", "1"]}}, "strides": {"list": {"i": ["1", "1", "1", "1"]}}}}, {"name": "StatefulPartitionedCall/efficientnetv2-b2/blocks_27/se/Sigmoid_1", "op": "Sigmoid", "input": ["StatefulPartitionedCall/efficientnetv2-b2/blocks_27/se/conv2d_1/BiasAdd"], "attr": {"T": {"type": "DT_FLOAT"}}}, {"name": "StatefulPartitionedCall/efficientnetv2-b2/blocks_27/se/mul_1", "op": "Mul", "input": ["StatefulPartitionedCall/efficientnetv2-b2/blocks_27/se/Sigmoid_1", "StatefulPartitionedCall/efficientnetv2-b2/blocks_27/mul_1"], "attr": {"T": {"type": "DT_FLOAT"}}}, {"name": "StatefulPartitionedCall/efficientnetv2-b2/blocks_27/tpu_batch_normalization_2/FusedBatchNormV3", "op": "_FusedConv2D", "input": ["StatefulPartitionedCall/efficientnetv2-b2/blocks_27/se/mul_1", "StatefulPartitionedCall/efficientnetv2-b2/blocks_27/conv2d_1/Conv2D_weights", "StatefulPartitionedCall/efficientnetv2-b2/blocks_27/conv2d_1/Conv2D_bn_offset"], "device": "/device:CPU:0", "attr": {"padding": {"s": "U0FNRQ=="}, "use_cudnn_on_gpu": {"b": true}, "epsilon": {"f": 0.0}, "strides": {"list": {"i": ["1", "1", "1", "1"]}}, "data_format": {"s": "TkhXQw=="}, "fused_ops": {"list": {"s": ["Qmlhc0FkZA=="]}}, "dilations": {"list": {"i": ["1", "1", "1", "1"]}}, "explicit_paddings": {"list": {}}, "T": {"type": "DT_FLOAT"}, "num_args": {"i": "1"}}}, {"name": "StatefulPartitionedCall/efficientnetv2-b2/blocks_27/Add", "op": "AddV2", "input": ["StatefulPartitionedCall/efficientnetv2-b2/blocks_27/tpu_batch_normalization_2/FusedBatchNormV3", "StatefulPartitionedCall/efficientnetv2-b2/blocks_26/Add"], "attr": {"T": {"type": "DT_FLOAT"}}}, {"name": "StatefulPartitionedCall/efficientnetv2-b2/head/tpu_batch_normalization/FusedBatchNormV3", "op": "_FusedConv2D", "input": ["StatefulPartitionedCall/efficientnetv2-b2/blocks_27/Add", "StatefulPartitionedCall/efficientnetv2-b2/head/conv2d/Conv2D_weights", "StatefulPartitionedCall/efficientnetv2-b2/head/conv2d/Conv2D_bn_offset"], "device": "/device:CPU:0", "attr": {"fused_ops": {"list": {"s": ["Qmlhc0FkZA=="]}}, "explicit_paddings": {"list": {}}, "data_format": {"s": "TkhXQw=="}, "use_cudnn_on_gpu": {"b": true}, "epsilon": {"f": 0.0}, "dilations": {"list": {"i": ["1", "1", "1", "1"]}}, "padding": {"s": "U0FNRQ=="}, "strides": {"list": {"i": ["1", "1", "1", "1"]}}, "num_args": {"i": "1"}, "T": {"type": "DT_FLOAT"}}}, {"name": "StatefulPartitionedCall/efficientnetv2-b2/head/Sigmoid", "op": "Sigmoid", "input": ["StatefulPartitionedCall/efficientnetv2-b2/head/tpu_batch_normalization/FusedBatchNormV3"], "attr": {"T": {"type": "DT_FLOAT"}}}, {"name": "StatefulPartitionedCall/efficientnetv2-b2/head/mul", "op": "Mul", "input": ["StatefulPartitionedCall/efficientnetv2-b2/head/tpu_batch_normalization/FusedBatchNormV3", "StatefulPartitionedCall/efficientnetv2-b2/head/Sigmoid"], "attr": {"T": {"type": "DT_FLOAT"}}}, {"name": "StatefulPartitionedCall/efficientnetv2-b2/head/global_average_pooling2d/Mean", "op": "Mean", "input": ["StatefulPartitionedCall/efficientnetv2-b2/head/mul", "StatefulPartitionedCall/efficientnetv2-b2/head/global_average_pooling2d/Mean/reduction_indices"], "attr": {"Tidx": {"type": "DT_INT32"}, "T": {"type": "DT_FLOAT"}, "keep_dims": {"b": false}}}, {"name": "StatefulPartitionedCall/efficientnetv2-b2/head_1/dense/BiasAdd", "op": "_FusedMatMul", "input": ["StatefulPartitionedCall/efficientnetv2-b2/head/global_average_pooling2d/Mean", "StatefulPartitionedCall/efficientnetv2-b2/head_1/dense/MatMul/ReadVariableOp", "StatefulPartitionedCall/efficientnetv2-b2/head_1/dense/BiasAdd/ReadVariableOp"], "device": "/device:CPU:0", "attr": {"transpose_b": {"b": false}, "T": {"type": "DT_FLOAT"}, "epsilon": {"f": 0.0}, "fused_ops": {"list": {"s": ["Qmlhc0FkZA=="]}}, "num_args": {"i": "1"}, "transpose_a": {"b": false}}}, {"name": "Identity", "op": "Identity", "input": ["StatefulPartitionedCall/efficientnetv2-b2/head_1/dense/BiasAdd"], "attr": {"T": {"type": "DT_FLOAT"}}}], "library": {}, "versions": {"producer": 561}}, "weightsManifest": [{"paths": ["group1-shard1of10.bin", "group1-shard2of10.bin", "group1-shard3of10.bin", "group1-shard4of10.bin", "group1-shard5of10.bin", "group1-shard6of10.bin", "group1-shard7of10.bin", "group1-shard8of10.bin", "group1-shard9of10.bin", "group1-shard10of10.bin"], "weights": [{"name": "StatefulPartitionedCall/efficientnetv2-b2/blocks_27/se/Mean/reduction_indices", "shape": [2], "dtype": "int32"}, {"name": "StatefulPartitionedCall/efficientnetv2-b2/blocks_27/se/conv2d/Conv2D/ReadVariableOp", "shape": [1, 1, 1248, 52], "dtype": "float32"}, {"name": "StatefulPartitionedCall/efficientnetv2-b2/blocks_27/se/conv2d/BiasAdd/ReadVariableOp", "shape": [52], "dtype": "float32"}, {"name": "StatefulPartitionedCall/efficientnetv2-b2/blocks_27/se/conv2d_1/Conv2D/ReadVariableOp", "shape": [1, 1, 52, 1248], "dtype": "float32"}, {"name": "StatefulPartitionedCall/efficientnetv2-b2/blocks_27/se/conv2d_1/BiasAdd/ReadVariableOp", "shape": [1248], "dtype": "float32"}, {"name": "StatefulPartitionedCall/efficientnetv2-b2/blocks_26/se/Mean/reduction_indices", "shape": [2], "dtype": "int32"}, {"name": "StatefulPartitionedCall/efficientnetv2-b2/blocks_26/se/conv2d/Conv2D/ReadVariableOp", "shape": [1, 1, 1248, 52], "dtype": "float32"}, {"name": "StatefulPartitionedCall/efficientnetv2-b2/blocks_26/se/conv2d/BiasAdd/ReadVariableOp", "shape": [52], "dtype": "float32"}, {"name": "StatefulPartitionedCall/efficientnetv2-b2/blocks_26/se/conv2d_1/Conv2D/ReadVariableOp", "shape": [1, 1, 52, 1248], "dtype": "float32"}, {"name": "StatefulPartitionedCall/efficientnetv2-b2/blocks_26/se/conv2d_1/BiasAdd/ReadVariableOp", "shape": [1248], "dtype": "float32"}, {"name": "StatefulPartitionedCall/efficientnetv2-b2/blocks_25/se/Mean/reduction_indices", "shape": [2], "dtype": "int32"}, {"name": "StatefulPartitionedCall/efficientnetv2-b2/blocks_25/se/conv2d/Conv2D/ReadVariableOp", "shape": [1, 1, 1248, 52], "dtype": "float32"}, {"name": "StatefulPartitionedCall/efficientnetv2-b2/blocks_25/se/conv2d/BiasAdd/ReadVariableOp", "shape": [52], "dtype": "float32"}, {"name": "StatefulPartitionedCall/efficientnetv2-b2/blocks_25/se/conv2d_1/Conv2D/ReadVariableOp", "shape": [1, 1, 52, 1248], "dtype": "float32"}, {"name": "StatefulPartitionedCall/efficientnetv2-b2/blocks_25/se/conv2d_1/BiasAdd/ReadVariableOp", "shape": [1248], "dtype": "float32"}, {"name": "StatefulPartitionedCall/efficientnetv2-b2/blocks_24/se/Mean/reduction_indices", "shape": [2], "dtype": "int32"}, {"name": "StatefulPartitionedCall/efficientnetv2-b2/blocks_24/se/conv2d/Conv2D/ReadVariableOp", "shape": [1, 1, 1248, 52], "dtype": "float32"}, {"name": "StatefulPartitionedCall/efficientnetv2-b2/blocks_24/se/conv2d/BiasAdd/ReadVariableOp", "shape": [52], "dtype": "float32"}, {"name": "StatefulPartitionedCall/efficientnetv2-b2/blocks_24/se/conv2d_1/Conv2D/ReadVariableOp", "shape": [1, 1, 52, 1248], "dtype": "float32"}, {"name": "StatefulPartitionedCall/efficientnetv2-b2/blocks_24/se/conv2d_1/BiasAdd/ReadVariableOp", "shape": [1248], "dtype": "float32"}, {"name": "StatefulPartitionedCall/efficientnetv2-b2/blocks_23/se/Mean/reduction_indices", "shape": [2], "dtype": "int32"}, {"name": "StatefulPartitionedCall/efficientnetv2-b2/blocks_23/se/conv2d/Conv2D/ReadVariableOp", "shape": [1, 1, 1248, 52], "dtype": "float32"}, {"name": "StatefulPartitionedCall/efficientnetv2-b2/blocks_23/se/conv2d/BiasAdd/ReadVariableOp", "shape": [52], "dtype": "float32"}, {"name": "StatefulPartitionedCall/efficientnetv2-b2/blocks_23/se/conv2d_1/Conv2D/ReadVariableOp", "shape": [1, 1, 52, 1248], "dtype": "float32"}, {"name": "StatefulPartitionedCall/efficientnetv2-b2/blocks_23/se/conv2d_1/BiasAdd/ReadVariableOp", "shape": [1248], "dtype": "float32"}, {"name": "StatefulPartitionedCall/efficientnetv2-b2/blocks_22/se/Mean/reduction_indices", "shape": [2], "dtype": "int32"}, {"name": "StatefulPartitionedCall/efficientnetv2-b2/blocks_22/se/conv2d/Conv2D/ReadVariableOp", "shape": [1, 1, 1248, 52], "dtype": "float32"}, {"name": "StatefulPartitionedCall/efficientnetv2-b2/blocks_22/se/conv2d/BiasAdd/ReadVariableOp", "shape": [52], "dtype": "float32"}, {"name": "StatefulPartitionedCall/efficientnetv2-b2/blocks_22/se/conv2d_1/Conv2D/ReadVariableOp", "shape": [1, 1, 52, 1248], "dtype": "float32"}, {"name": "StatefulPartitionedCall/efficientnetv2-b2/blocks_22/se/conv2d_1/BiasAdd/ReadVariableOp", "shape": [1248], "dtype": "float32"}, {"name": "StatefulPartitionedCall/efficientnetv2-b2/blocks_21/se/Mean/reduction_indices", "shape": [2], "dtype": "int32"}, {"name": "StatefulPartitionedCall/efficientnetv2-b2/blocks_21/se/conv2d/Conv2D/ReadVariableOp", "shape": [1, 1, 1248, 52], "dtype": "float32"}, {"name": "StatefulPartitionedCall/efficientnetv2-b2/blocks_21/se/conv2d/BiasAdd/ReadVariableOp", "shape": [52], "dtype": "float32"}, {"name": "StatefulPartitionedCall/efficientnetv2-b2/blocks_21/se/conv2d_1/Conv2D/ReadVariableOp", "shape": [1, 1, 52, 1248], "dtype": "float32"}, {"name": "StatefulPartitionedCall/efficientnetv2-b2/blocks_21/se/conv2d_1/BiasAdd/ReadVariableOp", "shape": [1248], "dtype": "float32"}, {"name": "StatefulPartitionedCall/efficientnetv2-b2/blocks_20/se/Mean/reduction_indices", "shape": [2], "dtype": "int32"}, {"name": "StatefulPartitionedCall/efficientnetv2-b2/blocks_20/se/conv2d/Conv2D/ReadVariableOp", "shape": [1, 1, 1248, 52], "dtype": "float32"}, {"name": "StatefulPartitionedCall/efficientnetv2-b2/blocks_20/se/conv2d/BiasAdd/ReadVariableOp", "shape": [52], "dtype": "float32"}, {"name": "StatefulPartitionedCall/efficientnetv2-b2/blocks_20/se/conv2d_1/Conv2D/ReadVariableOp", "shape": [1, 1, 52, 1248], "dtype": "float32"}, {"name": "StatefulPartitionedCall/efficientnetv2-b2/blocks_20/se/conv2d_1/BiasAdd/ReadVariableOp", "shape": [1248], "dtype": "float32"}, {"name": "StatefulPartitionedCall/efficientnetv2-b2/blocks_19/se/Mean/reduction_indices", "shape": [2], "dtype": "int32"}, {"name": "StatefulPartitionedCall/efficientnetv2-b2/blocks_19/se/conv2d/Conv2D/ReadVariableOp", "shape": [1, 1, 1248, 52], "dtype": "float32"}, {"name": "StatefulPartitionedCall/efficientnetv2-b2/blocks_19/se/conv2d/BiasAdd/ReadVariableOp", "shape": [52], "dtype": "float32"}, {"name": "StatefulPartitionedCall/efficientnetv2-b2/blocks_19/se/conv2d_1/Conv2D/ReadVariableOp", "shape": [1, 1, 52, 1248], "dtype": "float32"}, {"name": "StatefulPartitionedCall/efficientnetv2-b2/blocks_19/se/conv2d_1/BiasAdd/ReadVariableOp", "shape": [1248], "dtype": "float32"}, {"name": "StatefulPartitionedCall/efficientnetv2-b2/blocks_18/se/Mean/reduction_indices", "shape": [2], "dtype": "int32"}, {"name": "StatefulPartitionedCall/efficientnetv2-b2/blocks_18/se/conv2d/Conv2D/ReadVariableOp", "shape": [1, 1, 720, 30], "dtype": "float32"}, {"name": "StatefulPartitionedCall/efficientnetv2-b2/blocks_18/se/conv2d/BiasAdd/ReadVariableOp", "shape": [30], "dtype": "float32"}, {"name": "StatefulPartitionedCall/efficientnetv2-b2/blocks_18/se/conv2d_1/Conv2D/ReadVariableOp", "shape": [1, 1, 30, 720], "dtype": "float32"}, {"name": "StatefulPartitionedCall/efficientnetv2-b2/blocks_18/se/conv2d_1/BiasAdd/ReadVariableOp", "shape": [720], "dtype": "float32"}, {"name": "StatefulPartitionedCall/efficientnetv2-b2/blocks_17/se/Mean/reduction_indices", "shape": [2], "dtype": "int32"}, {"name": "StatefulPartitionedCall/efficientnetv2-b2/blocks_17/se/conv2d/Conv2D/ReadVariableOp", "shape": [1, 1, 720, 30], "dtype": "float32"}, {"name": "StatefulPartitionedCall/efficientnetv2-b2/blocks_17/se/conv2d/BiasAdd/ReadVariableOp", "shape": [30], "dtype": "float32"}, {"name": "StatefulPartitionedCall/efficientnetv2-b2/blocks_17/se/conv2d_1/Conv2D/ReadVariableOp", "shape": [1, 1, 30, 720], "dtype": "float32"}, {"name": "StatefulPartitionedCall/efficientnetv2-b2/blocks_17/se/conv2d_1/BiasAdd/ReadVariableOp", "shape": [720], "dtype": "float32"}, {"name": "StatefulPartitionedCall/efficientnetv2-b2/blocks_16/se/Mean/reduction_indices", "shape": [2], "dtype": "int32"}, {"name": "StatefulPartitionedCall/efficientnetv2-b2/blocks_16/se/conv2d/Conv2D/ReadVariableOp", "shape": [1, 1, 720, 30], "dtype": "float32"}, {"name": "StatefulPartitionedCall/efficientnetv2-b2/blocks_16/se/conv2d/BiasAdd/ReadVariableOp", "shape": [30], "dtype": "float32"}, {"name": "StatefulPartitionedCall/efficientnetv2-b2/blocks_16/se/conv2d_1/Conv2D/ReadVariableOp", "shape": [1, 1, 30, 720], "dtype": "float32"}, {"name": "StatefulPartitionedCall/efficientnetv2-b2/blocks_16/se/conv2d_1/BiasAdd/ReadVariableOp", "shape": [720], "dtype": "float32"}, {"name": "StatefulPartitionedCall/efficientnetv2-b2/blocks_15/se/Mean/reduction_indices", "shape": [2], "dtype": "int32"}, {"name": "StatefulPartitionedCall/efficientnetv2-b2/blocks_15/se/conv2d/Conv2D/ReadVariableOp", "shape": [1, 1, 720, 30], "dtype": "float32"}, {"name": "StatefulPartitionedCall/efficientnetv2-b2/blocks_15/se/conv2d/BiasAdd/ReadVariableOp", "shape": [30], "dtype": "float32"}, {"name": "StatefulPartitionedCall/efficientnetv2-b2/blocks_15/se/conv2d_1/Conv2D/ReadVariableOp", "shape": [1, 1, 30, 720], "dtype": "float32"}, {"name": "StatefulPartitionedCall/efficientnetv2-b2/blocks_15/se/conv2d_1/BiasAdd/ReadVariableOp", "shape": [720], "dtype": "float32"}, {"name": "StatefulPartitionedCall/efficientnetv2-b2/blocks_14/se/Mean/reduction_indices", "shape": [2], "dtype": "int32"}, {"name": "StatefulPartitionedCall/efficientnetv2-b2/blocks_14/se/conv2d/Conv2D/ReadVariableOp", "shape": [1, 1, 720, 30], "dtype": "float32"}, {"name": "StatefulPartitionedCall/efficientnetv2-b2/blocks_14/se/conv2d/BiasAdd/ReadVariableOp", "shape": [30], "dtype": "float32"}, {"name": "StatefulPartitionedCall/efficientnetv2-b2/blocks_14/se/conv2d_1/Conv2D/ReadVariableOp", "shape": [1, 1, 30, 720], "dtype": "float32"}, {"name": "StatefulPartitionedCall/efficientnetv2-b2/blocks_14/se/conv2d_1/BiasAdd/ReadVariableOp", "shape": [720], "dtype": "float32"}, {"name": "StatefulPartitionedCall/efficientnetv2-b2/blocks_13/se/Mean/reduction_indices", "shape": [2], "dtype": "int32"}, {"name": "StatefulPartitionedCall/efficientnetv2-b2/blocks_13/se/conv2d/Conv2D/ReadVariableOp", "shape": [1, 1, 720, 30], "dtype": "float32"}, {"name": "StatefulPartitionedCall/efficientnetv2-b2/blocks_13/se/conv2d/BiasAdd/ReadVariableOp", "shape": [30], "dtype": "float32"}, {"name": "StatefulPartitionedCall/efficientnetv2-b2/blocks_13/se/conv2d_1/Conv2D/ReadVariableOp", "shape": [1, 1, 30, 720], "dtype": "float32"}, {"name": "StatefulPartitionedCall/efficientnetv2-b2/blocks_13/se/conv2d_1/BiasAdd/ReadVariableOp", "shape": [720], "dtype": "float32"}, {"name": "StatefulPartitionedCall/efficientnetv2-b2/blocks_12/se/Mean/reduction_indices", "shape": [2], "dtype": "int32"}, {"name": "StatefulPartitionedCall/efficientnetv2-b2/blocks_12/se/conv2d/Conv2D/ReadVariableOp", "shape": [1, 1, 624, 26], "dtype": "float32"}, {"name": "StatefulPartitionedCall/efficientnetv2-b2/blocks_12/se/conv2d/BiasAdd/ReadVariableOp", "shape": [26], "dtype": "float32"}, {"name": "StatefulPartitionedCall/efficientnetv2-b2/blocks_12/se/conv2d_1/Conv2D/ReadVariableOp", "shape": [1, 1, 26, 624], "dtype": "float32"}, {"name": "StatefulPartitionedCall/efficientnetv2-b2/blocks_12/se/conv2d_1/BiasAdd/ReadVariableOp", "shape": [624], "dtype": "float32"}, {"name": "StatefulPartitionedCall/efficientnetv2-b2/blocks_11/se/Mean/reduction_indices", "shape": [2], "dtype": "int32"}, {"name": "StatefulPartitionedCall/efficientnetv2-b2/blocks_11/se/conv2d/Conv2D/ReadVariableOp", "shape": [1, 1, 416, 26], "dtype": "float32"}, {"name": "StatefulPartitionedCall/efficientnetv2-b2/blocks_11/se/conv2d/BiasAdd/ReadVariableOp", "shape": [26], "dtype": "float32"}, {"name": "StatefulPartitionedCall/efficientnetv2-b2/blocks_11/se/conv2d_1/Conv2D/ReadVariableOp", "shape": [1, 1, 26, 416], "dtype": "float32"}, {"name": "StatefulPartitionedCall/efficientnetv2-b2/blocks_11/se/conv2d_1/BiasAdd/ReadVariableOp", "shape": [416], "dtype": "float32"}, {"name": "StatefulPartitionedCall/efficientnetv2-b2/blocks_10/se/Mean/reduction_indices", "shape": [2], "dtype": "int32"}, {"name": "StatefulPartitionedCall/efficientnetv2-b2/blocks_10/se/conv2d/Conv2D/ReadVariableOp", "shape": [1, 1, 416, 26], "dtype": "float32"}, {"name": "StatefulPartitionedCall/efficientnetv2-b2/blocks_10/se/conv2d/BiasAdd/ReadVariableOp", "shape": [26], "dtype": "float32"}, {"name": "StatefulPartitionedCall/efficientnetv2-b2/blocks_10/se/conv2d_1/Conv2D/ReadVariableOp", "shape": [1, 1, 26, 416], "dtype": "float32"}, {"name": "StatefulPartitionedCall/efficientnetv2-b2/blocks_10/se/conv2d_1/BiasAdd/ReadVariableOp", "shape": [416], "dtype": "float32"}, {"name": "StatefulPartitionedCall/efficientnetv2-b2/blocks_9/se/Mean/reduction_indices", "shape": [2], "dtype": "int32"}, {"name": "StatefulPartitionedCall/efficientnetv2-b2/blocks_9/se/conv2d/Conv2D/ReadVariableOp", "shape": [1, 1, 416, 26], "dtype": "float32"}, {"name": "StatefulPartitionedCall/efficientnetv2-b2/blocks_9/se/conv2d/BiasAdd/ReadVariableOp", "shape": [26], "dtype": "float32"}, {"name": "StatefulPartitionedCall/efficientnetv2-b2/blocks_9/se/conv2d_1/Conv2D/ReadVariableOp", "shape": [1, 1, 26, 416], "dtype": "float32"}, {"name": "StatefulPartitionedCall/efficientnetv2-b2/blocks_9/se/conv2d_1/BiasAdd/ReadVariableOp", "shape": [416], "dtype": "float32"}, {"name": "StatefulPartitionedCall/efficientnetv2-b2/blocks_8/se/Mean/reduction_indices", "shape": [2], "dtype": "int32"}, {"name": "StatefulPartitionedCall/efficientnetv2-b2/blocks_8/se/conv2d/Conv2D/ReadVariableOp", "shape": [1, 1, 224, 14], "dtype": "float32"}, {"name": "StatefulPartitionedCall/efficientnetv2-b2/blocks_8/se/conv2d/BiasAdd/ReadVariableOp", "shape": [14], "dtype": "float32"}, {"name": "StatefulPartitionedCall/efficientnetv2-b2/blocks_8/se/conv2d_1/Conv2D/ReadVariableOp", "shape": [1, 1, 14, 224], "dtype": "float32"}, {"name": "StatefulPartitionedCall/efficientnetv2-b2/blocks_8/se/conv2d_1/BiasAdd/ReadVariableOp", "shape": [224], "dtype": "float32"}, {"name": "StatefulPartitionedCall/efficientnetv2-b2/head/global_average_pooling2d/Mean/reduction_indices", "shape": [2], "dtype": "int32"}, {"name": "StatefulPartitionedCall/efficientnetv2-b2/head_1/dense/MatMul/ReadVariableOp", "shape": [1408, 1000], "dtype": "float32"}, {"name": "StatefulPartitionedCall/efficientnetv2-b2/head_1/dense/BiasAdd/ReadVariableOp", "shape": [1000], "dtype": "float32"}, {"name": "StatefulPartitionedCall/efficientnetv2-b2/stem/conv2d/Conv2D_weights", "shape": [3, 3, 3, 32], "dtype": "float32"}, {"name": "StatefulPartitionedCall/efficientnetv2-b2/stem/conv2d/Conv2D_bn_offset", "shape": [32], "dtype": "float32"}, {"name": "StatefulPartitionedCall/efficientnetv2-b2/blocks_0/conv2d/Conv2D_weights", "shape": [3, 3, 32, 16], "dtype": "float32"}, {"name": "StatefulPartitionedCall/efficientnetv2-b2/blocks_0/conv2d/Conv2D_bn_offset", "shape": [16], "dtype": "float32"}, {"name": "StatefulPartitionedCall/efficientnetv2-b2/blocks_1/conv2d/Conv2D_weights", "shape": [3, 3, 16, 16], "dtype": "float32"}, {"name": "StatefulPartitionedCall/efficientnetv2-b2/blocks_1/conv2d/Conv2D_bn_offset", "shape": [16], "dtype": "float32"}, {"name": "StatefulPartitionedCall/efficientnetv2-b2/blocks_2/conv2d/Conv2D_weights", "shape": [3, 3, 16, 64], "dtype": "float32"}, {"name": "StatefulPartitionedCall/efficientnetv2-b2/blocks_2/conv2d/Conv2D_bn_offset", "shape": [64], "dtype": "float32"}, {"name": "StatefulPartitionedCall/efficientnetv2-b2/blocks_2/conv2d_1/Conv2D_weights", "shape": [1, 1, 64, 32], "dtype": "float32"}, {"name": "StatefulPartitionedCall/efficientnetv2-b2/blocks_24/conv2d_1/Conv2D_weights", "shape": [1, 1, 1248, 208], "dtype": "float32"}, {"name": "StatefulPartitionedCall/efficientnetv2-b2/blocks_2/conv2d_1/Conv2D_bn_offset", "shape": [32], "dtype": "float32"}, {"name": "StatefulPartitionedCall/efficientnetv2-b2/blocks_3/conv2d/Conv2D_weights", "shape": [3, 3, 32, 128], "dtype": "float32"}, {"name": "StatefulPartitionedCall/efficientnetv2-b2/blocks_27/conv2d_1/Conv2D_weights", "shape": [1, 1, 1248, 208], "dtype": "float32"}, {"name": "StatefulPartitionedCall/efficientnetv2-b2/blocks_3/conv2d/Conv2D_bn_offset", "shape": [128], "dtype": "float32"}, {"name": "StatefulPartitionedCall/efficientnetv2-b2/blocks_3/conv2d_1/Conv2D_weights", "shape": [1, 1, 128, 32], "dtype": "float32"}, {"name": "StatefulPartitionedCall/efficientnetv2-b2/blocks_24/conv2d_1/Conv2D_bn_offset", "shape": [208], "dtype": "float32"}, {"name": "StatefulPartitionedCall/efficientnetv2-b2/blocks_3/conv2d_1/Conv2D_bn_offset", "shape": [32], "dtype": "float32"}, {"name": "StatefulPartitionedCall/efficientnetv2-b2/blocks_4/conv2d/Conv2D_weights", "shape": [3, 3, 32, 128], "dtype": "float32"}, {"name": "StatefulPartitionedCall/efficientnetv2-b2/blocks_4/conv2d/Conv2D_bn_offset", "shape": [128], "dtype": "float32"}, {"name": "StatefulPartitionedCall/efficientnetv2-b2/blocks_4/conv2d_1/Conv2D_weights", "shape": [1, 1, 128, 32], "dtype": "float32"}, {"name": "StatefulPartitionedCall/efficientnetv2-b2/blocks_4/conv2d_1/Conv2D_bn_offset", "shape": [32], "dtype": "float32"}, {"name": "StatefulPartitionedCall/efficientnetv2-b2/blocks_5/conv2d/Conv2D_weights", "shape": [3, 3, 32, 128], "dtype": "float32"}, {"name": "StatefulPartitionedCall/efficientnetv2-b2/blocks_25/conv2d/Conv2D_weights", "shape": [1, 1, 208, 1248], "dtype": "float32"}, {"name": "StatefulPartitionedCall/efficientnetv2-b2/blocks_5/conv2d/Conv2D_bn_offset", "shape": [128], "dtype": "float32"}, {"name": "StatefulPartitionedCall/efficientnetv2-b2/blocks_5/conv2d_1/Conv2D_weights", "shape": [1, 1, 128, 56], "dtype": "float32"}, {"name": "StatefulPartitionedCall/efficientnetv2-b2/blocks_5/conv2d_1/Conv2D_bn_offset", "shape": [56], "dtype": "float32"}, {"name": "StatefulPartitionedCall/efficientnetv2-b2/blocks_6/conv2d/Conv2D_weights", "shape": [3, 3, 56, 224], "dtype": "float32"}, {"name": "StatefulPartitionedCall/efficientnetv2-b2/blocks_25/conv2d/Conv2D_bn_offset", "shape": [1248], "dtype": "float32"}, {"name": "StatefulPartitionedCall/efficientnetv2-b2/blocks_6/conv2d/Conv2D_bn_offset", "shape": [224], "dtype": "float32"}, {"name": "StatefulPartitionedCall/efficientnetv2-b2/blocks_6/conv2d_1/Conv2D_weights", "shape": [1, 1, 224, 56], "dtype": "float32"}, {"name": "StatefulPartitionedCall/efficientnetv2-b2/blocks_6/conv2d_1/Conv2D_bn_offset", "shape": [56], "dtype": "float32"}, {"name": "StatefulPartitionedCall/efficientnetv2-b2/blocks_7/conv2d/Conv2D_weights", "shape": [3, 3, 56, 224], "dtype": "float32"}, {"name": "StatefulPartitionedCall/efficientnetv2-b2/blocks_7/conv2d/Conv2D_bn_offset", "shape": [224], "dtype": "float32"}, {"name": "StatefulPartitionedCall/efficientnetv2-b2/blocks_7/conv2d_1/Conv2D_weights", "shape": [1, 1, 224, 56], "dtype": "float32"}, {"name": "StatefulPartitionedCall/efficientnetv2-b2/blocks_7/conv2d_1/Conv2D_bn_offset", "shape": [56], "dtype": "float32"}, {"name": "StatefulPartitionedCall/efficientnetv2-b2/blocks_8/conv2d/Conv2D_weights", "shape": [1, 1, 56, 224], "dtype": "float32"}, {"name": "StatefulPartitionedCall/efficientnetv2-b2/blocks_25/depthwise_conv2d/depthwise_weights", "shape": [3, 3, 1248, 1], "dtype": "float32"}, {"name": "StatefulPartitionedCall/efficientnetv2-b2/blocks_8/conv2d/Conv2D_bn_offset", "shape": [224], "dtype": "float32"}, {"name": "StatefulPartitionedCall/efficientnetv2-b2/blocks_8/depthwise_conv2d/depthwise_weights", "shape": [3, 3, 224, 1], "dtype": "float32"}, {"name": "StatefulPartitionedCall/efficientnetv2-b2/blocks_8/depthwise_conv2d/depthwise_bn_offset", "shape": [224], "dtype": "float32"}, {"name": "StatefulPartitionedCall/efficientnetv2-b2/blocks_25/depthwise_conv2d/depthwise_bn_offset", "shape": [1248], "dtype": "float32"}, {"name": "StatefulPartitionedCall/efficientnetv2-b2/blocks_8/conv2d_1/Conv2D_weights", "shape": [1, 1, 224, 104], "dtype": "float32"}, {"name": "StatefulPartitionedCall/efficientnetv2-b2/blocks_8/conv2d_1/Conv2D_bn_offset", "shape": [104], "dtype": "float32"}, {"name": "StatefulPartitionedCall/efficientnetv2-b2/blocks_9/conv2d/Conv2D_weights", "shape": [1, 1, 104, 416], "dtype": "float32"}, {"name": "StatefulPartitionedCall/efficientnetv2-b2/blocks_9/conv2d/Conv2D_bn_offset", "shape": [416], "dtype": "float32"}, {"name": "StatefulPartitionedCall/efficientnetv2-b2/blocks_9/depthwise_conv2d/depthwise_weights", "shape": [3, 3, 416, 1], "dtype": "float32"}, {"name": "StatefulPartitionedCall/efficientnetv2-b2/blocks_9/depthwise_conv2d/depthwise_bn_offset", "shape": [416], "dtype": "float32"}, {"name": "StatefulPartitionedCall/efficientnetv2-b2/blocks_9/conv2d_1/Conv2D_weights", "shape": [1, 1, 416, 104], "dtype": "float32"}, {"name": "StatefulPartitionedCall/efficientnetv2-b2/blocks_27/conv2d_1/Conv2D_bn_offset", "shape": [208], "dtype": "float32"}, {"name": "StatefulPartitionedCall/efficientnetv2-b2/blocks_9/conv2d_1/Conv2D_bn_offset", "shape": [104], "dtype": "float32"}, {"name": "StatefulPartitionedCall/efficientnetv2-b2/blocks_10/conv2d/Conv2D_weights", "shape": [1, 1, 104, 416], "dtype": "float32"}, {"name": "StatefulPartitionedCall/efficientnetv2-b2/blocks_10/conv2d/Conv2D_bn_offset", "shape": [416], "dtype": "float32"}, {"name": "StatefulPartitionedCall/efficientnetv2-b2/blocks_10/depthwise_conv2d/depthwise_weights", "shape": [3, 3, 416, 1], "dtype": "float32"}, {"name": "StatefulPartitionedCall/efficientnetv2-b2/blocks_10/depthwise_conv2d/depthwise_bn_offset", "shape": [416], "dtype": "float32"}, {"name": "StatefulPartitionedCall/efficientnetv2-b2/blocks_10/conv2d_1/Conv2D_weights", "shape": [1, 1, 416, 104], "dtype": "float32"}, {"name": "StatefulPartitionedCall/efficientnetv2-b2/blocks_10/conv2d_1/Conv2D_bn_offset", "shape": [104], "dtype": "float32"}, {"name": "StatefulPartitionedCall/efficientnetv2-b2/blocks_11/conv2d/Conv2D_weights", "shape": [1, 1, 104, 416], "dtype": "float32"}, {"name": "StatefulPartitionedCall/efficientnetv2-b2/blocks_11/conv2d/Conv2D_bn_offset", "shape": [416], "dtype": "float32"}, {"name": "StatefulPartitionedCall/efficientnetv2-b2/blocks_11/depthwise_conv2d/depthwise_weights", "shape": [3, 3, 416, 1], "dtype": "float32"}, {"name": "StatefulPartitionedCall/efficientnetv2-b2/blocks_11/depthwise_conv2d/depthwise_bn_offset", "shape": [416], "dtype": "float32"}, {"name": "StatefulPartitionedCall/efficientnetv2-b2/blocks_11/conv2d_1/Conv2D_weights", "shape": [1, 1, 416, 104], "dtype": "float32"}, {"name": "StatefulPartitionedCall/efficientnetv2-b2/blocks_25/conv2d_1/Conv2D_weights", "shape": [1, 1, 1248, 208], "dtype": "float32"}, {"name": "StatefulPartitionedCall/efficientnetv2-b2/blocks_11/conv2d_1/Conv2D_bn_offset", "shape": [104], "dtype": "float32"}, {"name": "StatefulPartitionedCall/efficientnetv2-b2/blocks_12/conv2d/Conv2D_weights", "shape": [1, 1, 104, 624], "dtype": "float32"}, {"name": "StatefulPartitionedCall/efficientnetv2-b2/blocks_12/conv2d/Conv2D_bn_offset", "shape": [624], "dtype": "float32"}, {"name": "StatefulPartitionedCall/efficientnetv2-b2/blocks_12/depthwise_conv2d/depthwise_weights", "shape": [3, 3, 624, 1], "dtype": "float32"}, {"name": "StatefulPartitionedCall/efficientnetv2-b2/blocks_12/depthwise_conv2d/depthwise_bn_offset", "shape": [624], "dtype": "float32"}, {"name": "StatefulPartitionedCall/efficientnetv2-b2/blocks_25/conv2d_1/Conv2D_bn_offset", "shape": [208], "dtype": "float32"}, {"name": "StatefulPartitionedCall/efficientnetv2-b2/blocks_12/conv2d_1/Conv2D_weights", "shape": [1, 1, 624, 120], "dtype": "float32"}, {"name": "StatefulPartitionedCall/efficientnetv2-b2/blocks_12/conv2d_1/Conv2D_bn_offset", "shape": [120], "dtype": "float32"}, {"name": "StatefulPartitionedCall/efficientnetv2-b2/blocks_13/conv2d/Conv2D_weights", "shape": [1, 1, 120, 720], "dtype": "float32"}, {"name": "StatefulPartitionedCall/efficientnetv2-b2/blocks_26/conv2d/Conv2D_weights", "shape": [1, 1, 208, 1248], "dtype": "float32"}, {"name": "StatefulPartitionedCall/efficientnetv2-b2/blocks_13/conv2d/Conv2D_bn_offset", "shape": [720], "dtype": "float32"}, {"name": "StatefulPartitionedCall/efficientnetv2-b2/blocks_13/depthwise_conv2d/depthwise_weights", "shape": [3, 3, 720, 1], "dtype": "float32"}, {"name": "StatefulPartitionedCall/efficientnetv2-b2/blocks_13/depthwise_conv2d/depthwise_bn_offset", "shape": [720], "dtype": "float32"}, {"name": "StatefulPartitionedCall/efficientnetv2-b2/head/conv2d/Conv2D_weights", "shape": [1, 1, 208, 1408], "dtype": "float32"}, {"name": "StatefulPartitionedCall/efficientnetv2-b2/blocks_26/conv2d/Conv2D_bn_offset", "shape": [1248], "dtype": "float32"}, {"name": "StatefulPartitionedCall/efficientnetv2-b2/blocks_13/conv2d_1/Conv2D_weights", "shape": [1, 1, 720, 120], "dtype": "float32"}, {"name": "StatefulPartitionedCall/efficientnetv2-b2/blocks_13/conv2d_1/Conv2D_bn_offset", "shape": [120], "dtype": "float32"}, {"name": "StatefulPartitionedCall/efficientnetv2-b2/blocks_14/conv2d/Conv2D_weights", "shape": [1, 1, 120, 720], "dtype": "float32"}, {"name": "StatefulPartitionedCall/efficientnetv2-b2/blocks_14/conv2d/Conv2D_bn_offset", "shape": [720], "dtype": "float32"}, {"name": "StatefulPartitionedCall/efficientnetv2-b2/blocks_14/depthwise_conv2d/depthwise_weights", "shape": [3, 3, 720, 1], "dtype": "float32"}, {"name": "StatefulPartitionedCall/efficientnetv2-b2/blocks_14/depthwise_conv2d/depthwise_bn_offset", "shape": [720], "dtype": "float32"}, {"name": "StatefulPartitionedCall/efficientnetv2-b2/blocks_26/depthwise_conv2d/depthwise_weights", "shape": [3, 3, 1248, 1], "dtype": "float32"}, {"name": "StatefulPartitionedCall/efficientnetv2-b2/blocks_14/conv2d_1/Conv2D_weights", "shape": [1, 1, 720, 120], "dtype": "float32"}, {"name": "StatefulPartitionedCall/efficientnetv2-b2/blocks_14/conv2d_1/Conv2D_bn_offset", "shape": [120], "dtype": "float32"}, {"name": "StatefulPartitionedCall/efficientnetv2-b2/blocks_15/conv2d/Conv2D_weights", "shape": [1, 1, 120, 720], "dtype": "float32"}, {"name": "StatefulPartitionedCall/efficientnetv2-b2/blocks_26/depthwise_conv2d/depthwise_bn_offset", "shape": [1248], "dtype": "float32"}, {"name": "StatefulPartitionedCall/efficientnetv2-b2/blocks_15/conv2d/Conv2D_bn_offset", "shape": [720], "dtype": "float32"}, {"name": "StatefulPartitionedCall/efficientnetv2-b2/blocks_15/depthwise_conv2d/depthwise_weights", "shape": [3, 3, 720, 1], "dtype": "float32"}, {"name": "StatefulPartitionedCall/efficientnetv2-b2/blocks_15/depthwise_conv2d/depthwise_bn_offset", "shape": [720], "dtype": "float32"}, {"name": "StatefulPartitionedCall/efficientnetv2-b2/blocks_15/conv2d_1/Conv2D_weights", "shape": [1, 1, 720, 120], "dtype": "float32"}, {"name": "StatefulPartitionedCall/efficientnetv2-b2/blocks_15/conv2d_1/Conv2D_bn_offset", "shape": [120], "dtype": "float32"}, {"name": "StatefulPartitionedCall/efficientnetv2-b2/blocks_16/conv2d/Conv2D_weights", "shape": [1, 1, 120, 720], "dtype": "float32"}, {"name": "StatefulPartitionedCall/efficientnetv2-b2/blocks_16/conv2d/Conv2D_bn_offset", "shape": [720], "dtype": "float32"}, {"name": "StatefulPartitionedCall/efficientnetv2-b2/blocks_16/depthwise_conv2d/depthwise_weights", "shape": [3, 3, 720, 1], "dtype": "float32"}, {"name": "StatefulPartitionedCall/efficientnetv2-b2/blocks_16/depthwise_conv2d/depthwise_bn_offset", "shape": [720], "dtype": "float32"}, {"name": "StatefulPartitionedCall/efficientnetv2-b2/blocks_16/conv2d_1/Conv2D_weights", "shape": [1, 1, 720, 120], "dtype": "float32"}, {"name": "StatefulPartitionedCall/efficientnetv2-b2/blocks_16/conv2d_1/Conv2D_bn_offset", "shape": [120], "dtype": "float32"}, {"name": "StatefulPartitionedCall/efficientnetv2-b2/blocks_17/conv2d/Conv2D_weights", "shape": [1, 1, 120, 720], "dtype": "float32"}, {"name": "StatefulPartitionedCall/efficientnetv2-b2/blocks_17/conv2d/Conv2D_bn_offset", "shape": [720], "dtype": "float32"}, {"name": "StatefulPartitionedCall/efficientnetv2-b2/blocks_17/depthwise_conv2d/depthwise_weights", "shape": [3, 3, 720, 1], "dtype": "float32"}, {"name": "StatefulPartitionedCall/efficientnetv2-b2/blocks_17/depthwise_conv2d/depthwise_bn_offset", "shape": [720], "dtype": "float32"}, {"name": "StatefulPartitionedCall/efficientnetv2-b2/head/conv2d/Conv2D_bn_offset", "shape": [1408], "dtype": "float32"}, {"name": "StatefulPartitionedCall/efficientnetv2-b2/blocks_17/conv2d_1/Conv2D_weights", "shape": [1, 1, 720, 120], "dtype": "float32"}, {"name": "StatefulPartitionedCall/efficientnetv2-b2/blocks_17/conv2d_1/Conv2D_bn_offset", "shape": [120], "dtype": "float32"}, {"name": "StatefulPartitionedCall/efficientnetv2-b2/blocks_18/conv2d/Conv2D_weights", "shape": [1, 1, 120, 720], "dtype": "float32"}, {"name": "StatefulPartitionedCall/efficientnetv2-b2/blocks_18/conv2d/Conv2D_bn_offset", "shape": [720], "dtype": "float32"}, {"name": "StatefulPartitionedCall/efficientnetv2-b2/blocks_18/depthwise_conv2d/depthwise_weights", "shape": [3, 3, 720, 1], "dtype": "float32"}, {"name": "StatefulPartitionedCall/efficientnetv2-b2/blocks_18/depthwise_conv2d/depthwise_bn_offset", "shape": [720], "dtype": "float32"}, {"name": "StatefulPartitionedCall/efficientnetv2-b2/blocks_26/conv2d_1/Conv2D_weights", "shape": [1, 1, 1248, 208], "dtype": "float32"}, {"name": "StatefulPartitionedCall/efficientnetv2-b2/blocks_18/conv2d_1/Conv2D_weights", "shape": [1, 1, 720, 208], "dtype": "float32"}, {"name": "StatefulPartitionedCall/efficientnetv2-b2/blocks_26/conv2d_1/Conv2D_bn_offset", "shape": [208], "dtype": "float32"}, {"name": "StatefulPartitionedCall/efficientnetv2-b2/blocks_18/conv2d_1/Conv2D_bn_offset", "shape": [208], "dtype": "float32"}, {"name": "StatefulPartitionedCall/efficientnetv2-b2/blocks_19/conv2d/Conv2D_weights", "shape": [1, 1, 208, 1248], "dtype": "float32"}, {"name": "StatefulPartitionedCall/efficientnetv2-b2/blocks_19/conv2d/Conv2D_bn_offset", "shape": [1248], "dtype": "float32"}, {"name": "StatefulPartitionedCall/efficientnetv2-b2/blocks_19/depthwise_conv2d/depthwise_weights", "shape": [3, 3, 1248, 1], "dtype": "float32"}, {"name": "StatefulPartitionedCall/efficientnetv2-b2/blocks_19/depthwise_conv2d/depthwise_bn_offset", "shape": [1248], "dtype": "float32"}, {"name": "StatefulPartitionedCall/efficientnetv2-b2/blocks_27/conv2d/Conv2D_weights", "shape": [1, 1, 208, 1248], "dtype": "float32"}, {"name": "StatefulPartitionedCall/efficientnetv2-b2/blocks_19/conv2d_1/Conv2D_weights", "shape": [1, 1, 1248, 208], "dtype": "float32"}, {"name": "StatefulPartitionedCall/efficientnetv2-b2/blocks_19/conv2d_1/Conv2D_bn_offset", "shape": [208], "dtype": "float32"}, {"name": "StatefulPartitionedCall/efficientnetv2-b2/blocks_20/conv2d/Conv2D_weights", "shape": [1, 1, 208, 1248], "dtype": "float32"}, {"name": "StatefulPartitionedCall/efficientnetv2-b2/blocks_27/conv2d/Conv2D_bn_offset", "shape": [1248], "dtype": "float32"}, {"name": "StatefulPartitionedCall/efficientnetv2-b2/blocks_20/conv2d/Conv2D_bn_offset", "shape": [1248], "dtype": "float32"}, {"name": "StatefulPartitionedCall/efficientnetv2-b2/blocks_20/depthwise_conv2d/depthwise_weights", "shape": [3, 3, 1248, 1], "dtype": "float32"}, {"name": "StatefulPartitionedCall/efficientnetv2-b2/blocks_20/depthwise_conv2d/depthwise_bn_offset", "shape": [1248], "dtype": "float32"}, {"name": "StatefulPartitionedCall/efficientnetv2-b2/blocks_20/conv2d_1/Conv2D_weights", "shape": [1, 1, 1248, 208], "dtype": "float32"}, {"name": "StatefulPartitionedCall/efficientnetv2-b2/blocks_20/conv2d_1/Conv2D_bn_offset", "shape": [208], "dtype": "float32"}, {"name": "StatefulPartitionedCall/efficientnetv2-b2/blocks_21/conv2d/Conv2D_weights", "shape": [1, 1, 208, 1248], "dtype": "float32"}, {"name": "StatefulPartitionedCall/efficientnetv2-b2/blocks_27/depthwise_conv2d/depthwise_weights", "shape": [3, 3, 1248, 1], "dtype": "float32"}, {"name": "StatefulPartitionedCall/efficientnetv2-b2/blocks_21/conv2d/Conv2D_bn_offset", "shape": [1248], "dtype": "float32"}, {"name": "StatefulPartitionedCall/efficientnetv2-b2/blocks_21/depthwise_conv2d/depthwise_weights", "shape": [3, 3, 1248, 1], "dtype": "float32"}, {"name": "StatefulPartitionedCall/efficientnetv2-b2/blocks_21/depthwise_conv2d/depthwise_bn_offset", "shape": [1248], "dtype": "float32"}, {"name": "StatefulPartitionedCall/efficientnetv2-b2/blocks_27/depthwise_conv2d/depthwise_bn_offset", "shape": [1248], "dtype": "float32"}, {"name": "StatefulPartitionedCall/efficientnetv2-b2/blocks_21/conv2d_1/Conv2D_weights", "shape": [1, 1, 1248, 208], "dtype": "float32"}, {"name": "StatefulPartitionedCall/efficientnetv2-b2/blocks_21/conv2d_1/Conv2D_bn_offset", "shape": [208], "dtype": "float32"}, {"name": "StatefulPartitionedCall/efficientnetv2-b2/blocks_22/conv2d/Conv2D_weights", "shape": [1, 1, 208, 1248], "dtype": "float32"}, {"name": "StatefulPartitionedCall/efficientnetv2-b2/blocks_22/conv2d/Conv2D_bn_offset", "shape": [1248], "dtype": "float32"}, {"name": "StatefulPartitionedCall/efficientnetv2-b2/blocks_22/depthwise_conv2d/depthwise_weights", "shape": [3, 3, 1248, 1], "dtype": "float32"}, {"name": "StatefulPartitionedCall/efficientnetv2-b2/blocks_22/depthwise_conv2d/depthwise_bn_offset", "shape": [1248], "dtype": "float32"}, {"name": "StatefulPartitionedCall/efficientnetv2-b2/blocks_22/conv2d_1/Conv2D_weights", "shape": [1, 1, 1248, 208], "dtype": "float32"}, {"name": "StatefulPartitionedCall/efficientnetv2-b2/blocks_22/conv2d_1/Conv2D_bn_offset", "shape": [208], "dtype": "float32"}, {"name": "StatefulPartitionedCall/efficientnetv2-b2/blocks_23/conv2d/Conv2D_weights", "shape": [1, 1, 208, 1248], "dtype": "float32"}, {"name": "StatefulPartitionedCall/efficientnetv2-b2/blocks_23/conv2d/Conv2D_bn_offset", "shape": [1248], "dtype": "float32"}, {"name": "StatefulPartitionedCall/efficientnetv2-b2/blocks_23/depthwise_conv2d/depthwise_weights", "shape": [3, 3, 1248, 1], "dtype": "float32"}, {"name": "StatefulPartitionedCall/efficientnetv2-b2/blocks_23/depthwise_conv2d/depthwise_bn_offset", "shape": [1248], "dtype": "float32"}, {"name": "StatefulPartitionedCall/efficientnetv2-b2/blocks_23/conv2d_1/Conv2D_weights", "shape": [1, 1, 1248, 208], "dtype": "float32"}, {"name": "StatefulPartitionedCall/efficientnetv2-b2/blocks_23/conv2d_1/Conv2D_bn_offset", "shape": [208], "dtype": "float32"}, {"name": "StatefulPartitionedCall/efficientnetv2-b2/blocks_24/conv2d/Conv2D_weights", "shape": [1, 1, 208, 1248], "dtype": "float32"}, {"name": "StatefulPartitionedCall/efficientnetv2-b2/blocks_24/conv2d/Conv2D_bn_offset", "shape": [1248], "dtype": "float32"}, {"name": "StatefulPartitionedCall/efficientnetv2-b2/blocks_24/depthwise_conv2d/depthwise_weights", "shape": [3, 3, 1248, 1], "dtype": "float32"}, {"name": "StatefulPartitionedCall/efficientnetv2-b2/blocks_24/depthwise_conv2d/depthwise_bn_offset", "shape": [1248], "dtype": "float32"}]}]}