{"format": "graph-model", "generatedBy": "2.7.0", "convertedBy": "TensorFlow.js Converter v2.8.1", "signature": {"inputs": {"input_1:0": {"name": "input_1:0", "dtype": "DT_FLOAT", "tensorShape": {"dim": [{"size": "-1"}, {"size": "-1"}, {"size": "-1"}, {"size": "3"}]}}}, "outputs": {"Identity:0": {"name": "Identity:0", "dtype": "DT_FLOAT", "tensorShape": {"dim": [{"size": "-1"}, {"size": "1000"}]}}}}, "modelTopology": {"node": [{"name": "StatefulPartitionedCall/efficientnetv2-b0/blocks_20/se/Mean/reduction_indices", "op": "Const", "attr": {"dtype": {"type": "DT_INT32"}, "value": {"tensor": {"dtype": "DT_INT32", "tensorShape": {"dim": [{"size": "2"}]}}}}}, {"name": "StatefulPartitionedCall/efficientnetv2-b0/blocks_20/se/conv2d/Conv2D/ReadVariableOp", "op": "Const", "attr": {"dtype": {"type": "DT_FLOAT"}, "value": {"tensor": {"dtype": "DT_FLOAT", "tensorShape": {"dim": [{"size": "1"}, {"size": "1"}, {"size": "1152"}, {"size": "48"}]}}}}}, {"name": "StatefulPartitionedCall/efficientnetv2-b0/blocks_20/se/conv2d/BiasAdd/ReadVariableOp", "op": "Const", "attr": {"dtype": {"type": "DT_FLOAT"}, "value": {"tensor": {"dtype": "DT_FLOAT", "tensorShape": {"dim": [{"size": "48"}]}}}}}, {"name": "StatefulPartitionedCall/efficientnetv2-b0/blocks_20/se/conv2d_1/Conv2D/ReadVariableOp", "op": "Const", "attr": {"dtype": {"type": "DT_FLOAT"}, "value": {"tensor": {"dtype": "DT_FLOAT", "tensorShape": {"dim": [{"size": "1"}, {"size": "1"}, {"size": "48"}, {"size": "1152"}]}}}}}, {"name": "StatefulPartitionedCall/efficientnetv2-b0/blocks_20/se/conv2d_1/BiasAdd/ReadVariableOp", "op": "Const", "attr": {"dtype": {"type": "DT_FLOAT"}, "value": {"tensor": {"dtype": "DT_FLOAT", "tensorShape": {"dim": [{"size": "1152"}]}}}}}, {"name": "StatefulPartitionedCall/efficientnetv2-b0/blocks_19/se/Mean/reduction_indices", "op": "Const", "attr": {"value": {"tensor": {"dtype": "DT_INT32", "tensorShape": {"dim": [{"size": "2"}]}}}, "dtype": {"type": "DT_INT32"}}}, {"name": "StatefulPartitionedCall/efficientnetv2-b0/blocks_19/se/conv2d/Conv2D/ReadVariableOp", "op": "Const", "attr": {"value": {"tensor": {"dtype": "DT_FLOAT", "tensorShape": {"dim": [{"size": "1"}, {"size": "1"}, {"size": "1152"}, {"size": "48"}]}}}, "dtype": {"type": "DT_FLOAT"}}}, {"name": "StatefulPartitionedCall/efficientnetv2-b0/blocks_19/se/conv2d/BiasAdd/ReadVariableOp", "op": "Const", "attr": {"dtype": {"type": "DT_FLOAT"}, "value": {"tensor": {"dtype": "DT_FLOAT", "tensorShape": {"dim": [{"size": "48"}]}}}}}, {"name": "StatefulPartitionedCall/efficientnetv2-b0/blocks_19/se/conv2d_1/Conv2D/ReadVariableOp", "op": "Const", "attr": {"dtype": {"type": "DT_FLOAT"}, "value": {"tensor": {"dtype": "DT_FLOAT", "tensorShape": {"dim": [{"size": "1"}, {"size": "1"}, {"size": "48"}, {"size": "1152"}]}}}}}, {"name": "StatefulPartitionedCall/efficientnetv2-b0/blocks_19/se/conv2d_1/BiasAdd/ReadVariableOp", "op": "Const", "attr": {"value": {"tensor": {"dtype": "DT_FLOAT", "tensorShape": {"dim": [{"size": "1152"}]}}}, "dtype": {"type": "DT_FLOAT"}}}, {"name": "StatefulPartitionedCall/efficientnetv2-b0/blocks_18/se/Mean/reduction_indices", "op": "Const", "attr": {"value": {"tensor": {"dtype": "DT_INT32", "tensorShape": {"dim": [{"size": "2"}]}}}, "dtype": {"type": "DT_INT32"}}}, {"name": "StatefulPartitionedCall/efficientnetv2-b0/blocks_18/se/conv2d/Conv2D/ReadVariableOp", "op": "Const", "attr": {"dtype": {"type": "DT_FLOAT"}, "value": {"tensor": {"dtype": "DT_FLOAT", "tensorShape": {"dim": [{"size": "1"}, {"size": "1"}, {"size": "1152"}, {"size": "48"}]}}}}}, {"name": "StatefulPartitionedCall/efficientnetv2-b0/blocks_18/se/conv2d/BiasAdd/ReadVariableOp", "op": "Const", "attr": {"dtype": {"type": "DT_FLOAT"}, "value": {"tensor": {"dtype": "DT_FLOAT", "tensorShape": {"dim": [{"size": "48"}]}}}}}, {"name": "StatefulPartitionedCall/efficientnetv2-b0/blocks_18/se/conv2d_1/Conv2D/ReadVariableOp", "op": "Const", "attr": {"value": {"tensor": {"dtype": "DT_FLOAT", "tensorShape": {"dim": [{"size": "1"}, {"size": "1"}, {"size": "48"}, {"size": "1152"}]}}}, "dtype": {"type": "DT_FLOAT"}}}, {"name": "StatefulPartitionedCall/efficientnetv2-b0/blocks_18/se/conv2d_1/BiasAdd/ReadVariableOp", "op": "Const", "attr": {"dtype": {"type": "DT_FLOAT"}, "value": {"tensor": {"dtype": "DT_FLOAT", "tensorShape": {"dim": [{"size": "1152"}]}}}}}, {"name": "StatefulPartitionedCall/efficientnetv2-b0/blocks_17/se/Mean/reduction_indices", "op": "Const", "attr": {"value": {"tensor": {"dtype": "DT_INT32", "tensorShape": {"dim": [{"size": "2"}]}}}, "dtype": {"type": "DT_INT32"}}}, {"name": "StatefulPartitionedCall/efficientnetv2-b0/blocks_17/se/conv2d/Conv2D/ReadVariableOp", "op": "Const", "attr": {"dtype": {"type": "DT_FLOAT"}, "value": {"tensor": {"dtype": "DT_FLOAT", "tensorShape": {"dim": [{"size": "1"}, {"size": "1"}, {"size": "1152"}, {"size": "48"}]}}}}}, {"name": "StatefulPartitionedCall/efficientnetv2-b0/blocks_17/se/conv2d/BiasAdd/ReadVariableOp", "op": "Const", "attr": {"value": {"tensor": {"dtype": "DT_FLOAT", "tensorShape": {"dim": [{"size": "48"}]}}}, "dtype": {"type": "DT_FLOAT"}}}, {"name": "StatefulPartitionedCall/efficientnetv2-b0/blocks_17/se/conv2d_1/Conv2D/ReadVariableOp", "op": "Const", "attr": {"dtype": {"type": "DT_FLOAT"}, "value": {"tensor": {"dtype": "DT_FLOAT", "tensorShape": {"dim": [{"size": "1"}, {"size": "1"}, {"size": "48"}, {"size": "1152"}]}}}}}, {"name": "StatefulPartitionedCall/efficientnetv2-b0/blocks_17/se/conv2d_1/BiasAdd/ReadVariableOp", "op": "Const", "attr": {"dtype": {"type": "DT_FLOAT"}, "value": {"tensor": {"dtype": "DT_FLOAT", "tensorShape": {"dim": [{"size": "1152"}]}}}}}, {"name": "StatefulPartitionedCall/efficientnetv2-b0/blocks_16/se/Mean/reduction_indices", "op": "Const", "attr": {"dtype": {"type": "DT_INT32"}, "value": {"tensor": {"dtype": "DT_INT32", "tensorShape": {"dim": [{"size": "2"}]}}}}}, {"name": "StatefulPartitionedCall/efficientnetv2-b0/blocks_16/se/conv2d/Conv2D/ReadVariableOp", "op": "Const", "attr": {"dtype": {"type": "DT_FLOAT"}, "value": {"tensor": {"dtype": "DT_FLOAT", "tensorShape": {"dim": [{"size": "1"}, {"size": "1"}, {"size": "1152"}, {"size": "48"}]}}}}}, {"name": "StatefulPartitionedCall/efficientnetv2-b0/blocks_16/se/conv2d/BiasAdd/ReadVariableOp", "op": "Const", "attr": {"value": {"tensor": {"dtype": "DT_FLOAT", "tensorShape": {"dim": [{"size": "48"}]}}}, "dtype": {"type": "DT_FLOAT"}}}, {"name": "StatefulPartitionedCall/efficientnetv2-b0/blocks_16/se/conv2d_1/Conv2D/ReadVariableOp", "op": "Const", "attr": {"value": {"tensor": {"dtype": "DT_FLOAT", "tensorShape": {"dim": [{"size": "1"}, {"size": "1"}, {"size": "48"}, {"size": "1152"}]}}}, "dtype": {"type": "DT_FLOAT"}}}, {"name": "StatefulPartitionedCall/efficientnetv2-b0/blocks_16/se/conv2d_1/BiasAdd/ReadVariableOp", "op": "Const", "attr": {"dtype": {"type": "DT_FLOAT"}, "value": {"tensor": {"dtype": "DT_FLOAT", "tensorShape": {"dim": [{"size": "1152"}]}}}}}, {"name": "StatefulPartitionedCall/efficientnetv2-b0/blocks_15/se/Mean/reduction_indices", "op": "Const", "attr": {"dtype": {"type": "DT_INT32"}, "value": {"tensor": {"dtype": "DT_INT32", "tensorShape": {"dim": [{"size": "2"}]}}}}}, {"name": "StatefulPartitionedCall/efficientnetv2-b0/blocks_15/se/conv2d/Conv2D/ReadVariableOp", "op": "Const", "attr": {"value": {"tensor": {"dtype": "DT_FLOAT", "tensorShape": {"dim": [{"size": "1"}, {"size": "1"}, {"size": "1152"}, {"size": "48"}]}}}, "dtype": {"type": "DT_FLOAT"}}}, {"name": "StatefulPartitionedCall/efficientnetv2-b0/blocks_15/se/conv2d/BiasAdd/ReadVariableOp", "op": "Const", "attr": {"dtype": {"type": "DT_FLOAT"}, "value": {"tensor": {"dtype": "DT_FLOAT", "tensorShape": {"dim": [{"size": "48"}]}}}}}, {"name": "StatefulPartitionedCall/efficientnetv2-b0/blocks_15/se/conv2d_1/Conv2D/ReadVariableOp", "op": "Const", "attr": {"dtype": {"type": "DT_FLOAT"}, "value": {"tensor": {"dtype": "DT_FLOAT", "tensorShape": {"dim": [{"size": "1"}, {"size": "1"}, {"size": "48"}, {"size": "1152"}]}}}}}, {"name": "StatefulPartitionedCall/efficientnetv2-b0/blocks_15/se/conv2d_1/BiasAdd/ReadVariableOp", "op": "Const", "attr": {"value": {"tensor": {"dtype": "DT_FLOAT", "tensorShape": {"dim": [{"size": "1152"}]}}}, "dtype": {"type": "DT_FLOAT"}}}, {"name": "StatefulPartitionedCall/efficientnetv2-b0/blocks_14/se/Mean/reduction_indices", "op": "Const", "attr": {"value": {"tensor": {"dtype": "DT_INT32", "tensorShape": {"dim": [{"size": "2"}]}}}, "dtype": {"type": "DT_INT32"}}}, {"name": "StatefulPartitionedCall/efficientnetv2-b0/blocks_14/se/conv2d/Conv2D/ReadVariableOp", "op": "Const", "attr": {"value": {"tensor": {"dtype": "DT_FLOAT", "tensorShape": {"dim": [{"size": "1"}, {"size": "1"}, {"size": "1152"}, {"size": "48"}]}}}, "dtype": {"type": "DT_FLOAT"}}}, {"name": "StatefulPartitionedCall/efficientnetv2-b0/blocks_14/se/conv2d/BiasAdd/ReadVariableOp", "op": "Const", "attr": {"value": {"tensor": {"dtype": "DT_FLOAT", "tensorShape": {"dim": [{"size": "48"}]}}}, "dtype": {"type": "DT_FLOAT"}}}, {"name": "StatefulPartitionedCall/efficientnetv2-b0/blocks_14/se/conv2d_1/Conv2D/ReadVariableOp", "op": "Const", "attr": {"value": {"tensor": {"dtype": "DT_FLOAT", "tensorShape": {"dim": [{"size": "1"}, {"size": "1"}, {"size": "48"}, {"size": "1152"}]}}}, "dtype": {"type": "DT_FLOAT"}}}, {"name": "StatefulPartitionedCall/efficientnetv2-b0/blocks_14/se/conv2d_1/BiasAdd/ReadVariableOp", "op": "Const", "attr": {"value": {"tensor": {"dtype": "DT_FLOAT", "tensorShape": {"dim": [{"size": "1152"}]}}}, "dtype": {"type": "DT_FLOAT"}}}, {"name": "StatefulPartitionedCall/efficientnetv2-b0/blocks_13/se/Mean/reduction_indices", "op": "Const", "attr": {"value": {"tensor": {"dtype": "DT_INT32", "tensorShape": {"dim": [{"size": "2"}]}}}, "dtype": {"type": "DT_INT32"}}}, {"name": "StatefulPartitionedCall/efficientnetv2-b0/blocks_13/se/conv2d/Conv2D/ReadVariableOp", "op": "Const", "attr": {"dtype": {"type": "DT_FLOAT"}, "value": {"tensor": {"dtype": "DT_FLOAT", "tensorShape": {"dim": [{"size": "1"}, {"size": "1"}, {"size": "672"}, {"size": "28"}]}}}}}, {"name": "StatefulPartitionedCall/efficientnetv2-b0/blocks_13/se/conv2d/BiasAdd/ReadVariableOp", "op": "Const", "attr": {"dtype": {"type": "DT_FLOAT"}, "value": {"tensor": {"dtype": "DT_FLOAT", "tensorShape": {"dim": [{"size": "28"}]}}}}}, {"name": "StatefulPartitionedCall/efficientnetv2-b0/blocks_13/se/conv2d_1/Conv2D/ReadVariableOp", "op": "Const", "attr": {"value": {"tensor": {"dtype": "DT_FLOAT", "tensorShape": {"dim": [{"size": "1"}, {"size": "1"}, {"size": "28"}, {"size": "672"}]}}}, "dtype": {"type": "DT_FLOAT"}}}, {"name": "StatefulPartitionedCall/efficientnetv2-b0/blocks_13/se/conv2d_1/BiasAdd/ReadVariableOp", "op": "Const", "attr": {"dtype": {"type": "DT_FLOAT"}, "value": {"tensor": {"dtype": "DT_FLOAT", "tensorShape": {"dim": [{"size": "672"}]}}}}}, {"name": "StatefulPartitionedCall/efficientnetv2-b0/blocks_12/se/Mean/reduction_indices", "op": "Const", "attr": {"value": {"tensor": {"dtype": "DT_INT32", "tensorShape": {"dim": [{"size": "2"}]}}}, "dtype": {"type": "DT_INT32"}}}, {"name": "StatefulPartitionedCall/efficientnetv2-b0/blocks_12/se/conv2d/Conv2D/ReadVariableOp", "op": "Const", "attr": {"dtype": {"type": "DT_FLOAT"}, "value": {"tensor": {"dtype": "DT_FLOAT", "tensorShape": {"dim": [{"size": "1"}, {"size": "1"}, {"size": "672"}, {"size": "28"}]}}}}}, {"name": "StatefulPartitionedCall/efficientnetv2-b0/blocks_12/se/conv2d/BiasAdd/ReadVariableOp", "op": "Const", "attr": {"value": {"tensor": {"dtype": "DT_FLOAT", "tensorShape": {"dim": [{"size": "28"}]}}}, "dtype": {"type": "DT_FLOAT"}}}, {"name": "StatefulPartitionedCall/efficientnetv2-b0/blocks_12/se/conv2d_1/Conv2D/ReadVariableOp", "op": "Const", "attr": {"value": {"tensor": {"dtype": "DT_FLOAT", "tensorShape": {"dim": [{"size": "1"}, {"size": "1"}, {"size": "28"}, {"size": "672"}]}}}, "dtype": {"type": "DT_FLOAT"}}}, {"name": "StatefulPartitionedCall/efficientnetv2-b0/blocks_12/se/conv2d_1/BiasAdd/ReadVariableOp", "op": "Const", "attr": {"dtype": {"type": "DT_FLOAT"}, "value": {"tensor": {"dtype": "DT_FLOAT", "tensorShape": {"dim": [{"size": "672"}]}}}}}, {"name": "StatefulPartitionedCall/efficientnetv2-b0/blocks_11/se/Mean/reduction_indices", "op": "Const", "attr": {"value": {"tensor": {"dtype": "DT_INT32", "tensorShape": {"dim": [{"size": "2"}]}}}, "dtype": {"type": "DT_INT32"}}}, {"name": "StatefulPartitionedCall/efficientnetv2-b0/blocks_11/se/conv2d/Conv2D/ReadVariableOp", "op": "Const", "attr": {"value": {"tensor": {"dtype": "DT_FLOAT", "tensorShape": {"dim": [{"size": "1"}, {"size": "1"}, {"size": "672"}, {"size": "28"}]}}}, "dtype": {"type": "DT_FLOAT"}}}, {"name": "StatefulPartitionedCall/efficientnetv2-b0/blocks_11/se/conv2d/BiasAdd/ReadVariableOp", "op": "Const", "attr": {"value": {"tensor": {"dtype": "DT_FLOAT", "tensorShape": {"dim": [{"size": "28"}]}}}, "dtype": {"type": "DT_FLOAT"}}}, {"name": "StatefulPartitionedCall/efficientnetv2-b0/blocks_11/se/conv2d_1/Conv2D/ReadVariableOp", "op": "Const", "attr": {"dtype": {"type": "DT_FLOAT"}, "value": {"tensor": {"dtype": "DT_FLOAT", "tensorShape": {"dim": [{"size": "1"}, {"size": "1"}, {"size": "28"}, {"size": "672"}]}}}}}, {"name": "StatefulPartitionedCall/efficientnetv2-b0/blocks_11/se/conv2d_1/BiasAdd/ReadVariableOp", "op": "Const", "attr": {"value": {"tensor": {"dtype": "DT_FLOAT", "tensorShape": {"dim": [{"size": "672"}]}}}, "dtype": {"type": "DT_FLOAT"}}}, {"name": "StatefulPartitionedCall/efficientnetv2-b0/blocks_10/se/Mean/reduction_indices", "op": "Const", "attr": {"dtype": {"type": "DT_INT32"}, "value": {"tensor": {"dtype": "DT_INT32", "tensorShape": {"dim": [{"size": "2"}]}}}}}, {"name": "StatefulPartitionedCall/efficientnetv2-b0/blocks_10/se/conv2d/Conv2D/ReadVariableOp", "op": "Const", "attr": {"value": {"tensor": {"dtype": "DT_FLOAT", "tensorShape": {"dim": [{"size": "1"}, {"size": "1"}, {"size": "672"}, {"size": "28"}]}}}, "dtype": {"type": "DT_FLOAT"}}}, {"name": "StatefulPartitionedCall/efficientnetv2-b0/blocks_10/se/conv2d/BiasAdd/ReadVariableOp", "op": "Const", "attr": {"dtype": {"type": "DT_FLOAT"}, "value": {"tensor": {"dtype": "DT_FLOAT", "tensorShape": {"dim": [{"size": "28"}]}}}}}, {"name": "StatefulPartitionedCall/efficientnetv2-b0/blocks_10/se/conv2d_1/Conv2D/ReadVariableOp", "op": "Const", "attr": {"value": {"tensor": {"dtype": "DT_FLOAT", "tensorShape": {"dim": [{"size": "1"}, {"size": "1"}, {"size": "28"}, {"size": "672"}]}}}, "dtype": {"type": "DT_FLOAT"}}}, {"name": "StatefulPartitionedCall/efficientnetv2-b0/blocks_10/se/conv2d_1/BiasAdd/ReadVariableOp", "op": "Const", "attr": {"dtype": {"type": "DT_FLOAT"}, "value": {"tensor": {"dtype": "DT_FLOAT", "tensorShape": {"dim": [{"size": "672"}]}}}}}, {"name": "StatefulPartitionedCall/efficientnetv2-b0/blocks_9/se/Mean/reduction_indices", "op": "Const", "attr": {"value": {"tensor": {"dtype": "DT_INT32", "tensorShape": {"dim": [{"size": "2"}]}}}, "dtype": {"type": "DT_INT32"}}}, {"name": "StatefulPartitionedCall/efficientnetv2-b0/blocks_9/se/conv2d/Conv2D/ReadVariableOp", "op": "Const", "attr": {"value": {"tensor": {"dtype": "DT_FLOAT", "tensorShape": {"dim": [{"size": "1"}, {"size": "1"}, {"size": "672"}, {"size": "28"}]}}}, "dtype": {"type": "DT_FLOAT"}}}, {"name": "StatefulPartitionedCall/efficientnetv2-b0/blocks_9/se/conv2d/BiasAdd/ReadVariableOp", "op": "Const", "attr": {"value": {"tensor": {"dtype": "DT_FLOAT", "tensorShape": {"dim": [{"size": "28"}]}}}, "dtype": {"type": "DT_FLOAT"}}}, {"name": "StatefulPartitionedCall/efficientnetv2-b0/blocks_9/se/conv2d_1/Conv2D/ReadVariableOp", "op": "Const", "attr": {"value": {"tensor": {"dtype": "DT_FLOAT", "tensorShape": {"dim": [{"size": "1"}, {"size": "1"}, {"size": "28"}, {"size": "672"}]}}}, "dtype": {"type": "DT_FLOAT"}}}, {"name": "StatefulPartitionedCall/efficientnetv2-b0/blocks_9/se/conv2d_1/BiasAdd/ReadVariableOp", "op": "Const", "attr": {"dtype": {"type": "DT_FLOAT"}, "value": {"tensor": {"dtype": "DT_FLOAT", "tensorShape": {"dim": [{"size": "672"}]}}}}}, {"name": "StatefulPartitionedCall/efficientnetv2-b0/blocks_8/se/Mean/reduction_indices", "op": "Const", "attr": {"dtype": {"type": "DT_INT32"}, "value": {"tensor": {"dtype": "DT_INT32", "tensorShape": {"dim": [{"size": "2"}]}}}}}, {"name": "StatefulPartitionedCall/efficientnetv2-b0/blocks_8/se/conv2d/Conv2D/ReadVariableOp", "op": "Const", "attr": {"dtype": {"type": "DT_FLOAT"}, "value": {"tensor": {"dtype": "DT_FLOAT", "tensorShape": {"dim": [{"size": "1"}, {"size": "1"}, {"size": "576"}, {"size": "24"}]}}}}}, {"name": "StatefulPartitionedCall/efficientnetv2-b0/blocks_8/se/conv2d/BiasAdd/ReadVariableOp", "op": "Const", "attr": {"dtype": {"type": "DT_FLOAT"}, "value": {"tensor": {"dtype": "DT_FLOAT", "tensorShape": {"dim": [{"size": "24"}]}}}}}, {"name": "StatefulPartitionedCall/efficientnetv2-b0/blocks_8/se/conv2d_1/Conv2D/ReadVariableOp", "op": "Const", "attr": {"dtype": {"type": "DT_FLOAT"}, "value": {"tensor": {"dtype": "DT_FLOAT", "tensorShape": {"dim": [{"size": "1"}, {"size": "1"}, {"size": "24"}, {"size": "576"}]}}}}}, {"name": "StatefulPartitionedCall/efficientnetv2-b0/blocks_8/se/conv2d_1/BiasAdd/ReadVariableOp", "op": "Const", "attr": {"value": {"tensor": {"dtype": "DT_FLOAT", "tensorShape": {"dim": [{"size": "576"}]}}}, "dtype": {"type": "DT_FLOAT"}}}, {"name": "StatefulPartitionedCall/efficientnetv2-b0/blocks_7/se/Mean/reduction_indices", "op": "Const", "attr": {"value": {"tensor": {"dtype": "DT_INT32", "tensorShape": {"dim": [{"size": "2"}]}}}, "dtype": {"type": "DT_INT32"}}}, {"name": "StatefulPartitionedCall/efficientnetv2-b0/blocks_7/se/conv2d/Conv2D/ReadVariableOp", "op": "Const", "attr": {"dtype": {"type": "DT_FLOAT"}, "value": {"tensor": {"dtype": "DT_FLOAT", "tensorShape": {"dim": [{"size": "1"}, {"size": "1"}, {"size": "384"}, {"size": "24"}]}}}}}, {"name": "StatefulPartitionedCall/efficientnetv2-b0/blocks_7/se/conv2d/BiasAdd/ReadVariableOp", "op": "Const", "attr": {"dtype": {"type": "DT_FLOAT"}, "value": {"tensor": {"dtype": "DT_FLOAT", "tensorShape": {"dim": [{"size": "24"}]}}}}}, {"name": "StatefulPartitionedCall/efficientnetv2-b0/blocks_7/se/conv2d_1/Conv2D/ReadVariableOp", "op": "Const", "attr": {"dtype": {"type": "DT_FLOAT"}, "value": {"tensor": {"dtype": "DT_FLOAT", "tensorShape": {"dim": [{"size": "1"}, {"size": "1"}, {"size": "24"}, {"size": "384"}]}}}}}, {"name": "StatefulPartitionedCall/efficientnetv2-b0/blocks_7/se/conv2d_1/BiasAdd/ReadVariableOp", "op": "Const", "attr": {"value": {"tensor": {"dtype": "DT_FLOAT", "tensorShape": {"dim": [{"size": "384"}]}}}, "dtype": {"type": "DT_FLOAT"}}}, {"name": "StatefulPartitionedCall/efficientnetv2-b0/blocks_6/se/Mean/reduction_indices", "op": "Const", "attr": {"value": {"tensor": {"dtype": "DT_INT32", "tensorShape": {"dim": [{"size": "2"}]}}}, "dtype": {"type": "DT_INT32"}}}, {"name": "StatefulPartitionedCall/efficientnetv2-b0/blocks_6/se/conv2d/Conv2D/ReadVariableOp", "op": "Const", "attr": {"value": {"tensor": {"dtype": "DT_FLOAT", "tensorShape": {"dim": [{"size": "1"}, {"size": "1"}, {"size": "384"}, {"size": "24"}]}}}, "dtype": {"type": "DT_FLOAT"}}}, {"name": "StatefulPartitionedCall/efficientnetv2-b0/blocks_6/se/conv2d/BiasAdd/ReadVariableOp", "op": "Const", "attr": {"value": {"tensor": {"dtype": "DT_FLOAT", "tensorShape": {"dim": [{"size": "24"}]}}}, "dtype": {"type": "DT_FLOAT"}}}, {"name": "StatefulPartitionedCall/efficientnetv2-b0/blocks_6/se/conv2d_1/Conv2D/ReadVariableOp", "op": "Const", "attr": {"value": {"tensor": {"dtype": "DT_FLOAT", "tensorShape": {"dim": [{"size": "1"}, {"size": "1"}, {"size": "24"}, {"size": "384"}]}}}, "dtype": {"type": "DT_FLOAT"}}}, {"name": "StatefulPartitionedCall/efficientnetv2-b0/blocks_6/se/conv2d_1/BiasAdd/ReadVariableOp", "op": "Const", "attr": {"dtype": {"type": "DT_FLOAT"}, "value": {"tensor": {"dtype": "DT_FLOAT", "tensorShape": {"dim": [{"size": "384"}]}}}}}, {"name": "StatefulPartitionedCall/efficientnetv2-b0/blocks_5/se/Mean/reduction_indices", "op": "Const", "attr": {"value": {"tensor": {"dtype": "DT_INT32", "tensorShape": {"dim": [{"size": "2"}]}}}, "dtype": {"type": "DT_INT32"}}}, {"name": "StatefulPartitionedCall/efficientnetv2-b0/blocks_5/se/conv2d/Conv2D/ReadVariableOp", "op": "Const", "attr": {"value": {"tensor": {"dtype": "DT_FLOAT", "tensorShape": {"dim": [{"size": "1"}, {"size": "1"}, {"size": "192"}, {"size": "12"}]}}}, "dtype": {"type": "DT_FLOAT"}}}, {"name": "StatefulPartitionedCall/efficientnetv2-b0/blocks_5/se/conv2d/BiasAdd/ReadVariableOp", "op": "Const", "attr": {"dtype": {"type": "DT_FLOAT"}, "value": {"tensor": {"dtype": "DT_FLOAT", "tensorShape": {"dim": [{"size": "12"}]}}}}}, {"name": "StatefulPartitionedCall/efficientnetv2-b0/blocks_5/se/conv2d_1/Conv2D/ReadVariableOp", "op": "Const", "attr": {"dtype": {"type": "DT_FLOAT"}, "value": {"tensor": {"dtype": "DT_FLOAT", "tensorShape": {"dim": [{"size": "1"}, {"size": "1"}, {"size": "12"}, {"size": "192"}]}}}}}, {"name": "StatefulPartitionedCall/efficientnetv2-b0/blocks_5/se/conv2d_1/BiasAdd/ReadVariableOp", "op": "Const", "attr": {"dtype": {"type": "DT_FLOAT"}, "value": {"tensor": {"dtype": "DT_FLOAT", "tensorShape": {"dim": [{"size": "192"}]}}}}}, {"name": "StatefulPartitionedCall/efficientnetv2-b0/head/global_average_pooling2d/Mean/reduction_indices", "op": "Const", "attr": {"value": {"tensor": {"dtype": "DT_INT32", "tensorShape": {"dim": [{"size": "2"}]}}}, "dtype": {"type": "DT_INT32"}}}, {"name": "StatefulPartitionedCall/efficientnetv2-b0/head_1/dense/MatMul/ReadVariableOp", "op": "Const", "attr": {"value": {"tensor": {"dtype": "DT_FLOAT", "tensorShape": {"dim": [{"size": "1280"}, {"size": "1000"}]}}}, "dtype": {"type": "DT_FLOAT"}}}, {"name": "StatefulPartitionedCall/efficientnetv2-b0/head_1/dense/BiasAdd/ReadVariableOp", "op": "Const", "attr": {"dtype": {"type": "DT_FLOAT"}, "value": {"tensor": {"dtype": "DT_FLOAT", "tensorShape": {"dim": [{"size": "1000"}]}}}}}, {"name": "input_1", "op": "Placeholder", "attr": {"dtype": {"type": "DT_FLOAT"}, "shape": {"shape": {"dim": [{"size": "-1"}, {"size": "-1"}, {"size": "-1"}, {"size": "3"}]}}}}, {"name": "StatefulPartitionedCall/efficientnetv2-b0/stem/conv2d/Conv2D_weights", "op": "Const", "attr": {"value": {"tensor": {"dtype": "DT_FLOAT", "tensorShape": {"dim": [{"size": "3"}, {"size": "3"}, {"size": "3"}, {"size": "32"}]}}}, "dtype": {"type": "DT_FLOAT"}}}, {"name": "StatefulPartitionedCall/efficientnetv2-b0/stem/conv2d/Conv2D_bn_offset", "op": "Const", "attr": {"dtype": {"type": "DT_FLOAT"}, "value": {"tensor": {"dtype": "DT_FLOAT", "tensorShape": {"dim": [{"size": "32"}]}}}}}, {"name": "StatefulPartitionedCall/efficientnetv2-b0/blocks_0/conv2d/Conv2D_weights", "op": "Const", "attr": {"value": {"tensor": {"dtype": "DT_FLOAT", "tensorShape": {"dim": [{"size": "3"}, {"size": "3"}, {"size": "32"}, {"size": "16"}]}}}, "dtype": {"type": "DT_FLOAT"}}}, {"name": "StatefulPartitionedCall/efficientnetv2-b0/blocks_20/conv2d_1/Conv2D_bn_offset", "op": "Const", "attr": {"dtype": {"type": "DT_FLOAT"}, "value": {"tensor": {"dtype": "DT_FLOAT", "tensorShape": {"dim": [{"size": "192"}]}}}}}, {"name": "StatefulPartitionedCall/efficientnetv2-b0/blocks_0/conv2d/Conv2D_bn_offset", "op": "Const", "attr": {"value": {"tensor": {"dtype": "DT_FLOAT", "tensorShape": {"dim": [{"size": "16"}]}}}, "dtype": {"type": "DT_FLOAT"}}}, {"name": "StatefulPartitionedCall/efficientnetv2-b0/blocks_1/conv2d/Conv2D_weights", "op": "Const", "attr": {"value": {"tensor": {"dtype": "DT_FLOAT", "tensorShape": {"dim": [{"size": "3"}, {"size": "3"}, {"size": "16"}, {"size": "64"}]}}}, "dtype": {"type": "DT_FLOAT"}}}, {"name": "StatefulPartitionedCall/efficientnetv2-b0/blocks_1/conv2d/Conv2D_bn_offset", "op": "Const", "attr": {"value": {"tensor": {"dtype": "DT_FLOAT", "tensorShape": {"dim": [{"size": "64"}]}}}, "dtype": {"type": "DT_FLOAT"}}}, {"name": "StatefulPartitionedCall/efficientnetv2-b0/blocks_1/conv2d_1/Conv2D_weights", "op": "Const", "attr": {"value": {"tensor": {"dtype": "DT_FLOAT", "tensorShape": {"dim": [{"size": "1"}, {"size": "1"}, {"size": "64"}, {"size": "32"}]}}}, "dtype": {"type": "DT_FLOAT"}}}, {"name": "StatefulPartitionedCall/efficientnetv2-b0/blocks_1/conv2d_1/Conv2D_bn_offset", "op": "Const", "attr": {"dtype": {"type": "DT_FLOAT"}, "value": {"tensor": {"dtype": "DT_FLOAT", "tensorShape": {"dim": [{"size": "32"}]}}}}}, {"name": "StatefulPartitionedCall/efficientnetv2-b0/blocks_2/conv2d/Conv2D_weights", "op": "Const", "attr": {"dtype": {"type": "DT_FLOAT"}, "value": {"tensor": {"dtype": "DT_FLOAT", "tensorShape": {"dim": [{"size": "3"}, {"size": "3"}, {"size": "32"}, {"size": "128"}]}}}}}, {"name": "StatefulPartitionedCall/efficientnetv2-b0/blocks_2/conv2d/Conv2D_bn_offset", "op": "Const", "attr": {"value": {"tensor": {"dtype": "DT_FLOAT", "tensorShape": {"dim": [{"size": "128"}]}}}, "dtype": {"type": "DT_FLOAT"}}}, {"name": "StatefulPartitionedCall/efficientnetv2-b0/blocks_2/conv2d_1/Conv2D_weights", "op": "Const", "attr": {"value": {"tensor": {"dtype": "DT_FLOAT", "tensorShape": {"dim": [{"size": "1"}, {"size": "1"}, {"size": "128"}, {"size": "32"}]}}}, "dtype": {"type": "DT_FLOAT"}}}, {"name": "StatefulPartitionedCall/efficientnetv2-b0/blocks_2/conv2d_1/Conv2D_bn_offset", "op": "Const", "attr": {"value": {"tensor": {"dtype": "DT_FLOAT", "tensorShape": {"dim": [{"size": "32"}]}}}, "dtype": {"type": "DT_FLOAT"}}}, {"name": "StatefulPartitionedCall/efficientnetv2-b0/blocks_3/conv2d/Conv2D_weights", "op": "Const", "attr": {"dtype": {"type": "DT_FLOAT"}, "value": {"tensor": {"dtype": "DT_FLOAT", "tensorShape": {"dim": [{"size": "3"}, {"size": "3"}, {"size": "32"}, {"size": "128"}]}}}}}, {"name": "StatefulPartitionedCall/efficientnetv2-b0/blocks_3/conv2d/Conv2D_bn_offset", "op": "Const", "attr": {"value": {"tensor": {"dtype": "DT_FLOAT", "tensorShape": {"dim": [{"size": "128"}]}}}, "dtype": {"type": "DT_FLOAT"}}}, {"name": "StatefulPartitionedCall/efficientnetv2-b0/blocks_3/conv2d_1/Conv2D_weights", "op": "Const", "attr": {"value": {"tensor": {"dtype": "DT_FLOAT", "tensorShape": {"dim": [{"size": "1"}, {"size": "1"}, {"size": "128"}, {"size": "48"}]}}}, "dtype": {"type": "DT_FLOAT"}}}, {"name": "StatefulPartitionedCall/efficientnetv2-b0/blocks_3/conv2d_1/Conv2D_bn_offset", "op": "Const", "attr": {"value": {"tensor": {"dtype": "DT_FLOAT", "tensorShape": {"dim": [{"size": "48"}]}}}, "dtype": {"type": "DT_FLOAT"}}}, {"name": "StatefulPartitionedCall/efficientnetv2-b0/blocks_4/conv2d/Conv2D_weights", "op": "Const", "attr": {"dtype": {"type": "DT_FLOAT"}, "value": {"tensor": {"dtype": "DT_FLOAT", "tensorShape": {"dim": [{"size": "3"}, {"size": "3"}, {"size": "48"}, {"size": "192"}]}}}}}, {"name": "StatefulPartitionedCall/efficientnetv2-b0/blocks_4/conv2d/Conv2D_bn_offset", "op": "Const", "attr": {"dtype": {"type": "DT_FLOAT"}, "value": {"tensor": {"dtype": "DT_FLOAT", "tensorShape": {"dim": [{"size": "192"}]}}}}}, {"name": "StatefulPartitionedCall/efficientnetv2-b0/blocks_4/conv2d_1/Conv2D_weights", "op": "Const", "attr": {"dtype": {"type": "DT_FLOAT"}, "value": {"tensor": {"dtype": "DT_FLOAT", "tensorShape": {"dim": [{"size": "1"}, {"size": "1"}, {"size": "192"}, {"size": "48"}]}}}}}, {"name": "StatefulPartitionedCall/efficientnetv2-b0/blocks_18/conv2d_1/Conv2D_weights", "op": "Const", "attr": {"dtype": {"type": "DT_FLOAT"}, "value": {"tensor": {"dtype": "DT_FLOAT", "tensorShape": {"dim": [{"size": "1"}, {"size": "1"}, {"size": "1152"}, {"size": "192"}]}}}}}, {"name": "StatefulPartitionedCall/efficientnetv2-b0/blocks_4/conv2d_1/Conv2D_bn_offset", "op": "Const", "attr": {"dtype": {"type": "DT_FLOAT"}, "value": {"tensor": {"dtype": "DT_FLOAT", "tensorShape": {"dim": [{"size": "48"}]}}}}}, {"name": "StatefulPartitionedCall/efficientnetv2-b0/blocks_5/conv2d/Conv2D_weights", "op": "Const", "attr": {"value": {"tensor": {"dtype": "DT_FLOAT", "tensorShape": {"dim": [{"size": "1"}, {"size": "1"}, {"size": "48"}, {"size": "192"}]}}}, "dtype": {"type": "DT_FLOAT"}}}, {"name": "StatefulPartitionedCall/efficientnetv2-b0/blocks_5/conv2d/Conv2D_bn_offset", "op": "Const", "attr": {"value": {"tensor": {"dtype": "DT_FLOAT", "tensorShape": {"dim": [{"size": "192"}]}}}, "dtype": {"type": "DT_FLOAT"}}}, {"name": "StatefulPartitionedCall/efficientnetv2-b0/blocks_5/depthwise_conv2d/depthwise_weights", "op": "Const", "attr": {"dtype": {"type": "DT_FLOAT"}, "value": {"tensor": {"dtype": "DT_FLOAT", "tensorShape": {"dim": [{"size": "3"}, {"size": "3"}, {"size": "192"}, {"size": "1"}]}}}}}, {"name": "StatefulPartitionedCall/efficientnetv2-b0/blocks_5/depthwise_conv2d/depthwise_bn_offset", "op": "Const", "attr": {"value": {"tensor": {"dtype": "DT_FLOAT", "tensorShape": {"dim": [{"size": "192"}]}}}, "dtype": {"type": "DT_FLOAT"}}}, {"name": "StatefulPartitionedCall/efficientnetv2-b0/blocks_18/conv2d_1/Conv2D_bn_offset", "op": "Const", "attr": {"dtype": {"type": "DT_FLOAT"}, "value": {"tensor": {"dtype": "DT_FLOAT", "tensorShape": {"dim": [{"size": "192"}]}}}}}, {"name": "StatefulPartitionedCall/efficientnetv2-b0/blocks_5/conv2d_1/Conv2D_weights", "op": "Const", "attr": {"value": {"tensor": {"dtype": "DT_FLOAT", "tensorShape": {"dim": [{"size": "1"}, {"size": "1"}, {"size": "192"}, {"size": "96"}]}}}, "dtype": {"type": "DT_FLOAT"}}}, {"name": "StatefulPartitionedCall/efficientnetv2-b0/blocks_5/conv2d_1/Conv2D_bn_offset", "op": "Const", "attr": {"dtype": {"type": "DT_FLOAT"}, "value": {"tensor": {"dtype": "DT_FLOAT", "tensorShape": {"dim": [{"size": "96"}]}}}}}, {"name": "StatefulPartitionedCall/efficientnetv2-b0/blocks_6/conv2d/Conv2D_weights", "op": "Const", "attr": {"dtype": {"type": "DT_FLOAT"}, "value": {"tensor": {"dtype": "DT_FLOAT", "tensorShape": {"dim": [{"size": "1"}, {"size": "1"}, {"size": "96"}, {"size": "384"}]}}}}}, {"name": "StatefulPartitionedCall/efficientnetv2-b0/blocks_19/conv2d/Conv2D_weights", "op": "Const", "attr": {"value": {"tensor": {"dtype": "DT_FLOAT", "tensorShape": {"dim": [{"size": "1"}, {"size": "1"}, {"size": "192"}, {"size": "1152"}]}}}, "dtype": {"type": "DT_FLOAT"}}}, {"name": "StatefulPartitionedCall/efficientnetv2-b0/blocks_6/conv2d/Conv2D_bn_offset", "op": "Const", "attr": {"value": {"tensor": {"dtype": "DT_FLOAT", "tensorShape": {"dim": [{"size": "384"}]}}}, "dtype": {"type": "DT_FLOAT"}}}, {"name": "StatefulPartitionedCall/efficientnetv2-b0/blocks_6/depthwise_conv2d/depthwise_weights", "op": "Const", "attr": {"value": {"tensor": {"dtype": "DT_FLOAT", "tensorShape": {"dim": [{"size": "3"}, {"size": "3"}, {"size": "384"}, {"size": "1"}]}}}, "dtype": {"type": "DT_FLOAT"}}}, {"name": "StatefulPartitionedCall/efficientnetv2-b0/blocks_6/depthwise_conv2d/depthwise_bn_offset", "op": "Const", "attr": {"value": {"tensor": {"dtype": "DT_FLOAT", "tensorShape": {"dim": [{"size": "384"}]}}}, "dtype": {"type": "DT_FLOAT"}}}, {"name": "StatefulPartitionedCall/efficientnetv2-b0/head/conv2d/Conv2D_weights", "op": "Const", "attr": {"dtype": {"type": "DT_FLOAT"}, "value": {"tensor": {"dtype": "DT_FLOAT", "tensorShape": {"dim": [{"size": "1"}, {"size": "1"}, {"size": "192"}, {"size": "1280"}]}}}}}, {"name": "StatefulPartitionedCall/efficientnetv2-b0/blocks_19/conv2d/Conv2D_bn_offset", "op": "Const", "attr": {"dtype": {"type": "DT_FLOAT"}, "value": {"tensor": {"dtype": "DT_FLOAT", "tensorShape": {"dim": [{"size": "1152"}]}}}}}, {"name": "StatefulPartitionedCall/efficientnetv2-b0/blocks_6/conv2d_1/Conv2D_weights", "op": "Const", "attr": {"dtype": {"type": "DT_FLOAT"}, "value": {"tensor": {"dtype": "DT_FLOAT", "tensorShape": {"dim": [{"size": "1"}, {"size": "1"}, {"size": "384"}, {"size": "96"}]}}}}}, {"name": "StatefulPartitionedCall/efficientnetv2-b0/blocks_6/conv2d_1/Conv2D_bn_offset", "op": "Const", "attr": {"dtype": {"type": "DT_FLOAT"}, "value": {"tensor": {"dtype": "DT_FLOAT", "tensorShape": {"dim": [{"size": "96"}]}}}}}, {"name": "StatefulPartitionedCall/efficientnetv2-b0/blocks_7/conv2d/Conv2D_weights", "op": "Const", "attr": {"value": {"tensor": {"dtype": "DT_FLOAT", "tensorShape": {"dim": [{"size": "1"}, {"size": "1"}, {"size": "96"}, {"size": "384"}]}}}, "dtype": {"type": "DT_FLOAT"}}}, {"name": "StatefulPartitionedCall/efficientnetv2-b0/blocks_7/conv2d/Conv2D_bn_offset", "op": "Const", "attr": {"dtype": {"type": "DT_FLOAT"}, "value": {"tensor": {"dtype": "DT_FLOAT", "tensorShape": {"dim": [{"size": "384"}]}}}}}, {"name": "StatefulPartitionedCall/efficientnetv2-b0/blocks_7/depthwise_conv2d/depthwise_weights", "op": "Const", "attr": {"dtype": {"type": "DT_FLOAT"}, "value": {"tensor": {"dtype": "DT_FLOAT", "tensorShape": {"dim": [{"size": "3"}, {"size": "3"}, {"size": "384"}, {"size": "1"}]}}}}}, {"name": "StatefulPartitionedCall/efficientnetv2-b0/blocks_7/depthwise_conv2d/depthwise_bn_offset", "op": "Const", "attr": {"dtype": {"type": "DT_FLOAT"}, "value": {"tensor": {"dtype": "DT_FLOAT", "tensorShape": {"dim": [{"size": "384"}]}}}}}, {"name": "StatefulPartitionedCall/efficientnetv2-b0/blocks_19/depthwise_conv2d/depthwise_weights", "op": "Const", "attr": {"value": {"tensor": {"dtype": "DT_FLOAT", "tensorShape": {"dim": [{"size": "3"}, {"size": "3"}, {"size": "1152"}, {"size": "1"}]}}}, "dtype": {"type": "DT_FLOAT"}}}, {"name": "StatefulPartitionedCall/efficientnetv2-b0/blocks_7/conv2d_1/Conv2D_weights", "op": "Const", "attr": {"dtype": {"type": "DT_FLOAT"}, "value": {"tensor": {"dtype": "DT_FLOAT", "tensorShape": {"dim": [{"size": "1"}, {"size": "1"}, {"size": "384"}, {"size": "96"}]}}}}}, {"name": "StatefulPartitionedCall/efficientnetv2-b0/blocks_7/conv2d_1/Conv2D_bn_offset", "op": "Const", "attr": {"value": {"tensor": {"dtype": "DT_FLOAT", "tensorShape": {"dim": [{"size": "96"}]}}}, "dtype": {"type": "DT_FLOAT"}}}, {"name": "StatefulPartitionedCall/efficientnetv2-b0/blocks_8/conv2d/Conv2D_weights", "op": "Const", "attr": {"value": {"tensor": {"dtype": "DT_FLOAT", "tensorShape": {"dim": [{"size": "1"}, {"size": "1"}, {"size": "96"}, {"size": "576"}]}}}, "dtype": {"type": "DT_FLOAT"}}}, {"name": "StatefulPartitionedCall/efficientnetv2-b0/blocks_19/depthwise_conv2d/depthwise_bn_offset", "op": "Const", "attr": {"dtype": {"type": "DT_FLOAT"}, "value": {"tensor": {"dtype": "DT_FLOAT", "tensorShape": {"dim": [{"size": "1152"}]}}}}}, {"name": "StatefulPartitionedCall/efficientnetv2-b0/blocks_8/conv2d/Conv2D_bn_offset", "op": "Const", "attr": {"value": {"tensor": {"dtype": "DT_FLOAT", "tensorShape": {"dim": [{"size": "576"}]}}}, "dtype": {"type": "DT_FLOAT"}}}, {"name": "StatefulPartitionedCall/efficientnetv2-b0/blocks_8/depthwise_conv2d/depthwise_weights", "op": "Const", "attr": {"value": {"tensor": {"dtype": "DT_FLOAT", "tensorShape": {"dim": [{"size": "3"}, {"size": "3"}, {"size": "576"}, {"size": "1"}]}}}, "dtype": {"type": "DT_FLOAT"}}}, {"name": "StatefulPartitionedCall/efficientnetv2-b0/blocks_8/depthwise_conv2d/depthwise_bn_offset", "op": "Const", "attr": {"value": {"tensor": {"dtype": "DT_FLOAT", "tensorShape": {"dim": [{"size": "576"}]}}}, "dtype": {"type": "DT_FLOAT"}}}, {"name": "StatefulPartitionedCall/efficientnetv2-b0/blocks_8/conv2d_1/Conv2D_weights", "op": "Const", "attr": {"value": {"tensor": {"dtype": "DT_FLOAT", "tensorShape": {"dim": [{"size": "1"}, {"size": "1"}, {"size": "576"}, {"size": "112"}]}}}, "dtype": {"type": "DT_FLOAT"}}}, {"name": "StatefulPartitionedCall/efficientnetv2-b0/blocks_8/conv2d_1/Conv2D_bn_offset", "op": "Const", "attr": {"dtype": {"type": "DT_FLOAT"}, "value": {"tensor": {"dtype": "DT_FLOAT", "tensorShape": {"dim": [{"size": "112"}]}}}}}, {"name": "StatefulPartitionedCall/efficientnetv2-b0/blocks_9/conv2d/Conv2D_weights", "op": "Const", "attr": {"value": {"tensor": {"dtype": "DT_FLOAT", "tensorShape": {"dim": [{"size": "1"}, {"size": "1"}, {"size": "112"}, {"size": "672"}]}}}, "dtype": {"type": "DT_FLOAT"}}}, {"name": "StatefulPartitionedCall/efficientnetv2-b0/blocks_9/conv2d/Conv2D_bn_offset", "op": "Const", "attr": {"value": {"tensor": {"dtype": "DT_FLOAT", "tensorShape": {"dim": [{"size": "672"}]}}}, "dtype": {"type": "DT_FLOAT"}}}, {"name": "StatefulPartitionedCall/efficientnetv2-b0/blocks_9/depthwise_conv2d/depthwise_weights", "op": "Const", "attr": {"dtype": {"type": "DT_FLOAT"}, "value": {"tensor": {"dtype": "DT_FLOAT", "tensorShape": {"dim": [{"size": "3"}, {"size": "3"}, {"size": "672"}, {"size": "1"}]}}}}}, {"name": "StatefulPartitionedCall/efficientnetv2-b0/blocks_9/depthwise_conv2d/depthwise_bn_offset", "op": "Const", "attr": {"value": {"tensor": {"dtype": "DT_FLOAT", "tensorShape": {"dim": [{"size": "672"}]}}}, "dtype": {"type": "DT_FLOAT"}}}, {"name": "StatefulPartitionedCall/efficientnetv2-b0/blocks_9/conv2d_1/Conv2D_weights", "op": "Const", "attr": {"value": {"tensor": {"dtype": "DT_FLOAT", "tensorShape": {"dim": [{"size": "1"}, {"size": "1"}, {"size": "672"}, {"size": "112"}]}}}, "dtype": {"type": "DT_FLOAT"}}}, {"name": "StatefulPartitionedCall/efficientnetv2-b0/blocks_9/conv2d_1/Conv2D_bn_offset", "op": "Const", "attr": {"value": {"tensor": {"dtype": "DT_FLOAT", "tensorShape": {"dim": [{"size": "112"}]}}}, "dtype": {"type": "DT_FLOAT"}}}, {"name": "StatefulPartitionedCall/efficientnetv2-b0/blocks_10/conv2d/Conv2D_weights", "op": "Const", "attr": {"dtype": {"type": "DT_FLOAT"}, "value": {"tensor": {"dtype": "DT_FLOAT", "tensorShape": {"dim": [{"size": "1"}, {"size": "1"}, {"size": "112"}, {"size": "672"}]}}}}}, {"name": "StatefulPartitionedCall/efficientnetv2-b0/blocks_10/conv2d/Conv2D_bn_offset", "op": "Const", "attr": {"value": {"tensor": {"dtype": "DT_FLOAT", "tensorShape": {"dim": [{"size": "672"}]}}}, "dtype": {"type": "DT_FLOAT"}}}, {"name": "StatefulPartitionedCall/efficientnetv2-b0/blocks_10/depthwise_conv2d/depthwise_weights", "op": "Const", "attr": {"dtype": {"type": "DT_FLOAT"}, "value": {"tensor": {"dtype": "DT_FLOAT", "tensorShape": {"dim": [{"size": "3"}, {"size": "3"}, {"size": "672"}, {"size": "1"}]}}}}}, {"name": "StatefulPartitionedCall/efficientnetv2-b0/blocks_10/depthwise_conv2d/depthwise_bn_offset", "op": "Const", "attr": {"dtype": {"type": "DT_FLOAT"}, "value": {"tensor": {"dtype": "DT_FLOAT", "tensorShape": {"dim": [{"size": "672"}]}}}}}, {"name": "StatefulPartitionedCall/efficientnetv2-b0/head/conv2d/Conv2D_bn_offset", "op": "Const", "attr": {"dtype": {"type": "DT_FLOAT"}, "value": {"tensor": {"dtype": "DT_FLOAT", "tensorShape": {"dim": [{"size": "1280"}]}}}}}, {"name": "StatefulPartitionedCall/efficientnetv2-b0/blocks_10/conv2d_1/Conv2D_weights", "op": "Const", "attr": {"value": {"tensor": {"dtype": "DT_FLOAT", "tensorShape": {"dim": [{"size": "1"}, {"size": "1"}, {"size": "672"}, {"size": "112"}]}}}, "dtype": {"type": "DT_FLOAT"}}}, {"name": "StatefulPartitionedCall/efficientnetv2-b0/blocks_10/conv2d_1/Conv2D_bn_offset", "op": "Const", "attr": {"dtype": {"type": "DT_FLOAT"}, "value": {"tensor": {"dtype": "DT_FLOAT", "tensorShape": {"dim": [{"size": "112"}]}}}}}, {"name": "StatefulPartitionedCall/efficientnetv2-b0/blocks_11/conv2d/Conv2D_weights", "op": "Const", "attr": {"value": {"tensor": {"dtype": "DT_FLOAT", "tensorShape": {"dim": [{"size": "1"}, {"size": "1"}, {"size": "112"}, {"size": "672"}]}}}, "dtype": {"type": "DT_FLOAT"}}}, {"name": "StatefulPartitionedCall/efficientnetv2-b0/blocks_11/conv2d/Conv2D_bn_offset", "op": "Const", "attr": {"value": {"tensor": {"dtype": "DT_FLOAT", "tensorShape": {"dim": [{"size": "672"}]}}}, "dtype": {"type": "DT_FLOAT"}}}, {"name": "StatefulPartitionedCall/efficientnetv2-b0/blocks_11/depthwise_conv2d/depthwise_weights", "op": "Const", "attr": {"value": {"tensor": {"dtype": "DT_FLOAT", "tensorShape": {"dim": [{"size": "3"}, {"size": "3"}, {"size": "672"}, {"size": "1"}]}}}, "dtype": {"type": "DT_FLOAT"}}}, {"name": "StatefulPartitionedCall/efficientnetv2-b0/blocks_11/depthwise_conv2d/depthwise_bn_offset", "op": "Const", "attr": {"dtype": {"type": "DT_FLOAT"}, "value": {"tensor": {"dtype": "DT_FLOAT", "tensorShape": {"dim": [{"size": "672"}]}}}}}, {"name": "StatefulPartitionedCall/efficientnetv2-b0/blocks_19/conv2d_1/Conv2D_weights", "op": "Const", "attr": {"value": {"tensor": {"dtype": "DT_FLOAT", "tensorShape": {"dim": [{"size": "1"}, {"size": "1"}, {"size": "1152"}, {"size": "192"}]}}}, "dtype": {"type": "DT_FLOAT"}}}, {"name": "StatefulPartitionedCall/efficientnetv2-b0/blocks_11/conv2d_1/Conv2D_weights", "op": "Const", "attr": {"value": {"tensor": {"dtype": "DT_FLOAT", "tensorShape": {"dim": [{"size": "1"}, {"size": "1"}, {"size": "672"}, {"size": "112"}]}}}, "dtype": {"type": "DT_FLOAT"}}}, {"name": "StatefulPartitionedCall/efficientnetv2-b0/blocks_19/conv2d_1/Conv2D_bn_offset", "op": "Const", "attr": {"dtype": {"type": "DT_FLOAT"}, "value": {"tensor": {"dtype": "DT_FLOAT", "tensorShape": {"dim": [{"size": "192"}]}}}}}, {"name": "StatefulPartitionedCall/efficientnetv2-b0/blocks_11/conv2d_1/Conv2D_bn_offset", "op": "Const", "attr": {"dtype": {"type": "DT_FLOAT"}, "value": {"tensor": {"dtype": "DT_FLOAT", "tensorShape": {"dim": [{"size": "112"}]}}}}}, {"name": "StatefulPartitionedCall/efficientnetv2-b0/blocks_12/conv2d/Conv2D_weights", "op": "Const", "attr": {"dtype": {"type": "DT_FLOAT"}, "value": {"tensor": {"dtype": "DT_FLOAT", "tensorShape": {"dim": [{"size": "1"}, {"size": "1"}, {"size": "112"}, {"size": "672"}]}}}}}, {"name": "StatefulPartitionedCall/efficientnetv2-b0/blocks_12/conv2d/Conv2D_bn_offset", "op": "Const", "attr": {"value": {"tensor": {"dtype": "DT_FLOAT", "tensorShape": {"dim": [{"size": "672"}]}}}, "dtype": {"type": "DT_FLOAT"}}}, {"name": "StatefulPartitionedCall/efficientnetv2-b0/blocks_12/depthwise_conv2d/depthwise_weights", "op": "Const", "attr": {"value": {"tensor": {"dtype": "DT_FLOAT", "tensorShape": {"dim": [{"size": "3"}, {"size": "3"}, {"size": "672"}, {"size": "1"}]}}}, "dtype": {"type": "DT_FLOAT"}}}, {"name": "StatefulPartitionedCall/efficientnetv2-b0/blocks_12/depthwise_conv2d/depthwise_bn_offset", "op": "Const", "attr": {"dtype": {"type": "DT_FLOAT"}, "value": {"tensor": {"dtype": "DT_FLOAT", "tensorShape": {"dim": [{"size": "672"}]}}}}}, {"name": "StatefulPartitionedCall/efficientnetv2-b0/blocks_20/conv2d/Conv2D_weights", "op": "Const", "attr": {"value": {"tensor": {"dtype": "DT_FLOAT", "tensorShape": {"dim": [{"size": "1"}, {"size": "1"}, {"size": "192"}, {"size": "1152"}]}}}, "dtype": {"type": "DT_FLOAT"}}}, {"name": "StatefulPartitionedCall/efficientnetv2-b0/blocks_12/conv2d_1/Conv2D_weights", "op": "Const", "attr": {"dtype": {"type": "DT_FLOAT"}, "value": {"tensor": {"dtype": "DT_FLOAT", "tensorShape": {"dim": [{"size": "1"}, {"size": "1"}, {"size": "672"}, {"size": "112"}]}}}}}, {"name": "StatefulPartitionedCall/efficientnetv2-b0/blocks_12/conv2d_1/Conv2D_bn_offset", "op": "Const", "attr": {"value": {"tensor": {"dtype": "DT_FLOAT", "tensorShape": {"dim": [{"size": "112"}]}}}, "dtype": {"type": "DT_FLOAT"}}}, {"name": "StatefulPartitionedCall/efficientnetv2-b0/blocks_13/conv2d/Conv2D_weights", "op": "Const", "attr": {"value": {"tensor": {"dtype": "DT_FLOAT", "tensorShape": {"dim": [{"size": "1"}, {"size": "1"}, {"size": "112"}, {"size": "672"}]}}}, "dtype": {"type": "DT_FLOAT"}}}, {"name": "StatefulPartitionedCall/efficientnetv2-b0/blocks_20/conv2d/Conv2D_bn_offset", "op": "Const", "attr": {"dtype": {"type": "DT_FLOAT"}, "value": {"tensor": {"dtype": "DT_FLOAT", "tensorShape": {"dim": [{"size": "1152"}]}}}}}, {"name": "StatefulPartitionedCall/efficientnetv2-b0/blocks_13/conv2d/Conv2D_bn_offset", "op": "Const", "attr": {"dtype": {"type": "DT_FLOAT"}, "value": {"tensor": {"dtype": "DT_FLOAT", "tensorShape": {"dim": [{"size": "672"}]}}}}}, {"name": "StatefulPartitionedCall/efficientnetv2-b0/blocks_13/depthwise_conv2d/depthwise_weights", "op": "Const", "attr": {"value": {"tensor": {"dtype": "DT_FLOAT", "tensorShape": {"dim": [{"size": "3"}, {"size": "3"}, {"size": "672"}, {"size": "1"}]}}}, "dtype": {"type": "DT_FLOAT"}}}, {"name": "StatefulPartitionedCall/efficientnetv2-b0/blocks_13/depthwise_conv2d/depthwise_bn_offset", "op": "Const", "attr": {"value": {"tensor": {"dtype": "DT_FLOAT", "tensorShape": {"dim": [{"size": "672"}]}}}, "dtype": {"type": "DT_FLOAT"}}}, {"name": "StatefulPartitionedCall/efficientnetv2-b0/blocks_13/conv2d_1/Conv2D_weights", "op": "Const", "attr": {"value": {"tensor": {"dtype": "DT_FLOAT", "tensorShape": {"dim": [{"size": "1"}, {"size": "1"}, {"size": "672"}, {"size": "192"}]}}}, "dtype": {"type": "DT_FLOAT"}}}, {"name": "StatefulPartitionedCall/efficientnetv2-b0/blocks_13/conv2d_1/Conv2D_bn_offset", "op": "Const", "attr": {"value": {"tensor": {"dtype": "DT_FLOAT", "tensorShape": {"dim": [{"size": "192"}]}}}, "dtype": {"type": "DT_FLOAT"}}}, {"name": "StatefulPartitionedCall/efficientnetv2-b0/blocks_14/conv2d/Conv2D_weights", "op": "Const", "attr": {"dtype": {"type": "DT_FLOAT"}, "value": {"tensor": {"dtype": "DT_FLOAT", "tensorShape": {"dim": [{"size": "1"}, {"size": "1"}, {"size": "192"}, {"size": "1152"}]}}}}}, {"name": "StatefulPartitionedCall/efficientnetv2-b0/blocks_20/depthwise_conv2d/depthwise_weights", "op": "Const", "attr": {"dtype": {"type": "DT_FLOAT"}, "value": {"tensor": {"dtype": "DT_FLOAT", "tensorShape": {"dim": [{"size": "3"}, {"size": "3"}, {"size": "1152"}, {"size": "1"}]}}}}}, {"name": "StatefulPartitionedCall/efficientnetv2-b0/blocks_14/conv2d/Conv2D_bn_offset", "op": "Const", "attr": {"dtype": {"type": "DT_FLOAT"}, "value": {"tensor": {"dtype": "DT_FLOAT", "tensorShape": {"dim": [{"size": "1152"}]}}}}}, {"name": "StatefulPartitionedCall/efficientnetv2-b0/blocks_14/depthwise_conv2d/depthwise_weights", "op": "Const", "attr": {"dtype": {"type": "DT_FLOAT"}, "value": {"tensor": {"dtype": "DT_FLOAT", "tensorShape": {"dim": [{"size": "3"}, {"size": "3"}, {"size": "1152"}, {"size": "1"}]}}}}}, {"name": "StatefulPartitionedCall/efficientnetv2-b0/blocks_14/depthwise_conv2d/depthwise_bn_offset", "op": "Const", "attr": {"value": {"tensor": {"dtype": "DT_FLOAT", "tensorShape": {"dim": [{"size": "1152"}]}}}, "dtype": {"type": "DT_FLOAT"}}}, {"name": "StatefulPartitionedCall/efficientnetv2-b0/blocks_20/depthwise_conv2d/depthwise_bn_offset", "op": "Const", "attr": {"dtype": {"type": "DT_FLOAT"}, "value": {"tensor": {"dtype": "DT_FLOAT", "tensorShape": {"dim": [{"size": "1152"}]}}}}}, {"name": "StatefulPartitionedCall/efficientnetv2-b0/blocks_14/conv2d_1/Conv2D_weights", "op": "Const", "attr": {"value": {"tensor": {"dtype": "DT_FLOAT", "tensorShape": {"dim": [{"size": "1"}, {"size": "1"}, {"size": "1152"}, {"size": "192"}]}}}, "dtype": {"type": "DT_FLOAT"}}}, {"name": "StatefulPartitionedCall/efficientnetv2-b0/blocks_14/conv2d_1/Conv2D_bn_offset", "op": "Const", "attr": {"dtype": {"type": "DT_FLOAT"}, "value": {"tensor": {"dtype": "DT_FLOAT", "tensorShape": {"dim": [{"size": "192"}]}}}}}, {"name": "StatefulPartitionedCall/efficientnetv2-b0/blocks_15/conv2d/Conv2D_weights", "op": "Const", "attr": {"dtype": {"type": "DT_FLOAT"}, "value": {"tensor": {"dtype": "DT_FLOAT", "tensorShape": {"dim": [{"size": "1"}, {"size": "1"}, {"size": "192"}, {"size": "1152"}]}}}}}, {"name": "StatefulPartitionedCall/efficientnetv2-b0/blocks_15/conv2d/Conv2D_bn_offset", "op": "Const", "attr": {"value": {"tensor": {"dtype": "DT_FLOAT", "tensorShape": {"dim": [{"size": "1152"}]}}}, "dtype": {"type": "DT_FLOAT"}}}, {"name": "StatefulPartitionedCall/efficientnetv2-b0/blocks_15/depthwise_conv2d/depthwise_weights", "op": "Const", "attr": {"value": {"tensor": {"dtype": "DT_FLOAT", "tensorShape": {"dim": [{"size": "3"}, {"size": "3"}, {"size": "1152"}, {"size": "1"}]}}}, "dtype": {"type": "DT_FLOAT"}}}, {"name": "StatefulPartitionedCall/efficientnetv2-b0/blocks_15/depthwise_conv2d/depthwise_bn_offset", "op": "Const", "attr": {"dtype": {"type": "DT_FLOAT"}, "value": {"tensor": {"dtype": "DT_FLOAT", "tensorShape": {"dim": [{"size": "1152"}]}}}}}, {"name": "StatefulPartitionedCall/efficientnetv2-b0/blocks_15/conv2d_1/Conv2D_weights", "op": "Const", "attr": {"value": {"tensor": {"dtype": "DT_FLOAT", "tensorShape": {"dim": [{"size": "1"}, {"size": "1"}, {"size": "1152"}, {"size": "192"}]}}}, "dtype": {"type": "DT_FLOAT"}}}, {"name": "StatefulPartitionedCall/efficientnetv2-b0/blocks_15/conv2d_1/Conv2D_bn_offset", "op": "Const", "attr": {"dtype": {"type": "DT_FLOAT"}, "value": {"tensor": {"dtype": "DT_FLOAT", "tensorShape": {"dim": [{"size": "192"}]}}}}}, {"name": "StatefulPartitionedCall/efficientnetv2-b0/blocks_16/conv2d/Conv2D_weights", "op": "Const", "attr": {"dtype": {"type": "DT_FLOAT"}, "value": {"tensor": {"dtype": "DT_FLOAT", "tensorShape": {"dim": [{"size": "1"}, {"size": "1"}, {"size": "192"}, {"size": "1152"}]}}}}}, {"name": "StatefulPartitionedCall/efficientnetv2-b0/blocks_16/conv2d/Conv2D_bn_offset", "op": "Const", "attr": {"value": {"tensor": {"dtype": "DT_FLOAT", "tensorShape": {"dim": [{"size": "1152"}]}}}, "dtype": {"type": "DT_FLOAT"}}}, {"name": "StatefulPartitionedCall/efficientnetv2-b0/blocks_16/depthwise_conv2d/depthwise_weights", "op": "Const", "attr": {"dtype": {"type": "DT_FLOAT"}, "value": {"tensor": {"dtype": "DT_FLOAT", "tensorShape": {"dim": [{"size": "3"}, {"size": "3"}, {"size": "1152"}, {"size": "1"}]}}}}}, {"name": "StatefulPartitionedCall/efficientnetv2-b0/blocks_16/depthwise_conv2d/depthwise_bn_offset", "op": "Const", "attr": {"value": {"tensor": {"dtype": "DT_FLOAT", "tensorShape": {"dim": [{"size": "1152"}]}}}, "dtype": {"type": "DT_FLOAT"}}}, {"name": "StatefulPartitionedCall/efficientnetv2-b0/blocks_16/conv2d_1/Conv2D_weights", "op": "Const", "attr": {"dtype": {"type": "DT_FLOAT"}, "value": {"tensor": {"dtype": "DT_FLOAT", "tensorShape": {"dim": [{"size": "1"}, {"size": "1"}, {"size": "1152"}, {"size": "192"}]}}}}}, {"name": "StatefulPartitionedCall/efficientnetv2-b0/blocks_16/conv2d_1/Conv2D_bn_offset", "op": "Const", "attr": {"value": {"tensor": {"dtype": "DT_FLOAT", "tensorShape": {"dim": [{"size": "192"}]}}}, "dtype": {"type": "DT_FLOAT"}}}, {"name": "StatefulPartitionedCall/efficientnetv2-b0/blocks_17/conv2d/Conv2D_weights", "op": "Const", "attr": {"value": {"tensor": {"dtype": "DT_FLOAT", "tensorShape": {"dim": [{"size": "1"}, {"size": "1"}, {"size": "192"}, {"size": "1152"}]}}}, "dtype": {"type": "DT_FLOAT"}}}, {"name": "StatefulPartitionedCall/efficientnetv2-b0/blocks_17/conv2d/Conv2D_bn_offset", "op": "Const", "attr": {"value": {"tensor": {"dtype": "DT_FLOAT", "tensorShape": {"dim": [{"size": "1152"}]}}}, "dtype": {"type": "DT_FLOAT"}}}, {"name": "StatefulPartitionedCall/efficientnetv2-b0/blocks_17/depthwise_conv2d/depthwise_weights", "op": "Const", "attr": {"value": {"tensor": {"dtype": "DT_FLOAT", "tensorShape": {"dim": [{"size": "3"}, {"size": "3"}, {"size": "1152"}, {"size": "1"}]}}}, "dtype": {"type": "DT_FLOAT"}}}, {"name": "StatefulPartitionedCall/efficientnetv2-b0/blocks_17/depthwise_conv2d/depthwise_bn_offset", "op": "Const", "attr": {"value": {"tensor": {"dtype": "DT_FLOAT", "tensorShape": {"dim": [{"size": "1152"}]}}}, "dtype": {"type": "DT_FLOAT"}}}, {"name": "StatefulPartitionedCall/efficientnetv2-b0/blocks_17/conv2d_1/Conv2D_weights", "op": "Const", "attr": {"dtype": {"type": "DT_FLOAT"}, "value": {"tensor": {"dtype": "DT_FLOAT", "tensorShape": {"dim": [{"size": "1"}, {"size": "1"}, {"size": "1152"}, {"size": "192"}]}}}}}, {"name": "StatefulPartitionedCall/efficientnetv2-b0/blocks_20/conv2d_1/Conv2D_weights", "op": "Const", "attr": {"value": {"tensor": {"dtype": "DT_FLOAT", "tensorShape": {"dim": [{"size": "1"}, {"size": "1"}, {"size": "1152"}, {"size": "192"}]}}}, "dtype": {"type": "DT_FLOAT"}}}, {"name": "StatefulPartitionedCall/efficientnetv2-b0/blocks_17/conv2d_1/Conv2D_bn_offset", "op": "Const", "attr": {"dtype": {"type": "DT_FLOAT"}, "value": {"tensor": {"dtype": "DT_FLOAT", "tensorShape": {"dim": [{"size": "192"}]}}}}}, {"name": "StatefulPartitionedCall/efficientnetv2-b0/blocks_18/conv2d/Conv2D_weights", "op": "Const", "attr": {"value": {"tensor": {"dtype": "DT_FLOAT", "tensorShape": {"dim": [{"size": "1"}, {"size": "1"}, {"size": "192"}, {"size": "1152"}]}}}, "dtype": {"type": "DT_FLOAT"}}}, {"name": "StatefulPartitionedCall/efficientnetv2-b0/blocks_18/conv2d/Conv2D_bn_offset", "op": "Const", "attr": {"dtype": {"type": "DT_FLOAT"}, "value": {"tensor": {"dtype": "DT_FLOAT", "tensorShape": {"dim": [{"size": "1152"}]}}}}}, {"name": "StatefulPartitionedCall/efficientnetv2-b0/blocks_18/depthwise_conv2d/depthwise_weights", "op": "Const", "attr": {"value": {"tensor": {"dtype": "DT_FLOAT", "tensorShape": {"dim": [{"size": "3"}, {"size": "3"}, {"size": "1152"}, {"size": "1"}]}}}, "dtype": {"type": "DT_FLOAT"}}}, {"name": "StatefulPartitionedCall/efficientnetv2-b0/blocks_18/depthwise_conv2d/depthwise_bn_offset", "op": "Const", "attr": {"value": {"tensor": {"dtype": "DT_FLOAT", "tensorShape": {"dim": [{"size": "1152"}]}}}, "dtype": {"type": "DT_FLOAT"}}}, {"name": "StatefulPartitionedCall/efficientnetv2-b0/stem/tpu_batch_normalization/FusedBatchNormV3", "op": "_FusedConv2D", "input": ["input_1", "StatefulPartitionedCall/efficientnetv2-b0/stem/conv2d/Conv2D_weights", "StatefulPartitionedCall/efficientnetv2-b0/stem/conv2d/Conv2D_bn_offset"], "device": "/device:CPU:0", "attr": {"dilations": {"list": {"i": ["1", "1", "1", "1"]}}, "data_format": {"s": "TkhXQw=="}, "T": {"type": "DT_FLOAT"}, "padding": {"s": "U0FNRQ=="}, "num_args": {"i": "1"}, "fused_ops": {"list": {"s": ["Qmlhc0FkZA=="]}}, "explicit_paddings": {"list": {}}, "epsilon": {"f": 0.0}, "strides": {"list": {"i": ["1", "2", "2", "1"]}}, "use_cudnn_on_gpu": {"b": true}}}, {"name": "StatefulPartitionedCall/efficientnetv2-b0/stem/Sigmoid", "op": "Sigmoid", "input": ["StatefulPartitionedCall/efficientnetv2-b0/stem/tpu_batch_normalization/FusedBatchNormV3"], "attr": {"T": {"type": "DT_FLOAT"}}}, {"name": "StatefulPartitionedCall/efficientnetv2-b0/stem/mul", "op": "Mul", "input": ["StatefulPartitionedCall/efficientnetv2-b0/stem/tpu_batch_normalization/FusedBatchNormV3", "StatefulPartitionedCall/efficientnetv2-b0/stem/Sigmoid"], "attr": {"T": {"type": "DT_FLOAT"}}}, {"name": "StatefulPartitionedCall/efficientnetv2-b0/blocks_0/tpu_batch_normalization/FusedBatchNormV3", "op": "_FusedConv2D", "input": ["StatefulPartitionedCall/efficientnetv2-b0/stem/mul", "StatefulPartitionedCall/efficientnetv2-b0/blocks_0/conv2d/Conv2D_weights", "StatefulPartitionedCall/efficientnetv2-b0/blocks_0/conv2d/Conv2D_bn_offset"], "device": "/device:CPU:0", "attr": {"T": {"type": "DT_FLOAT"}, "num_args": {"i": "1"}, "explicit_paddings": {"list": {}}, "dilations": {"list": {"i": ["1", "1", "1", "1"]}}, "padding": {"s": "U0FNRQ=="}, "data_format": {"s": "TkhXQw=="}, "fused_ops": {"list": {"s": ["Qmlhc0FkZA=="]}}, "epsilon": {"f": 0.0}, "use_cudnn_on_gpu": {"b": true}, "strides": {"list": {"i": ["1", "1", "1", "1"]}}}}, {"name": "StatefulPartitionedCall/efficientnetv2-b0/blocks_0/Sigmoid", "op": "Sigmoid", "input": ["StatefulPartitionedCall/efficientnetv2-b0/blocks_0/tpu_batch_normalization/FusedBatchNormV3"], "attr": {"T": {"type": "DT_FLOAT"}}}, {"name": "StatefulPartitionedCall/efficientnetv2-b0/blocks_0/mul", "op": "Mul", "input": ["StatefulPartitionedCall/efficientnetv2-b0/blocks_0/tpu_batch_normalization/FusedBatchNormV3", "StatefulPartitionedCall/efficientnetv2-b0/blocks_0/Sigmoid"], "attr": {"T": {"type": "DT_FLOAT"}}}, {"name": "StatefulPartitionedCall/efficientnetv2-b0/blocks_1/tpu_batch_normalization/FusedBatchNormV3", "op": "_FusedConv2D", "input": ["StatefulPartitionedCall/efficientnetv2-b0/blocks_0/mul", "StatefulPartitionedCall/efficientnetv2-b0/blocks_1/conv2d/Conv2D_weights", "StatefulPartitionedCall/efficientnetv2-b0/blocks_1/conv2d/Conv2D_bn_offset"], "device": "/device:CPU:0", "attr": {"epsilon": {"f": 0.0}, "num_args": {"i": "1"}, "strides": {"list": {"i": ["1", "2", "2", "1"]}}, "T": {"type": "DT_FLOAT"}, "dilations": {"list": {"i": ["1", "1", "1", "1"]}}, "fused_ops": {"list": {"s": ["Qmlhc0FkZA=="]}}, "explicit_paddings": {"list": {}}, "data_format": {"s": "TkhXQw=="}, "use_cudnn_on_gpu": {"b": true}, "padding": {"s": "U0FNRQ=="}}}, {"name": "StatefulPartitionedCall/efficientnetv2-b0/blocks_1/Sigmoid", "op": "Sigmoid", "input": ["StatefulPartitionedCall/efficientnetv2-b0/blocks_1/tpu_batch_normalization/FusedBatchNormV3"], "attr": {"T": {"type": "DT_FLOAT"}}}, {"name": "StatefulPartitionedCall/efficientnetv2-b0/blocks_1/mul", "op": "Mul", "input": ["StatefulPartitionedCall/efficientnetv2-b0/blocks_1/tpu_batch_normalization/FusedBatchNormV3", "StatefulPartitionedCall/efficientnetv2-b0/blocks_1/Sigmoid"], "attr": {"T": {"type": "DT_FLOAT"}}}, {"name": "StatefulPartitionedCall/efficientnetv2-b0/blocks_1/tpu_batch_normalization_1/FusedBatchNormV3", "op": "_FusedConv2D", "input": ["StatefulPartitionedCall/efficientnetv2-b0/blocks_1/mul", "StatefulPartitionedCall/efficientnetv2-b0/blocks_1/conv2d_1/Conv2D_weights", "StatefulPartitionedCall/efficientnetv2-b0/blocks_1/conv2d_1/Conv2D_bn_offset"], "device": "/device:CPU:0", "attr": {"data_format": {"s": "TkhXQw=="}, "use_cudnn_on_gpu": {"b": true}, "T": {"type": "DT_FLOAT"}, "epsilon": {"f": 0.0}, "explicit_paddings": {"list": {}}, "dilations": {"list": {"i": ["1", "1", "1", "1"]}}, "fused_ops": {"list": {"s": ["Qmlhc0FkZA=="]}}, "padding": {"s": "U0FNRQ=="}, "num_args": {"i": "1"}, "strides": {"list": {"i": ["1", "1", "1", "1"]}}}}, {"name": "StatefulPartitionedCall/efficientnetv2-b0/blocks_2/tpu_batch_normalization/FusedBatchNormV3", "op": "_FusedConv2D", "input": ["StatefulPartitionedCall/efficientnetv2-b0/blocks_1/tpu_batch_normalization_1/FusedBatchNormV3", "StatefulPartitionedCall/efficientnetv2-b0/blocks_2/conv2d/Conv2D_weights", "StatefulPartitionedCall/efficientnetv2-b0/blocks_2/conv2d/Conv2D_bn_offset"], "device": "/device:CPU:0", "attr": {"use_cudnn_on_gpu": {"b": true}, "padding": {"s": "U0FNRQ=="}, "explicit_paddings": {"list": {}}, "data_format": {"s": "TkhXQw=="}, "strides": {"list": {"i": ["1", "1", "1", "1"]}}, "num_args": {"i": "1"}, "epsilon": {"f": 0.0}, "fused_ops": {"list": {"s": ["Qmlhc0FkZA=="]}}, "T": {"type": "DT_FLOAT"}, "dilations": {"list": {"i": ["1", "1", "1", "1"]}}}}, {"name": "StatefulPartitionedCall/efficientnetv2-b0/blocks_2/Sigmoid", "op": "Sigmoid", "input": ["StatefulPartitionedCall/efficientnetv2-b0/blocks_2/tpu_batch_normalization/FusedBatchNormV3"], "attr": {"T": {"type": "DT_FLOAT"}}}, {"name": "StatefulPartitionedCall/efficientnetv2-b0/blocks_2/mul", "op": "Mul", "input": ["StatefulPartitionedCall/efficientnetv2-b0/blocks_2/tpu_batch_normalization/FusedBatchNormV3", "StatefulPartitionedCall/efficientnetv2-b0/blocks_2/Sigmoid"], "attr": {"T": {"type": "DT_FLOAT"}}}, {"name": "StatefulPartitionedCall/efficientnetv2-b0/blocks_2/tpu_batch_normalization_1/FusedBatchNormV3", "op": "_FusedConv2D", "input": ["StatefulPartitionedCall/efficientnetv2-b0/blocks_2/mul", "StatefulPartitionedCall/efficientnetv2-b0/blocks_2/conv2d_1/Conv2D_weights", "StatefulPartitionedCall/efficientnetv2-b0/blocks_2/conv2d_1/Conv2D_bn_offset"], "device": "/device:CPU:0", "attr": {"T": {"type": "DT_FLOAT"}, "strides": {"list": {"i": ["1", "1", "1", "1"]}}, "num_args": {"i": "1"}, "epsilon": {"f": 0.0}, "explicit_paddings": {"list": {}}, "padding": {"s": "U0FNRQ=="}, "data_format": {"s": "TkhXQw=="}, "fused_ops": {"list": {"s": ["Qmlhc0FkZA=="]}}, "use_cudnn_on_gpu": {"b": true}, "dilations": {"list": {"i": ["1", "1", "1", "1"]}}}}, {"name": "StatefulPartitionedCall/efficientnetv2-b0/blocks_2/Add", "op": "AddV2", "input": ["StatefulPartitionedCall/efficientnetv2-b0/blocks_2/tpu_batch_normalization_1/FusedBatchNormV3", "StatefulPartitionedCall/efficientnetv2-b0/blocks_1/tpu_batch_normalization_1/FusedBatchNormV3"], "attr": {"T": {"type": "DT_FLOAT"}}}, {"name": "StatefulPartitionedCall/efficientnetv2-b0/blocks_3/tpu_batch_normalization/FusedBatchNormV3", "op": "_FusedConv2D", "input": ["StatefulPartitionedCall/efficientnetv2-b0/blocks_2/Add", "StatefulPartitionedCall/efficientnetv2-b0/blocks_3/conv2d/Conv2D_weights", "StatefulPartitionedCall/efficientnetv2-b0/blocks_3/conv2d/Conv2D_bn_offset"], "device": "/device:CPU:0", "attr": {"fused_ops": {"list": {"s": ["Qmlhc0FkZA=="]}}, "data_format": {"s": "TkhXQw=="}, "strides": {"list": {"i": ["1", "2", "2", "1"]}}, "num_args": {"i": "1"}, "T": {"type": "DT_FLOAT"}, "padding": {"s": "U0FNRQ=="}, "epsilon": {"f": 0.0}, "use_cudnn_on_gpu": {"b": true}, "explicit_paddings": {"list": {}}, "dilations": {"list": {"i": ["1", "1", "1", "1"]}}}}, {"name": "StatefulPartitionedCall/efficientnetv2-b0/blocks_3/Sigmoid", "op": "Sigmoid", "input": ["StatefulPartitionedCall/efficientnetv2-b0/blocks_3/tpu_batch_normalization/FusedBatchNormV3"], "attr": {"T": {"type": "DT_FLOAT"}}}, {"name": "StatefulPartitionedCall/efficientnetv2-b0/blocks_3/mul", "op": "Mul", "input": ["StatefulPartitionedCall/efficientnetv2-b0/blocks_3/tpu_batch_normalization/FusedBatchNormV3", "StatefulPartitionedCall/efficientnetv2-b0/blocks_3/Sigmoid"], "attr": {"T": {"type": "DT_FLOAT"}}}, {"name": "StatefulPartitionedCall/efficientnetv2-b0/blocks_3/tpu_batch_normalization_1/FusedBatchNormV3", "op": "_FusedConv2D", "input": ["StatefulPartitionedCall/efficientnetv2-b0/blocks_3/mul", "StatefulPartitionedCall/efficientnetv2-b0/blocks_3/conv2d_1/Conv2D_weights", "StatefulPartitionedCall/efficientnetv2-b0/blocks_3/conv2d_1/Conv2D_bn_offset"], "device": "/device:CPU:0", "attr": {"num_args": {"i": "1"}, "padding": {"s": "U0FNRQ=="}, "strides": {"list": {"i": ["1", "1", "1", "1"]}}, "explicit_paddings": {"list": {}}, "epsilon": {"f": 0.0}, "data_format": {"s": "TkhXQw=="}, "fused_ops": {"list": {"s": ["Qmlhc0FkZA=="]}}, "use_cudnn_on_gpu": {"b": true}, "dilations": {"list": {"i": ["1", "1", "1", "1"]}}, "T": {"type": "DT_FLOAT"}}}, {"name": "StatefulPartitionedCall/efficientnetv2-b0/blocks_4/tpu_batch_normalization/FusedBatchNormV3", "op": "_FusedConv2D", "input": ["StatefulPartitionedCall/efficientnetv2-b0/blocks_3/tpu_batch_normalization_1/FusedBatchNormV3", "StatefulPartitionedCall/efficientnetv2-b0/blocks_4/conv2d/Conv2D_weights", "StatefulPartitionedCall/efficientnetv2-b0/blocks_4/conv2d/Conv2D_bn_offset"], "device": "/device:CPU:0", "attr": {"data_format": {"s": "TkhXQw=="}, "explicit_paddings": {"list": {}}, "dilations": {"list": {"i": ["1", "1", "1", "1"]}}, "strides": {"list": {"i": ["1", "1", "1", "1"]}}, "num_args": {"i": "1"}, "T": {"type": "DT_FLOAT"}, "fused_ops": {"list": {"s": ["Qmlhc0FkZA=="]}}, "padding": {"s": "U0FNRQ=="}, "epsilon": {"f": 0.0}, "use_cudnn_on_gpu": {"b": true}}}, {"name": "StatefulPartitionedCall/efficientnetv2-b0/blocks_4/Sigmoid", "op": "Sigmoid", "input": ["StatefulPartitionedCall/efficientnetv2-b0/blocks_4/tpu_batch_normalization/FusedBatchNormV3"], "attr": {"T": {"type": "DT_FLOAT"}}}, {"name": "StatefulPartitionedCall/efficientnetv2-b0/blocks_4/mul", "op": "Mul", "input": ["StatefulPartitionedCall/efficientnetv2-b0/blocks_4/tpu_batch_normalization/FusedBatchNormV3", "StatefulPartitionedCall/efficientnetv2-b0/blocks_4/Sigmoid"], "attr": {"T": {"type": "DT_FLOAT"}}}, {"name": "StatefulPartitionedCall/efficientnetv2-b0/blocks_4/tpu_batch_normalization_1/FusedBatchNormV3", "op": "_FusedConv2D", "input": ["StatefulPartitionedCall/efficientnetv2-b0/blocks_4/mul", "StatefulPartitionedCall/efficientnetv2-b0/blocks_4/conv2d_1/Conv2D_weights", "StatefulPartitionedCall/efficientnetv2-b0/blocks_4/conv2d_1/Conv2D_bn_offset"], "device": "/device:CPU:0", "attr": {"strides": {"list": {"i": ["1", "1", "1", "1"]}}, "num_args": {"i": "1"}, "data_format": {"s": "TkhXQw=="}, "T": {"type": "DT_FLOAT"}, "explicit_paddings": {"list": {}}, "epsilon": {"f": 0.0}, "fused_ops": {"list": {"s": ["Qmlhc0FkZA=="]}}, "dilations": {"list": {"i": ["1", "1", "1", "1"]}}, "use_cudnn_on_gpu": {"b": true}, "padding": {"s": "U0FNRQ=="}}}, {"name": "StatefulPartitionedCall/efficientnetv2-b0/blocks_4/Add", "op": "AddV2", "input": ["StatefulPartitionedCall/efficientnetv2-b0/blocks_4/tpu_batch_normalization_1/FusedBatchNormV3", "StatefulPartitionedCall/efficientnetv2-b0/blocks_3/tpu_batch_normalization_1/FusedBatchNormV3"], "attr": {"T": {"type": "DT_FLOAT"}}}, {"name": "StatefulPartitionedCall/efficientnetv2-b0/blocks_5/tpu_batch_normalization/FusedBatchNormV3", "op": "_FusedConv2D", "input": ["StatefulPartitionedCall/efficientnetv2-b0/blocks_4/Add", "StatefulPartitionedCall/efficientnetv2-b0/blocks_5/conv2d/Conv2D_weights", "StatefulPartitionedCall/efficientnetv2-b0/blocks_5/conv2d/Conv2D_bn_offset"], "device": "/device:CPU:0", "attr": {"epsilon": {"f": 0.0}, "explicit_paddings": {"list": {}}, "num_args": {"i": "1"}, "strides": {"list": {"i": ["1", "1", "1", "1"]}}, "fused_ops": {"list": {"s": ["Qmlhc0FkZA=="]}}, "data_format": {"s": "TkhXQw=="}, "T": {"type": "DT_FLOAT"}, "padding": {"s": "U0FNRQ=="}, "use_cudnn_on_gpu": {"b": true}, "dilations": {"list": {"i": ["1", "1", "1", "1"]}}}}, {"name": "StatefulPartitionedCall/efficientnetv2-b0/blocks_5/Sigmoid", "op": "Sigmoid", "input": ["StatefulPartitionedCall/efficientnetv2-b0/blocks_5/tpu_batch_normalization/FusedBatchNormV3"], "attr": {"T": {"type": "DT_FLOAT"}}}, {"name": "StatefulPartitionedCall/efficientnetv2-b0/blocks_5/mul", "op": "Mul", "input": ["StatefulPartitionedCall/efficientnetv2-b0/blocks_5/tpu_batch_normalization/FusedBatchNormV3", "StatefulPartitionedCall/efficientnetv2-b0/blocks_5/Sigmoid"], "attr": {"T": {"type": "DT_FLOAT"}}}, {"name": "StatefulPartitionedCall/efficientnetv2-b0/blocks_5/depthwise_conv2d/depthwise", "op": "FusedDepthwiseConv2dNative", "input": ["StatefulPartitionedCall/efficientnetv2-b0/blocks_5/mul", "StatefulPartitionedCall/efficientnetv2-b0/blocks_5/depthwise_conv2d/depthwise_weights", "StatefulPartitionedCall/efficientnetv2-b0/blocks_5/depthwise_conv2d/depthwise_bn_offset"], "attr": {"fused_ops": {"list": {"s": ["Qmlhc0FkZA=="]}}, "data_format": {"s": "TkhXQw=="}, "strides": {"list": {"i": ["1", "2", "2", "1"]}}, "T": {"type": "DT_FLOAT"}, "explicit_paddings": {"list": {}}, "padding": {"s": "U0FNRQ=="}, "num_args": {"i": "1"}, "dilations": {"list": {"i": ["1", "1", "1", "1"]}}}}, {"name": "StatefulPartitionedCall/efficientnetv2-b0/blocks_5/Sigmoid_1", "op": "Sigmoid", "input": ["StatefulPartitionedCall/efficientnetv2-b0/blocks_5/depthwise_conv2d/depthwise"], "attr": {"T": {"type": "DT_FLOAT"}}}, {"name": "StatefulPartitionedCall/efficientnetv2-b0/blocks_5/mul_1", "op": "Mul", "input": ["StatefulPartitionedCall/efficientnetv2-b0/blocks_5/depthwise_conv2d/depthwise", "StatefulPartitionedCall/efficientnetv2-b0/blocks_5/Sigmoid_1"], "attr": {"T": {"type": "DT_FLOAT"}}}, {"name": "StatefulPartitionedCall/efficientnetv2-b0/blocks_5/se/Mean", "op": "Mean", "input": ["StatefulPartitionedCall/efficientnetv2-b0/blocks_5/mul_1", "StatefulPartitionedCall/efficientnetv2-b0/blocks_5/se/Mean/reduction_indices"], "attr": {"T": {"type": "DT_FLOAT"}, "Tidx": {"type": "DT_INT32"}, "keep_dims": {"b": true}}}, {"name": "StatefulPartitionedCall/efficientnetv2-b0/blocks_5/se/conv2d/BiasAdd", "op": "_FusedConv2D", "input": ["StatefulPartitionedCall/efficientnetv2-b0/blocks_5/se/Mean", "StatefulPartitionedCall/efficientnetv2-b0/blocks_5/se/conv2d/Conv2D/ReadVariableOp", "StatefulPartitionedCall/efficientnetv2-b0/blocks_5/se/conv2d/BiasAdd/ReadVariableOp"], "device": "/device:CPU:0", "attr": {"T": {"type": "DT_FLOAT"}, "num_args": {"i": "1"}, "data_format": {"s": "TkhXQw=="}, "fused_ops": {"list": {"s": ["Qmlhc0FkZA=="]}}, "strides": {"list": {"i": ["1", "1", "1", "1"]}}, "use_cudnn_on_gpu": {"b": true}, "epsilon": {"f": 0.0}, "explicit_paddings": {"list": {}}, "padding": {"s": "U0FNRQ=="}, "dilations": {"list": {"i": ["1", "1", "1", "1"]}}}}, {"name": "StatefulPartitionedCall/efficientnetv2-b0/blocks_5/se/Sigmoid", "op": "Sigmoid", "input": ["StatefulPartitionedCall/efficientnetv2-b0/blocks_5/se/conv2d/BiasAdd"], "attr": {"T": {"type": "DT_FLOAT"}}}, {"name": "StatefulPartitionedCall/efficientnetv2-b0/blocks_5/se/mul", "op": "Mul", "input": ["StatefulPartitionedCall/efficientnetv2-b0/blocks_5/se/conv2d/BiasAdd", "StatefulPartitionedCall/efficientnetv2-b0/blocks_5/se/Sigmoid"], "attr": {"T": {"type": "DT_FLOAT"}}}, {"name": "StatefulPartitionedCall/efficientnetv2-b0/blocks_5/se/conv2d_1/BiasAdd", "op": "_FusedConv2D", "input": ["StatefulPartitionedCall/efficientnetv2-b0/blocks_5/se/mul", "StatefulPartitionedCall/efficientnetv2-b0/blocks_5/se/conv2d_1/Conv2D/ReadVariableOp", "StatefulPartitionedCall/efficientnetv2-b0/blocks_5/se/conv2d_1/BiasAdd/ReadVariableOp"], "device": "/device:CPU:0", "attr": {"explicit_paddings": {"list": {}}, "fused_ops": {"list": {"s": ["Qmlhc0FkZA=="]}}, "data_format": {"s": "TkhXQw=="}, "use_cudnn_on_gpu": {"b": true}, "padding": {"s": "U0FNRQ=="}, "epsilon": {"f": 0.0}, "T": {"type": "DT_FLOAT"}, "num_args": {"i": "1"}, "strides": {"list": {"i": ["1", "1", "1", "1"]}}, "dilations": {"list": {"i": ["1", "1", "1", "1"]}}}}, {"name": "StatefulPartitionedCall/efficientnetv2-b0/blocks_5/se/Sigmoid_1", "op": "Sigmoid", "input": ["StatefulPartitionedCall/efficientnetv2-b0/blocks_5/se/conv2d_1/BiasAdd"], "attr": {"T": {"type": "DT_FLOAT"}}}, {"name": "StatefulPartitionedCall/efficientnetv2-b0/blocks_5/se/mul_1", "op": "Mul", "input": ["StatefulPartitionedCall/efficientnetv2-b0/blocks_5/se/Sigmoid_1", "StatefulPartitionedCall/efficientnetv2-b0/blocks_5/mul_1"], "attr": {"T": {"type": "DT_FLOAT"}}}, {"name": "StatefulPartitionedCall/efficientnetv2-b0/blocks_5/tpu_batch_normalization_2/FusedBatchNormV3", "op": "_FusedConv2D", "input": ["StatefulPartitionedCall/efficientnetv2-b0/blocks_5/se/mul_1", "StatefulPartitionedCall/efficientnetv2-b0/blocks_5/conv2d_1/Conv2D_weights", "StatefulPartitionedCall/efficientnetv2-b0/blocks_5/conv2d_1/Conv2D_bn_offset"], "device": "/device:CPU:0", "attr": {"padding": {"s": "U0FNRQ=="}, "T": {"type": "DT_FLOAT"}, "data_format": {"s": "TkhXQw=="}, "num_args": {"i": "1"}, "use_cudnn_on_gpu": {"b": true}, "epsilon": {"f": 0.0}, "explicit_paddings": {"list": {}}, "dilations": {"list": {"i": ["1", "1", "1", "1"]}}, "strides": {"list": {"i": ["1", "1", "1", "1"]}}, "fused_ops": {"list": {"s": ["Qmlhc0FkZA=="]}}}}, {"name": "StatefulPartitionedCall/efficientnetv2-b0/blocks_6/tpu_batch_normalization/FusedBatchNormV3", "op": "_FusedConv2D", "input": ["StatefulPartitionedCall/efficientnetv2-b0/blocks_5/tpu_batch_normalization_2/FusedBatchNormV3", "StatefulPartitionedCall/efficientnetv2-b0/blocks_6/conv2d/Conv2D_weights", "StatefulPartitionedCall/efficientnetv2-b0/blocks_6/conv2d/Conv2D_bn_offset"], "device": "/device:CPU:0", "attr": {"fused_ops": {"list": {"s": ["Qmlhc0FkZA=="]}}, "epsilon": {"f": 0.0}, "num_args": {"i": "1"}, "explicit_paddings": {"list": {}}, "padding": {"s": "U0FNRQ=="}, "use_cudnn_on_gpu": {"b": true}, "dilations": {"list": {"i": ["1", "1", "1", "1"]}}, "strides": {"list": {"i": ["1", "1", "1", "1"]}}, "T": {"type": "DT_FLOAT"}, "data_format": {"s": "TkhXQw=="}}}, {"name": "StatefulPartitionedCall/efficientnetv2-b0/blocks_6/Sigmoid", "op": "Sigmoid", "input": ["StatefulPartitionedCall/efficientnetv2-b0/blocks_6/tpu_batch_normalization/FusedBatchNormV3"], "attr": {"T": {"type": "DT_FLOAT"}}}, {"name": "StatefulPartitionedCall/efficientnetv2-b0/blocks_6/mul", "op": "Mul", "input": ["StatefulPartitionedCall/efficientnetv2-b0/blocks_6/tpu_batch_normalization/FusedBatchNormV3", "StatefulPartitionedCall/efficientnetv2-b0/blocks_6/Sigmoid"], "attr": {"T": {"type": "DT_FLOAT"}}}, {"name": "StatefulPartitionedCall/efficientnetv2-b0/blocks_6/depthwise_conv2d/depthwise", "op": "FusedDepthwiseConv2dNative", "input": ["StatefulPartitionedCall/efficientnetv2-b0/blocks_6/mul", "StatefulPartitionedCall/efficientnetv2-b0/blocks_6/depthwise_conv2d/depthwise_weights", "StatefulPartitionedCall/efficientnetv2-b0/blocks_6/depthwise_conv2d/depthwise_bn_offset"], "attr": {"T": {"type": "DT_FLOAT"}, "fused_ops": {"list": {"s": ["Qmlhc0FkZA=="]}}, "data_format": {"s": "TkhXQw=="}, "padding": {"s": "U0FNRQ=="}, "explicit_paddings": {"list": {}}, "strides": {"list": {"i": ["1", "1", "1", "1"]}}, "dilations": {"list": {"i": ["1", "1", "1", "1"]}}, "num_args": {"i": "1"}}}, {"name": "StatefulPartitionedCall/efficientnetv2-b0/blocks_6/Sigmoid_1", "op": "Sigmoid", "input": ["StatefulPartitionedCall/efficientnetv2-b0/blocks_6/depthwise_conv2d/depthwise"], "attr": {"T": {"type": "DT_FLOAT"}}}, {"name": "StatefulPartitionedCall/efficientnetv2-b0/blocks_6/mul_1", "op": "Mul", "input": ["StatefulPartitionedCall/efficientnetv2-b0/blocks_6/depthwise_conv2d/depthwise", "StatefulPartitionedCall/efficientnetv2-b0/blocks_6/Sigmoid_1"], "attr": {"T": {"type": "DT_FLOAT"}}}, {"name": "StatefulPartitionedCall/efficientnetv2-b0/blocks_6/se/Mean", "op": "Mean", "input": ["StatefulPartitionedCall/efficientnetv2-b0/blocks_6/mul_1", "StatefulPartitionedCall/efficientnetv2-b0/blocks_6/se/Mean/reduction_indices"], "attr": {"Tidx": {"type": "DT_INT32"}, "T": {"type": "DT_FLOAT"}, "keep_dims": {"b": true}}}, {"name": "StatefulPartitionedCall/efficientnetv2-b0/blocks_6/se/conv2d/BiasAdd", "op": "_FusedConv2D", "input": ["StatefulPartitionedCall/efficientnetv2-b0/blocks_6/se/Mean", "StatefulPartitionedCall/efficientnetv2-b0/blocks_6/se/conv2d/Conv2D/ReadVariableOp", "StatefulPartitionedCall/efficientnetv2-b0/blocks_6/se/conv2d/BiasAdd/ReadVariableOp"], "device": "/device:CPU:0", "attr": {"use_cudnn_on_gpu": {"b": true}, "dilations": {"list": {"i": ["1", "1", "1", "1"]}}, "strides": {"list": {"i": ["1", "1", "1", "1"]}}, "padding": {"s": "U0FNRQ=="}, "explicit_paddings": {"list": {}}, "T": {"type": "DT_FLOAT"}, "num_args": {"i": "1"}, "fused_ops": {"list": {"s": ["Qmlhc0FkZA=="]}}, "data_format": {"s": "TkhXQw=="}, "epsilon": {"f": 0.0}}}, {"name": "StatefulPartitionedCall/efficientnetv2-b0/blocks_6/se/Sigmoid", "op": "Sigmoid", "input": ["StatefulPartitionedCall/efficientnetv2-b0/blocks_6/se/conv2d/BiasAdd"], "attr": {"T": {"type": "DT_FLOAT"}}}, {"name": "StatefulPartitionedCall/efficientnetv2-b0/blocks_6/se/mul", "op": "Mul", "input": ["StatefulPartitionedCall/efficientnetv2-b0/blocks_6/se/conv2d/BiasAdd", "StatefulPartitionedCall/efficientnetv2-b0/blocks_6/se/Sigmoid"], "attr": {"T": {"type": "DT_FLOAT"}}}, {"name": "StatefulPartitionedCall/efficientnetv2-b0/blocks_6/se/conv2d_1/BiasAdd", "op": "_FusedConv2D", "input": ["StatefulPartitionedCall/efficientnetv2-b0/blocks_6/se/mul", "StatefulPartitionedCall/efficientnetv2-b0/blocks_6/se/conv2d_1/Conv2D/ReadVariableOp", "StatefulPartitionedCall/efficientnetv2-b0/blocks_6/se/conv2d_1/BiasAdd/ReadVariableOp"], "device": "/device:CPU:0", "attr": {"explicit_paddings": {"list": {}}, "T": {"type": "DT_FLOAT"}, "data_format": {"s": "TkhXQw=="}, "epsilon": {"f": 0.0}, "num_args": {"i": "1"}, "dilations": {"list": {"i": ["1", "1", "1", "1"]}}, "use_cudnn_on_gpu": {"b": true}, "strides": {"list": {"i": ["1", "1", "1", "1"]}}, "fused_ops": {"list": {"s": ["Qmlhc0FkZA=="]}}, "padding": {"s": "U0FNRQ=="}}}, {"name": "StatefulPartitionedCall/efficientnetv2-b0/blocks_6/se/Sigmoid_1", "op": "Sigmoid", "input": ["StatefulPartitionedCall/efficientnetv2-b0/blocks_6/se/conv2d_1/BiasAdd"], "attr": {"T": {"type": "DT_FLOAT"}}}, {"name": "StatefulPartitionedCall/efficientnetv2-b0/blocks_6/se/mul_1", "op": "Mul", "input": ["StatefulPartitionedCall/efficientnetv2-b0/blocks_6/se/Sigmoid_1", "StatefulPartitionedCall/efficientnetv2-b0/blocks_6/mul_1"], "attr": {"T": {"type": "DT_FLOAT"}}}, {"name": "StatefulPartitionedCall/efficientnetv2-b0/blocks_6/tpu_batch_normalization_2/FusedBatchNormV3", "op": "_FusedConv2D", "input": ["StatefulPartitionedCall/efficientnetv2-b0/blocks_6/se/mul_1", "StatefulPartitionedCall/efficientnetv2-b0/blocks_6/conv2d_1/Conv2D_weights", "StatefulPartitionedCall/efficientnetv2-b0/blocks_6/conv2d_1/Conv2D_bn_offset"], "device": "/device:CPU:0", "attr": {"T": {"type": "DT_FLOAT"}, "strides": {"list": {"i": ["1", "1", "1", "1"]}}, "explicit_paddings": {"list": {}}, "num_args": {"i": "1"}, "dilations": {"list": {"i": ["1", "1", "1", "1"]}}, "data_format": {"s": "TkhXQw=="}, "fused_ops": {"list": {"s": ["Qmlhc0FkZA=="]}}, "use_cudnn_on_gpu": {"b": true}, "epsilon": {"f": 0.0}, "padding": {"s": "U0FNRQ=="}}}, {"name": "StatefulPartitionedCall/efficientnetv2-b0/blocks_6/Add", "op": "AddV2", "input": ["StatefulPartitionedCall/efficientnetv2-b0/blocks_6/tpu_batch_normalization_2/FusedBatchNormV3", "StatefulPartitionedCall/efficientnetv2-b0/blocks_5/tpu_batch_normalization_2/FusedBatchNormV3"], "attr": {"T": {"type": "DT_FLOAT"}}}, {"name": "StatefulPartitionedCall/efficientnetv2-b0/blocks_7/tpu_batch_normalization/FusedBatchNormV3", "op": "_FusedConv2D", "input": ["StatefulPartitionedCall/efficientnetv2-b0/blocks_6/Add", "StatefulPartitionedCall/efficientnetv2-b0/blocks_7/conv2d/Conv2D_weights", "StatefulPartitionedCall/efficientnetv2-b0/blocks_7/conv2d/Conv2D_bn_offset"], "device": "/device:CPU:0", "attr": {"fused_ops": {"list": {"s": ["Qmlhc0FkZA=="]}}, "strides": {"list": {"i": ["1", "1", "1", "1"]}}, "padding": {"s": "U0FNRQ=="}, "T": {"type": "DT_FLOAT"}, "epsilon": {"f": 0.0}, "explicit_paddings": {"list": {}}, "data_format": {"s": "TkhXQw=="}, "use_cudnn_on_gpu": {"b": true}, "dilations": {"list": {"i": ["1", "1", "1", "1"]}}, "num_args": {"i": "1"}}}, {"name": "StatefulPartitionedCall/efficientnetv2-b0/blocks_7/Sigmoid", "op": "Sigmoid", "input": ["StatefulPartitionedCall/efficientnetv2-b0/blocks_7/tpu_batch_normalization/FusedBatchNormV3"], "attr": {"T": {"type": "DT_FLOAT"}}}, {"name": "StatefulPartitionedCall/efficientnetv2-b0/blocks_7/mul", "op": "Mul", "input": ["StatefulPartitionedCall/efficientnetv2-b0/blocks_7/tpu_batch_normalization/FusedBatchNormV3", "StatefulPartitionedCall/efficientnetv2-b0/blocks_7/Sigmoid"], "attr": {"T": {"type": "DT_FLOAT"}}}, {"name": "StatefulPartitionedCall/efficientnetv2-b0/blocks_7/depthwise_conv2d/depthwise", "op": "FusedDepthwiseConv2dNative", "input": ["StatefulPartitionedCall/efficientnetv2-b0/blocks_7/mul", "StatefulPartitionedCall/efficientnetv2-b0/blocks_7/depthwise_conv2d/depthwise_weights", "StatefulPartitionedCall/efficientnetv2-b0/blocks_7/depthwise_conv2d/depthwise_bn_offset"], "attr": {"fused_ops": {"list": {"s": ["Qmlhc0FkZA=="]}}, "num_args": {"i": "1"}, "dilations": {"list": {"i": ["1", "1", "1", "1"]}}, "explicit_paddings": {"list": {}}, "T": {"type": "DT_FLOAT"}, "padding": {"s": "U0FNRQ=="}, "strides": {"list": {"i": ["1", "1", "1", "1"]}}, "data_format": {"s": "TkhXQw=="}}}, {"name": "StatefulPartitionedCall/efficientnetv2-b0/blocks_7/Sigmoid_1", "op": "Sigmoid", "input": ["StatefulPartitionedCall/efficientnetv2-b0/blocks_7/depthwise_conv2d/depthwise"], "attr": {"T": {"type": "DT_FLOAT"}}}, {"name": "StatefulPartitionedCall/efficientnetv2-b0/blocks_7/mul_1", "op": "Mul", "input": ["StatefulPartitionedCall/efficientnetv2-b0/blocks_7/depthwise_conv2d/depthwise", "StatefulPartitionedCall/efficientnetv2-b0/blocks_7/Sigmoid_1"], "attr": {"T": {"type": "DT_FLOAT"}}}, {"name": "StatefulPartitionedCall/efficientnetv2-b0/blocks_7/se/Mean", "op": "Mean", "input": ["StatefulPartitionedCall/efficientnetv2-b0/blocks_7/mul_1", "StatefulPartitionedCall/efficientnetv2-b0/blocks_7/se/Mean/reduction_indices"], "attr": {"Tidx": {"type": "DT_INT32"}, "keep_dims": {"b": true}, "T": {"type": "DT_FLOAT"}}}, {"name": "StatefulPartitionedCall/efficientnetv2-b0/blocks_7/se/conv2d/BiasAdd", "op": "_FusedConv2D", "input": ["StatefulPartitionedCall/efficientnetv2-b0/blocks_7/se/Mean", "StatefulPartitionedCall/efficientnetv2-b0/blocks_7/se/conv2d/Conv2D/ReadVariableOp", "StatefulPartitionedCall/efficientnetv2-b0/blocks_7/se/conv2d/BiasAdd/ReadVariableOp"], "device": "/device:CPU:0", "attr": {"epsilon": {"f": 0.0}, "data_format": {"s": "TkhXQw=="}, "explicit_paddings": {"list": {}}, "strides": {"list": {"i": ["1", "1", "1", "1"]}}, "dilations": {"list": {"i": ["1", "1", "1", "1"]}}, "fused_ops": {"list": {"s": ["Qmlhc0FkZA=="]}}, "use_cudnn_on_gpu": {"b": true}, "T": {"type": "DT_FLOAT"}, "num_args": {"i": "1"}, "padding": {"s": "U0FNRQ=="}}}, {"name": "StatefulPartitionedCall/efficientnetv2-b0/blocks_7/se/Sigmoid", "op": "Sigmoid", "input": ["StatefulPartitionedCall/efficientnetv2-b0/blocks_7/se/conv2d/BiasAdd"], "attr": {"T": {"type": "DT_FLOAT"}}}, {"name": "StatefulPartitionedCall/efficientnetv2-b0/blocks_7/se/mul", "op": "Mul", "input": ["StatefulPartitionedCall/efficientnetv2-b0/blocks_7/se/conv2d/BiasAdd", "StatefulPartitionedCall/efficientnetv2-b0/blocks_7/se/Sigmoid"], "attr": {"T": {"type": "DT_FLOAT"}}}, {"name": "StatefulPartitionedCall/efficientnetv2-b0/blocks_7/se/conv2d_1/BiasAdd", "op": "_FusedConv2D", "input": ["StatefulPartitionedCall/efficientnetv2-b0/blocks_7/se/mul", "StatefulPartitionedCall/efficientnetv2-b0/blocks_7/se/conv2d_1/Conv2D/ReadVariableOp", "StatefulPartitionedCall/efficientnetv2-b0/blocks_7/se/conv2d_1/BiasAdd/ReadVariableOp"], "device": "/device:CPU:0", "attr": {"epsilon": {"f": 0.0}, "explicit_paddings": {"list": {}}, "strides": {"list": {"i": ["1", "1", "1", "1"]}}, "fused_ops": {"list": {"s": ["Qmlhc0FkZA=="]}}, "num_args": {"i": "1"}, "padding": {"s": "U0FNRQ=="}, "data_format": {"s": "TkhXQw=="}, "dilations": {"list": {"i": ["1", "1", "1", "1"]}}, "use_cudnn_on_gpu": {"b": true}, "T": {"type": "DT_FLOAT"}}}, {"name": "StatefulPartitionedCall/efficientnetv2-b0/blocks_7/se/Sigmoid_1", "op": "Sigmoid", "input": ["StatefulPartitionedCall/efficientnetv2-b0/blocks_7/se/conv2d_1/BiasAdd"], "attr": {"T": {"type": "DT_FLOAT"}}}, {"name": "StatefulPartitionedCall/efficientnetv2-b0/blocks_7/se/mul_1", "op": "Mul", "input": ["StatefulPartitionedCall/efficientnetv2-b0/blocks_7/se/Sigmoid_1", "StatefulPartitionedCall/efficientnetv2-b0/blocks_7/mul_1"], "attr": {"T": {"type": "DT_FLOAT"}}}, {"name": "StatefulPartitionedCall/efficientnetv2-b0/blocks_7/tpu_batch_normalization_2/FusedBatchNormV3", "op": "_FusedConv2D", "input": ["StatefulPartitionedCall/efficientnetv2-b0/blocks_7/se/mul_1", "StatefulPartitionedCall/efficientnetv2-b0/blocks_7/conv2d_1/Conv2D_weights", "StatefulPartitionedCall/efficientnetv2-b0/blocks_7/conv2d_1/Conv2D_bn_offset"], "device": "/device:CPU:0", "attr": {"strides": {"list": {"i": ["1", "1", "1", "1"]}}, "explicit_paddings": {"list": {}}, "epsilon": {"f": 0.0}, "T": {"type": "DT_FLOAT"}, "use_cudnn_on_gpu": {"b": true}, "fused_ops": {"list": {"s": ["Qmlhc0FkZA=="]}}, "padding": {"s": "U0FNRQ=="}, "num_args": {"i": "1"}, "dilations": {"list": {"i": ["1", "1", "1", "1"]}}, "data_format": {"s": "TkhXQw=="}}}, {"name": "StatefulPartitionedCall/efficientnetv2-b0/blocks_7/Add", "op": "AddV2", "input": ["StatefulPartitionedCall/efficientnetv2-b0/blocks_7/tpu_batch_normalization_2/FusedBatchNormV3", "StatefulPartitionedCall/efficientnetv2-b0/blocks_6/Add"], "attr": {"T": {"type": "DT_FLOAT"}}}, {"name": "StatefulPartitionedCall/efficientnetv2-b0/blocks_8/tpu_batch_normalization/FusedBatchNormV3", "op": "_FusedConv2D", "input": ["StatefulPartitionedCall/efficientnetv2-b0/blocks_7/Add", "StatefulPartitionedCall/efficientnetv2-b0/blocks_8/conv2d/Conv2D_weights", "StatefulPartitionedCall/efficientnetv2-b0/blocks_8/conv2d/Conv2D_bn_offset"], "device": "/device:CPU:0", "attr": {"fused_ops": {"list": {"s": ["Qmlhc0FkZA=="]}}, "T": {"type": "DT_FLOAT"}, "padding": {"s": "U0FNRQ=="}, "dilations": {"list": {"i": ["1", "1", "1", "1"]}}, "use_cudnn_on_gpu": {"b": true}, "strides": {"list": {"i": ["1", "1", "1", "1"]}}, "epsilon": {"f": 0.0}, "num_args": {"i": "1"}, "data_format": {"s": "TkhXQw=="}, "explicit_paddings": {"list": {}}}}, {"name": "StatefulPartitionedCall/efficientnetv2-b0/blocks_8/Sigmoid", "op": "Sigmoid", "input": ["StatefulPartitionedCall/efficientnetv2-b0/blocks_8/tpu_batch_normalization/FusedBatchNormV3"], "attr": {"T": {"type": "DT_FLOAT"}}}, {"name": "StatefulPartitionedCall/efficientnetv2-b0/blocks_8/mul", "op": "Mul", "input": ["StatefulPartitionedCall/efficientnetv2-b0/blocks_8/tpu_batch_normalization/FusedBatchNormV3", "StatefulPartitionedCall/efficientnetv2-b0/blocks_8/Sigmoid"], "attr": {"T": {"type": "DT_FLOAT"}}}, {"name": "StatefulPartitionedCall/efficientnetv2-b0/blocks_8/depthwise_conv2d/depthwise", "op": "FusedDepthwiseConv2dNative", "input": ["StatefulPartitionedCall/efficientnetv2-b0/blocks_8/mul", "StatefulPartitionedCall/efficientnetv2-b0/blocks_8/depthwise_conv2d/depthwise_weights", "StatefulPartitionedCall/efficientnetv2-b0/blocks_8/depthwise_conv2d/depthwise_bn_offset"], "attr": {"data_format": {"s": "TkhXQw=="}, "T": {"type": "DT_FLOAT"}, "dilations": {"list": {"i": ["1", "1", "1", "1"]}}, "fused_ops": {"list": {"s": ["Qmlhc0FkZA=="]}}, "padding": {"s": "U0FNRQ=="}, "num_args": {"i": "1"}, "strides": {"list": {"i": ["1", "1", "1", "1"]}}, "explicit_paddings": {"list": {}}}}, {"name": "StatefulPartitionedCall/efficientnetv2-b0/blocks_8/Sigmoid_1", "op": "Sigmoid", "input": ["StatefulPartitionedCall/efficientnetv2-b0/blocks_8/depthwise_conv2d/depthwise"], "attr": {"T": {"type": "DT_FLOAT"}}}, {"name": "StatefulPartitionedCall/efficientnetv2-b0/blocks_8/mul_1", "op": "Mul", "input": ["StatefulPartitionedCall/efficientnetv2-b0/blocks_8/depthwise_conv2d/depthwise", "StatefulPartitionedCall/efficientnetv2-b0/blocks_8/Sigmoid_1"], "attr": {"T": {"type": "DT_FLOAT"}}}, {"name": "StatefulPartitionedCall/efficientnetv2-b0/blocks_8/se/Mean", "op": "Mean", "input": ["StatefulPartitionedCall/efficientnetv2-b0/blocks_8/mul_1", "StatefulPartitionedCall/efficientnetv2-b0/blocks_8/se/Mean/reduction_indices"], "attr": {"T": {"type": "DT_FLOAT"}, "Tidx": {"type": "DT_INT32"}, "keep_dims": {"b": true}}}, {"name": "StatefulPartitionedCall/efficientnetv2-b0/blocks_8/se/conv2d/BiasAdd", "op": "_FusedConv2D", "input": ["StatefulPartitionedCall/efficientnetv2-b0/blocks_8/se/Mean", "StatefulPartitionedCall/efficientnetv2-b0/blocks_8/se/conv2d/Conv2D/ReadVariableOp", "StatefulPartitionedCall/efficientnetv2-b0/blocks_8/se/conv2d/BiasAdd/ReadVariableOp"], "device": "/device:CPU:0", "attr": {"num_args": {"i": "1"}, "fused_ops": {"list": {"s": ["Qmlhc0FkZA=="]}}, "strides": {"list": {"i": ["1", "1", "1", "1"]}}, "padding": {"s": "U0FNRQ=="}, "data_format": {"s": "TkhXQw=="}, "use_cudnn_on_gpu": {"b": true}, "epsilon": {"f": 0.0}, "T": {"type": "DT_FLOAT"}, "dilations": {"list": {"i": ["1", "1", "1", "1"]}}, "explicit_paddings": {"list": {}}}}, {"name": "StatefulPartitionedCall/efficientnetv2-b0/blocks_8/se/Sigmoid", "op": "Sigmoid", "input": ["StatefulPartitionedCall/efficientnetv2-b0/blocks_8/se/conv2d/BiasAdd"], "attr": {"T": {"type": "DT_FLOAT"}}}, {"name": "StatefulPartitionedCall/efficientnetv2-b0/blocks_8/se/mul", "op": "Mul", "input": ["StatefulPartitionedCall/efficientnetv2-b0/blocks_8/se/conv2d/BiasAdd", "StatefulPartitionedCall/efficientnetv2-b0/blocks_8/se/Sigmoid"], "attr": {"T": {"type": "DT_FLOAT"}}}, {"name": "StatefulPartitionedCall/efficientnetv2-b0/blocks_8/se/conv2d_1/BiasAdd", "op": "_FusedConv2D", "input": ["StatefulPartitionedCall/efficientnetv2-b0/blocks_8/se/mul", "StatefulPartitionedCall/efficientnetv2-b0/blocks_8/se/conv2d_1/Conv2D/ReadVariableOp", "StatefulPartitionedCall/efficientnetv2-b0/blocks_8/se/conv2d_1/BiasAdd/ReadVariableOp"], "device": "/device:CPU:0", "attr": {"fused_ops": {"list": {"s": ["Qmlhc0FkZA=="]}}, "padding": {"s": "U0FNRQ=="}, "use_cudnn_on_gpu": {"b": true}, "dilations": {"list": {"i": ["1", "1", "1", "1"]}}, "strides": {"list": {"i": ["1", "1", "1", "1"]}}, "data_format": {"s": "TkhXQw=="}, "num_args": {"i": "1"}, "T": {"type": "DT_FLOAT"}, "epsilon": {"f": 0.0}, "explicit_paddings": {"list": {}}}}, {"name": "StatefulPartitionedCall/efficientnetv2-b0/blocks_8/se/Sigmoid_1", "op": "Sigmoid", "input": ["StatefulPartitionedCall/efficientnetv2-b0/blocks_8/se/conv2d_1/BiasAdd"], "attr": {"T": {"type": "DT_FLOAT"}}}, {"name": "StatefulPartitionedCall/efficientnetv2-b0/blocks_8/se/mul_1", "op": "Mul", "input": ["StatefulPartitionedCall/efficientnetv2-b0/blocks_8/se/Sigmoid_1", "StatefulPartitionedCall/efficientnetv2-b0/blocks_8/mul_1"], "attr": {"T": {"type": "DT_FLOAT"}}}, {"name": "StatefulPartitionedCall/efficientnetv2-b0/blocks_8/tpu_batch_normalization_2/FusedBatchNormV3", "op": "_FusedConv2D", "input": ["StatefulPartitionedCall/efficientnetv2-b0/blocks_8/se/mul_1", "StatefulPartitionedCall/efficientnetv2-b0/blocks_8/conv2d_1/Conv2D_weights", "StatefulPartitionedCall/efficientnetv2-b0/blocks_8/conv2d_1/Conv2D_bn_offset"], "device": "/device:CPU:0", "attr": {"dilations": {"list": {"i": ["1", "1", "1", "1"]}}, "data_format": {"s": "TkhXQw=="}, "strides": {"list": {"i": ["1", "1", "1", "1"]}}, "use_cudnn_on_gpu": {"b": true}, "epsilon": {"f": 0.0}, "padding": {"s": "U0FNRQ=="}, "num_args": {"i": "1"}, "T": {"type": "DT_FLOAT"}, "fused_ops": {"list": {"s": ["Qmlhc0FkZA=="]}}, "explicit_paddings": {"list": {}}}}, {"name": "StatefulPartitionedCall/efficientnetv2-b0/blocks_9/tpu_batch_normalization/FusedBatchNormV3", "op": "_FusedConv2D", "input": ["StatefulPartitionedCall/efficientnetv2-b0/blocks_8/tpu_batch_normalization_2/FusedBatchNormV3", "StatefulPartitionedCall/efficientnetv2-b0/blocks_9/conv2d/Conv2D_weights", "StatefulPartitionedCall/efficientnetv2-b0/blocks_9/conv2d/Conv2D_bn_offset"], "device": "/device:CPU:0", "attr": {"epsilon": {"f": 0.0}, "T": {"type": "DT_FLOAT"}, "use_cudnn_on_gpu": {"b": true}, "num_args": {"i": "1"}, "dilations": {"list": {"i": ["1", "1", "1", "1"]}}, "data_format": {"s": "TkhXQw=="}, "padding": {"s": "U0FNRQ=="}, "strides": {"list": {"i": ["1", "1", "1", "1"]}}, "fused_ops": {"list": {"s": ["Qmlhc0FkZA=="]}}, "explicit_paddings": {"list": {}}}}, {"name": "StatefulPartitionedCall/efficientnetv2-b0/blocks_9/Sigmoid", "op": "Sigmoid", "input": ["StatefulPartitionedCall/efficientnetv2-b0/blocks_9/tpu_batch_normalization/FusedBatchNormV3"], "attr": {"T": {"type": "DT_FLOAT"}}}, {"name": "StatefulPartitionedCall/efficientnetv2-b0/blocks_9/mul", "op": "Mul", "input": ["StatefulPartitionedCall/efficientnetv2-b0/blocks_9/tpu_batch_normalization/FusedBatchNormV3", "StatefulPartitionedCall/efficientnetv2-b0/blocks_9/Sigmoid"], "attr": {"T": {"type": "DT_FLOAT"}}}, {"name": "StatefulPartitionedCall/efficientnetv2-b0/blocks_9/depthwise_conv2d/depthwise", "op": "FusedDepthwiseConv2dNative", "input": ["StatefulPartitionedCall/efficientnetv2-b0/blocks_9/mul", "StatefulPartitionedCall/efficientnetv2-b0/blocks_9/depthwise_conv2d/depthwise_weights", "StatefulPartitionedCall/efficientnetv2-b0/blocks_9/depthwise_conv2d/depthwise_bn_offset"], "attr": {"data_format": {"s": "TkhXQw=="}, "T": {"type": "DT_FLOAT"}, "explicit_paddings": {"list": {}}, "fused_ops": {"list": {"s": ["Qmlhc0FkZA=="]}}, "num_args": {"i": "1"}, "strides": {"list": {"i": ["1", "1", "1", "1"]}}, "dilations": {"list": {"i": ["1", "1", "1", "1"]}}, "padding": {"s": "U0FNRQ=="}}}, {"name": "StatefulPartitionedCall/efficientnetv2-b0/blocks_9/Sigmoid_1", "op": "Sigmoid", "input": ["StatefulPartitionedCall/efficientnetv2-b0/blocks_9/depthwise_conv2d/depthwise"], "attr": {"T": {"type": "DT_FLOAT"}}}, {"name": "StatefulPartitionedCall/efficientnetv2-b0/blocks_9/mul_1", "op": "Mul", "input": ["StatefulPartitionedCall/efficientnetv2-b0/blocks_9/depthwise_conv2d/depthwise", "StatefulPartitionedCall/efficientnetv2-b0/blocks_9/Sigmoid_1"], "attr": {"T": {"type": "DT_FLOAT"}}}, {"name": "StatefulPartitionedCall/efficientnetv2-b0/blocks_9/se/Mean", "op": "Mean", "input": ["StatefulPartitionedCall/efficientnetv2-b0/blocks_9/mul_1", "StatefulPartitionedCall/efficientnetv2-b0/blocks_9/se/Mean/reduction_indices"], "attr": {"T": {"type": "DT_FLOAT"}, "Tidx": {"type": "DT_INT32"}, "keep_dims": {"b": true}}}, {"name": "StatefulPartitionedCall/efficientnetv2-b0/blocks_9/se/conv2d/BiasAdd", "op": "_FusedConv2D", "input": ["StatefulPartitionedCall/efficientnetv2-b0/blocks_9/se/Mean", "StatefulPartitionedCall/efficientnetv2-b0/blocks_9/se/conv2d/Conv2D/ReadVariableOp", "StatefulPartitionedCall/efficientnetv2-b0/blocks_9/se/conv2d/BiasAdd/ReadVariableOp"], "device": "/device:CPU:0", "attr": {"padding": {"s": "U0FNRQ=="}, "dilations": {"list": {"i": ["1", "1", "1", "1"]}}, "data_format": {"s": "TkhXQw=="}, "fused_ops": {"list": {"s": ["Qmlhc0FkZA=="]}}, "num_args": {"i": "1"}, "T": {"type": "DT_FLOAT"}, "explicit_paddings": {"list": {}}, "epsilon": {"f": 0.0}, "strides": {"list": {"i": ["1", "1", "1", "1"]}}, "use_cudnn_on_gpu": {"b": true}}}, {"name": "StatefulPartitionedCall/efficientnetv2-b0/blocks_9/se/Sigmoid", "op": "Sigmoid", "input": ["StatefulPartitionedCall/efficientnetv2-b0/blocks_9/se/conv2d/BiasAdd"], "attr": {"T": {"type": "DT_FLOAT"}}}, {"name": "StatefulPartitionedCall/efficientnetv2-b0/blocks_9/se/mul", "op": "Mul", "input": ["StatefulPartitionedCall/efficientnetv2-b0/blocks_9/se/conv2d/BiasAdd", "StatefulPartitionedCall/efficientnetv2-b0/blocks_9/se/Sigmoid"], "attr": {"T": {"type": "DT_FLOAT"}}}, {"name": "StatefulPartitionedCall/efficientnetv2-b0/blocks_9/se/conv2d_1/BiasAdd", "op": "_FusedConv2D", "input": ["StatefulPartitionedCall/efficientnetv2-b0/blocks_9/se/mul", "StatefulPartitionedCall/efficientnetv2-b0/blocks_9/se/conv2d_1/Conv2D/ReadVariableOp", "StatefulPartitionedCall/efficientnetv2-b0/blocks_9/se/conv2d_1/BiasAdd/ReadVariableOp"], "device": "/device:CPU:0", "attr": {"num_args": {"i": "1"}, "padding": {"s": "U0FNRQ=="}, "T": {"type": "DT_FLOAT"}, "fused_ops": {"list": {"s": ["Qmlhc0FkZA=="]}}, "epsilon": {"f": 0.0}, "strides": {"list": {"i": ["1", "1", "1", "1"]}}, "explicit_paddings": {"list": {}}, "dilations": {"list": {"i": ["1", "1", "1", "1"]}}, "data_format": {"s": "TkhXQw=="}, "use_cudnn_on_gpu": {"b": true}}}, {"name": "StatefulPartitionedCall/efficientnetv2-b0/blocks_9/se/Sigmoid_1", "op": "Sigmoid", "input": ["StatefulPartitionedCall/efficientnetv2-b0/blocks_9/se/conv2d_1/BiasAdd"], "attr": {"T": {"type": "DT_FLOAT"}}}, {"name": "StatefulPartitionedCall/efficientnetv2-b0/blocks_9/se/mul_1", "op": "Mul", "input": ["StatefulPartitionedCall/efficientnetv2-b0/blocks_9/se/Sigmoid_1", "StatefulPartitionedCall/efficientnetv2-b0/blocks_9/mul_1"], "attr": {"T": {"type": "DT_FLOAT"}}}, {"name": "StatefulPartitionedCall/efficientnetv2-b0/blocks_9/tpu_batch_normalization_2/FusedBatchNormV3", "op": "_FusedConv2D", "input": ["StatefulPartitionedCall/efficientnetv2-b0/blocks_9/se/mul_1", "StatefulPartitionedCall/efficientnetv2-b0/blocks_9/conv2d_1/Conv2D_weights", "StatefulPartitionedCall/efficientnetv2-b0/blocks_9/conv2d_1/Conv2D_bn_offset"], "device": "/device:CPU:0", "attr": {"T": {"type": "DT_FLOAT"}, "strides": {"list": {"i": ["1", "1", "1", "1"]}}, "use_cudnn_on_gpu": {"b": true}, "padding": {"s": "U0FNRQ=="}, "dilations": {"list": {"i": ["1", "1", "1", "1"]}}, "data_format": {"s": "TkhXQw=="}, "explicit_paddings": {"list": {}}, "epsilon": {"f": 0.0}, "num_args": {"i": "1"}, "fused_ops": {"list": {"s": ["Qmlhc0FkZA=="]}}}}, {"name": "StatefulPartitionedCall/efficientnetv2-b0/blocks_9/Add", "op": "AddV2", "input": ["StatefulPartitionedCall/efficientnetv2-b0/blocks_9/tpu_batch_normalization_2/FusedBatchNormV3", "StatefulPartitionedCall/efficientnetv2-b0/blocks_8/tpu_batch_normalization_2/FusedBatchNormV3"], "attr": {"T": {"type": "DT_FLOAT"}}}, {"name": "StatefulPartitionedCall/efficientnetv2-b0/blocks_10/tpu_batch_normalization/FusedBatchNormV3", "op": "_FusedConv2D", "input": ["StatefulPartitionedCall/efficientnetv2-b0/blocks_9/Add", "StatefulPartitionedCall/efficientnetv2-b0/blocks_10/conv2d/Conv2D_weights", "StatefulPartitionedCall/efficientnetv2-b0/blocks_10/conv2d/Conv2D_bn_offset"], "device": "/device:CPU:0", "attr": {"explicit_paddings": {"list": {}}, "num_args": {"i": "1"}, "dilations": {"list": {"i": ["1", "1", "1", "1"]}}, "T": {"type": "DT_FLOAT"}, "data_format": {"s": "TkhXQw=="}, "padding": {"s": "U0FNRQ=="}, "epsilon": {"f": 0.0}, "strides": {"list": {"i": ["1", "1", "1", "1"]}}, "use_cudnn_on_gpu": {"b": true}, "fused_ops": {"list": {"s": ["Qmlhc0FkZA=="]}}}}, {"name": "StatefulPartitionedCall/efficientnetv2-b0/blocks_10/Sigmoid", "op": "Sigmoid", "input": ["StatefulPartitionedCall/efficientnetv2-b0/blocks_10/tpu_batch_normalization/FusedBatchNormV3"], "attr": {"T": {"type": "DT_FLOAT"}}}, {"name": "StatefulPartitionedCall/efficientnetv2-b0/blocks_10/mul", "op": "Mul", "input": ["StatefulPartitionedCall/efficientnetv2-b0/blocks_10/tpu_batch_normalization/FusedBatchNormV3", "StatefulPartitionedCall/efficientnetv2-b0/blocks_10/Sigmoid"], "attr": {"T": {"type": "DT_FLOAT"}}}, {"name": "StatefulPartitionedCall/efficientnetv2-b0/blocks_10/depthwise_conv2d/depthwise", "op": "FusedDepthwiseConv2dNative", "input": ["StatefulPartitionedCall/efficientnetv2-b0/blocks_10/mul", "StatefulPartitionedCall/efficientnetv2-b0/blocks_10/depthwise_conv2d/depthwise_weights", "StatefulPartitionedCall/efficientnetv2-b0/blocks_10/depthwise_conv2d/depthwise_bn_offset"], "attr": {"data_format": {"s": "TkhXQw=="}, "strides": {"list": {"i": ["1", "1", "1", "1"]}}, "T": {"type": "DT_FLOAT"}, "dilations": {"list": {"i": ["1", "1", "1", "1"]}}, "num_args": {"i": "1"}, "padding": {"s": "U0FNRQ=="}, "fused_ops": {"list": {"s": ["Qmlhc0FkZA=="]}}, "explicit_paddings": {"list": {}}}}, {"name": "StatefulPartitionedCall/efficientnetv2-b0/blocks_10/Sigmoid_1", "op": "Sigmoid", "input": ["StatefulPartitionedCall/efficientnetv2-b0/blocks_10/depthwise_conv2d/depthwise"], "attr": {"T": {"type": "DT_FLOAT"}}}, {"name": "StatefulPartitionedCall/efficientnetv2-b0/blocks_10/mul_1", "op": "Mul", "input": ["StatefulPartitionedCall/efficientnetv2-b0/blocks_10/depthwise_conv2d/depthwise", "StatefulPartitionedCall/efficientnetv2-b0/blocks_10/Sigmoid_1"], "attr": {"T": {"type": "DT_FLOAT"}}}, {"name": "StatefulPartitionedCall/efficientnetv2-b0/blocks_10/se/Mean", "op": "Mean", "input": ["StatefulPartitionedCall/efficientnetv2-b0/blocks_10/mul_1", "StatefulPartitionedCall/efficientnetv2-b0/blocks_10/se/Mean/reduction_indices"], "attr": {"keep_dims": {"b": true}, "Tidx": {"type": "DT_INT32"}, "T": {"type": "DT_FLOAT"}}}, {"name": "StatefulPartitionedCall/efficientnetv2-b0/blocks_10/se/conv2d/BiasAdd", "op": "_FusedConv2D", "input": ["StatefulPartitionedCall/efficientnetv2-b0/blocks_10/se/Mean", "StatefulPartitionedCall/efficientnetv2-b0/blocks_10/se/conv2d/Conv2D/ReadVariableOp", "StatefulPartitionedCall/efficientnetv2-b0/blocks_10/se/conv2d/BiasAdd/ReadVariableOp"], "device": "/device:CPU:0", "attr": {"explicit_paddings": {"list": {}}, "num_args": {"i": "1"}, "strides": {"list": {"i": ["1", "1", "1", "1"]}}, "fused_ops": {"list": {"s": ["Qmlhc0FkZA=="]}}, "epsilon": {"f": 0.0}, "use_cudnn_on_gpu": {"b": true}, "padding": {"s": "U0FNRQ=="}, "dilations": {"list": {"i": ["1", "1", "1", "1"]}}, "data_format": {"s": "TkhXQw=="}, "T": {"type": "DT_FLOAT"}}}, {"name": "StatefulPartitionedCall/efficientnetv2-b0/blocks_10/se/Sigmoid", "op": "Sigmoid", "input": ["StatefulPartitionedCall/efficientnetv2-b0/blocks_10/se/conv2d/BiasAdd"], "attr": {"T": {"type": "DT_FLOAT"}}}, {"name": "StatefulPartitionedCall/efficientnetv2-b0/blocks_10/se/mul", "op": "Mul", "input": ["StatefulPartitionedCall/efficientnetv2-b0/blocks_10/se/conv2d/BiasAdd", "StatefulPartitionedCall/efficientnetv2-b0/blocks_10/se/Sigmoid"], "attr": {"T": {"type": "DT_FLOAT"}}}, {"name": "StatefulPartitionedCall/efficientnetv2-b0/blocks_10/se/conv2d_1/BiasAdd", "op": "_FusedConv2D", "input": ["StatefulPartitionedCall/efficientnetv2-b0/blocks_10/se/mul", "StatefulPartitionedCall/efficientnetv2-b0/blocks_10/se/conv2d_1/Conv2D/ReadVariableOp", "StatefulPartitionedCall/efficientnetv2-b0/blocks_10/se/conv2d_1/BiasAdd/ReadVariableOp"], "device": "/device:CPU:0", "attr": {"fused_ops": {"list": {"s": ["Qmlhc0FkZA=="]}}, "num_args": {"i": "1"}, "epsilon": {"f": 0.0}, "dilations": {"list": {"i": ["1", "1", "1", "1"]}}, "padding": {"s": "U0FNRQ=="}, "strides": {"list": {"i": ["1", "1", "1", "1"]}}, "T": {"type": "DT_FLOAT"}, "data_format": {"s": "TkhXQw=="}, "explicit_paddings": {"list": {}}, "use_cudnn_on_gpu": {"b": true}}}, {"name": "StatefulPartitionedCall/efficientnetv2-b0/blocks_10/se/Sigmoid_1", "op": "Sigmoid", "input": ["StatefulPartitionedCall/efficientnetv2-b0/blocks_10/se/conv2d_1/BiasAdd"], "attr": {"T": {"type": "DT_FLOAT"}}}, {"name": "StatefulPartitionedCall/efficientnetv2-b0/blocks_10/se/mul_1", "op": "Mul", "input": ["StatefulPartitionedCall/efficientnetv2-b0/blocks_10/se/Sigmoid_1", "StatefulPartitionedCall/efficientnetv2-b0/blocks_10/mul_1"], "attr": {"T": {"type": "DT_FLOAT"}}}, {"name": "StatefulPartitionedCall/efficientnetv2-b0/blocks_10/tpu_batch_normalization_2/FusedBatchNormV3", "op": "_FusedConv2D", "input": ["StatefulPartitionedCall/efficientnetv2-b0/blocks_10/se/mul_1", "StatefulPartitionedCall/efficientnetv2-b0/blocks_10/conv2d_1/Conv2D_weights", "StatefulPartitionedCall/efficientnetv2-b0/blocks_10/conv2d_1/Conv2D_bn_offset"], "device": "/device:CPU:0", "attr": {"padding": {"s": "U0FNRQ=="}, "T": {"type": "DT_FLOAT"}, "explicit_paddings": {"list": {}}, "use_cudnn_on_gpu": {"b": true}, "num_args": {"i": "1"}, "strides": {"list": {"i": ["1", "1", "1", "1"]}}, "dilations": {"list": {"i": ["1", "1", "1", "1"]}}, "data_format": {"s": "TkhXQw=="}, "epsilon": {"f": 0.0}, "fused_ops": {"list": {"s": ["Qmlhc0FkZA=="]}}}}, {"name": "StatefulPartitionedCall/efficientnetv2-b0/blocks_10/Add", "op": "AddV2", "input": ["StatefulPartitionedCall/efficientnetv2-b0/blocks_10/tpu_batch_normalization_2/FusedBatchNormV3", "StatefulPartitionedCall/efficientnetv2-b0/blocks_9/Add"], "attr": {"T": {"type": "DT_FLOAT"}}}, {"name": "StatefulPartitionedCall/efficientnetv2-b0/blocks_11/tpu_batch_normalization/FusedBatchNormV3", "op": "_FusedConv2D", "input": ["StatefulPartitionedCall/efficientnetv2-b0/blocks_10/Add", "StatefulPartitionedCall/efficientnetv2-b0/blocks_11/conv2d/Conv2D_weights", "StatefulPartitionedCall/efficientnetv2-b0/blocks_11/conv2d/Conv2D_bn_offset"], "device": "/device:CPU:0", "attr": {"epsilon": {"f": 0.0}, "data_format": {"s": "TkhXQw=="}, "dilations": {"list": {"i": ["1", "1", "1", "1"]}}, "strides": {"list": {"i": ["1", "1", "1", "1"]}}, "fused_ops": {"list": {"s": ["Qmlhc0FkZA=="]}}, "use_cudnn_on_gpu": {"b": true}, "num_args": {"i": "1"}, "T": {"type": "DT_FLOAT"}, "padding": {"s": "U0FNRQ=="}, "explicit_paddings": {"list": {}}}}, {"name": "StatefulPartitionedCall/efficientnetv2-b0/blocks_11/Sigmoid", "op": "Sigmoid", "input": ["StatefulPartitionedCall/efficientnetv2-b0/blocks_11/tpu_batch_normalization/FusedBatchNormV3"], "attr": {"T": {"type": "DT_FLOAT"}}}, {"name": "StatefulPartitionedCall/efficientnetv2-b0/blocks_11/mul", "op": "Mul", "input": ["StatefulPartitionedCall/efficientnetv2-b0/blocks_11/tpu_batch_normalization/FusedBatchNormV3", "StatefulPartitionedCall/efficientnetv2-b0/blocks_11/Sigmoid"], "attr": {"T": {"type": "DT_FLOAT"}}}, {"name": "StatefulPartitionedCall/efficientnetv2-b0/blocks_11/depthwise_conv2d/depthwise", "op": "FusedDepthwiseConv2dNative", "input": ["StatefulPartitionedCall/efficientnetv2-b0/blocks_11/mul", "StatefulPartitionedCall/efficientnetv2-b0/blocks_11/depthwise_conv2d/depthwise_weights", "StatefulPartitionedCall/efficientnetv2-b0/blocks_11/depthwise_conv2d/depthwise_bn_offset"], "attr": {"num_args": {"i": "1"}, "fused_ops": {"list": {"s": ["Qmlhc0FkZA=="]}}, "T": {"type": "DT_FLOAT"}, "padding": {"s": "U0FNRQ=="}, "data_format": {"s": "TkhXQw=="}, "explicit_paddings": {"list": {}}, "dilations": {"list": {"i": ["1", "1", "1", "1"]}}, "strides": {"list": {"i": ["1", "1", "1", "1"]}}}}, {"name": "StatefulPartitionedCall/efficientnetv2-b0/blocks_11/Sigmoid_1", "op": "Sigmoid", "input": ["StatefulPartitionedCall/efficientnetv2-b0/blocks_11/depthwise_conv2d/depthwise"], "attr": {"T": {"type": "DT_FLOAT"}}}, {"name": "StatefulPartitionedCall/efficientnetv2-b0/blocks_11/mul_1", "op": "Mul", "input": ["StatefulPartitionedCall/efficientnetv2-b0/blocks_11/depthwise_conv2d/depthwise", "StatefulPartitionedCall/efficientnetv2-b0/blocks_11/Sigmoid_1"], "attr": {"T": {"type": "DT_FLOAT"}}}, {"name": "StatefulPartitionedCall/efficientnetv2-b0/blocks_11/se/Mean", "op": "Mean", "input": ["StatefulPartitionedCall/efficientnetv2-b0/blocks_11/mul_1", "StatefulPartitionedCall/efficientnetv2-b0/blocks_11/se/Mean/reduction_indices"], "attr": {"Tidx": {"type": "DT_INT32"}, "keep_dims": {"b": true}, "T": {"type": "DT_FLOAT"}}}, {"name": "StatefulPartitionedCall/efficientnetv2-b0/blocks_11/se/conv2d/BiasAdd", "op": "_FusedConv2D", "input": ["StatefulPartitionedCall/efficientnetv2-b0/blocks_11/se/Mean", "StatefulPartitionedCall/efficientnetv2-b0/blocks_11/se/conv2d/Conv2D/ReadVariableOp", "StatefulPartitionedCall/efficientnetv2-b0/blocks_11/se/conv2d/BiasAdd/ReadVariableOp"], "device": "/device:CPU:0", "attr": {"epsilon": {"f": 0.0}, "T": {"type": "DT_FLOAT"}, "data_format": {"s": "TkhXQw=="}, "dilations": {"list": {"i": ["1", "1", "1", "1"]}}, "fused_ops": {"list": {"s": ["Qmlhc0FkZA=="]}}, "num_args": {"i": "1"}, "strides": {"list": {"i": ["1", "1", "1", "1"]}}, "padding": {"s": "U0FNRQ=="}, "explicit_paddings": {"list": {}}, "use_cudnn_on_gpu": {"b": true}}}, {"name": "StatefulPartitionedCall/efficientnetv2-b0/blocks_11/se/Sigmoid", "op": "Sigmoid", "input": ["StatefulPartitionedCall/efficientnetv2-b0/blocks_11/se/conv2d/BiasAdd"], "attr": {"T": {"type": "DT_FLOAT"}}}, {"name": "StatefulPartitionedCall/efficientnetv2-b0/blocks_11/se/mul", "op": "Mul", "input": ["StatefulPartitionedCall/efficientnetv2-b0/blocks_11/se/conv2d/BiasAdd", "StatefulPartitionedCall/efficientnetv2-b0/blocks_11/se/Sigmoid"], "attr": {"T": {"type": "DT_FLOAT"}}}, {"name": "StatefulPartitionedCall/efficientnetv2-b0/blocks_11/se/conv2d_1/BiasAdd", "op": "_FusedConv2D", "input": ["StatefulPartitionedCall/efficientnetv2-b0/blocks_11/se/mul", "StatefulPartitionedCall/efficientnetv2-b0/blocks_11/se/conv2d_1/Conv2D/ReadVariableOp", "StatefulPartitionedCall/efficientnetv2-b0/blocks_11/se/conv2d_1/BiasAdd/ReadVariableOp"], "device": "/device:CPU:0", "attr": {"dilations": {"list": {"i": ["1", "1", "1", "1"]}}, "explicit_paddings": {"list": {}}, "padding": {"s": "U0FNRQ=="}, "strides": {"list": {"i": ["1", "1", "1", "1"]}}, "T": {"type": "DT_FLOAT"}, "data_format": {"s": "TkhXQw=="}, "epsilon": {"f": 0.0}, "fused_ops": {"list": {"s": ["Qmlhc0FkZA=="]}}, "num_args": {"i": "1"}, "use_cudnn_on_gpu": {"b": true}}}, {"name": "StatefulPartitionedCall/efficientnetv2-b0/blocks_11/se/Sigmoid_1", "op": "Sigmoid", "input": ["StatefulPartitionedCall/efficientnetv2-b0/blocks_11/se/conv2d_1/BiasAdd"], "attr": {"T": {"type": "DT_FLOAT"}}}, {"name": "StatefulPartitionedCall/efficientnetv2-b0/blocks_11/se/mul_1", "op": "Mul", "input": ["StatefulPartitionedCall/efficientnetv2-b0/blocks_11/se/Sigmoid_1", "StatefulPartitionedCall/efficientnetv2-b0/blocks_11/mul_1"], "attr": {"T": {"type": "DT_FLOAT"}}}, {"name": "StatefulPartitionedCall/efficientnetv2-b0/blocks_11/tpu_batch_normalization_2/FusedBatchNormV3", "op": "_FusedConv2D", "input": ["StatefulPartitionedCall/efficientnetv2-b0/blocks_11/se/mul_1", "StatefulPartitionedCall/efficientnetv2-b0/blocks_11/conv2d_1/Conv2D_weights", "StatefulPartitionedCall/efficientnetv2-b0/blocks_11/conv2d_1/Conv2D_bn_offset"], "device": "/device:CPU:0", "attr": {"num_args": {"i": "1"}, "padding": {"s": "U0FNRQ=="}, "strides": {"list": {"i": ["1", "1", "1", "1"]}}, "epsilon": {"f": 0.0}, "explicit_paddings": {"list": {}}, "T": {"type": "DT_FLOAT"}, "data_format": {"s": "TkhXQw=="}, "use_cudnn_on_gpu": {"b": true}, "fused_ops": {"list": {"s": ["Qmlhc0FkZA=="]}}, "dilations": {"list": {"i": ["1", "1", "1", "1"]}}}}, {"name": "StatefulPartitionedCall/efficientnetv2-b0/blocks_11/Add", "op": "AddV2", "input": ["StatefulPartitionedCall/efficientnetv2-b0/blocks_11/tpu_batch_normalization_2/FusedBatchNormV3", "StatefulPartitionedCall/efficientnetv2-b0/blocks_10/Add"], "attr": {"T": {"type": "DT_FLOAT"}}}, {"name": "StatefulPartitionedCall/efficientnetv2-b0/blocks_12/tpu_batch_normalization/FusedBatchNormV3", "op": "_FusedConv2D", "input": ["StatefulPartitionedCall/efficientnetv2-b0/blocks_11/Add", "StatefulPartitionedCall/efficientnetv2-b0/blocks_12/conv2d/Conv2D_weights", "StatefulPartitionedCall/efficientnetv2-b0/blocks_12/conv2d/Conv2D_bn_offset"], "device": "/device:CPU:0", "attr": {"use_cudnn_on_gpu": {"b": true}, "data_format": {"s": "TkhXQw=="}, "strides": {"list": {"i": ["1", "1", "1", "1"]}}, "padding": {"s": "U0FNRQ=="}, "epsilon": {"f": 0.0}, "T": {"type": "DT_FLOAT"}, "explicit_paddings": {"list": {}}, "fused_ops": {"list": {"s": ["Qmlhc0FkZA=="]}}, "num_args": {"i": "1"}, "dilations": {"list": {"i": ["1", "1", "1", "1"]}}}}, {"name": "StatefulPartitionedCall/efficientnetv2-b0/blocks_12/Sigmoid", "op": "Sigmoid", "input": ["StatefulPartitionedCall/efficientnetv2-b0/blocks_12/tpu_batch_normalization/FusedBatchNormV3"], "attr": {"T": {"type": "DT_FLOAT"}}}, {"name": "StatefulPartitionedCall/efficientnetv2-b0/blocks_12/mul", "op": "Mul", "input": ["StatefulPartitionedCall/efficientnetv2-b0/blocks_12/tpu_batch_normalization/FusedBatchNormV3", "StatefulPartitionedCall/efficientnetv2-b0/blocks_12/Sigmoid"], "attr": {"T": {"type": "DT_FLOAT"}}}, {"name": "StatefulPartitionedCall/efficientnetv2-b0/blocks_12/depthwise_conv2d/depthwise", "op": "FusedDepthwiseConv2dNative", "input": ["StatefulPartitionedCall/efficientnetv2-b0/blocks_12/mul", "StatefulPartitionedCall/efficientnetv2-b0/blocks_12/depthwise_conv2d/depthwise_weights", "StatefulPartitionedCall/efficientnetv2-b0/blocks_12/depthwise_conv2d/depthwise_bn_offset"], "attr": {"padding": {"s": "U0FNRQ=="}, "explicit_paddings": {"list": {}}, "strides": {"list": {"i": ["1", "1", "1", "1"]}}, "data_format": {"s": "TkhXQw=="}, "num_args": {"i": "1"}, "dilations": {"list": {"i": ["1", "1", "1", "1"]}}, "T": {"type": "DT_FLOAT"}, "fused_ops": {"list": {"s": ["Qmlhc0FkZA=="]}}}}, {"name": "StatefulPartitionedCall/efficientnetv2-b0/blocks_12/Sigmoid_1", "op": "Sigmoid", "input": ["StatefulPartitionedCall/efficientnetv2-b0/blocks_12/depthwise_conv2d/depthwise"], "attr": {"T": {"type": "DT_FLOAT"}}}, {"name": "StatefulPartitionedCall/efficientnetv2-b0/blocks_12/mul_1", "op": "Mul", "input": ["StatefulPartitionedCall/efficientnetv2-b0/blocks_12/depthwise_conv2d/depthwise", "StatefulPartitionedCall/efficientnetv2-b0/blocks_12/Sigmoid_1"], "attr": {"T": {"type": "DT_FLOAT"}}}, {"name": "StatefulPartitionedCall/efficientnetv2-b0/blocks_12/se/Mean", "op": "Mean", "input": ["StatefulPartitionedCall/efficientnetv2-b0/blocks_12/mul_1", "StatefulPartitionedCall/efficientnetv2-b0/blocks_12/se/Mean/reduction_indices"], "attr": {"Tidx": {"type": "DT_INT32"}, "T": {"type": "DT_FLOAT"}, "keep_dims": {"b": true}}}, {"name": "StatefulPartitionedCall/efficientnetv2-b0/blocks_12/se/conv2d/BiasAdd", "op": "_FusedConv2D", "input": ["StatefulPartitionedCall/efficientnetv2-b0/blocks_12/se/Mean", "StatefulPartitionedCall/efficientnetv2-b0/blocks_12/se/conv2d/Conv2D/ReadVariableOp", "StatefulPartitionedCall/efficientnetv2-b0/blocks_12/se/conv2d/BiasAdd/ReadVariableOp"], "device": "/device:CPU:0", "attr": {"strides": {"list": {"i": ["1", "1", "1", "1"]}}, "data_format": {"s": "TkhXQw=="}, "use_cudnn_on_gpu": {"b": true}, "dilations": {"list": {"i": ["1", "1", "1", "1"]}}, "explicit_paddings": {"list": {}}, "T": {"type": "DT_FLOAT"}, "fused_ops": {"list": {"s": ["Qmlhc0FkZA=="]}}, "padding": {"s": "U0FNRQ=="}, "epsilon": {"f": 0.0}, "num_args": {"i": "1"}}}, {"name": "StatefulPartitionedCall/efficientnetv2-b0/blocks_12/se/Sigmoid", "op": "Sigmoid", "input": ["StatefulPartitionedCall/efficientnetv2-b0/blocks_12/se/conv2d/BiasAdd"], "attr": {"T": {"type": "DT_FLOAT"}}}, {"name": "StatefulPartitionedCall/efficientnetv2-b0/blocks_12/se/mul", "op": "Mul", "input": ["StatefulPartitionedCall/efficientnetv2-b0/blocks_12/se/conv2d/BiasAdd", "StatefulPartitionedCall/efficientnetv2-b0/blocks_12/se/Sigmoid"], "attr": {"T": {"type": "DT_FLOAT"}}}, {"name": "StatefulPartitionedCall/efficientnetv2-b0/blocks_12/se/conv2d_1/BiasAdd", "op": "_FusedConv2D", "input": ["StatefulPartitionedCall/efficientnetv2-b0/blocks_12/se/mul", "StatefulPartitionedCall/efficientnetv2-b0/blocks_12/se/conv2d_1/Conv2D/ReadVariableOp", "StatefulPartitionedCall/efficientnetv2-b0/blocks_12/se/conv2d_1/BiasAdd/ReadVariableOp"], "device": "/device:CPU:0", "attr": {"use_cudnn_on_gpu": {"b": true}, "epsilon": {"f": 0.0}, "explicit_paddings": {"list": {}}, "strides": {"list": {"i": ["1", "1", "1", "1"]}}, "T": {"type": "DT_FLOAT"}, "dilations": {"list": {"i": ["1", "1", "1", "1"]}}, "padding": {"s": "U0FNRQ=="}, "data_format": {"s": "TkhXQw=="}, "num_args": {"i": "1"}, "fused_ops": {"list": {"s": ["Qmlhc0FkZA=="]}}}}, {"name": "StatefulPartitionedCall/efficientnetv2-b0/blocks_12/se/Sigmoid_1", "op": "Sigmoid", "input": ["StatefulPartitionedCall/efficientnetv2-b0/blocks_12/se/conv2d_1/BiasAdd"], "attr": {"T": {"type": "DT_FLOAT"}}}, {"name": "StatefulPartitionedCall/efficientnetv2-b0/blocks_12/se/mul_1", "op": "Mul", "input": ["StatefulPartitionedCall/efficientnetv2-b0/blocks_12/se/Sigmoid_1", "StatefulPartitionedCall/efficientnetv2-b0/blocks_12/mul_1"], "attr": {"T": {"type": "DT_FLOAT"}}}, {"name": "StatefulPartitionedCall/efficientnetv2-b0/blocks_12/tpu_batch_normalization_2/FusedBatchNormV3", "op": "_FusedConv2D", "input": ["StatefulPartitionedCall/efficientnetv2-b0/blocks_12/se/mul_1", "StatefulPartitionedCall/efficientnetv2-b0/blocks_12/conv2d_1/Conv2D_weights", "StatefulPartitionedCall/efficientnetv2-b0/blocks_12/conv2d_1/Conv2D_bn_offset"], "device": "/device:CPU:0", "attr": {"padding": {"s": "U0FNRQ=="}, "strides": {"list": {"i": ["1", "1", "1", "1"]}}, "explicit_paddings": {"list": {}}, "fused_ops": {"list": {"s": ["Qmlhc0FkZA=="]}}, "use_cudnn_on_gpu": {"b": true}, "data_format": {"s": "TkhXQw=="}, "num_args": {"i": "1"}, "epsilon": {"f": 0.0}, "dilations": {"list": {"i": ["1", "1", "1", "1"]}}, "T": {"type": "DT_FLOAT"}}}, {"name": "StatefulPartitionedCall/efficientnetv2-b0/blocks_12/Add", "op": "AddV2", "input": ["StatefulPartitionedCall/efficientnetv2-b0/blocks_12/tpu_batch_normalization_2/FusedBatchNormV3", "StatefulPartitionedCall/efficientnetv2-b0/blocks_11/Add"], "attr": {"T": {"type": "DT_FLOAT"}}}, {"name": "StatefulPartitionedCall/efficientnetv2-b0/blocks_13/tpu_batch_normalization/FusedBatchNormV3", "op": "_FusedConv2D", "input": ["StatefulPartitionedCall/efficientnetv2-b0/blocks_12/Add", "StatefulPartitionedCall/efficientnetv2-b0/blocks_13/conv2d/Conv2D_weights", "StatefulPartitionedCall/efficientnetv2-b0/blocks_13/conv2d/Conv2D_bn_offset"], "device": "/device:CPU:0", "attr": {"fused_ops": {"list": {"s": ["Qmlhc0FkZA=="]}}, "epsilon": {"f": 0.0}, "num_args": {"i": "1"}, "T": {"type": "DT_FLOAT"}, "dilations": {"list": {"i": ["1", "1", "1", "1"]}}, "strides": {"list": {"i": ["1", "1", "1", "1"]}}, "use_cudnn_on_gpu": {"b": true}, "padding": {"s": "U0FNRQ=="}, "data_format": {"s": "TkhXQw=="}, "explicit_paddings": {"list": {}}}}, {"name": "StatefulPartitionedCall/efficientnetv2-b0/blocks_13/Sigmoid", "op": "Sigmoid", "input": ["StatefulPartitionedCall/efficientnetv2-b0/blocks_13/tpu_batch_normalization/FusedBatchNormV3"], "attr": {"T": {"type": "DT_FLOAT"}}}, {"name": "StatefulPartitionedCall/efficientnetv2-b0/blocks_13/mul", "op": "Mul", "input": ["StatefulPartitionedCall/efficientnetv2-b0/blocks_13/tpu_batch_normalization/FusedBatchNormV3", "StatefulPartitionedCall/efficientnetv2-b0/blocks_13/Sigmoid"], "attr": {"T": {"type": "DT_FLOAT"}}}, {"name": "StatefulPartitionedCall/efficientnetv2-b0/blocks_13/depthwise_conv2d/depthwise", "op": "FusedDepthwiseConv2dNative", "input": ["StatefulPartitionedCall/efficientnetv2-b0/blocks_13/mul", "StatefulPartitionedCall/efficientnetv2-b0/blocks_13/depthwise_conv2d/depthwise_weights", "StatefulPartitionedCall/efficientnetv2-b0/blocks_13/depthwise_conv2d/depthwise_bn_offset"], "attr": {"explicit_paddings": {"list": {}}, "T": {"type": "DT_FLOAT"}, "fused_ops": {"list": {"s": ["Qmlhc0FkZA=="]}}, "num_args": {"i": "1"}, "data_format": {"s": "TkhXQw=="}, "strides": {"list": {"i": ["1", "2", "2", "1"]}}, "padding": {"s": "U0FNRQ=="}, "dilations": {"list": {"i": ["1", "1", "1", "1"]}}}}, {"name": "StatefulPartitionedCall/efficientnetv2-b0/blocks_13/Sigmoid_1", "op": "Sigmoid", "input": ["StatefulPartitionedCall/efficientnetv2-b0/blocks_13/depthwise_conv2d/depthwise"], "attr": {"T": {"type": "DT_FLOAT"}}}, {"name": "StatefulPartitionedCall/efficientnetv2-b0/blocks_13/mul_1", "op": "Mul", "input": ["StatefulPartitionedCall/efficientnetv2-b0/blocks_13/depthwise_conv2d/depthwise", "StatefulPartitionedCall/efficientnetv2-b0/blocks_13/Sigmoid_1"], "attr": {"T": {"type": "DT_FLOAT"}}}, {"name": "StatefulPartitionedCall/efficientnetv2-b0/blocks_13/se/Mean", "op": "Mean", "input": ["StatefulPartitionedCall/efficientnetv2-b0/blocks_13/mul_1", "StatefulPartitionedCall/efficientnetv2-b0/blocks_13/se/Mean/reduction_indices"], "attr": {"T": {"type": "DT_FLOAT"}, "Tidx": {"type": "DT_INT32"}, "keep_dims": {"b": true}}}, {"name": "StatefulPartitionedCall/efficientnetv2-b0/blocks_13/se/conv2d/BiasAdd", "op": "_FusedConv2D", "input": ["StatefulPartitionedCall/efficientnetv2-b0/blocks_13/se/Mean", "StatefulPartitionedCall/efficientnetv2-b0/blocks_13/se/conv2d/Conv2D/ReadVariableOp", "StatefulPartitionedCall/efficientnetv2-b0/blocks_13/se/conv2d/BiasAdd/ReadVariableOp"], "device": "/device:CPU:0", "attr": {"fused_ops": {"list": {"s": ["Qmlhc0FkZA=="]}}, "padding": {"s": "U0FNRQ=="}, "epsilon": {"f": 0.0}, "num_args": {"i": "1"}, "explicit_paddings": {"list": {}}, "T": {"type": "DT_FLOAT"}, "data_format": {"s": "TkhXQw=="}, "dilations": {"list": {"i": ["1", "1", "1", "1"]}}, "use_cudnn_on_gpu": {"b": true}, "strides": {"list": {"i": ["1", "1", "1", "1"]}}}}, {"name": "StatefulPartitionedCall/efficientnetv2-b0/blocks_13/se/Sigmoid", "op": "Sigmoid", "input": ["StatefulPartitionedCall/efficientnetv2-b0/blocks_13/se/conv2d/BiasAdd"], "attr": {"T": {"type": "DT_FLOAT"}}}, {"name": "StatefulPartitionedCall/efficientnetv2-b0/blocks_13/se/mul", "op": "Mul", "input": ["StatefulPartitionedCall/efficientnetv2-b0/blocks_13/se/conv2d/BiasAdd", "StatefulPartitionedCall/efficientnetv2-b0/blocks_13/se/Sigmoid"], "attr": {"T": {"type": "DT_FLOAT"}}}, {"name": "StatefulPartitionedCall/efficientnetv2-b0/blocks_13/se/conv2d_1/BiasAdd", "op": "_FusedConv2D", "input": ["StatefulPartitionedCall/efficientnetv2-b0/blocks_13/se/mul", "StatefulPartitionedCall/efficientnetv2-b0/blocks_13/se/conv2d_1/Conv2D/ReadVariableOp", "StatefulPartitionedCall/efficientnetv2-b0/blocks_13/se/conv2d_1/BiasAdd/ReadVariableOp"], "device": "/device:CPU:0", "attr": {"data_format": {"s": "TkhXQw=="}, "epsilon": {"f": 0.0}, "dilations": {"list": {"i": ["1", "1", "1", "1"]}}, "num_args": {"i": "1"}, "explicit_paddings": {"list": {}}, "use_cudnn_on_gpu": {"b": true}, "fused_ops": {"list": {"s": ["Qmlhc0FkZA=="]}}, "padding": {"s": "U0FNRQ=="}, "T": {"type": "DT_FLOAT"}, "strides": {"list": {"i": ["1", "1", "1", "1"]}}}}, {"name": "StatefulPartitionedCall/efficientnetv2-b0/blocks_13/se/Sigmoid_1", "op": "Sigmoid", "input": ["StatefulPartitionedCall/efficientnetv2-b0/blocks_13/se/conv2d_1/BiasAdd"], "attr": {"T": {"type": "DT_FLOAT"}}}, {"name": "StatefulPartitionedCall/efficientnetv2-b0/blocks_13/se/mul_1", "op": "Mul", "input": ["StatefulPartitionedCall/efficientnetv2-b0/blocks_13/se/Sigmoid_1", "StatefulPartitionedCall/efficientnetv2-b0/blocks_13/mul_1"], "attr": {"T": {"type": "DT_FLOAT"}}}, {"name": "StatefulPartitionedCall/efficientnetv2-b0/blocks_13/tpu_batch_normalization_2/FusedBatchNormV3", "op": "_FusedConv2D", "input": ["StatefulPartitionedCall/efficientnetv2-b0/blocks_13/se/mul_1", "StatefulPartitionedCall/efficientnetv2-b0/blocks_13/conv2d_1/Conv2D_weights", "StatefulPartitionedCall/efficientnetv2-b0/blocks_13/conv2d_1/Conv2D_bn_offset"], "device": "/device:CPU:0", "attr": {"num_args": {"i": "1"}, "use_cudnn_on_gpu": {"b": true}, "dilations": {"list": {"i": ["1", "1", "1", "1"]}}, "strides": {"list": {"i": ["1", "1", "1", "1"]}}, "epsilon": {"f": 0.0}, "fused_ops": {"list": {"s": ["Qmlhc0FkZA=="]}}, "explicit_paddings": {"list": {}}, "data_format": {"s": "TkhXQw=="}, "T": {"type": "DT_FLOAT"}, "padding": {"s": "U0FNRQ=="}}}, {"name": "StatefulPartitionedCall/efficientnetv2-b0/blocks_14/tpu_batch_normalization/FusedBatchNormV3", "op": "_FusedConv2D", "input": ["StatefulPartitionedCall/efficientnetv2-b0/blocks_13/tpu_batch_normalization_2/FusedBatchNormV3", "StatefulPartitionedCall/efficientnetv2-b0/blocks_14/conv2d/Conv2D_weights", "StatefulPartitionedCall/efficientnetv2-b0/blocks_14/conv2d/Conv2D_bn_offset"], "device": "/device:CPU:0", "attr": {"padding": {"s": "U0FNRQ=="}, "data_format": {"s": "TkhXQw=="}, "fused_ops": {"list": {"s": ["Qmlhc0FkZA=="]}}, "T": {"type": "DT_FLOAT"}, "explicit_paddings": {"list": {}}, "epsilon": {"f": 0.0}, "num_args": {"i": "1"}, "dilations": {"list": {"i": ["1", "1", "1", "1"]}}, "use_cudnn_on_gpu": {"b": true}, "strides": {"list": {"i": ["1", "1", "1", "1"]}}}}, {"name": "StatefulPartitionedCall/efficientnetv2-b0/blocks_14/Sigmoid", "op": "Sigmoid", "input": ["StatefulPartitionedCall/efficientnetv2-b0/blocks_14/tpu_batch_normalization/FusedBatchNormV3"], "attr": {"T": {"type": "DT_FLOAT"}}}, {"name": "StatefulPartitionedCall/efficientnetv2-b0/blocks_14/mul", "op": "Mul", "input": ["StatefulPartitionedCall/efficientnetv2-b0/blocks_14/tpu_batch_normalization/FusedBatchNormV3", "StatefulPartitionedCall/efficientnetv2-b0/blocks_14/Sigmoid"], "attr": {"T": {"type": "DT_FLOAT"}}}, {"name": "StatefulPartitionedCall/efficientnetv2-b0/blocks_14/depthwise_conv2d/depthwise", "op": "FusedDepthwiseConv2dNative", "input": ["StatefulPartitionedCall/efficientnetv2-b0/blocks_14/mul", "StatefulPartitionedCall/efficientnetv2-b0/blocks_14/depthwise_conv2d/depthwise_weights", "StatefulPartitionedCall/efficientnetv2-b0/blocks_14/depthwise_conv2d/depthwise_bn_offset"], "attr": {"T": {"type": "DT_FLOAT"}, "fused_ops": {"list": {"s": ["Qmlhc0FkZA=="]}}, "num_args": {"i": "1"}, "explicit_paddings": {"list": {}}, "data_format": {"s": "TkhXQw=="}, "strides": {"list": {"i": ["1", "1", "1", "1"]}}, "dilations": {"list": {"i": ["1", "1", "1", "1"]}}, "padding": {"s": "U0FNRQ=="}}}, {"name": "StatefulPartitionedCall/efficientnetv2-b0/blocks_14/Sigmoid_1", "op": "Sigmoid", "input": ["StatefulPartitionedCall/efficientnetv2-b0/blocks_14/depthwise_conv2d/depthwise"], "attr": {"T": {"type": "DT_FLOAT"}}}, {"name": "StatefulPartitionedCall/efficientnetv2-b0/blocks_14/mul_1", "op": "Mul", "input": ["StatefulPartitionedCall/efficientnetv2-b0/blocks_14/depthwise_conv2d/depthwise", "StatefulPartitionedCall/efficientnetv2-b0/blocks_14/Sigmoid_1"], "attr": {"T": {"type": "DT_FLOAT"}}}, {"name": "StatefulPartitionedCall/efficientnetv2-b0/blocks_14/se/Mean", "op": "Mean", "input": ["StatefulPartitionedCall/efficientnetv2-b0/blocks_14/mul_1", "StatefulPartitionedCall/efficientnetv2-b0/blocks_14/se/Mean/reduction_indices"], "attr": {"T": {"type": "DT_FLOAT"}, "Tidx": {"type": "DT_INT32"}, "keep_dims": {"b": true}}}, {"name": "StatefulPartitionedCall/efficientnetv2-b0/blocks_14/se/conv2d/BiasAdd", "op": "_FusedConv2D", "input": ["StatefulPartitionedCall/efficientnetv2-b0/blocks_14/se/Mean", "StatefulPartitionedCall/efficientnetv2-b0/blocks_14/se/conv2d/Conv2D/ReadVariableOp", "StatefulPartitionedCall/efficientnetv2-b0/blocks_14/se/conv2d/BiasAdd/ReadVariableOp"], "device": "/device:CPU:0", "attr": {"data_format": {"s": "TkhXQw=="}, "use_cudnn_on_gpu": {"b": true}, "T": {"type": "DT_FLOAT"}, "epsilon": {"f": 0.0}, "num_args": {"i": "1"}, "dilations": {"list": {"i": ["1", "1", "1", "1"]}}, "fused_ops": {"list": {"s": ["Qmlhc0FkZA=="]}}, "explicit_paddings": {"list": {}}, "padding": {"s": "U0FNRQ=="}, "strides": {"list": {"i": ["1", "1", "1", "1"]}}}}, {"name": "StatefulPartitionedCall/efficientnetv2-b0/blocks_14/se/Sigmoid", "op": "Sigmoid", "input": ["StatefulPartitionedCall/efficientnetv2-b0/blocks_14/se/conv2d/BiasAdd"], "attr": {"T": {"type": "DT_FLOAT"}}}, {"name": "StatefulPartitionedCall/efficientnetv2-b0/blocks_14/se/mul", "op": "Mul", "input": ["StatefulPartitionedCall/efficientnetv2-b0/blocks_14/se/conv2d/BiasAdd", "StatefulPartitionedCall/efficientnetv2-b0/blocks_14/se/Sigmoid"], "attr": {"T": {"type": "DT_FLOAT"}}}, {"name": "StatefulPartitionedCall/efficientnetv2-b0/blocks_14/se/conv2d_1/BiasAdd", "op": "_FusedConv2D", "input": ["StatefulPartitionedCall/efficientnetv2-b0/blocks_14/se/mul", "StatefulPartitionedCall/efficientnetv2-b0/blocks_14/se/conv2d_1/Conv2D/ReadVariableOp", "StatefulPartitionedCall/efficientnetv2-b0/blocks_14/se/conv2d_1/BiasAdd/ReadVariableOp"], "device": "/device:CPU:0", "attr": {"T": {"type": "DT_FLOAT"}, "padding": {"s": "U0FNRQ=="}, "explicit_paddings": {"list": {}}, "data_format": {"s": "TkhXQw=="}, "strides": {"list": {"i": ["1", "1", "1", "1"]}}, "fused_ops": {"list": {"s": ["Qmlhc0FkZA=="]}}, "num_args": {"i": "1"}, "use_cudnn_on_gpu": {"b": true}, "dilations": {"list": {"i": ["1", "1", "1", "1"]}}, "epsilon": {"f": 0.0}}}, {"name": "StatefulPartitionedCall/efficientnetv2-b0/blocks_14/se/Sigmoid_1", "op": "Sigmoid", "input": ["StatefulPartitionedCall/efficientnetv2-b0/blocks_14/se/conv2d_1/BiasAdd"], "attr": {"T": {"type": "DT_FLOAT"}}}, {"name": "StatefulPartitionedCall/efficientnetv2-b0/blocks_14/se/mul_1", "op": "Mul", "input": ["StatefulPartitionedCall/efficientnetv2-b0/blocks_14/se/Sigmoid_1", "StatefulPartitionedCall/efficientnetv2-b0/blocks_14/mul_1"], "attr": {"T": {"type": "DT_FLOAT"}}}, {"name": "StatefulPartitionedCall/efficientnetv2-b0/blocks_14/tpu_batch_normalization_2/FusedBatchNormV3", "op": "_FusedConv2D", "input": ["StatefulPartitionedCall/efficientnetv2-b0/blocks_14/se/mul_1", "StatefulPartitionedCall/efficientnetv2-b0/blocks_14/conv2d_1/Conv2D_weights", "StatefulPartitionedCall/efficientnetv2-b0/blocks_14/conv2d_1/Conv2D_bn_offset"], "device": "/device:CPU:0", "attr": {"data_format": {"s": "TkhXQw=="}, "use_cudnn_on_gpu": {"b": true}, "explicit_paddings": {"list": {}}, "strides": {"list": {"i": ["1", "1", "1", "1"]}}, "num_args": {"i": "1"}, "T": {"type": "DT_FLOAT"}, "epsilon": {"f": 0.0}, "fused_ops": {"list": {"s": ["Qmlhc0FkZA=="]}}, "dilations": {"list": {"i": ["1", "1", "1", "1"]}}, "padding": {"s": "U0FNRQ=="}}}, {"name": "StatefulPartitionedCall/efficientnetv2-b0/blocks_14/Add", "op": "AddV2", "input": ["StatefulPartitionedCall/efficientnetv2-b0/blocks_14/tpu_batch_normalization_2/FusedBatchNormV3", "StatefulPartitionedCall/efficientnetv2-b0/blocks_13/tpu_batch_normalization_2/FusedBatchNormV3"], "attr": {"T": {"type": "DT_FLOAT"}}}, {"name": "StatefulPartitionedCall/efficientnetv2-b0/blocks_15/tpu_batch_normalization/FusedBatchNormV3", "op": "_FusedConv2D", "input": ["StatefulPartitionedCall/efficientnetv2-b0/blocks_14/Add", "StatefulPartitionedCall/efficientnetv2-b0/blocks_15/conv2d/Conv2D_weights", "StatefulPartitionedCall/efficientnetv2-b0/blocks_15/conv2d/Conv2D_bn_offset"], "device": "/device:CPU:0", "attr": {"use_cudnn_on_gpu": {"b": true}, "epsilon": {"f": 0.0}, "T": {"type": "DT_FLOAT"}, "padding": {"s": "U0FNRQ=="}, "explicit_paddings": {"list": {}}, "num_args": {"i": "1"}, "dilations": {"list": {"i": ["1", "1", "1", "1"]}}, "data_format": {"s": "TkhXQw=="}, "strides": {"list": {"i": ["1", "1", "1", "1"]}}, "fused_ops": {"list": {"s": ["Qmlhc0FkZA=="]}}}}, {"name": "StatefulPartitionedCall/efficientnetv2-b0/blocks_15/Sigmoid", "op": "Sigmoid", "input": ["StatefulPartitionedCall/efficientnetv2-b0/blocks_15/tpu_batch_normalization/FusedBatchNormV3"], "attr": {"T": {"type": "DT_FLOAT"}}}, {"name": "StatefulPartitionedCall/efficientnetv2-b0/blocks_15/mul", "op": "Mul", "input": ["StatefulPartitionedCall/efficientnetv2-b0/blocks_15/tpu_batch_normalization/FusedBatchNormV3", "StatefulPartitionedCall/efficientnetv2-b0/blocks_15/Sigmoid"], "attr": {"T": {"type": "DT_FLOAT"}}}, {"name": "StatefulPartitionedCall/efficientnetv2-b0/blocks_15/depthwise_conv2d/depthwise", "op": "FusedDepthwiseConv2dNative", "input": ["StatefulPartitionedCall/efficientnetv2-b0/blocks_15/mul", "StatefulPartitionedCall/efficientnetv2-b0/blocks_15/depthwise_conv2d/depthwise_weights", "StatefulPartitionedCall/efficientnetv2-b0/blocks_15/depthwise_conv2d/depthwise_bn_offset"], "attr": {"num_args": {"i": "1"}, "explicit_paddings": {"list": {}}, "padding": {"s": "U0FNRQ=="}, "fused_ops": {"list": {"s": ["Qmlhc0FkZA=="]}}, "strides": {"list": {"i": ["1", "1", "1", "1"]}}, "dilations": {"list": {"i": ["1", "1", "1", "1"]}}, "data_format": {"s": "TkhXQw=="}, "T": {"type": "DT_FLOAT"}}}, {"name": "StatefulPartitionedCall/efficientnetv2-b0/blocks_15/Sigmoid_1", "op": "Sigmoid", "input": ["StatefulPartitionedCall/efficientnetv2-b0/blocks_15/depthwise_conv2d/depthwise"], "attr": {"T": {"type": "DT_FLOAT"}}}, {"name": "StatefulPartitionedCall/efficientnetv2-b0/blocks_15/mul_1", "op": "Mul", "input": ["StatefulPartitionedCall/efficientnetv2-b0/blocks_15/depthwise_conv2d/depthwise", "StatefulPartitionedCall/efficientnetv2-b0/blocks_15/Sigmoid_1"], "attr": {"T": {"type": "DT_FLOAT"}}}, {"name": "StatefulPartitionedCall/efficientnetv2-b0/blocks_15/se/Mean", "op": "Mean", "input": ["StatefulPartitionedCall/efficientnetv2-b0/blocks_15/mul_1", "StatefulPartitionedCall/efficientnetv2-b0/blocks_15/se/Mean/reduction_indices"], "attr": {"T": {"type": "DT_FLOAT"}, "Tidx": {"type": "DT_INT32"}, "keep_dims": {"b": true}}}, {"name": "StatefulPartitionedCall/efficientnetv2-b0/blocks_15/se/conv2d/BiasAdd", "op": "_FusedConv2D", "input": ["StatefulPartitionedCall/efficientnetv2-b0/blocks_15/se/Mean", "StatefulPartitionedCall/efficientnetv2-b0/blocks_15/se/conv2d/Conv2D/ReadVariableOp", "StatefulPartitionedCall/efficientnetv2-b0/blocks_15/se/conv2d/BiasAdd/ReadVariableOp"], "device": "/device:CPU:0", "attr": {"padding": {"s": "U0FNRQ=="}, "fused_ops": {"list": {"s": ["Qmlhc0FkZA=="]}}, "data_format": {"s": "TkhXQw=="}, "explicit_paddings": {"list": {}}, "dilations": {"list": {"i": ["1", "1", "1", "1"]}}, "use_cudnn_on_gpu": {"b": true}, "strides": {"list": {"i": ["1", "1", "1", "1"]}}, "num_args": {"i": "1"}, "T": {"type": "DT_FLOAT"}, "epsilon": {"f": 0.0}}}, {"name": "StatefulPartitionedCall/efficientnetv2-b0/blocks_15/se/Sigmoid", "op": "Sigmoid", "input": ["StatefulPartitionedCall/efficientnetv2-b0/blocks_15/se/conv2d/BiasAdd"], "attr": {"T": {"type": "DT_FLOAT"}}}, {"name": "StatefulPartitionedCall/efficientnetv2-b0/blocks_15/se/mul", "op": "Mul", "input": ["StatefulPartitionedCall/efficientnetv2-b0/blocks_15/se/conv2d/BiasAdd", "StatefulPartitionedCall/efficientnetv2-b0/blocks_15/se/Sigmoid"], "attr": {"T": {"type": "DT_FLOAT"}}}, {"name": "StatefulPartitionedCall/efficientnetv2-b0/blocks_15/se/conv2d_1/BiasAdd", "op": "_FusedConv2D", "input": ["StatefulPartitionedCall/efficientnetv2-b0/blocks_15/se/mul", "StatefulPartitionedCall/efficientnetv2-b0/blocks_15/se/conv2d_1/Conv2D/ReadVariableOp", "StatefulPartitionedCall/efficientnetv2-b0/blocks_15/se/conv2d_1/BiasAdd/ReadVariableOp"], "device": "/device:CPU:0", "attr": {"data_format": {"s": "TkhXQw=="}, "T": {"type": "DT_FLOAT"}, "num_args": {"i": "1"}, "dilations": {"list": {"i": ["1", "1", "1", "1"]}}, "fused_ops": {"list": {"s": ["Qmlhc0FkZA=="]}}, "epsilon": {"f": 0.0}, "padding": {"s": "U0FNRQ=="}, "strides": {"list": {"i": ["1", "1", "1", "1"]}}, "explicit_paddings": {"list": {}}, "use_cudnn_on_gpu": {"b": true}}}, {"name": "StatefulPartitionedCall/efficientnetv2-b0/blocks_15/se/Sigmoid_1", "op": "Sigmoid", "input": ["StatefulPartitionedCall/efficientnetv2-b0/blocks_15/se/conv2d_1/BiasAdd"], "attr": {"T": {"type": "DT_FLOAT"}}}, {"name": "StatefulPartitionedCall/efficientnetv2-b0/blocks_15/se/mul_1", "op": "Mul", "input": ["StatefulPartitionedCall/efficientnetv2-b0/blocks_15/se/Sigmoid_1", "StatefulPartitionedCall/efficientnetv2-b0/blocks_15/mul_1"], "attr": {"T": {"type": "DT_FLOAT"}}}, {"name": "StatefulPartitionedCall/efficientnetv2-b0/blocks_15/tpu_batch_normalization_2/FusedBatchNormV3", "op": "_FusedConv2D", "input": ["StatefulPartitionedCall/efficientnetv2-b0/blocks_15/se/mul_1", "StatefulPartitionedCall/efficientnetv2-b0/blocks_15/conv2d_1/Conv2D_weights", "StatefulPartitionedCall/efficientnetv2-b0/blocks_15/conv2d_1/Conv2D_bn_offset"], "device": "/device:CPU:0", "attr": {"use_cudnn_on_gpu": {"b": true}, "fused_ops": {"list": {"s": ["Qmlhc0FkZA=="]}}, "epsilon": {"f": 0.0}, "data_format": {"s": "TkhXQw=="}, "padding": {"s": "U0FNRQ=="}, "num_args": {"i": "1"}, "T": {"type": "DT_FLOAT"}, "strides": {"list": {"i": ["1", "1", "1", "1"]}}, "explicit_paddings": {"list": {}}, "dilations": {"list": {"i": ["1", "1", "1", "1"]}}}}, {"name": "StatefulPartitionedCall/efficientnetv2-b0/blocks_15/Add", "op": "AddV2", "input": ["StatefulPartitionedCall/efficientnetv2-b0/blocks_15/tpu_batch_normalization_2/FusedBatchNormV3", "StatefulPartitionedCall/efficientnetv2-b0/blocks_14/Add"], "attr": {"T": {"type": "DT_FLOAT"}}}, {"name": "StatefulPartitionedCall/efficientnetv2-b0/blocks_16/tpu_batch_normalization/FusedBatchNormV3", "op": "_FusedConv2D", "input": ["StatefulPartitionedCall/efficientnetv2-b0/blocks_15/Add", "StatefulPartitionedCall/efficientnetv2-b0/blocks_16/conv2d/Conv2D_weights", "StatefulPartitionedCall/efficientnetv2-b0/blocks_16/conv2d/Conv2D_bn_offset"], "device": "/device:CPU:0", "attr": {"num_args": {"i": "1"}, "padding": {"s": "U0FNRQ=="}, "dilations": {"list": {"i": ["1", "1", "1", "1"]}}, "use_cudnn_on_gpu": {"b": true}, "data_format": {"s": "TkhXQw=="}, "fused_ops": {"list": {"s": ["Qmlhc0FkZA=="]}}, "epsilon": {"f": 0.0}, "explicit_paddings": {"list": {}}, "strides": {"list": {"i": ["1", "1", "1", "1"]}}, "T": {"type": "DT_FLOAT"}}}, {"name": "StatefulPartitionedCall/efficientnetv2-b0/blocks_16/Sigmoid", "op": "Sigmoid", "input": ["StatefulPartitionedCall/efficientnetv2-b0/blocks_16/tpu_batch_normalization/FusedBatchNormV3"], "attr": {"T": {"type": "DT_FLOAT"}}}, {"name": "StatefulPartitionedCall/efficientnetv2-b0/blocks_16/mul", "op": "Mul", "input": ["StatefulPartitionedCall/efficientnetv2-b0/blocks_16/tpu_batch_normalization/FusedBatchNormV3", "StatefulPartitionedCall/efficientnetv2-b0/blocks_16/Sigmoid"], "attr": {"T": {"type": "DT_FLOAT"}}}, {"name": "StatefulPartitionedCall/efficientnetv2-b0/blocks_16/depthwise_conv2d/depthwise", "op": "FusedDepthwiseConv2dNative", "input": ["StatefulPartitionedCall/efficientnetv2-b0/blocks_16/mul", "StatefulPartitionedCall/efficientnetv2-b0/blocks_16/depthwise_conv2d/depthwise_weights", "StatefulPartitionedCall/efficientnetv2-b0/blocks_16/depthwise_conv2d/depthwise_bn_offset"], "attr": {"strides": {"list": {"i": ["1", "1", "1", "1"]}}, "dilations": {"list": {"i": ["1", "1", "1", "1"]}}, "explicit_paddings": {"list": {}}, "T": {"type": "DT_FLOAT"}, "fused_ops": {"list": {"s": ["Qmlhc0FkZA=="]}}, "num_args": {"i": "1"}, "padding": {"s": "U0FNRQ=="}, "data_format": {"s": "TkhXQw=="}}}, {"name": "StatefulPartitionedCall/efficientnetv2-b0/blocks_16/Sigmoid_1", "op": "Sigmoid", "input": ["StatefulPartitionedCall/efficientnetv2-b0/blocks_16/depthwise_conv2d/depthwise"], "attr": {"T": {"type": "DT_FLOAT"}}}, {"name": "StatefulPartitionedCall/efficientnetv2-b0/blocks_16/mul_1", "op": "Mul", "input": ["StatefulPartitionedCall/efficientnetv2-b0/blocks_16/depthwise_conv2d/depthwise", "StatefulPartitionedCall/efficientnetv2-b0/blocks_16/Sigmoid_1"], "attr": {"T": {"type": "DT_FLOAT"}}}, {"name": "StatefulPartitionedCall/efficientnetv2-b0/blocks_16/se/Mean", "op": "Mean", "input": ["StatefulPartitionedCall/efficientnetv2-b0/blocks_16/mul_1", "StatefulPartitionedCall/efficientnetv2-b0/blocks_16/se/Mean/reduction_indices"], "attr": {"keep_dims": {"b": true}, "Tidx": {"type": "DT_INT32"}, "T": {"type": "DT_FLOAT"}}}, {"name": "StatefulPartitionedCall/efficientnetv2-b0/blocks_16/se/conv2d/BiasAdd", "op": "_FusedConv2D", "input": ["StatefulPartitionedCall/efficientnetv2-b0/blocks_16/se/Mean", "StatefulPartitionedCall/efficientnetv2-b0/blocks_16/se/conv2d/Conv2D/ReadVariableOp", "StatefulPartitionedCall/efficientnetv2-b0/blocks_16/se/conv2d/BiasAdd/ReadVariableOp"], "device": "/device:CPU:0", "attr": {"num_args": {"i": "1"}, "strides": {"list": {"i": ["1", "1", "1", "1"]}}, "T": {"type": "DT_FLOAT"}, "padding": {"s": "U0FNRQ=="}, "dilations": {"list": {"i": ["1", "1", "1", "1"]}}, "epsilon": {"f": 0.0}, "use_cudnn_on_gpu": {"b": true}, "data_format": {"s": "TkhXQw=="}, "fused_ops": {"list": {"s": ["Qmlhc0FkZA=="]}}, "explicit_paddings": {"list": {}}}}, {"name": "StatefulPartitionedCall/efficientnetv2-b0/blocks_16/se/Sigmoid", "op": "Sigmoid", "input": ["StatefulPartitionedCall/efficientnetv2-b0/blocks_16/se/conv2d/BiasAdd"], "attr": {"T": {"type": "DT_FLOAT"}}}, {"name": "StatefulPartitionedCall/efficientnetv2-b0/blocks_16/se/mul", "op": "Mul", "input": ["StatefulPartitionedCall/efficientnetv2-b0/blocks_16/se/conv2d/BiasAdd", "StatefulPartitionedCall/efficientnetv2-b0/blocks_16/se/Sigmoid"], "attr": {"T": {"type": "DT_FLOAT"}}}, {"name": "StatefulPartitionedCall/efficientnetv2-b0/blocks_16/se/conv2d_1/BiasAdd", "op": "_FusedConv2D", "input": ["StatefulPartitionedCall/efficientnetv2-b0/blocks_16/se/mul", "StatefulPartitionedCall/efficientnetv2-b0/blocks_16/se/conv2d_1/Conv2D/ReadVariableOp", "StatefulPartitionedCall/efficientnetv2-b0/blocks_16/se/conv2d_1/BiasAdd/ReadVariableOp"], "device": "/device:CPU:0", "attr": {"strides": {"list": {"i": ["1", "1", "1", "1"]}}, "use_cudnn_on_gpu": {"b": true}, "data_format": {"s": "TkhXQw=="}, "explicit_paddings": {"list": {}}, "dilations": {"list": {"i": ["1", "1", "1", "1"]}}, "fused_ops": {"list": {"s": ["Qmlhc0FkZA=="]}}, "epsilon": {"f": 0.0}, "num_args": {"i": "1"}, "padding": {"s": "U0FNRQ=="}, "T": {"type": "DT_FLOAT"}}}, {"name": "StatefulPartitionedCall/efficientnetv2-b0/blocks_16/se/Sigmoid_1", "op": "Sigmoid", "input": ["StatefulPartitionedCall/efficientnetv2-b0/blocks_16/se/conv2d_1/BiasAdd"], "attr": {"T": {"type": "DT_FLOAT"}}}, {"name": "StatefulPartitionedCall/efficientnetv2-b0/blocks_16/se/mul_1", "op": "Mul", "input": ["StatefulPartitionedCall/efficientnetv2-b0/blocks_16/se/Sigmoid_1", "StatefulPartitionedCall/efficientnetv2-b0/blocks_16/mul_1"], "attr": {"T": {"type": "DT_FLOAT"}}}, {"name": "StatefulPartitionedCall/efficientnetv2-b0/blocks_16/tpu_batch_normalization_2/FusedBatchNormV3", "op": "_FusedConv2D", "input": ["StatefulPartitionedCall/efficientnetv2-b0/blocks_16/se/mul_1", "StatefulPartitionedCall/efficientnetv2-b0/blocks_16/conv2d_1/Conv2D_weights", "StatefulPartitionedCall/efficientnetv2-b0/blocks_16/conv2d_1/Conv2D_bn_offset"], "device": "/device:CPU:0", "attr": {"padding": {"s": "U0FNRQ=="}, "dilations": {"list": {"i": ["1", "1", "1", "1"]}}, "data_format": {"s": "TkhXQw=="}, "explicit_paddings": {"list": {}}, "fused_ops": {"list": {"s": ["Qmlhc0FkZA=="]}}, "num_args": {"i": "1"}, "T": {"type": "DT_FLOAT"}, "strides": {"list": {"i": ["1", "1", "1", "1"]}}, "epsilon": {"f": 0.0}, "use_cudnn_on_gpu": {"b": true}}}, {"name": "StatefulPartitionedCall/efficientnetv2-b0/blocks_16/Add", "op": "AddV2", "input": ["StatefulPartitionedCall/efficientnetv2-b0/blocks_16/tpu_batch_normalization_2/FusedBatchNormV3", "StatefulPartitionedCall/efficientnetv2-b0/blocks_15/Add"], "attr": {"T": {"type": "DT_FLOAT"}}}, {"name": "StatefulPartitionedCall/efficientnetv2-b0/blocks_17/tpu_batch_normalization/FusedBatchNormV3", "op": "_FusedConv2D", "input": ["StatefulPartitionedCall/efficientnetv2-b0/blocks_16/Add", "StatefulPartitionedCall/efficientnetv2-b0/blocks_17/conv2d/Conv2D_weights", "StatefulPartitionedCall/efficientnetv2-b0/blocks_17/conv2d/Conv2D_bn_offset"], "device": "/device:CPU:0", "attr": {"epsilon": {"f": 0.0}, "data_format": {"s": "TkhXQw=="}, "explicit_paddings": {"list": {}}, "padding": {"s": "U0FNRQ=="}, "dilations": {"list": {"i": ["1", "1", "1", "1"]}}, "use_cudnn_on_gpu": {"b": true}, "strides": {"list": {"i": ["1", "1", "1", "1"]}}, "T": {"type": "DT_FLOAT"}, "num_args": {"i": "1"}, "fused_ops": {"list": {"s": ["Qmlhc0FkZA=="]}}}}, {"name": "StatefulPartitionedCall/efficientnetv2-b0/blocks_17/Sigmoid", "op": "Sigmoid", "input": ["StatefulPartitionedCall/efficientnetv2-b0/blocks_17/tpu_batch_normalization/FusedBatchNormV3"], "attr": {"T": {"type": "DT_FLOAT"}}}, {"name": "StatefulPartitionedCall/efficientnetv2-b0/blocks_17/mul", "op": "Mul", "input": ["StatefulPartitionedCall/efficientnetv2-b0/blocks_17/tpu_batch_normalization/FusedBatchNormV3", "StatefulPartitionedCall/efficientnetv2-b0/blocks_17/Sigmoid"], "attr": {"T": {"type": "DT_FLOAT"}}}, {"name": "StatefulPartitionedCall/efficientnetv2-b0/blocks_17/depthwise_conv2d/depthwise", "op": "FusedDepthwiseConv2dNative", "input": ["StatefulPartitionedCall/efficientnetv2-b0/blocks_17/mul", "StatefulPartitionedCall/efficientnetv2-b0/blocks_17/depthwise_conv2d/depthwise_weights", "StatefulPartitionedCall/efficientnetv2-b0/blocks_17/depthwise_conv2d/depthwise_bn_offset"], "attr": {"padding": {"s": "U0FNRQ=="}, "fused_ops": {"list": {"s": ["Qmlhc0FkZA=="]}}, "num_args": {"i": "1"}, "data_format": {"s": "TkhXQw=="}, "explicit_paddings": {"list": {}}, "strides": {"list": {"i": ["1", "1", "1", "1"]}}, "dilations": {"list": {"i": ["1", "1", "1", "1"]}}, "T": {"type": "DT_FLOAT"}}}, {"name": "StatefulPartitionedCall/efficientnetv2-b0/blocks_17/Sigmoid_1", "op": "Sigmoid", "input": ["StatefulPartitionedCall/efficientnetv2-b0/blocks_17/depthwise_conv2d/depthwise"], "attr": {"T": {"type": "DT_FLOAT"}}}, {"name": "StatefulPartitionedCall/efficientnetv2-b0/blocks_17/mul_1", "op": "Mul", "input": ["StatefulPartitionedCall/efficientnetv2-b0/blocks_17/depthwise_conv2d/depthwise", "StatefulPartitionedCall/efficientnetv2-b0/blocks_17/Sigmoid_1"], "attr": {"T": {"type": "DT_FLOAT"}}}, {"name": "StatefulPartitionedCall/efficientnetv2-b0/blocks_17/se/Mean", "op": "Mean", "input": ["StatefulPartitionedCall/efficientnetv2-b0/blocks_17/mul_1", "StatefulPartitionedCall/efficientnetv2-b0/blocks_17/se/Mean/reduction_indices"], "attr": {"keep_dims": {"b": true}, "T": {"type": "DT_FLOAT"}, "Tidx": {"type": "DT_INT32"}}}, {"name": "StatefulPartitionedCall/efficientnetv2-b0/blocks_17/se/conv2d/BiasAdd", "op": "_FusedConv2D", "input": ["StatefulPartitionedCall/efficientnetv2-b0/blocks_17/se/Mean", "StatefulPartitionedCall/efficientnetv2-b0/blocks_17/se/conv2d/Conv2D/ReadVariableOp", "StatefulPartitionedCall/efficientnetv2-b0/blocks_17/se/conv2d/BiasAdd/ReadVariableOp"], "device": "/device:CPU:0", "attr": {"fused_ops": {"list": {"s": ["Qmlhc0FkZA=="]}}, "use_cudnn_on_gpu": {"b": true}, "explicit_paddings": {"list": {}}, "padding": {"s": "U0FNRQ=="}, "epsilon": {"f": 0.0}, "data_format": {"s": "TkhXQw=="}, "strides": {"list": {"i": ["1", "1", "1", "1"]}}, "T": {"type": "DT_FLOAT"}, "num_args": {"i": "1"}, "dilations": {"list": {"i": ["1", "1", "1", "1"]}}}}, {"name": "StatefulPartitionedCall/efficientnetv2-b0/blocks_17/se/Sigmoid", "op": "Sigmoid", "input": ["StatefulPartitionedCall/efficientnetv2-b0/blocks_17/se/conv2d/BiasAdd"], "attr": {"T": {"type": "DT_FLOAT"}}}, {"name": "StatefulPartitionedCall/efficientnetv2-b0/blocks_17/se/mul", "op": "Mul", "input": ["StatefulPartitionedCall/efficientnetv2-b0/blocks_17/se/conv2d/BiasAdd", "StatefulPartitionedCall/efficientnetv2-b0/blocks_17/se/Sigmoid"], "attr": {"T": {"type": "DT_FLOAT"}}}, {"name": "StatefulPartitionedCall/efficientnetv2-b0/blocks_17/se/conv2d_1/BiasAdd", "op": "_FusedConv2D", "input": ["StatefulPartitionedCall/efficientnetv2-b0/blocks_17/se/mul", "StatefulPartitionedCall/efficientnetv2-b0/blocks_17/se/conv2d_1/Conv2D/ReadVariableOp", "StatefulPartitionedCall/efficientnetv2-b0/blocks_17/se/conv2d_1/BiasAdd/ReadVariableOp"], "device": "/device:CPU:0", "attr": {"explicit_paddings": {"list": {}}, "num_args": {"i": "1"}, "strides": {"list": {"i": ["1", "1", "1", "1"]}}, "use_cudnn_on_gpu": {"b": true}, "data_format": {"s": "TkhXQw=="}, "fused_ops": {"list": {"s": ["Qmlhc0FkZA=="]}}, "epsilon": {"f": 0.0}, "T": {"type": "DT_FLOAT"}, "dilations": {"list": {"i": ["1", "1", "1", "1"]}}, "padding": {"s": "U0FNRQ=="}}}, {"name": "StatefulPartitionedCall/efficientnetv2-b0/blocks_17/se/Sigmoid_1", "op": "Sigmoid", "input": ["StatefulPartitionedCall/efficientnetv2-b0/blocks_17/se/conv2d_1/BiasAdd"], "attr": {"T": {"type": "DT_FLOAT"}}}, {"name": "StatefulPartitionedCall/efficientnetv2-b0/blocks_17/se/mul_1", "op": "Mul", "input": ["StatefulPartitionedCall/efficientnetv2-b0/blocks_17/se/Sigmoid_1", "StatefulPartitionedCall/efficientnetv2-b0/blocks_17/mul_1"], "attr": {"T": {"type": "DT_FLOAT"}}}, {"name": "StatefulPartitionedCall/efficientnetv2-b0/blocks_17/tpu_batch_normalization_2/FusedBatchNormV3", "op": "_FusedConv2D", "input": ["StatefulPartitionedCall/efficientnetv2-b0/blocks_17/se/mul_1", "StatefulPartitionedCall/efficientnetv2-b0/blocks_17/conv2d_1/Conv2D_weights", "StatefulPartitionedCall/efficientnetv2-b0/blocks_17/conv2d_1/Conv2D_bn_offset"], "device": "/device:CPU:0", "attr": {"data_format": {"s": "TkhXQw=="}, "padding": {"s": "U0FNRQ=="}, "explicit_paddings": {"list": {}}, "epsilon": {"f": 0.0}, "strides": {"list": {"i": ["1", "1", "1", "1"]}}, "use_cudnn_on_gpu": {"b": true}, "num_args": {"i": "1"}, "fused_ops": {"list": {"s": ["Qmlhc0FkZA=="]}}, "dilations": {"list": {"i": ["1", "1", "1", "1"]}}, "T": {"type": "DT_FLOAT"}}}, {"name": "StatefulPartitionedCall/efficientnetv2-b0/blocks_17/Add", "op": "AddV2", "input": ["StatefulPartitionedCall/efficientnetv2-b0/blocks_17/tpu_batch_normalization_2/FusedBatchNormV3", "StatefulPartitionedCall/efficientnetv2-b0/blocks_16/Add"], "attr": {"T": {"type": "DT_FLOAT"}}}, {"name": "StatefulPartitionedCall/efficientnetv2-b0/blocks_18/tpu_batch_normalization/FusedBatchNormV3", "op": "_FusedConv2D", "input": ["StatefulPartitionedCall/efficientnetv2-b0/blocks_17/Add", "StatefulPartitionedCall/efficientnetv2-b0/blocks_18/conv2d/Conv2D_weights", "StatefulPartitionedCall/efficientnetv2-b0/blocks_18/conv2d/Conv2D_bn_offset"], "device": "/device:CPU:0", "attr": {"use_cudnn_on_gpu": {"b": true}, "epsilon": {"f": 0.0}, "padding": {"s": "U0FNRQ=="}, "dilations": {"list": {"i": ["1", "1", "1", "1"]}}, "strides": {"list": {"i": ["1", "1", "1", "1"]}}, "fused_ops": {"list": {"s": ["Qmlhc0FkZA=="]}}, "T": {"type": "DT_FLOAT"}, "data_format": {"s": "TkhXQw=="}, "explicit_paddings": {"list": {}}, "num_args": {"i": "1"}}}, {"name": "StatefulPartitionedCall/efficientnetv2-b0/blocks_18/Sigmoid", "op": "Sigmoid", "input": ["StatefulPartitionedCall/efficientnetv2-b0/blocks_18/tpu_batch_normalization/FusedBatchNormV3"], "attr": {"T": {"type": "DT_FLOAT"}}}, {"name": "StatefulPartitionedCall/efficientnetv2-b0/blocks_18/mul", "op": "Mul", "input": ["StatefulPartitionedCall/efficientnetv2-b0/blocks_18/tpu_batch_normalization/FusedBatchNormV3", "StatefulPartitionedCall/efficientnetv2-b0/blocks_18/Sigmoid"], "attr": {"T": {"type": "DT_FLOAT"}}}, {"name": "StatefulPartitionedCall/efficientnetv2-b0/blocks_18/depthwise_conv2d/depthwise", "op": "FusedDepthwiseConv2dNative", "input": ["StatefulPartitionedCall/efficientnetv2-b0/blocks_18/mul", "StatefulPartitionedCall/efficientnetv2-b0/blocks_18/depthwise_conv2d/depthwise_weights", "StatefulPartitionedCall/efficientnetv2-b0/blocks_18/depthwise_conv2d/depthwise_bn_offset"], "attr": {"explicit_paddings": {"list": {}}, "T": {"type": "DT_FLOAT"}, "padding": {"s": "U0FNRQ=="}, "dilations": {"list": {"i": ["1", "1", "1", "1"]}}, "num_args": {"i": "1"}, "fused_ops": {"list": {"s": ["Qmlhc0FkZA=="]}}, "strides": {"list": {"i": ["1", "1", "1", "1"]}}, "data_format": {"s": "TkhXQw=="}}}, {"name": "StatefulPartitionedCall/efficientnetv2-b0/blocks_18/Sigmoid_1", "op": "Sigmoid", "input": ["StatefulPartitionedCall/efficientnetv2-b0/blocks_18/depthwise_conv2d/depthwise"], "attr": {"T": {"type": "DT_FLOAT"}}}, {"name": "StatefulPartitionedCall/efficientnetv2-b0/blocks_18/mul_1", "op": "Mul", "input": ["StatefulPartitionedCall/efficientnetv2-b0/blocks_18/depthwise_conv2d/depthwise", "StatefulPartitionedCall/efficientnetv2-b0/blocks_18/Sigmoid_1"], "attr": {"T": {"type": "DT_FLOAT"}}}, {"name": "StatefulPartitionedCall/efficientnetv2-b0/blocks_18/se/Mean", "op": "Mean", "input": ["StatefulPartitionedCall/efficientnetv2-b0/blocks_18/mul_1", "StatefulPartitionedCall/efficientnetv2-b0/blocks_18/se/Mean/reduction_indices"], "attr": {"keep_dims": {"b": true}, "T": {"type": "DT_FLOAT"}, "Tidx": {"type": "DT_INT32"}}}, {"name": "StatefulPartitionedCall/efficientnetv2-b0/blocks_18/se/conv2d/BiasAdd", "op": "_FusedConv2D", "input": ["StatefulPartitionedCall/efficientnetv2-b0/blocks_18/se/Mean", "StatefulPartitionedCall/efficientnetv2-b0/blocks_18/se/conv2d/Conv2D/ReadVariableOp", "StatefulPartitionedCall/efficientnetv2-b0/blocks_18/se/conv2d/BiasAdd/ReadVariableOp"], "device": "/device:CPU:0", "attr": {"use_cudnn_on_gpu": {"b": true}, "dilations": {"list": {"i": ["1", "1", "1", "1"]}}, "strides": {"list": {"i": ["1", "1", "1", "1"]}}, "T": {"type": "DT_FLOAT"}, "num_args": {"i": "1"}, "explicit_paddings": {"list": {}}, "data_format": {"s": "TkhXQw=="}, "fused_ops": {"list": {"s": ["Qmlhc0FkZA=="]}}, "padding": {"s": "U0FNRQ=="}, "epsilon": {"f": 0.0}}}, {"name": "StatefulPartitionedCall/efficientnetv2-b0/blocks_18/se/Sigmoid", "op": "Sigmoid", "input": ["StatefulPartitionedCall/efficientnetv2-b0/blocks_18/se/conv2d/BiasAdd"], "attr": {"T": {"type": "DT_FLOAT"}}}, {"name": "StatefulPartitionedCall/efficientnetv2-b0/blocks_18/se/mul", "op": "Mul", "input": ["StatefulPartitionedCall/efficientnetv2-b0/blocks_18/se/conv2d/BiasAdd", "StatefulPartitionedCall/efficientnetv2-b0/blocks_18/se/Sigmoid"], "attr": {"T": {"type": "DT_FLOAT"}}}, {"name": "StatefulPartitionedCall/efficientnetv2-b0/blocks_18/se/conv2d_1/BiasAdd", "op": "_FusedConv2D", "input": ["StatefulPartitionedCall/efficientnetv2-b0/blocks_18/se/mul", "StatefulPartitionedCall/efficientnetv2-b0/blocks_18/se/conv2d_1/Conv2D/ReadVariableOp", "StatefulPartitionedCall/efficientnetv2-b0/blocks_18/se/conv2d_1/BiasAdd/ReadVariableOp"], "device": "/device:CPU:0", "attr": {"strides": {"list": {"i": ["1", "1", "1", "1"]}}, "fused_ops": {"list": {"s": ["Qmlhc0FkZA=="]}}, "data_format": {"s": "TkhXQw=="}, "padding": {"s": "U0FNRQ=="}, "num_args": {"i": "1"}, "explicit_paddings": {"list": {}}, "use_cudnn_on_gpu": {"b": true}, "epsilon": {"f": 0.0}, "dilations": {"list": {"i": ["1", "1", "1", "1"]}}, "T": {"type": "DT_FLOAT"}}}, {"name": "StatefulPartitionedCall/efficientnetv2-b0/blocks_18/se/Sigmoid_1", "op": "Sigmoid", "input": ["StatefulPartitionedCall/efficientnetv2-b0/blocks_18/se/conv2d_1/BiasAdd"], "attr": {"T": {"type": "DT_FLOAT"}}}, {"name": "StatefulPartitionedCall/efficientnetv2-b0/blocks_18/se/mul_1", "op": "Mul", "input": ["StatefulPartitionedCall/efficientnetv2-b0/blocks_18/se/Sigmoid_1", "StatefulPartitionedCall/efficientnetv2-b0/blocks_18/mul_1"], "attr": {"T": {"type": "DT_FLOAT"}}}, {"name": "StatefulPartitionedCall/efficientnetv2-b0/blocks_18/tpu_batch_normalization_2/FusedBatchNormV3", "op": "_FusedConv2D", "input": ["StatefulPartitionedCall/efficientnetv2-b0/blocks_18/se/mul_1", "StatefulPartitionedCall/efficientnetv2-b0/blocks_18/conv2d_1/Conv2D_weights", "StatefulPartitionedCall/efficientnetv2-b0/blocks_18/conv2d_1/Conv2D_bn_offset"], "device": "/device:CPU:0", "attr": {"data_format": {"s": "TkhXQw=="}, "use_cudnn_on_gpu": {"b": true}, "explicit_paddings": {"list": {}}, "dilations": {"list": {"i": ["1", "1", "1", "1"]}}, "epsilon": {"f": 0.0}, "T": {"type": "DT_FLOAT"}, "padding": {"s": "U0FNRQ=="}, "fused_ops": {"list": {"s": ["Qmlhc0FkZA=="]}}, "strides": {"list": {"i": ["1", "1", "1", "1"]}}, "num_args": {"i": "1"}}}, {"name": "StatefulPartitionedCall/efficientnetv2-b0/blocks_18/Add", "op": "AddV2", "input": ["StatefulPartitionedCall/efficientnetv2-b0/blocks_18/tpu_batch_normalization_2/FusedBatchNormV3", "StatefulPartitionedCall/efficientnetv2-b0/blocks_17/Add"], "attr": {"T": {"type": "DT_FLOAT"}}}, {"name": "StatefulPartitionedCall/efficientnetv2-b0/blocks_19/tpu_batch_normalization/FusedBatchNormV3", "op": "_FusedConv2D", "input": ["StatefulPartitionedCall/efficientnetv2-b0/blocks_18/Add", "StatefulPartitionedCall/efficientnetv2-b0/blocks_19/conv2d/Conv2D_weights", "StatefulPartitionedCall/efficientnetv2-b0/blocks_19/conv2d/Conv2D_bn_offset"], "device": "/device:CPU:0", "attr": {"use_cudnn_on_gpu": {"b": true}, "num_args": {"i": "1"}, "explicit_paddings": {"list": {}}, "data_format": {"s": "TkhXQw=="}, "fused_ops": {"list": {"s": ["Qmlhc0FkZA=="]}}, "dilations": {"list": {"i": ["1", "1", "1", "1"]}}, "strides": {"list": {"i": ["1", "1", "1", "1"]}}, "epsilon": {"f": 0.0}, "padding": {"s": "U0FNRQ=="}, "T": {"type": "DT_FLOAT"}}}, {"name": "StatefulPartitionedCall/efficientnetv2-b0/blocks_19/Sigmoid", "op": "Sigmoid", "input": ["StatefulPartitionedCall/efficientnetv2-b0/blocks_19/tpu_batch_normalization/FusedBatchNormV3"], "attr": {"T": {"type": "DT_FLOAT"}}}, {"name": "StatefulPartitionedCall/efficientnetv2-b0/blocks_19/mul", "op": "Mul", "input": ["StatefulPartitionedCall/efficientnetv2-b0/blocks_19/tpu_batch_normalization/FusedBatchNormV3", "StatefulPartitionedCall/efficientnetv2-b0/blocks_19/Sigmoid"], "attr": {"T": {"type": "DT_FLOAT"}}}, {"name": "StatefulPartitionedCall/efficientnetv2-b0/blocks_19/depthwise_conv2d/depthwise", "op": "FusedDepthwiseConv2dNative", "input": ["StatefulPartitionedCall/efficientnetv2-b0/blocks_19/mul", "StatefulPartitionedCall/efficientnetv2-b0/blocks_19/depthwise_conv2d/depthwise_weights", "StatefulPartitionedCall/efficientnetv2-b0/blocks_19/depthwise_conv2d/depthwise_bn_offset"], "attr": {"padding": {"s": "U0FNRQ=="}, "dilations": {"list": {"i": ["1", "1", "1", "1"]}}, "T": {"type": "DT_FLOAT"}, "strides": {"list": {"i": ["1", "1", "1", "1"]}}, "explicit_paddings": {"list": {}}, "num_args": {"i": "1"}, "fused_ops": {"list": {"s": ["Qmlhc0FkZA=="]}}, "data_format": {"s": "TkhXQw=="}}}, {"name": "StatefulPartitionedCall/efficientnetv2-b0/blocks_19/Sigmoid_1", "op": "Sigmoid", "input": ["StatefulPartitionedCall/efficientnetv2-b0/blocks_19/depthwise_conv2d/depthwise"], "attr": {"T": {"type": "DT_FLOAT"}}}, {"name": "StatefulPartitionedCall/efficientnetv2-b0/blocks_19/mul_1", "op": "Mul", "input": ["StatefulPartitionedCall/efficientnetv2-b0/blocks_19/depthwise_conv2d/depthwise", "StatefulPartitionedCall/efficientnetv2-b0/blocks_19/Sigmoid_1"], "attr": {"T": {"type": "DT_FLOAT"}}}, {"name": "StatefulPartitionedCall/efficientnetv2-b0/blocks_19/se/Mean", "op": "Mean", "input": ["StatefulPartitionedCall/efficientnetv2-b0/blocks_19/mul_1", "StatefulPartitionedCall/efficientnetv2-b0/blocks_19/se/Mean/reduction_indices"], "attr": {"keep_dims": {"b": true}, "T": {"type": "DT_FLOAT"}, "Tidx": {"type": "DT_INT32"}}}, {"name": "StatefulPartitionedCall/efficientnetv2-b0/blocks_19/se/conv2d/BiasAdd", "op": "_FusedConv2D", "input": ["StatefulPartitionedCall/efficientnetv2-b0/blocks_19/se/Mean", "StatefulPartitionedCall/efficientnetv2-b0/blocks_19/se/conv2d/Conv2D/ReadVariableOp", "StatefulPartitionedCall/efficientnetv2-b0/blocks_19/se/conv2d/BiasAdd/ReadVariableOp"], "device": "/device:CPU:0", "attr": {"fused_ops": {"list": {"s": ["Qmlhc0FkZA=="]}}, "data_format": {"s": "TkhXQw=="}, "epsilon": {"f": 0.0}, "explicit_paddings": {"list": {}}, "use_cudnn_on_gpu": {"b": true}, "padding": {"s": "U0FNRQ=="}, "dilations": {"list": {"i": ["1", "1", "1", "1"]}}, "num_args": {"i": "1"}, "strides": {"list": {"i": ["1", "1", "1", "1"]}}, "T": {"type": "DT_FLOAT"}}}, {"name": "StatefulPartitionedCall/efficientnetv2-b0/blocks_19/se/Sigmoid", "op": "Sigmoid", "input": ["StatefulPartitionedCall/efficientnetv2-b0/blocks_19/se/conv2d/BiasAdd"], "attr": {"T": {"type": "DT_FLOAT"}}}, {"name": "StatefulPartitionedCall/efficientnetv2-b0/blocks_19/se/mul", "op": "Mul", "input": ["StatefulPartitionedCall/efficientnetv2-b0/blocks_19/se/conv2d/BiasAdd", "StatefulPartitionedCall/efficientnetv2-b0/blocks_19/se/Sigmoid"], "attr": {"T": {"type": "DT_FLOAT"}}}, {"name": "StatefulPartitionedCall/efficientnetv2-b0/blocks_19/se/conv2d_1/BiasAdd", "op": "_FusedConv2D", "input": ["StatefulPartitionedCall/efficientnetv2-b0/blocks_19/se/mul", "StatefulPartitionedCall/efficientnetv2-b0/blocks_19/se/conv2d_1/Conv2D/ReadVariableOp", "StatefulPartitionedCall/efficientnetv2-b0/blocks_19/se/conv2d_1/BiasAdd/ReadVariableOp"], "device": "/device:CPU:0", "attr": {"strides": {"list": {"i": ["1", "1", "1", "1"]}}, "use_cudnn_on_gpu": {"b": true}, "num_args": {"i": "1"}, "T": {"type": "DT_FLOAT"}, "dilations": {"list": {"i": ["1", "1", "1", "1"]}}, "padding": {"s": "U0FNRQ=="}, "epsilon": {"f": 0.0}, "fused_ops": {"list": {"s": ["Qmlhc0FkZA=="]}}, "data_format": {"s": "TkhXQw=="}, "explicit_paddings": {"list": {}}}}, {"name": "StatefulPartitionedCall/efficientnetv2-b0/blocks_19/se/Sigmoid_1", "op": "Sigmoid", "input": ["StatefulPartitionedCall/efficientnetv2-b0/blocks_19/se/conv2d_1/BiasAdd"], "attr": {"T": {"type": "DT_FLOAT"}}}, {"name": "StatefulPartitionedCall/efficientnetv2-b0/blocks_19/se/mul_1", "op": "Mul", "input": ["StatefulPartitionedCall/efficientnetv2-b0/blocks_19/se/Sigmoid_1", "StatefulPartitionedCall/efficientnetv2-b0/blocks_19/mul_1"], "attr": {"T": {"type": "DT_FLOAT"}}}, {"name": "StatefulPartitionedCall/efficientnetv2-b0/blocks_19/tpu_batch_normalization_2/FusedBatchNormV3", "op": "_FusedConv2D", "input": ["StatefulPartitionedCall/efficientnetv2-b0/blocks_19/se/mul_1", "StatefulPartitionedCall/efficientnetv2-b0/blocks_19/conv2d_1/Conv2D_weights", "StatefulPartitionedCall/efficientnetv2-b0/blocks_19/conv2d_1/Conv2D_bn_offset"], "device": "/device:CPU:0", "attr": {"dilations": {"list": {"i": ["1", "1", "1", "1"]}}, "data_format": {"s": "TkhXQw=="}, "padding": {"s": "U0FNRQ=="}, "epsilon": {"f": 0.0}, "use_cudnn_on_gpu": {"b": true}, "explicit_paddings": {"list": {}}, "num_args": {"i": "1"}, "strides": {"list": {"i": ["1", "1", "1", "1"]}}, "T": {"type": "DT_FLOAT"}, "fused_ops": {"list": {"s": ["Qmlhc0FkZA=="]}}}}, {"name": "StatefulPartitionedCall/efficientnetv2-b0/blocks_19/Add", "op": "AddV2", "input": ["StatefulPartitionedCall/efficientnetv2-b0/blocks_19/tpu_batch_normalization_2/FusedBatchNormV3", "StatefulPartitionedCall/efficientnetv2-b0/blocks_18/Add"], "attr": {"T": {"type": "DT_FLOAT"}}}, {"name": "StatefulPartitionedCall/efficientnetv2-b0/blocks_20/tpu_batch_normalization/FusedBatchNormV3", "op": "_FusedConv2D", "input": ["StatefulPartitionedCall/efficientnetv2-b0/blocks_19/Add", "StatefulPartitionedCall/efficientnetv2-b0/blocks_20/conv2d/Conv2D_weights", "StatefulPartitionedCall/efficientnetv2-b0/blocks_20/conv2d/Conv2D_bn_offset"], "device": "/device:CPU:0", "attr": {"T": {"type": "DT_FLOAT"}, "data_format": {"s": "TkhXQw=="}, "epsilon": {"f": 0.0}, "num_args": {"i": "1"}, "padding": {"s": "U0FNRQ=="}, "explicit_paddings": {"list": {}}, "use_cudnn_on_gpu": {"b": true}, "fused_ops": {"list": {"s": ["Qmlhc0FkZA=="]}}, "dilations": {"list": {"i": ["1", "1", "1", "1"]}}, "strides": {"list": {"i": ["1", "1", "1", "1"]}}}}, {"name": "StatefulPartitionedCall/efficientnetv2-b0/blocks_20/Sigmoid", "op": "Sigmoid", "input": ["StatefulPartitionedCall/efficientnetv2-b0/blocks_20/tpu_batch_normalization/FusedBatchNormV3"], "attr": {"T": {"type": "DT_FLOAT"}}}, {"name": "StatefulPartitionedCall/efficientnetv2-b0/blocks_20/mul", "op": "Mul", "input": ["StatefulPartitionedCall/efficientnetv2-b0/blocks_20/tpu_batch_normalization/FusedBatchNormV3", "StatefulPartitionedCall/efficientnetv2-b0/blocks_20/Sigmoid"], "attr": {"T": {"type": "DT_FLOAT"}}}, {"name": "StatefulPartitionedCall/efficientnetv2-b0/blocks_20/depthwise_conv2d/depthwise", "op": "FusedDepthwiseConv2dNative", "input": ["StatefulPartitionedCall/efficientnetv2-b0/blocks_20/mul", "StatefulPartitionedCall/efficientnetv2-b0/blocks_20/depthwise_conv2d/depthwise_weights", "StatefulPartitionedCall/efficientnetv2-b0/blocks_20/depthwise_conv2d/depthwise_bn_offset"], "attr": {"data_format": {"s": "TkhXQw=="}, "dilations": {"list": {"i": ["1", "1", "1", "1"]}}, "num_args": {"i": "1"}, "explicit_paddings": {"list": {}}, "strides": {"list": {"i": ["1", "1", "1", "1"]}}, "padding": {"s": "U0FNRQ=="}, "T": {"type": "DT_FLOAT"}, "fused_ops": {"list": {"s": ["Qmlhc0FkZA=="]}}}}, {"name": "StatefulPartitionedCall/efficientnetv2-b0/blocks_20/Sigmoid_1", "op": "Sigmoid", "input": ["StatefulPartitionedCall/efficientnetv2-b0/blocks_20/depthwise_conv2d/depthwise"], "attr": {"T": {"type": "DT_FLOAT"}}}, {"name": "StatefulPartitionedCall/efficientnetv2-b0/blocks_20/mul_1", "op": "Mul", "input": ["StatefulPartitionedCall/efficientnetv2-b0/blocks_20/depthwise_conv2d/depthwise", "StatefulPartitionedCall/efficientnetv2-b0/blocks_20/Sigmoid_1"], "attr": {"T": {"type": "DT_FLOAT"}}}, {"name": "StatefulPartitionedCall/efficientnetv2-b0/blocks_20/se/Mean", "op": "Mean", "input": ["StatefulPartitionedCall/efficientnetv2-b0/blocks_20/mul_1", "StatefulPartitionedCall/efficientnetv2-b0/blocks_20/se/Mean/reduction_indices"], "attr": {"keep_dims": {"b": true}, "T": {"type": "DT_FLOAT"}, "Tidx": {"type": "DT_INT32"}}}, {"name": "StatefulPartitionedCall/efficientnetv2-b0/blocks_20/se/conv2d/BiasAdd", "op": "_FusedConv2D", "input": ["StatefulPartitionedCall/efficientnetv2-b0/blocks_20/se/Mean", "StatefulPartitionedCall/efficientnetv2-b0/blocks_20/se/conv2d/Conv2D/ReadVariableOp", "StatefulPartitionedCall/efficientnetv2-b0/blocks_20/se/conv2d/BiasAdd/ReadVariableOp"], "device": "/device:CPU:0", "attr": {"dilations": {"list": {"i": ["1", "1", "1", "1"]}}, "T": {"type": "DT_FLOAT"}, "fused_ops": {"list": {"s": ["Qmlhc0FkZA=="]}}, "data_format": {"s": "TkhXQw=="}, "use_cudnn_on_gpu": {"b": true}, "epsilon": {"f": 0.0}, "num_args": {"i": "1"}, "padding": {"s": "U0FNRQ=="}, "explicit_paddings": {"list": {}}, "strides": {"list": {"i": ["1", "1", "1", "1"]}}}}, {"name": "StatefulPartitionedCall/efficientnetv2-b0/blocks_20/se/Sigmoid", "op": "Sigmoid", "input": ["StatefulPartitionedCall/efficientnetv2-b0/blocks_20/se/conv2d/BiasAdd"], "attr": {"T": {"type": "DT_FLOAT"}}}, {"name": "StatefulPartitionedCall/efficientnetv2-b0/blocks_20/se/mul", "op": "Mul", "input": ["StatefulPartitionedCall/efficientnetv2-b0/blocks_20/se/conv2d/BiasAdd", "StatefulPartitionedCall/efficientnetv2-b0/blocks_20/se/Sigmoid"], "attr": {"T": {"type": "DT_FLOAT"}}}, {"name": "StatefulPartitionedCall/efficientnetv2-b0/blocks_20/se/conv2d_1/BiasAdd", "op": "_FusedConv2D", "input": ["StatefulPartitionedCall/efficientnetv2-b0/blocks_20/se/mul", "StatefulPartitionedCall/efficientnetv2-b0/blocks_20/se/conv2d_1/Conv2D/ReadVariableOp", "StatefulPartitionedCall/efficientnetv2-b0/blocks_20/se/conv2d_1/BiasAdd/ReadVariableOp"], "device": "/device:CPU:0", "attr": {"explicit_paddings": {"list": {}}, "dilations": {"list": {"i": ["1", "1", "1", "1"]}}, "fused_ops": {"list": {"s": ["Qmlhc0FkZA=="]}}, "epsilon": {"f": 0.0}, "data_format": {"s": "TkhXQw=="}, "T": {"type": "DT_FLOAT"}, "use_cudnn_on_gpu": {"b": true}, "strides": {"list": {"i": ["1", "1", "1", "1"]}}, "num_args": {"i": "1"}, "padding": {"s": "U0FNRQ=="}}}, {"name": "StatefulPartitionedCall/efficientnetv2-b0/blocks_20/se/Sigmoid_1", "op": "Sigmoid", "input": ["StatefulPartitionedCall/efficientnetv2-b0/blocks_20/se/conv2d_1/BiasAdd"], "attr": {"T": {"type": "DT_FLOAT"}}}, {"name": "StatefulPartitionedCall/efficientnetv2-b0/blocks_20/se/mul_1", "op": "Mul", "input": ["StatefulPartitionedCall/efficientnetv2-b0/blocks_20/se/Sigmoid_1", "StatefulPartitionedCall/efficientnetv2-b0/blocks_20/mul_1"], "attr": {"T": {"type": "DT_FLOAT"}}}, {"name": "StatefulPartitionedCall/efficientnetv2-b0/blocks_20/tpu_batch_normalization_2/FusedBatchNormV3", "op": "_FusedConv2D", "input": ["StatefulPartitionedCall/efficientnetv2-b0/blocks_20/se/mul_1", "StatefulPartitionedCall/efficientnetv2-b0/blocks_20/conv2d_1/Conv2D_weights", "StatefulPartitionedCall/efficientnetv2-b0/blocks_20/conv2d_1/Conv2D_bn_offset"], "device": "/device:CPU:0", "attr": {"epsilon": {"f": 0.0}, "use_cudnn_on_gpu": {"b": true}, "T": {"type": "DT_FLOAT"}, "num_args": {"i": "1"}, "strides": {"list": {"i": ["1", "1", "1", "1"]}}, "explicit_paddings": {"list": {}}, "padding": {"s": "U0FNRQ=="}, "fused_ops": {"list": {"s": ["Qmlhc0FkZA=="]}}, "data_format": {"s": "TkhXQw=="}, "dilations": {"list": {"i": ["1", "1", "1", "1"]}}}}, {"name": "StatefulPartitionedCall/efficientnetv2-b0/blocks_20/Add", "op": "AddV2", "input": ["StatefulPartitionedCall/efficientnetv2-b0/blocks_20/tpu_batch_normalization_2/FusedBatchNormV3", "StatefulPartitionedCall/efficientnetv2-b0/blocks_19/Add"], "attr": {"T": {"type": "DT_FLOAT"}}}, {"name": "StatefulPartitionedCall/efficientnetv2-b0/head/tpu_batch_normalization/FusedBatchNormV3", "op": "_FusedConv2D", "input": ["StatefulPartitionedCall/efficientnetv2-b0/blocks_20/Add", "StatefulPartitionedCall/efficientnetv2-b0/head/conv2d/Conv2D_weights", "StatefulPartitionedCall/efficientnetv2-b0/head/conv2d/Conv2D_bn_offset"], "device": "/device:CPU:0", "attr": {"fused_ops": {"list": {"s": ["Qmlhc0FkZA=="]}}, "strides": {"list": {"i": ["1", "1", "1", "1"]}}, "explicit_paddings": {"list": {}}, "epsilon": {"f": 0.0}, "padding": {"s": "U0FNRQ=="}, "num_args": {"i": "1"}, "dilations": {"list": {"i": ["1", "1", "1", "1"]}}, "data_format": {"s": "TkhXQw=="}, "T": {"type": "DT_FLOAT"}, "use_cudnn_on_gpu": {"b": true}}}, {"name": "StatefulPartitionedCall/efficientnetv2-b0/head/Sigmoid", "op": "Sigmoid", "input": ["StatefulPartitionedCall/efficientnetv2-b0/head/tpu_batch_normalization/FusedBatchNormV3"], "attr": {"T": {"type": "DT_FLOAT"}}}, {"name": "StatefulPartitionedCall/efficientnetv2-b0/head/mul", "op": "Mul", "input": ["StatefulPartitionedCall/efficientnetv2-b0/head/tpu_batch_normalization/FusedBatchNormV3", "StatefulPartitionedCall/efficientnetv2-b0/head/Sigmoid"], "attr": {"T": {"type": "DT_FLOAT"}}}, {"name": "StatefulPartitionedCall/efficientnetv2-b0/head/global_average_pooling2d/Mean", "op": "Mean", "input": ["StatefulPartitionedCall/efficientnetv2-b0/head/mul", "StatefulPartitionedCall/efficientnetv2-b0/head/global_average_pooling2d/Mean/reduction_indices"], "attr": {"T": {"type": "DT_FLOAT"}, "Tidx": {"type": "DT_INT32"}, "keep_dims": {"b": false}}}, {"name": "StatefulPartitionedCall/efficientnetv2-b0/head_1/dense/BiasAdd", "op": "_FusedMatMul", "input": ["StatefulPartitionedCall/efficientnetv2-b0/head/global_average_pooling2d/Mean", "StatefulPartitionedCall/efficientnetv2-b0/head_1/dense/MatMul/ReadVariableOp", "StatefulPartitionedCall/efficientnetv2-b0/head_1/dense/BiasAdd/ReadVariableOp"], "device": "/device:CPU:0", "attr": {"epsilon": {"f": 0.0}, "transpose_a": {"b": false}, "fused_ops": {"list": {"s": ["Qmlhc0FkZA=="]}}, "T": {"type": "DT_FLOAT"}, "transpose_b": {"b": false}, "num_args": {"i": "1"}}}, {"name": "Identity", "op": "Identity", "input": ["StatefulPartitionedCall/efficientnetv2-b0/head_1/dense/BiasAdd"], "attr": {"T": {"type": "DT_FLOAT"}}}], "library": {}, "versions": {"producer": 561}}, "weightsManifest": [{"paths": ["group1-shard1of7.bin", "group1-shard2of7.bin", "group1-shard3of7.bin", "group1-shard4of7.bin", "group1-shard5of7.bin", "group1-shard6of7.bin", "group1-shard7of7.bin"], "weights": [{"name": "StatefulPartitionedCall/efficientnetv2-b0/blocks_20/se/Mean/reduction_indices", "shape": [2], "dtype": "int32"}, {"name": "StatefulPartitionedCall/efficientnetv2-b0/blocks_20/se/conv2d/Conv2D/ReadVariableOp", "shape": [1, 1, 1152, 48], "dtype": "float32"}, {"name": "StatefulPartitionedCall/efficientnetv2-b0/blocks_20/se/conv2d/BiasAdd/ReadVariableOp", "shape": [48], "dtype": "float32"}, {"name": "StatefulPartitionedCall/efficientnetv2-b0/blocks_20/se/conv2d_1/Conv2D/ReadVariableOp", "shape": [1, 1, 48, 1152], "dtype": "float32"}, {"name": "StatefulPartitionedCall/efficientnetv2-b0/blocks_20/se/conv2d_1/BiasAdd/ReadVariableOp", "shape": [1152], "dtype": "float32"}, {"name": "StatefulPartitionedCall/efficientnetv2-b0/blocks_19/se/Mean/reduction_indices", "shape": [2], "dtype": "int32"}, {"name": "StatefulPartitionedCall/efficientnetv2-b0/blocks_19/se/conv2d/Conv2D/ReadVariableOp", "shape": [1, 1, 1152, 48], "dtype": "float32"}, {"name": "StatefulPartitionedCall/efficientnetv2-b0/blocks_19/se/conv2d/BiasAdd/ReadVariableOp", "shape": [48], "dtype": "float32"}, {"name": "StatefulPartitionedCall/efficientnetv2-b0/blocks_19/se/conv2d_1/Conv2D/ReadVariableOp", "shape": [1, 1, 48, 1152], "dtype": "float32"}, {"name": "StatefulPartitionedCall/efficientnetv2-b0/blocks_19/se/conv2d_1/BiasAdd/ReadVariableOp", "shape": [1152], "dtype": "float32"}, {"name": "StatefulPartitionedCall/efficientnetv2-b0/blocks_18/se/Mean/reduction_indices", "shape": [2], "dtype": "int32"}, {"name": "StatefulPartitionedCall/efficientnetv2-b0/blocks_18/se/conv2d/Conv2D/ReadVariableOp", "shape": [1, 1, 1152, 48], "dtype": "float32"}, {"name": "StatefulPartitionedCall/efficientnetv2-b0/blocks_18/se/conv2d/BiasAdd/ReadVariableOp", "shape": [48], "dtype": "float32"}, {"name": "StatefulPartitionedCall/efficientnetv2-b0/blocks_18/se/conv2d_1/Conv2D/ReadVariableOp", "shape": [1, 1, 48, 1152], "dtype": "float32"}, {"name": "StatefulPartitionedCall/efficientnetv2-b0/blocks_18/se/conv2d_1/BiasAdd/ReadVariableOp", "shape": [1152], "dtype": "float32"}, {"name": "StatefulPartitionedCall/efficientnetv2-b0/blocks_17/se/Mean/reduction_indices", "shape": [2], "dtype": "int32"}, {"name": "StatefulPartitionedCall/efficientnetv2-b0/blocks_17/se/conv2d/Conv2D/ReadVariableOp", "shape": [1, 1, 1152, 48], "dtype": "float32"}, {"name": "StatefulPartitionedCall/efficientnetv2-b0/blocks_17/se/conv2d/BiasAdd/ReadVariableOp", "shape": [48], "dtype": "float32"}, {"name": "StatefulPartitionedCall/efficientnetv2-b0/blocks_17/se/conv2d_1/Conv2D/ReadVariableOp", "shape": [1, 1, 48, 1152], "dtype": "float32"}, {"name": "StatefulPartitionedCall/efficientnetv2-b0/blocks_17/se/conv2d_1/BiasAdd/ReadVariableOp", "shape": [1152], "dtype": "float32"}, {"name": "StatefulPartitionedCall/efficientnetv2-b0/blocks_16/se/Mean/reduction_indices", "shape": [2], "dtype": "int32"}, {"name": "StatefulPartitionedCall/efficientnetv2-b0/blocks_16/se/conv2d/Conv2D/ReadVariableOp", "shape": [1, 1, 1152, 48], "dtype": "float32"}, {"name": "StatefulPartitionedCall/efficientnetv2-b0/blocks_16/se/conv2d/BiasAdd/ReadVariableOp", "shape": [48], "dtype": "float32"}, {"name": "StatefulPartitionedCall/efficientnetv2-b0/blocks_16/se/conv2d_1/Conv2D/ReadVariableOp", "shape": [1, 1, 48, 1152], "dtype": "float32"}, {"name": "StatefulPartitionedCall/efficientnetv2-b0/blocks_16/se/conv2d_1/BiasAdd/ReadVariableOp", "shape": [1152], "dtype": "float32"}, {"name": "StatefulPartitionedCall/efficientnetv2-b0/blocks_15/se/Mean/reduction_indices", "shape": [2], "dtype": "int32"}, {"name": "StatefulPartitionedCall/efficientnetv2-b0/blocks_15/se/conv2d/Conv2D/ReadVariableOp", "shape": [1, 1, 1152, 48], "dtype": "float32"}, {"name": "StatefulPartitionedCall/efficientnetv2-b0/blocks_15/se/conv2d/BiasAdd/ReadVariableOp", "shape": [48], "dtype": "float32"}, {"name": "StatefulPartitionedCall/efficientnetv2-b0/blocks_15/se/conv2d_1/Conv2D/ReadVariableOp", "shape": [1, 1, 48, 1152], "dtype": "float32"}, {"name": "StatefulPartitionedCall/efficientnetv2-b0/blocks_15/se/conv2d_1/BiasAdd/ReadVariableOp", "shape": [1152], "dtype": "float32"}, {"name": "StatefulPartitionedCall/efficientnetv2-b0/blocks_14/se/Mean/reduction_indices", "shape": [2], "dtype": "int32"}, {"name": "StatefulPartitionedCall/efficientnetv2-b0/blocks_14/se/conv2d/Conv2D/ReadVariableOp", "shape": [1, 1, 1152, 48], "dtype": "float32"}, {"name": "StatefulPartitionedCall/efficientnetv2-b0/blocks_14/se/conv2d/BiasAdd/ReadVariableOp", "shape": [48], "dtype": "float32"}, {"name": "StatefulPartitionedCall/efficientnetv2-b0/blocks_14/se/conv2d_1/Conv2D/ReadVariableOp", "shape": [1, 1, 48, 1152], "dtype": "float32"}, {"name": "StatefulPartitionedCall/efficientnetv2-b0/blocks_14/se/conv2d_1/BiasAdd/ReadVariableOp", "shape": [1152], "dtype": "float32"}, {"name": "StatefulPartitionedCall/efficientnetv2-b0/blocks_13/se/Mean/reduction_indices", "shape": [2], "dtype": "int32"}, {"name": "StatefulPartitionedCall/efficientnetv2-b0/blocks_13/se/conv2d/Conv2D/ReadVariableOp", "shape": [1, 1, 672, 28], "dtype": "float32"}, {"name": "StatefulPartitionedCall/efficientnetv2-b0/blocks_13/se/conv2d/BiasAdd/ReadVariableOp", "shape": [28], "dtype": "float32"}, {"name": "StatefulPartitionedCall/efficientnetv2-b0/blocks_13/se/conv2d_1/Conv2D/ReadVariableOp", "shape": [1, 1, 28, 672], "dtype": "float32"}, {"name": "StatefulPartitionedCall/efficientnetv2-b0/blocks_13/se/conv2d_1/BiasAdd/ReadVariableOp", "shape": [672], "dtype": "float32"}, {"name": "StatefulPartitionedCall/efficientnetv2-b0/blocks_12/se/Mean/reduction_indices", "shape": [2], "dtype": "int32"}, {"name": "StatefulPartitionedCall/efficientnetv2-b0/blocks_12/se/conv2d/Conv2D/ReadVariableOp", "shape": [1, 1, 672, 28], "dtype": "float32"}, {"name": "StatefulPartitionedCall/efficientnetv2-b0/blocks_12/se/conv2d/BiasAdd/ReadVariableOp", "shape": [28], "dtype": "float32"}, {"name": "StatefulPartitionedCall/efficientnetv2-b0/blocks_12/se/conv2d_1/Conv2D/ReadVariableOp", "shape": [1, 1, 28, 672], "dtype": "float32"}, {"name": "StatefulPartitionedCall/efficientnetv2-b0/blocks_12/se/conv2d_1/BiasAdd/ReadVariableOp", "shape": [672], "dtype": "float32"}, {"name": "StatefulPartitionedCall/efficientnetv2-b0/blocks_11/se/Mean/reduction_indices", "shape": [2], "dtype": "int32"}, {"name": "StatefulPartitionedCall/efficientnetv2-b0/blocks_11/se/conv2d/Conv2D/ReadVariableOp", "shape": [1, 1, 672, 28], "dtype": "float32"}, {"name": "StatefulPartitionedCall/efficientnetv2-b0/blocks_11/se/conv2d/BiasAdd/ReadVariableOp", "shape": [28], "dtype": "float32"}, {"name": "StatefulPartitionedCall/efficientnetv2-b0/blocks_11/se/conv2d_1/Conv2D/ReadVariableOp", "shape": [1, 1, 28, 672], "dtype": "float32"}, {"name": "StatefulPartitionedCall/efficientnetv2-b0/blocks_11/se/conv2d_1/BiasAdd/ReadVariableOp", "shape": [672], "dtype": "float32"}, {"name": "StatefulPartitionedCall/efficientnetv2-b0/blocks_10/se/Mean/reduction_indices", "shape": [2], "dtype": "int32"}, {"name": "StatefulPartitionedCall/efficientnetv2-b0/blocks_10/se/conv2d/Conv2D/ReadVariableOp", "shape": [1, 1, 672, 28], "dtype": "float32"}, {"name": "StatefulPartitionedCall/efficientnetv2-b0/blocks_10/se/conv2d/BiasAdd/ReadVariableOp", "shape": [28], "dtype": "float32"}, {"name": "StatefulPartitionedCall/efficientnetv2-b0/blocks_10/se/conv2d_1/Conv2D/ReadVariableOp", "shape": [1, 1, 28, 672], "dtype": "float32"}, {"name": "StatefulPartitionedCall/efficientnetv2-b0/blocks_10/se/conv2d_1/BiasAdd/ReadVariableOp", "shape": [672], "dtype": "float32"}, {"name": "StatefulPartitionedCall/efficientnetv2-b0/blocks_9/se/Mean/reduction_indices", "shape": [2], "dtype": "int32"}, {"name": "StatefulPartitionedCall/efficientnetv2-b0/blocks_9/se/conv2d/Conv2D/ReadVariableOp", "shape": [1, 1, 672, 28], "dtype": "float32"}, {"name": "StatefulPartitionedCall/efficientnetv2-b0/blocks_9/se/conv2d/BiasAdd/ReadVariableOp", "shape": [28], "dtype": "float32"}, {"name": "StatefulPartitionedCall/efficientnetv2-b0/blocks_9/se/conv2d_1/Conv2D/ReadVariableOp", "shape": [1, 1, 28, 672], "dtype": "float32"}, {"name": "StatefulPartitionedCall/efficientnetv2-b0/blocks_9/se/conv2d_1/BiasAdd/ReadVariableOp", "shape": [672], "dtype": "float32"}, {"name": "StatefulPartitionedCall/efficientnetv2-b0/blocks_8/se/Mean/reduction_indices", "shape": [2], "dtype": "int32"}, {"name": "StatefulPartitionedCall/efficientnetv2-b0/blocks_8/se/conv2d/Conv2D/ReadVariableOp", "shape": [1, 1, 576, 24], "dtype": "float32"}, {"name": "StatefulPartitionedCall/efficientnetv2-b0/blocks_8/se/conv2d/BiasAdd/ReadVariableOp", "shape": [24], "dtype": "float32"}, {"name": "StatefulPartitionedCall/efficientnetv2-b0/blocks_8/se/conv2d_1/Conv2D/ReadVariableOp", "shape": [1, 1, 24, 576], "dtype": "float32"}, {"name": "StatefulPartitionedCall/efficientnetv2-b0/blocks_8/se/conv2d_1/BiasAdd/ReadVariableOp", "shape": [576], "dtype": "float32"}, {"name": "StatefulPartitionedCall/efficientnetv2-b0/blocks_7/se/Mean/reduction_indices", "shape": [2], "dtype": "int32"}, {"name": "StatefulPartitionedCall/efficientnetv2-b0/blocks_7/se/conv2d/Conv2D/ReadVariableOp", "shape": [1, 1, 384, 24], "dtype": "float32"}, {"name": "StatefulPartitionedCall/efficientnetv2-b0/blocks_7/se/conv2d/BiasAdd/ReadVariableOp", "shape": [24], "dtype": "float32"}, {"name": "StatefulPartitionedCall/efficientnetv2-b0/blocks_7/se/conv2d_1/Conv2D/ReadVariableOp", "shape": [1, 1, 24, 384], "dtype": "float32"}, {"name": "StatefulPartitionedCall/efficientnetv2-b0/blocks_7/se/conv2d_1/BiasAdd/ReadVariableOp", "shape": [384], "dtype": "float32"}, {"name": "StatefulPartitionedCall/efficientnetv2-b0/blocks_6/se/Mean/reduction_indices", "shape": [2], "dtype": "int32"}, {"name": "StatefulPartitionedCall/efficientnetv2-b0/blocks_6/se/conv2d/Conv2D/ReadVariableOp", "shape": [1, 1, 384, 24], "dtype": "float32"}, {"name": "StatefulPartitionedCall/efficientnetv2-b0/blocks_6/se/conv2d/BiasAdd/ReadVariableOp", "shape": [24], "dtype": "float32"}, {"name": "StatefulPartitionedCall/efficientnetv2-b0/blocks_6/se/conv2d_1/Conv2D/ReadVariableOp", "shape": [1, 1, 24, 384], "dtype": "float32"}, {"name": "StatefulPartitionedCall/efficientnetv2-b0/blocks_6/se/conv2d_1/BiasAdd/ReadVariableOp", "shape": [384], "dtype": "float32"}, {"name": "StatefulPartitionedCall/efficientnetv2-b0/blocks_5/se/Mean/reduction_indices", "shape": [2], "dtype": "int32"}, {"name": "StatefulPartitionedCall/efficientnetv2-b0/blocks_5/se/conv2d/Conv2D/ReadVariableOp", "shape": [1, 1, 192, 12], "dtype": "float32"}, {"name": "StatefulPartitionedCall/efficientnetv2-b0/blocks_5/se/conv2d/BiasAdd/ReadVariableOp", "shape": [12], "dtype": "float32"}, {"name": "StatefulPartitionedCall/efficientnetv2-b0/blocks_5/se/conv2d_1/Conv2D/ReadVariableOp", "shape": [1, 1, 12, 192], "dtype": "float32"}, {"name": "StatefulPartitionedCall/efficientnetv2-b0/blocks_5/se/conv2d_1/BiasAdd/ReadVariableOp", "shape": [192], "dtype": "float32"}, {"name": "StatefulPartitionedCall/efficientnetv2-b0/head/global_average_pooling2d/Mean/reduction_indices", "shape": [2], "dtype": "int32"}, {"name": "StatefulPartitionedCall/efficientnetv2-b0/head_1/dense/MatMul/ReadVariableOp", "shape": [1280, 1000], "dtype": "float32"}, {"name": "StatefulPartitionedCall/efficientnetv2-b0/head_1/dense/BiasAdd/ReadVariableOp", "shape": [1000], "dtype": "float32"}, {"name": "StatefulPartitionedCall/efficientnetv2-b0/stem/conv2d/Conv2D_weights", "shape": [3, 3, 3, 32], "dtype": "float32"}, {"name": "StatefulPartitionedCall/efficientnetv2-b0/stem/conv2d/Conv2D_bn_offset", "shape": [32], "dtype": "float32"}, {"name": "StatefulPartitionedCall/efficientnetv2-b0/blocks_0/conv2d/Conv2D_weights", "shape": [3, 3, 32, 16], "dtype": "float32"}, {"name": "StatefulPartitionedCall/efficientnetv2-b0/blocks_20/conv2d_1/Conv2D_bn_offset", "shape": [192], "dtype": "float32"}, {"name": "StatefulPartitionedCall/efficientnetv2-b0/blocks_0/conv2d/Conv2D_bn_offset", "shape": [16], "dtype": "float32"}, {"name": "StatefulPartitionedCall/efficientnetv2-b0/blocks_1/conv2d/Conv2D_weights", "shape": [3, 3, 16, 64], "dtype": "float32"}, {"name": "StatefulPartitionedCall/efficientnetv2-b0/blocks_1/conv2d/Conv2D_bn_offset", "shape": [64], "dtype": "float32"}, {"name": "StatefulPartitionedCall/efficientnetv2-b0/blocks_1/conv2d_1/Conv2D_weights", "shape": [1, 1, 64, 32], "dtype": "float32"}, {"name": "StatefulPartitionedCall/efficientnetv2-b0/blocks_1/conv2d_1/Conv2D_bn_offset", "shape": [32], "dtype": "float32"}, {"name": "StatefulPartitionedCall/efficientnetv2-b0/blocks_2/conv2d/Conv2D_weights", "shape": [3, 3, 32, 128], "dtype": "float32"}, {"name": "StatefulPartitionedCall/efficientnetv2-b0/blocks_2/conv2d/Conv2D_bn_offset", "shape": [128], "dtype": "float32"}, {"name": "StatefulPartitionedCall/efficientnetv2-b0/blocks_2/conv2d_1/Conv2D_weights", "shape": [1, 1, 128, 32], "dtype": "float32"}, {"name": "StatefulPartitionedCall/efficientnetv2-b0/blocks_2/conv2d_1/Conv2D_bn_offset", "shape": [32], "dtype": "float32"}, {"name": "StatefulPartitionedCall/efficientnetv2-b0/blocks_3/conv2d/Conv2D_weights", "shape": [3, 3, 32, 128], "dtype": "float32"}, {"name": "StatefulPartitionedCall/efficientnetv2-b0/blocks_3/conv2d/Conv2D_bn_offset", "shape": [128], "dtype": "float32"}, {"name": "StatefulPartitionedCall/efficientnetv2-b0/blocks_3/conv2d_1/Conv2D_weights", "shape": [1, 1, 128, 48], "dtype": "float32"}, {"name": "StatefulPartitionedCall/efficientnetv2-b0/blocks_3/conv2d_1/Conv2D_bn_offset", "shape": [48], "dtype": "float32"}, {"name": "StatefulPartitionedCall/efficientnetv2-b0/blocks_4/conv2d/Conv2D_weights", "shape": [3, 3, 48, 192], "dtype": "float32"}, {"name": "StatefulPartitionedCall/efficientnetv2-b0/blocks_4/conv2d/Conv2D_bn_offset", "shape": [192], "dtype": "float32"}, {"name": "StatefulPartitionedCall/efficientnetv2-b0/blocks_4/conv2d_1/Conv2D_weights", "shape": [1, 1, 192, 48], "dtype": "float32"}, {"name": "StatefulPartitionedCall/efficientnetv2-b0/blocks_18/conv2d_1/Conv2D_weights", "shape": [1, 1, 1152, 192], "dtype": "float32"}, {"name": "StatefulPartitionedCall/efficientnetv2-b0/blocks_4/conv2d_1/Conv2D_bn_offset", "shape": [48], "dtype": "float32"}, {"name": "StatefulPartitionedCall/efficientnetv2-b0/blocks_5/conv2d/Conv2D_weights", "shape": [1, 1, 48, 192], "dtype": "float32"}, {"name": "StatefulPartitionedCall/efficientnetv2-b0/blocks_5/conv2d/Conv2D_bn_offset", "shape": [192], "dtype": "float32"}, {"name": "StatefulPartitionedCall/efficientnetv2-b0/blocks_5/depthwise_conv2d/depthwise_weights", "shape": [3, 3, 192, 1], "dtype": "float32"}, {"name": "StatefulPartitionedCall/efficientnetv2-b0/blocks_5/depthwise_conv2d/depthwise_bn_offset", "shape": [192], "dtype": "float32"}, {"name": "StatefulPartitionedCall/efficientnetv2-b0/blocks_18/conv2d_1/Conv2D_bn_offset", "shape": [192], "dtype": "float32"}, {"name": "StatefulPartitionedCall/efficientnetv2-b0/blocks_5/conv2d_1/Conv2D_weights", "shape": [1, 1, 192, 96], "dtype": "float32"}, {"name": "StatefulPartitionedCall/efficientnetv2-b0/blocks_5/conv2d_1/Conv2D_bn_offset", "shape": [96], "dtype": "float32"}, {"name": "StatefulPartitionedCall/efficientnetv2-b0/blocks_6/conv2d/Conv2D_weights", "shape": [1, 1, 96, 384], "dtype": "float32"}, {"name": "StatefulPartitionedCall/efficientnetv2-b0/blocks_19/conv2d/Conv2D_weights", "shape": [1, 1, 192, 1152], "dtype": "float32"}, {"name": "StatefulPartitionedCall/efficientnetv2-b0/blocks_6/conv2d/Conv2D_bn_offset", "shape": [384], "dtype": "float32"}, {"name": "StatefulPartitionedCall/efficientnetv2-b0/blocks_6/depthwise_conv2d/depthwise_weights", "shape": [3, 3, 384, 1], "dtype": "float32"}, {"name": "StatefulPartitionedCall/efficientnetv2-b0/blocks_6/depthwise_conv2d/depthwise_bn_offset", "shape": [384], "dtype": "float32"}, {"name": "StatefulPartitionedCall/efficientnetv2-b0/head/conv2d/Conv2D_weights", "shape": [1, 1, 192, 1280], "dtype": "float32"}, {"name": "StatefulPartitionedCall/efficientnetv2-b0/blocks_19/conv2d/Conv2D_bn_offset", "shape": [1152], "dtype": "float32"}, {"name": "StatefulPartitionedCall/efficientnetv2-b0/blocks_6/conv2d_1/Conv2D_weights", "shape": [1, 1, 384, 96], "dtype": "float32"}, {"name": "StatefulPartitionedCall/efficientnetv2-b0/blocks_6/conv2d_1/Conv2D_bn_offset", "shape": [96], "dtype": "float32"}, {"name": "StatefulPartitionedCall/efficientnetv2-b0/blocks_7/conv2d/Conv2D_weights", "shape": [1, 1, 96, 384], "dtype": "float32"}, {"name": "StatefulPartitionedCall/efficientnetv2-b0/blocks_7/conv2d/Conv2D_bn_offset", "shape": [384], "dtype": "float32"}, {"name": "StatefulPartitionedCall/efficientnetv2-b0/blocks_7/depthwise_conv2d/depthwise_weights", "shape": [3, 3, 384, 1], "dtype": "float32"}, {"name": "StatefulPartitionedCall/efficientnetv2-b0/blocks_7/depthwise_conv2d/depthwise_bn_offset", "shape": [384], "dtype": "float32"}, {"name": "StatefulPartitionedCall/efficientnetv2-b0/blocks_19/depthwise_conv2d/depthwise_weights", "shape": [3, 3, 1152, 1], "dtype": "float32"}, {"name": "StatefulPartitionedCall/efficientnetv2-b0/blocks_7/conv2d_1/Conv2D_weights", "shape": [1, 1, 384, 96], "dtype": "float32"}, {"name": "StatefulPartitionedCall/efficientnetv2-b0/blocks_7/conv2d_1/Conv2D_bn_offset", "shape": [96], "dtype": "float32"}, {"name": "StatefulPartitionedCall/efficientnetv2-b0/blocks_8/conv2d/Conv2D_weights", "shape": [1, 1, 96, 576], "dtype": "float32"}, {"name": "StatefulPartitionedCall/efficientnetv2-b0/blocks_19/depthwise_conv2d/depthwise_bn_offset", "shape": [1152], "dtype": "float32"}, {"name": "StatefulPartitionedCall/efficientnetv2-b0/blocks_8/conv2d/Conv2D_bn_offset", "shape": [576], "dtype": "float32"}, {"name": "StatefulPartitionedCall/efficientnetv2-b0/blocks_8/depthwise_conv2d/depthwise_weights", "shape": [3, 3, 576, 1], "dtype": "float32"}, {"name": "StatefulPartitionedCall/efficientnetv2-b0/blocks_8/depthwise_conv2d/depthwise_bn_offset", "shape": [576], "dtype": "float32"}, {"name": "StatefulPartitionedCall/efficientnetv2-b0/blocks_8/conv2d_1/Conv2D_weights", "shape": [1, 1, 576, 112], "dtype": "float32"}, {"name": "StatefulPartitionedCall/efficientnetv2-b0/blocks_8/conv2d_1/Conv2D_bn_offset", "shape": [112], "dtype": "float32"}, {"name": "StatefulPartitionedCall/efficientnetv2-b0/blocks_9/conv2d/Conv2D_weights", "shape": [1, 1, 112, 672], "dtype": "float32"}, {"name": "StatefulPartitionedCall/efficientnetv2-b0/blocks_9/conv2d/Conv2D_bn_offset", "shape": [672], "dtype": "float32"}, {"name": "StatefulPartitionedCall/efficientnetv2-b0/blocks_9/depthwise_conv2d/depthwise_weights", "shape": [3, 3, 672, 1], "dtype": "float32"}, {"name": "StatefulPartitionedCall/efficientnetv2-b0/blocks_9/depthwise_conv2d/depthwise_bn_offset", "shape": [672], "dtype": "float32"}, {"name": "StatefulPartitionedCall/efficientnetv2-b0/blocks_9/conv2d_1/Conv2D_weights", "shape": [1, 1, 672, 112], "dtype": "float32"}, {"name": "StatefulPartitionedCall/efficientnetv2-b0/blocks_9/conv2d_1/Conv2D_bn_offset", "shape": [112], "dtype": "float32"}, {"name": "StatefulPartitionedCall/efficientnetv2-b0/blocks_10/conv2d/Conv2D_weights", "shape": [1, 1, 112, 672], "dtype": "float32"}, {"name": "StatefulPartitionedCall/efficientnetv2-b0/blocks_10/conv2d/Conv2D_bn_offset", "shape": [672], "dtype": "float32"}, {"name": "StatefulPartitionedCall/efficientnetv2-b0/blocks_10/depthwise_conv2d/depthwise_weights", "shape": [3, 3, 672, 1], "dtype": "float32"}, {"name": "StatefulPartitionedCall/efficientnetv2-b0/blocks_10/depthwise_conv2d/depthwise_bn_offset", "shape": [672], "dtype": "float32"}, {"name": "StatefulPartitionedCall/efficientnetv2-b0/head/conv2d/Conv2D_bn_offset", "shape": [1280], "dtype": "float32"}, {"name": "StatefulPartitionedCall/efficientnetv2-b0/blocks_10/conv2d_1/Conv2D_weights", "shape": [1, 1, 672, 112], "dtype": "float32"}, {"name": "StatefulPartitionedCall/efficientnetv2-b0/blocks_10/conv2d_1/Conv2D_bn_offset", "shape": [112], "dtype": "float32"}, {"name": "StatefulPartitionedCall/efficientnetv2-b0/blocks_11/conv2d/Conv2D_weights", "shape": [1, 1, 112, 672], "dtype": "float32"}, {"name": "StatefulPartitionedCall/efficientnetv2-b0/blocks_11/conv2d/Conv2D_bn_offset", "shape": [672], "dtype": "float32"}, {"name": "StatefulPartitionedCall/efficientnetv2-b0/blocks_11/depthwise_conv2d/depthwise_weights", "shape": [3, 3, 672, 1], "dtype": "float32"}, {"name": "StatefulPartitionedCall/efficientnetv2-b0/blocks_11/depthwise_conv2d/depthwise_bn_offset", "shape": [672], "dtype": "float32"}, {"name": "StatefulPartitionedCall/efficientnetv2-b0/blocks_19/conv2d_1/Conv2D_weights", "shape": [1, 1, 1152, 192], "dtype": "float32"}, {"name": "StatefulPartitionedCall/efficientnetv2-b0/blocks_11/conv2d_1/Conv2D_weights", "shape": [1, 1, 672, 112], "dtype": "float32"}, {"name": "StatefulPartitionedCall/efficientnetv2-b0/blocks_19/conv2d_1/Conv2D_bn_offset", "shape": [192], "dtype": "float32"}, {"name": "StatefulPartitionedCall/efficientnetv2-b0/blocks_11/conv2d_1/Conv2D_bn_offset", "shape": [112], "dtype": "float32"}, {"name": "StatefulPartitionedCall/efficientnetv2-b0/blocks_12/conv2d/Conv2D_weights", "shape": [1, 1, 112, 672], "dtype": "float32"}, {"name": "StatefulPartitionedCall/efficientnetv2-b0/blocks_12/conv2d/Conv2D_bn_offset", "shape": [672], "dtype": "float32"}, {"name": "StatefulPartitionedCall/efficientnetv2-b0/blocks_12/depthwise_conv2d/depthwise_weights", "shape": [3, 3, 672, 1], "dtype": "float32"}, {"name": "StatefulPartitionedCall/efficientnetv2-b0/blocks_12/depthwise_conv2d/depthwise_bn_offset", "shape": [672], "dtype": "float32"}, {"name": "StatefulPartitionedCall/efficientnetv2-b0/blocks_20/conv2d/Conv2D_weights", "shape": [1, 1, 192, 1152], "dtype": "float32"}, {"name": "StatefulPartitionedCall/efficientnetv2-b0/blocks_12/conv2d_1/Conv2D_weights", "shape": [1, 1, 672, 112], "dtype": "float32"}, {"name": "StatefulPartitionedCall/efficientnetv2-b0/blocks_12/conv2d_1/Conv2D_bn_offset", "shape": [112], "dtype": "float32"}, {"name": "StatefulPartitionedCall/efficientnetv2-b0/blocks_13/conv2d/Conv2D_weights", "shape": [1, 1, 112, 672], "dtype": "float32"}, {"name": "StatefulPartitionedCall/efficientnetv2-b0/blocks_20/conv2d/Conv2D_bn_offset", "shape": [1152], "dtype": "float32"}, {"name": "StatefulPartitionedCall/efficientnetv2-b0/blocks_13/conv2d/Conv2D_bn_offset", "shape": [672], "dtype": "float32"}, {"name": "StatefulPartitionedCall/efficientnetv2-b0/blocks_13/depthwise_conv2d/depthwise_weights", "shape": [3, 3, 672, 1], "dtype": "float32"}, {"name": "StatefulPartitionedCall/efficientnetv2-b0/blocks_13/depthwise_conv2d/depthwise_bn_offset", "shape": [672], "dtype": "float32"}, {"name": "StatefulPartitionedCall/efficientnetv2-b0/blocks_13/conv2d_1/Conv2D_weights", "shape": [1, 1, 672, 192], "dtype": "float32"}, {"name": "StatefulPartitionedCall/efficientnetv2-b0/blocks_13/conv2d_1/Conv2D_bn_offset", "shape": [192], "dtype": "float32"}, {"name": "StatefulPartitionedCall/efficientnetv2-b0/blocks_14/conv2d/Conv2D_weights", "shape": [1, 1, 192, 1152], "dtype": "float32"}, {"name": "StatefulPartitionedCall/efficientnetv2-b0/blocks_20/depthwise_conv2d/depthwise_weights", "shape": [3, 3, 1152, 1], "dtype": "float32"}, {"name": "StatefulPartitionedCall/efficientnetv2-b0/blocks_14/conv2d/Conv2D_bn_offset", "shape": [1152], "dtype": "float32"}, {"name": "StatefulPartitionedCall/efficientnetv2-b0/blocks_14/depthwise_conv2d/depthwise_weights", "shape": [3, 3, 1152, 1], "dtype": "float32"}, {"name": "StatefulPartitionedCall/efficientnetv2-b0/blocks_14/depthwise_conv2d/depthwise_bn_offset", "shape": [1152], "dtype": "float32"}, {"name": "StatefulPartitionedCall/efficientnetv2-b0/blocks_20/depthwise_conv2d/depthwise_bn_offset", "shape": [1152], "dtype": "float32"}, {"name": "StatefulPartitionedCall/efficientnetv2-b0/blocks_14/conv2d_1/Conv2D_weights", "shape": [1, 1, 1152, 192], "dtype": "float32"}, {"name": "StatefulPartitionedCall/efficientnetv2-b0/blocks_14/conv2d_1/Conv2D_bn_offset", "shape": [192], "dtype": "float32"}, {"name": "StatefulPartitionedCall/efficientnetv2-b0/blocks_15/conv2d/Conv2D_weights", "shape": [1, 1, 192, 1152], "dtype": "float32"}, {"name": "StatefulPartitionedCall/efficientnetv2-b0/blocks_15/conv2d/Conv2D_bn_offset", "shape": [1152], "dtype": "float32"}, {"name": "StatefulPartitionedCall/efficientnetv2-b0/blocks_15/depthwise_conv2d/depthwise_weights", "shape": [3, 3, 1152, 1], "dtype": "float32"}, {"name": "StatefulPartitionedCall/efficientnetv2-b0/blocks_15/depthwise_conv2d/depthwise_bn_offset", "shape": [1152], "dtype": "float32"}, {"name": "StatefulPartitionedCall/efficientnetv2-b0/blocks_15/conv2d_1/Conv2D_weights", "shape": [1, 1, 1152, 192], "dtype": "float32"}, {"name": "StatefulPartitionedCall/efficientnetv2-b0/blocks_15/conv2d_1/Conv2D_bn_offset", "shape": [192], "dtype": "float32"}, {"name": "StatefulPartitionedCall/efficientnetv2-b0/blocks_16/conv2d/Conv2D_weights", "shape": [1, 1, 192, 1152], "dtype": "float32"}, {"name": "StatefulPartitionedCall/efficientnetv2-b0/blocks_16/conv2d/Conv2D_bn_offset", "shape": [1152], "dtype": "float32"}, {"name": "StatefulPartitionedCall/efficientnetv2-b0/blocks_16/depthwise_conv2d/depthwise_weights", "shape": [3, 3, 1152, 1], "dtype": "float32"}, {"name": "StatefulPartitionedCall/efficientnetv2-b0/blocks_16/depthwise_conv2d/depthwise_bn_offset", "shape": [1152], "dtype": "float32"}, {"name": "StatefulPartitionedCall/efficientnetv2-b0/blocks_16/conv2d_1/Conv2D_weights", "shape": [1, 1, 1152, 192], "dtype": "float32"}, {"name": "StatefulPartitionedCall/efficientnetv2-b0/blocks_16/conv2d_1/Conv2D_bn_offset", "shape": [192], "dtype": "float32"}, {"name": "StatefulPartitionedCall/efficientnetv2-b0/blocks_17/conv2d/Conv2D_weights", "shape": [1, 1, 192, 1152], "dtype": "float32"}, {"name": "StatefulPartitionedCall/efficientnetv2-b0/blocks_17/conv2d/Conv2D_bn_offset", "shape": [1152], "dtype": "float32"}, {"name": "StatefulPartitionedCall/efficientnetv2-b0/blocks_17/depthwise_conv2d/depthwise_weights", "shape": [3, 3, 1152, 1], "dtype": "float32"}, {"name": "StatefulPartitionedCall/efficientnetv2-b0/blocks_17/depthwise_conv2d/depthwise_bn_offset", "shape": [1152], "dtype": "float32"}, {"name": "StatefulPartitionedCall/efficientnetv2-b0/blocks_17/conv2d_1/Conv2D_weights", "shape": [1, 1, 1152, 192], "dtype": "float32"}, {"name": "StatefulPartitionedCall/efficientnetv2-b0/blocks_20/conv2d_1/Conv2D_weights", "shape": [1, 1, 1152, 192], "dtype": "float32"}, {"name": "StatefulPartitionedCall/efficientnetv2-b0/blocks_17/conv2d_1/Conv2D_bn_offset", "shape": [192], "dtype": "float32"}, {"name": "StatefulPartitionedCall/efficientnetv2-b0/blocks_18/conv2d/Conv2D_weights", "shape": [1, 1, 192, 1152], "dtype": "float32"}, {"name": "StatefulPartitionedCall/efficientnetv2-b0/blocks_18/conv2d/Conv2D_bn_offset", "shape": [1152], "dtype": "float32"}, {"name": "StatefulPartitionedCall/efficientnetv2-b0/blocks_18/depthwise_conv2d/depthwise_weights", "shape": [3, 3, 1152, 1], "dtype": "float32"}, {"name": "StatefulPartitionedCall/efficientnetv2-b0/blocks_18/depthwise_conv2d/depthwise_bn_offset", "shape": [1152], "dtype": "float32"}]}]}