{"format": "graph-model", "generatedBy": "1.15.0", "convertedBy": "TensorFlow.js Converter v2.8.1", "signature": {"inputs": {"images:0": {"name": "images:0", "dtype": "DT_FLOAT", "tensorShape": {"dim": [{"size": "-1"}, {"size": "-1"}, {"size": "-1"}, {"size": "3"}]}}}, "outputs": {"logits:0": {"name": "logits:0", "dtype": "DT_FLOAT", "tensorShape": {"dim": [{"size": "-1"}, {"size": "1000"}]}}}}, "modelTopology": {"node": [{"name": "efficientnet-lite4/model/head/dropout/dropout/Const", "op": "Const", "attr": {"value": {"tensor": {"dtype": "DT_FLOAT", "tensorShape": {}}}, "dtype": {"type": "DT_FLOAT"}}}, {"name": "ConstantFolding/efficientnet-lite4/model/blocks_28/div_recip", "op": "Const", "attr": {"value": {"tensor": {"dtype": "DT_FLOAT", "tensorShape": {}}}, "dtype": {"type": "DT_FLOAT"}}}, {"name": "efficientnet-lite4/model/blocks_28/add/x", "op": "Const", "attr": {"value": {"tensor": {"dtype": "DT_FLOAT", "tensorShape": {}}}, "dtype": {"type": "DT_FLOAT"}}}, {"name": "efficientnet-lite4/model/blocks_28/strided_slice/stack", "op": "Const", "attr": {"dtype": {"type": "DT_INT32"}, "value": {"tensor": {"dtype": "DT_INT32", "tensorShape": {"dim": [{"size": "1"}]}}}}}, {"name": "efficientnet-lite4/model/blocks_28/strided_slice/stack_1", "op": "Const", "attr": {"dtype": {"type": "DT_INT32"}, "value": {"tensor": {"dtype": "DT_INT32", "tensorShape": {"dim": [{"size": "1"}]}}}}}, {"name": "efficientnet-lite4/model/blocks_28/strided_slice/stack_2", "op": "Const", "attr": {"dtype": {"type": "DT_INT32"}, "value": {"tensor": {"dtype": "DT_INT32", "tensorShape": {"dim": [{"size": "1"}]}}}}}, {"name": "efficientnet-lite4/model/blocks_28/random_uniform/shape/1", "op": "Const", "attr": {"value": {"tensor": {"dtype": "DT_INT32", "tensorShape": {}}}, "dtype": {"type": "DT_INT32"}}}, {"name": "efficientnet-lite4/model/blocks_28/random_uniform/shape/2", "op": "Const", "attr": {"dtype": {"type": "DT_INT32"}, "value": {"tensor": {"dtype": "DT_INT32", "tensorShape": {}}}}}, {"name": "efficientnet-lite4/model/blocks_28/random_uniform/shape/3", "op": "Const", "attr": {"value": {"tensor": {"dtype": "DT_INT32", "tensorShape": {}}}, "dtype": {"type": "DT_INT32"}}}, {"name": "ConstantFolding/efficientnet-lite4/model/blocks_27/div_recip", "op": "Const", "attr": {"dtype": {"type": "DT_FLOAT"}, "value": {"tensor": {"dtype": "DT_FLOAT", "tensorShape": {}}}}}, {"name": "efficientnet-lite4/model/blocks_27/add/x", "op": "Const", "attr": {"value": {"tensor": {"dtype": "DT_FLOAT", "tensorShape": {}}}, "dtype": {"type": "DT_FLOAT"}}}, {"name": "efficientnet-lite4/model/blocks_27/strided_slice/stack", "op": "Const", "attr": {"dtype": {"type": "DT_INT32"}, "value": {"tensor": {"dtype": "DT_INT32", "tensorShape": {"dim": [{"size": "1"}]}}}}}, {"name": "efficientnet-lite4/model/blocks_27/strided_slice/stack_1", "op": "Const", "attr": {"dtype": {"type": "DT_INT32"}, "value": {"tensor": {"dtype": "DT_INT32", "tensorShape": {"dim": [{"size": "1"}]}}}}}, {"name": "efficientnet-lite4/model/blocks_27/strided_slice/stack_2", "op": "Const", "attr": {"dtype": {"type": "DT_INT32"}, "value": {"tensor": {"dtype": "DT_INT32", "tensorShape": {"dim": [{"size": "1"}]}}}}}, {"name": "efficientnet-lite4/model/blocks_27/random_uniform/shape/1", "op": "Const", "attr": {"value": {"tensor": {"dtype": "DT_INT32", "tensorShape": {}}}, "dtype": {"type": "DT_INT32"}}}, {"name": "efficientnet-lite4/model/blocks_27/random_uniform/shape/2", "op": "Const", "attr": {"value": {"tensor": {"dtype": "DT_INT32", "tensorShape": {}}}, "dtype": {"type": "DT_INT32"}}}, {"name": "efficientnet-lite4/model/blocks_27/random_uniform/shape/3", "op": "Const", "attr": {"dtype": {"type": "DT_INT32"}, "value": {"tensor": {"dtype": "DT_INT32", "tensorShape": {}}}}}, {"name": "ConstantFolding/efficientnet-lite4/model/blocks_26/div_recip", "op": "Const", "attr": {"value": {"tensor": {"dtype": "DT_FLOAT", "tensorShape": {}}}, "dtype": {"type": "DT_FLOAT"}}}, {"name": "efficientnet-lite4/model/blocks_26/add/x", "op": "Const", "attr": {"value": {"tensor": {"dtype": "DT_FLOAT", "tensorShape": {}}}, "dtype": {"type": "DT_FLOAT"}}}, {"name": "efficientnet-lite4/model/blocks_26/strided_slice/stack", "op": "Const", "attr": {"value": {"tensor": {"dtype": "DT_INT32", "tensorShape": {"dim": [{"size": "1"}]}}}, "dtype": {"type": "DT_INT32"}}}, {"name": "efficientnet-lite4/model/blocks_26/strided_slice/stack_1", "op": "Const", "attr": {"value": {"tensor": {"dtype": "DT_INT32", "tensorShape": {"dim": [{"size": "1"}]}}}, "dtype": {"type": "DT_INT32"}}}, {"name": "efficientnet-lite4/model/blocks_26/strided_slice/stack_2", "op": "Const", "attr": {"dtype": {"type": "DT_INT32"}, "value": {"tensor": {"dtype": "DT_INT32", "tensorShape": {"dim": [{"size": "1"}]}}}}}, {"name": "efficientnet-lite4/model/blocks_26/random_uniform/shape/1", "op": "Const", "attr": {"value": {"tensor": {"dtype": "DT_INT32", "tensorShape": {}}}, "dtype": {"type": "DT_INT32"}}}, {"name": "efficientnet-lite4/model/blocks_26/random_uniform/shape/2", "op": "Const", "attr": {"dtype": {"type": "DT_INT32"}, "value": {"tensor": {"dtype": "DT_INT32", "tensorShape": {}}}}}, {"name": "efficientnet-lite4/model/blocks_26/random_uniform/shape/3", "op": "Const", "attr": {"dtype": {"type": "DT_INT32"}, "value": {"tensor": {"dtype": "DT_INT32", "tensorShape": {}}}}}, {"name": "ConstantFolding/efficientnet-lite4/model/blocks_25/div_recip", "op": "Const", "attr": {"dtype": {"type": "DT_FLOAT"}, "value": {"tensor": {"dtype": "DT_FLOAT", "tensorShape": {}}}}}, {"name": "efficientnet-lite4/model/blocks_25/add/x", "op": "Const", "attr": {"dtype": {"type": "DT_FLOAT"}, "value": {"tensor": {"dtype": "DT_FLOAT", "tensorShape": {}}}}}, {"name": "efficientnet-lite4/model/blocks_25/strided_slice/stack", "op": "Const", "attr": {"dtype": {"type": "DT_INT32"}, "value": {"tensor": {"dtype": "DT_INT32", "tensorShape": {"dim": [{"size": "1"}]}}}}}, {"name": "efficientnet-lite4/model/blocks_25/strided_slice/stack_1", "op": "Const", "attr": {"dtype": {"type": "DT_INT32"}, "value": {"tensor": {"dtype": "DT_INT32", "tensorShape": {"dim": [{"size": "1"}]}}}}}, {"name": "efficientnet-lite4/model/blocks_25/strided_slice/stack_2", "op": "Const", "attr": {"value": {"tensor": {"dtype": "DT_INT32", "tensorShape": {"dim": [{"size": "1"}]}}}, "dtype": {"type": "DT_INT32"}}}, {"name": "efficientnet-lite4/model/blocks_25/random_uniform/shape/1", "op": "Const", "attr": {"dtype": {"type": "DT_INT32"}, "value": {"tensor": {"dtype": "DT_INT32", "tensorShape": {}}}}}, {"name": "efficientnet-lite4/model/blocks_25/random_uniform/shape/2", "op": "Const", "attr": {"value": {"tensor": {"dtype": "DT_INT32", "tensorShape": {}}}, "dtype": {"type": "DT_INT32"}}}, {"name": "efficientnet-lite4/model/blocks_25/random_uniform/shape/3", "op": "Const", "attr": {"value": {"tensor": {"dtype": "DT_INT32", "tensorShape": {}}}, "dtype": {"type": "DT_INT32"}}}, {"name": "ConstantFolding/efficientnet-lite4/model/blocks_24/div_recip", "op": "Const", "attr": {"value": {"tensor": {"dtype": "DT_FLOAT", "tensorShape": {}}}, "dtype": {"type": "DT_FLOAT"}}}, {"name": "efficientnet-lite4/model/blocks_24/add/x", "op": "Const", "attr": {"dtype": {"type": "DT_FLOAT"}, "value": {"tensor": {"dtype": "DT_FLOAT", "tensorShape": {}}}}}, {"name": "efficientnet-lite4/model/blocks_24/strided_slice/stack", "op": "Const", "attr": {"dtype": {"type": "DT_INT32"}, "value": {"tensor": {"dtype": "DT_INT32", "tensorShape": {"dim": [{"size": "1"}]}}}}}, {"name": "efficientnet-lite4/model/blocks_24/strided_slice/stack_1", "op": "Const", "attr": {"dtype": {"type": "DT_INT32"}, "value": {"tensor": {"dtype": "DT_INT32", "tensorShape": {"dim": [{"size": "1"}]}}}}}, {"name": "efficientnet-lite4/model/blocks_24/strided_slice/stack_2", "op": "Const", "attr": {"dtype": {"type": "DT_INT32"}, "value": {"tensor": {"dtype": "DT_INT32", "tensorShape": {"dim": [{"size": "1"}]}}}}}, {"name": "efficientnet-lite4/model/blocks_24/random_uniform/shape/1", "op": "Const", "attr": {"value": {"tensor": {"dtype": "DT_INT32", "tensorShape": {}}}, "dtype": {"type": "DT_INT32"}}}, {"name": "efficientnet-lite4/model/blocks_24/random_uniform/shape/2", "op": "Const", "attr": {"value": {"tensor": {"dtype": "DT_INT32", "tensorShape": {}}}, "dtype": {"type": "DT_INT32"}}}, {"name": "efficientnet-lite4/model/blocks_24/random_uniform/shape/3", "op": "Const", "attr": {"dtype": {"type": "DT_INT32"}, "value": {"tensor": {"dtype": "DT_INT32", "tensorShape": {}}}}}, {"name": "ConstantFolding/efficientnet-lite4/model/blocks_23/div_recip", "op": "Const", "attr": {"value": {"tensor": {"dtype": "DT_FLOAT", "tensorShape": {}}}, "dtype": {"type": "DT_FLOAT"}}}, {"name": "efficientnet-lite4/model/blocks_23/add/x", "op": "Const", "attr": {"dtype": {"type": "DT_FLOAT"}, "value": {"tensor": {"dtype": "DT_FLOAT", "tensorShape": {}}}}}, {"name": "efficientnet-lite4/model/blocks_23/strided_slice/stack", "op": "Const", "attr": {"dtype": {"type": "DT_INT32"}, "value": {"tensor": {"dtype": "DT_INT32", "tensorShape": {"dim": [{"size": "1"}]}}}}}, {"name": "efficientnet-lite4/model/blocks_23/strided_slice/stack_1", "op": "Const", "attr": {"dtype": {"type": "DT_INT32"}, "value": {"tensor": {"dtype": "DT_INT32", "tensorShape": {"dim": [{"size": "1"}]}}}}}, {"name": "efficientnet-lite4/model/blocks_23/strided_slice/stack_2", "op": "Const", "attr": {"dtype": {"type": "DT_INT32"}, "value": {"tensor": {"dtype": "DT_INT32", "tensorShape": {"dim": [{"size": "1"}]}}}}}, {"name": "efficientnet-lite4/model/blocks_23/random_uniform/shape/1", "op": "Const", "attr": {"dtype": {"type": "DT_INT32"}, "value": {"tensor": {"dtype": "DT_INT32", "tensorShape": {}}}}}, {"name": "efficientnet-lite4/model/blocks_23/random_uniform/shape/2", "op": "Const", "attr": {"value": {"tensor": {"dtype": "DT_INT32", "tensorShape": {}}}, "dtype": {"type": "DT_INT32"}}}, {"name": "efficientnet-lite4/model/blocks_23/random_uniform/shape/3", "op": "Const", "attr": {"value": {"tensor": {"dtype": "DT_INT32", "tensorShape": {}}}, "dtype": {"type": "DT_INT32"}}}, {"name": "ConstantFolding/efficientnet-lite4/model/blocks_22/div_recip", "op": "Const", "attr": {"value": {"tensor": {"dtype": "DT_FLOAT", "tensorShape": {}}}, "dtype": {"type": "DT_FLOAT"}}}, {"name": "efficientnet-lite4/model/blocks_22/add/x", "op": "Const", "attr": {"dtype": {"type": "DT_FLOAT"}, "value": {"tensor": {"dtype": "DT_FLOAT", "tensorShape": {}}}}}, {"name": "efficientnet-lite4/model/blocks_22/strided_slice/stack", "op": "Const", "attr": {"value": {"tensor": {"dtype": "DT_INT32", "tensorShape": {"dim": [{"size": "1"}]}}}, "dtype": {"type": "DT_INT32"}}}, {"name": "efficientnet-lite4/model/blocks_22/strided_slice/stack_1", "op": "Const", "attr": {"value": {"tensor": {"dtype": "DT_INT32", "tensorShape": {"dim": [{"size": "1"}]}}}, "dtype": {"type": "DT_INT32"}}}, {"name": "efficientnet-lite4/model/blocks_22/strided_slice/stack_2", "op": "Const", "attr": {"value": {"tensor": {"dtype": "DT_INT32", "tensorShape": {"dim": [{"size": "1"}]}}}, "dtype": {"type": "DT_INT32"}}}, {"name": "efficientnet-lite4/model/blocks_22/random_uniform/shape/1", "op": "Const", "attr": {"value": {"tensor": {"dtype": "DT_INT32", "tensorShape": {}}}, "dtype": {"type": "DT_INT32"}}}, {"name": "efficientnet-lite4/model/blocks_22/random_uniform/shape/2", "op": "Const", "attr": {"dtype": {"type": "DT_INT32"}, "value": {"tensor": {"dtype": "DT_INT32", "tensorShape": {}}}}}, {"name": "efficientnet-lite4/model/blocks_22/random_uniform/shape/3", "op": "Const", "attr": {"value": {"tensor": {"dtype": "DT_INT32", "tensorShape": {}}}, "dtype": {"type": "DT_INT32"}}}, {"name": "ConstantFolding/efficientnet-lite4/model/blocks_20/div_recip", "op": "Const", "attr": {"dtype": {"type": "DT_FLOAT"}, "value": {"tensor": {"dtype": "DT_FLOAT", "tensorShape": {}}}}}, {"name": "efficientnet-lite4/model/blocks_20/add/x", "op": "Const", "attr": {"value": {"tensor": {"dtype": "DT_FLOAT", "tensorShape": {}}}, "dtype": {"type": "DT_FLOAT"}}}, {"name": "efficientnet-lite4/model/blocks_20/strided_slice/stack", "op": "Const", "attr": {"dtype": {"type": "DT_INT32"}, "value": {"tensor": {"dtype": "DT_INT32", "tensorShape": {"dim": [{"size": "1"}]}}}}}, {"name": "efficientnet-lite4/model/blocks_20/strided_slice/stack_1", "op": "Const", "attr": {"dtype": {"type": "DT_INT32"}, "value": {"tensor": {"dtype": "DT_INT32", "tensorShape": {"dim": [{"size": "1"}]}}}}}, {"name": "efficientnet-lite4/model/blocks_20/strided_slice/stack_2", "op": "Const", "attr": {"value": {"tensor": {"dtype": "DT_INT32", "tensorShape": {"dim": [{"size": "1"}]}}}, "dtype": {"type": "DT_INT32"}}}, {"name": "efficientnet-lite4/model/blocks_20/random_uniform/shape/1", "op": "Const", "attr": {"value": {"tensor": {"dtype": "DT_INT32", "tensorShape": {}}}, "dtype": {"type": "DT_INT32"}}}, {"name": "efficientnet-lite4/model/blocks_20/random_uniform/shape/2", "op": "Const", "attr": {"value": {"tensor": {"dtype": "DT_INT32", "tensorShape": {}}}, "dtype": {"type": "DT_INT32"}}}, {"name": "efficientnet-lite4/model/blocks_20/random_uniform/shape/3", "op": "Const", "attr": {"dtype": {"type": "DT_INT32"}, "value": {"tensor": {"dtype": "DT_INT32", "tensorShape": {}}}}}, {"name": "ConstantFolding/efficientnet-lite4/model/blocks_19/div_recip", "op": "Const", "attr": {"value": {"tensor": {"dtype": "DT_FLOAT", "tensorShape": {}}}, "dtype": {"type": "DT_FLOAT"}}}, {"name": "efficientnet-lite4/model/blocks_19/add/x", "op": "Const", "attr": {"value": {"tensor": {"dtype": "DT_FLOAT", "tensorShape": {}}}, "dtype": {"type": "DT_FLOAT"}}}, {"name": "efficientnet-lite4/model/blocks_19/strided_slice/stack", "op": "Const", "attr": {"dtype": {"type": "DT_INT32"}, "value": {"tensor": {"dtype": "DT_INT32", "tensorShape": {"dim": [{"size": "1"}]}}}}}, {"name": "efficientnet-lite4/model/blocks_19/strided_slice/stack_1", "op": "Const", "attr": {"value": {"tensor": {"dtype": "DT_INT32", "tensorShape": {"dim": [{"size": "1"}]}}}, "dtype": {"type": "DT_INT32"}}}, {"name": "efficientnet-lite4/model/blocks_19/strided_slice/stack_2", "op": "Const", "attr": {"dtype": {"type": "DT_INT32"}, "value": {"tensor": {"dtype": "DT_INT32", "tensorShape": {"dim": [{"size": "1"}]}}}}}, {"name": "efficientnet-lite4/model/blocks_19/random_uniform/shape/1", "op": "Const", "attr": {"dtype": {"type": "DT_INT32"}, "value": {"tensor": {"dtype": "DT_INT32", "tensorShape": {}}}}}, {"name": "efficientnet-lite4/model/blocks_19/random_uniform/shape/2", "op": "Const", "attr": {"value": {"tensor": {"dtype": "DT_INT32", "tensorShape": {}}}, "dtype": {"type": "DT_INT32"}}}, {"name": "efficientnet-lite4/model/blocks_19/random_uniform/shape/3", "op": "Const", "attr": {"value": {"tensor": {"dtype": "DT_INT32", "tensorShape": {}}}, "dtype": {"type": "DT_INT32"}}}, {"name": "ConstantFolding/efficientnet-lite4/model/blocks_18/div_recip", "op": "Const", "attr": {"value": {"tensor": {"dtype": "DT_FLOAT", "tensorShape": {}}}, "dtype": {"type": "DT_FLOAT"}}}, {"name": "efficientnet-lite4/model/blocks_18/add/x", "op": "Const", "attr": {"dtype": {"type": "DT_FLOAT"}, "value": {"tensor": {"dtype": "DT_FLOAT", "tensorShape": {}}}}}, {"name": "efficientnet-lite4/model/blocks_18/strided_slice/stack", "op": "Const", "attr": {"value": {"tensor": {"dtype": "DT_INT32", "tensorShape": {"dim": [{"size": "1"}]}}}, "dtype": {"type": "DT_INT32"}}}, {"name": "efficientnet-lite4/model/blocks_18/strided_slice/stack_1", "op": "Const", "attr": {"dtype": {"type": "DT_INT32"}, "value": {"tensor": {"dtype": "DT_INT32", "tensorShape": {"dim": [{"size": "1"}]}}}}}, {"name": "efficientnet-lite4/model/blocks_18/strided_slice/stack_2", "op": "Const", "attr": {"dtype": {"type": "DT_INT32"}, "value": {"tensor": {"dtype": "DT_INT32", "tensorShape": {"dim": [{"size": "1"}]}}}}}, {"name": "efficientnet-lite4/model/blocks_18/random_uniform/shape/1", "op": "Const", "attr": {"value": {"tensor": {"dtype": "DT_INT32", "tensorShape": {}}}, "dtype": {"type": "DT_INT32"}}}, {"name": "efficientnet-lite4/model/blocks_18/random_uniform/shape/2", "op": "Const", "attr": {"dtype": {"type": "DT_INT32"}, "value": {"tensor": {"dtype": "DT_INT32", "tensorShape": {}}}}}, {"name": "efficientnet-lite4/model/blocks_18/random_uniform/shape/3", "op": "Const", "attr": {"dtype": {"type": "DT_INT32"}, "value": {"tensor": {"dtype": "DT_INT32", "tensorShape": {}}}}}, {"name": "ConstantFolding/efficientnet-lite4/model/blocks_17/div_recip", "op": "Const", "attr": {"dtype": {"type": "DT_FLOAT"}, "value": {"tensor": {"dtype": "DT_FLOAT", "tensorShape": {}}}}}, {"name": "efficientnet-lite4/model/blocks_17/add/x", "op": "Const", "attr": {"dtype": {"type": "DT_FLOAT"}, "value": {"tensor": {"dtype": "DT_FLOAT", "tensorShape": {}}}}}, {"name": "efficientnet-lite4/model/blocks_17/strided_slice/stack", "op": "Const", "attr": {"dtype": {"type": "DT_INT32"}, "value": {"tensor": {"dtype": "DT_INT32", "tensorShape": {"dim": [{"size": "1"}]}}}}}, {"name": "efficientnet-lite4/model/blocks_17/strided_slice/stack_1", "op": "Const", "attr": {"dtype": {"type": "DT_INT32"}, "value": {"tensor": {"dtype": "DT_INT32", "tensorShape": {"dim": [{"size": "1"}]}}}}}, {"name": "efficientnet-lite4/model/blocks_17/strided_slice/stack_2", "op": "Const", "attr": {"value": {"tensor": {"dtype": "DT_INT32", "tensorShape": {"dim": [{"size": "1"}]}}}, "dtype": {"type": "DT_INT32"}}}, {"name": "efficientnet-lite4/model/blocks_17/random_uniform/shape/1", "op": "Const", "attr": {"dtype": {"type": "DT_INT32"}, "value": {"tensor": {"dtype": "DT_INT32", "tensorShape": {}}}}}, {"name": "efficientnet-lite4/model/blocks_17/random_uniform/shape/2", "op": "Const", "attr": {"dtype": {"type": "DT_INT32"}, "value": {"tensor": {"dtype": "DT_INT32", "tensorShape": {}}}}}, {"name": "efficientnet-lite4/model/blocks_17/random_uniform/shape/3", "op": "Const", "attr": {"dtype": {"type": "DT_INT32"}, "value": {"tensor": {"dtype": "DT_INT32", "tensorShape": {}}}}}, {"name": "ConstantFolding/efficientnet-lite4/model/blocks_16/div_recip", "op": "Const", "attr": {"value": {"tensor": {"dtype": "DT_FLOAT", "tensorShape": {}}}, "dtype": {"type": "DT_FLOAT"}}}, {"name": "efficientnet-lite4/model/blocks_16/add/x", "op": "Const", "attr": {"value": {"tensor": {"dtype": "DT_FLOAT", "tensorShape": {}}}, "dtype": {"type": "DT_FLOAT"}}}, {"name": "efficientnet-lite4/model/blocks_16/strided_slice/stack", "op": "Const", "attr": {"value": {"tensor": {"dtype": "DT_INT32", "tensorShape": {"dim": [{"size": "1"}]}}}, "dtype": {"type": "DT_INT32"}}}, {"name": "efficientnet-lite4/model/blocks_16/strided_slice/stack_1", "op": "Const", "attr": {"value": {"tensor": {"dtype": "DT_INT32", "tensorShape": {"dim": [{"size": "1"}]}}}, "dtype": {"type": "DT_INT32"}}}, {"name": "efficientnet-lite4/model/blocks_16/strided_slice/stack_2", "op": "Const", "attr": {"dtype": {"type": "DT_INT32"}, "value": {"tensor": {"dtype": "DT_INT32", "tensorShape": {"dim": [{"size": "1"}]}}}}}, {"name": "efficientnet-lite4/model/blocks_16/random_uniform/shape/1", "op": "Const", "attr": {"value": {"tensor": {"dtype": "DT_INT32", "tensorShape": {}}}, "dtype": {"type": "DT_INT32"}}}, {"name": "efficientnet-lite4/model/blocks_16/random_uniform/shape/2", "op": "Const", "attr": {"value": {"tensor": {"dtype": "DT_INT32", "tensorShape": {}}}, "dtype": {"type": "DT_INT32"}}}, {"name": "efficientnet-lite4/model/blocks_16/random_uniform/shape/3", "op": "Const", "attr": {"value": {"tensor": {"dtype": "DT_INT32", "tensorShape": {}}}, "dtype": {"type": "DT_INT32"}}}, {"name": "ConstantFolding/efficientnet-lite4/model/blocks_14/div_recip", "op": "Const", "attr": {"value": {"tensor": {"dtype": "DT_FLOAT", "tensorShape": {}}}, "dtype": {"type": "DT_FLOAT"}}}, {"name": "efficientnet-lite4/model/blocks_14/add/x", "op": "Const", "attr": {"value": {"tensor": {"dtype": "DT_FLOAT", "tensorShape": {}}}, "dtype": {"type": "DT_FLOAT"}}}, {"name": "efficientnet-lite4/model/blocks_14/strided_slice/stack", "op": "Const", "attr": {"dtype": {"type": "DT_INT32"}, "value": {"tensor": {"dtype": "DT_INT32", "tensorShape": {"dim": [{"size": "1"}]}}}}}, {"name": "efficientnet-lite4/model/blocks_14/strided_slice/stack_1", "op": "Const", "attr": {"value": {"tensor": {"dtype": "DT_INT32", "tensorShape": {"dim": [{"size": "1"}]}}}, "dtype": {"type": "DT_INT32"}}}, {"name": "efficientnet-lite4/model/blocks_14/strided_slice/stack_2", "op": "Const", "attr": {"dtype": {"type": "DT_INT32"}, "value": {"tensor": {"dtype": "DT_INT32", "tensorShape": {"dim": [{"size": "1"}]}}}}}, {"name": "efficientnet-lite4/model/blocks_14/random_uniform/shape/1", "op": "Const", "attr": {"dtype": {"type": "DT_INT32"}, "value": {"tensor": {"dtype": "DT_INT32", "tensorShape": {}}}}}, {"name": "efficientnet-lite4/model/blocks_14/random_uniform/shape/2", "op": "Const", "attr": {"dtype": {"type": "DT_INT32"}, "value": {"tensor": {"dtype": "DT_INT32", "tensorShape": {}}}}}, {"name": "efficientnet-lite4/model/blocks_14/random_uniform/shape/3", "op": "Const", "attr": {"value": {"tensor": {"dtype": "DT_INT32", "tensorShape": {}}}, "dtype": {"type": "DT_INT32"}}}, {"name": "ConstantFolding/efficientnet-lite4/model/blocks_13/div_recip", "op": "Const", "attr": {"value": {"tensor": {"dtype": "DT_FLOAT", "tensorShape": {}}}, "dtype": {"type": "DT_FLOAT"}}}, {"name": "efficientnet-lite4/model/blocks_13/add/x", "op": "Const", "attr": {"value": {"tensor": {"dtype": "DT_FLOAT", "tensorShape": {}}}, "dtype": {"type": "DT_FLOAT"}}}, {"name": "efficientnet-lite4/model/blocks_13/strided_slice/stack", "op": "Const", "attr": {"value": {"tensor": {"dtype": "DT_INT32", "tensorShape": {"dim": [{"size": "1"}]}}}, "dtype": {"type": "DT_INT32"}}}, {"name": "efficientnet-lite4/model/blocks_13/strided_slice/stack_1", "op": "Const", "attr": {"dtype": {"type": "DT_INT32"}, "value": {"tensor": {"dtype": "DT_INT32", "tensorShape": {"dim": [{"size": "1"}]}}}}}, {"name": "efficientnet-lite4/model/blocks_13/strided_slice/stack_2", "op": "Const", "attr": {"value": {"tensor": {"dtype": "DT_INT32", "tensorShape": {"dim": [{"size": "1"}]}}}, "dtype": {"type": "DT_INT32"}}}, {"name": "efficientnet-lite4/model/blocks_13/random_uniform/shape/1", "op": "Const", "attr": {"dtype": {"type": "DT_INT32"}, "value": {"tensor": {"dtype": "DT_INT32", "tensorShape": {}}}}}, {"name": "efficientnet-lite4/model/blocks_13/random_uniform/shape/2", "op": "Const", "attr": {"value": {"tensor": {"dtype": "DT_INT32", "tensorShape": {}}}, "dtype": {"type": "DT_INT32"}}}, {"name": "efficientnet-lite4/model/blocks_13/random_uniform/shape/3", "op": "Const", "attr": {"value": {"tensor": {"dtype": "DT_INT32", "tensorShape": {}}}, "dtype": {"type": "DT_INT32"}}}, {"name": "ConstantFolding/efficientnet-lite4/model/blocks_12/div_recip", "op": "Const", "attr": {"dtype": {"type": "DT_FLOAT"}, "value": {"tensor": {"dtype": "DT_FLOAT", "tensorShape": {}}}}}, {"name": "efficientnet-lite4/model/blocks_12/add/x", "op": "Const", "attr": {"value": {"tensor": {"dtype": "DT_FLOAT", "tensorShape": {}}}, "dtype": {"type": "DT_FLOAT"}}}, {"name": "efficientnet-lite4/model/blocks_12/strided_slice/stack", "op": "Const", "attr": {"dtype": {"type": "DT_INT32"}, "value": {"tensor": {"dtype": "DT_INT32", "tensorShape": {"dim": [{"size": "1"}]}}}}}, {"name": "efficientnet-lite4/model/blocks_12/strided_slice/stack_1", "op": "Const", "attr": {"dtype": {"type": "DT_INT32"}, "value": {"tensor": {"dtype": "DT_INT32", "tensorShape": {"dim": [{"size": "1"}]}}}}}, {"name": "efficientnet-lite4/model/blocks_12/strided_slice/stack_2", "op": "Const", "attr": {"dtype": {"type": "DT_INT32"}, "value": {"tensor": {"dtype": "DT_INT32", "tensorShape": {"dim": [{"size": "1"}]}}}}}, {"name": "efficientnet-lite4/model/blocks_12/random_uniform/shape/1", "op": "Const", "attr": {"value": {"tensor": {"dtype": "DT_INT32", "tensorShape": {}}}, "dtype": {"type": "DT_INT32"}}}, {"name": "efficientnet-lite4/model/blocks_12/random_uniform/shape/2", "op": "Const", "attr": {"value": {"tensor": {"dtype": "DT_INT32", "tensorShape": {}}}, "dtype": {"type": "DT_INT32"}}}, {"name": "efficientnet-lite4/model/blocks_12/random_uniform/shape/3", "op": "Const", "attr": {"dtype": {"type": "DT_INT32"}, "value": {"tensor": {"dtype": "DT_INT32", "tensorShape": {}}}}}, {"name": "ConstantFolding/efficientnet-lite4/model/blocks_11/div_recip", "op": "Const", "attr": {"value": {"tensor": {"dtype": "DT_FLOAT", "tensorShape": {}}}, "dtype": {"type": "DT_FLOAT"}}}, {"name": "efficientnet-lite4/model/blocks_11/add/x", "op": "Const", "attr": {"value": {"tensor": {"dtype": "DT_FLOAT", "tensorShape": {}}}, "dtype": {"type": "DT_FLOAT"}}}, {"name": "efficientnet-lite4/model/blocks_11/strided_slice/stack", "op": "Const", "attr": {"dtype": {"type": "DT_INT32"}, "value": {"tensor": {"dtype": "DT_INT32", "tensorShape": {"dim": [{"size": "1"}]}}}}}, {"name": "efficientnet-lite4/model/blocks_11/strided_slice/stack_1", "op": "Const", "attr": {"dtype": {"type": "DT_INT32"}, "value": {"tensor": {"dtype": "DT_INT32", "tensorShape": {"dim": [{"size": "1"}]}}}}}, {"name": "efficientnet-lite4/model/blocks_11/strided_slice/stack_2", "op": "Const", "attr": {"dtype": {"type": "DT_INT32"}, "value": {"tensor": {"dtype": "DT_INT32", "tensorShape": {"dim": [{"size": "1"}]}}}}}, {"name": "efficientnet-lite4/model/blocks_11/random_uniform/shape/1", "op": "Const", "attr": {"value": {"tensor": {"dtype": "DT_INT32", "tensorShape": {}}}, "dtype": {"type": "DT_INT32"}}}, {"name": "efficientnet-lite4/model/blocks_11/random_uniform/shape/2", "op": "Const", "attr": {"value": {"tensor": {"dtype": "DT_INT32", "tensorShape": {}}}, "dtype": {"type": "DT_INT32"}}}, {"name": "efficientnet-lite4/model/blocks_11/random_uniform/shape/3", "op": "Const", "attr": {"dtype": {"type": "DT_INT32"}, "value": {"tensor": {"dtype": "DT_INT32", "tensorShape": {}}}}}, {"name": "ConstantFolding/efficientnet-lite4/model/blocks_10/div_recip", "op": "Const", "attr": {"value": {"tensor": {"dtype": "DT_FLOAT", "tensorShape": {}}}, "dtype": {"type": "DT_FLOAT"}}}, {"name": "efficientnet-lite4/model/blocks_10/add/x", "op": "Const", "attr": {"value": {"tensor": {"dtype": "DT_FLOAT", "tensorShape": {}}}, "dtype": {"type": "DT_FLOAT"}}}, {"name": "efficientnet-lite4/model/blocks_10/strided_slice/stack", "op": "Const", "attr": {"value": {"tensor": {"dtype": "DT_INT32", "tensorShape": {"dim": [{"size": "1"}]}}}, "dtype": {"type": "DT_INT32"}}}, {"name": "efficientnet-lite4/model/blocks_10/strided_slice/stack_1", "op": "Const", "attr": {"value": {"tensor": {"dtype": "DT_INT32", "tensorShape": {"dim": [{"size": "1"}]}}}, "dtype": {"type": "DT_INT32"}}}, {"name": "efficientnet-lite4/model/blocks_10/strided_slice/stack_2", "op": "Const", "attr": {"value": {"tensor": {"dtype": "DT_INT32", "tensorShape": {"dim": [{"size": "1"}]}}}, "dtype": {"type": "DT_INT32"}}}, {"name": "efficientnet-lite4/model/blocks_10/random_uniform/shape/1", "op": "Const", "attr": {"dtype": {"type": "DT_INT32"}, "value": {"tensor": {"dtype": "DT_INT32", "tensorShape": {}}}}}, {"name": "efficientnet-lite4/model/blocks_10/random_uniform/shape/2", "op": "Const", "attr": {"dtype": {"type": "DT_INT32"}, "value": {"tensor": {"dtype": "DT_INT32", "tensorShape": {}}}}}, {"name": "efficientnet-lite4/model/blocks_10/random_uniform/shape/3", "op": "Const", "attr": {"dtype": {"type": "DT_INT32"}, "value": {"tensor": {"dtype": "DT_INT32", "tensorShape": {}}}}}, {"name": "ConstantFolding/efficientnet-lite4/model/blocks_8/div_recip", "op": "Const", "attr": {"value": {"tensor": {"dtype": "DT_FLOAT", "tensorShape": {}}}, "dtype": {"type": "DT_FLOAT"}}}, {"name": "efficientnet-lite4/model/blocks_8/add/x", "op": "Const", "attr": {"value": {"tensor": {"dtype": "DT_FLOAT", "tensorShape": {}}}, "dtype": {"type": "DT_FLOAT"}}}, {"name": "efficientnet-lite4/model/blocks_8/strided_slice/stack", "op": "Const", "attr": {"value": {"tensor": {"dtype": "DT_INT32", "tensorShape": {"dim": [{"size": "1"}]}}}, "dtype": {"type": "DT_INT32"}}}, {"name": "efficientnet-lite4/model/blocks_8/strided_slice/stack_1", "op": "Const", "attr": {"dtype": {"type": "DT_INT32"}, "value": {"tensor": {"dtype": "DT_INT32", "tensorShape": {"dim": [{"size": "1"}]}}}}}, {"name": "efficientnet-lite4/model/blocks_8/strided_slice/stack_2", "op": "Const", "attr": {"value": {"tensor": {"dtype": "DT_INT32", "tensorShape": {"dim": [{"size": "1"}]}}}, "dtype": {"type": "DT_INT32"}}}, {"name": "efficientnet-lite4/model/blocks_8/random_uniform/shape/1", "op": "Const", "attr": {"dtype": {"type": "DT_INT32"}, "value": {"tensor": {"dtype": "DT_INT32", "tensorShape": {}}}}}, {"name": "efficientnet-lite4/model/blocks_8/random_uniform/shape/2", "op": "Const", "attr": {"dtype": {"type": "DT_INT32"}, "value": {"tensor": {"dtype": "DT_INT32", "tensorShape": {}}}}}, {"name": "efficientnet-lite4/model/blocks_8/random_uniform/shape/3", "op": "Const", "attr": {"dtype": {"type": "DT_INT32"}, "value": {"tensor": {"dtype": "DT_INT32", "tensorShape": {}}}}}, {"name": "ConstantFolding/efficientnet-lite4/model/blocks_7/div_recip", "op": "Const", "attr": {"value": {"tensor": {"dtype": "DT_FLOAT", "tensorShape": {}}}, "dtype": {"type": "DT_FLOAT"}}}, {"name": "efficientnet-lite4/model/blocks_7/add/x", "op": "Const", "attr": {"value": {"tensor": {"dtype": "DT_FLOAT", "tensorShape": {}}}, "dtype": {"type": "DT_FLOAT"}}}, {"name": "efficientnet-lite4/model/blocks_7/strided_slice/stack", "op": "Const", "attr": {"dtype": {"type": "DT_INT32"}, "value": {"tensor": {"dtype": "DT_INT32", "tensorShape": {"dim": [{"size": "1"}]}}}}}, {"name": "efficientnet-lite4/model/blocks_7/strided_slice/stack_1", "op": "Const", "attr": {"dtype": {"type": "DT_INT32"}, "value": {"tensor": {"dtype": "DT_INT32", "tensorShape": {"dim": [{"size": "1"}]}}}}}, {"name": "efficientnet-lite4/model/blocks_7/strided_slice/stack_2", "op": "Const", "attr": {"value": {"tensor": {"dtype": "DT_INT32", "tensorShape": {"dim": [{"size": "1"}]}}}, "dtype": {"type": "DT_INT32"}}}, {"name": "efficientnet-lite4/model/blocks_7/random_uniform/shape/1", "op": "Const", "attr": {"value": {"tensor": {"dtype": "DT_INT32", "tensorShape": {}}}, "dtype": {"type": "DT_INT32"}}}, {"name": "efficientnet-lite4/model/blocks_7/random_uniform/shape/2", "op": "Const", "attr": {"dtype": {"type": "DT_INT32"}, "value": {"tensor": {"dtype": "DT_INT32", "tensorShape": {}}}}}, {"name": "efficientnet-lite4/model/blocks_7/random_uniform/shape/3", "op": "Const", "attr": {"dtype": {"type": "DT_INT32"}, "value": {"tensor": {"dtype": "DT_INT32", "tensorShape": {}}}}}, {"name": "ConstantFolding/efficientnet-lite4/model/blocks_6/div_recip", "op": "Const", "attr": {"value": {"tensor": {"dtype": "DT_FLOAT", "tensorShape": {}}}, "dtype": {"type": "DT_FLOAT"}}}, {"name": "efficientnet-lite4/model/blocks_6/add/x", "op": "Const", "attr": {"value": {"tensor": {"dtype": "DT_FLOAT", "tensorShape": {}}}, "dtype": {"type": "DT_FLOAT"}}}, {"name": "efficientnet-lite4/model/blocks_6/strided_slice/stack", "op": "Const", "attr": {"dtype": {"type": "DT_INT32"}, "value": {"tensor": {"dtype": "DT_INT32", "tensorShape": {"dim": [{"size": "1"}]}}}}}, {"name": "efficientnet-lite4/model/blocks_6/strided_slice/stack_1", "op": "Const", "attr": {"dtype": {"type": "DT_INT32"}, "value": {"tensor": {"dtype": "DT_INT32", "tensorShape": {"dim": [{"size": "1"}]}}}}}, {"name": "efficientnet-lite4/model/blocks_6/strided_slice/stack_2", "op": "Const", "attr": {"dtype": {"type": "DT_INT32"}, "value": {"tensor": {"dtype": "DT_INT32", "tensorShape": {"dim": [{"size": "1"}]}}}}}, {"name": "efficientnet-lite4/model/blocks_6/random_uniform/shape/1", "op": "Const", "attr": {"value": {"tensor": {"dtype": "DT_INT32", "tensorShape": {}}}, "dtype": {"type": "DT_INT32"}}}, {"name": "efficientnet-lite4/model/blocks_6/random_uniform/shape/2", "op": "Const", "attr": {"value": {"tensor": {"dtype": "DT_INT32", "tensorShape": {}}}, "dtype": {"type": "DT_INT32"}}}, {"name": "efficientnet-lite4/model/blocks_6/random_uniform/shape/3", "op": "Const", "attr": {"value": {"tensor": {"dtype": "DT_INT32", "tensorShape": {}}}, "dtype": {"type": "DT_INT32"}}}, {"name": "ConstantFolding/efficientnet-lite4/model/blocks_4/div_recip", "op": "Const", "attr": {"value": {"tensor": {"dtype": "DT_FLOAT", "tensorShape": {}}}, "dtype": {"type": "DT_FLOAT"}}}, {"name": "efficientnet-lite4/model/blocks_4/add/x", "op": "Const", "attr": {"dtype": {"type": "DT_FLOAT"}, "value": {"tensor": {"dtype": "DT_FLOAT", "tensorShape": {}}}}}, {"name": "efficientnet-lite4/model/blocks_4/strided_slice/stack", "op": "Const", "attr": {"value": {"tensor": {"dtype": "DT_INT32", "tensorShape": {"dim": [{"size": "1"}]}}}, "dtype": {"type": "DT_INT32"}}}, {"name": "efficientnet-lite4/model/blocks_4/strided_slice/stack_1", "op": "Const", "attr": {"value": {"tensor": {"dtype": "DT_INT32", "tensorShape": {"dim": [{"size": "1"}]}}}, "dtype": {"type": "DT_INT32"}}}, {"name": "efficientnet-lite4/model/blocks_4/strided_slice/stack_2", "op": "Const", "attr": {"value": {"tensor": {"dtype": "DT_INT32", "tensorShape": {"dim": [{"size": "1"}]}}}, "dtype": {"type": "DT_INT32"}}}, {"name": "efficientnet-lite4/model/blocks_4/random_uniform/shape/1", "op": "Const", "attr": {"dtype": {"type": "DT_INT32"}, "value": {"tensor": {"dtype": "DT_INT32", "tensorShape": {}}}}}, {"name": "efficientnet-lite4/model/blocks_4/random_uniform/shape/2", "op": "Const", "attr": {"dtype": {"type": "DT_INT32"}, "value": {"tensor": {"dtype": "DT_INT32", "tensorShape": {}}}}}, {"name": "efficientnet-lite4/model/blocks_4/random_uniform/shape/3", "op": "Const", "attr": {"value": {"tensor": {"dtype": "DT_INT32", "tensorShape": {}}}, "dtype": {"type": "DT_INT32"}}}, {"name": "ConstantFolding/efficientnet-lite4/model/blocks_3/div_recip", "op": "Const", "attr": {"value": {"tensor": {"dtype": "DT_FLOAT", "tensorShape": {}}}, "dtype": {"type": "DT_FLOAT"}}}, {"name": "efficientnet-lite4/model/blocks_3/add/x", "op": "Const", "attr": {"value": {"tensor": {"dtype": "DT_FLOAT", "tensorShape": {}}}, "dtype": {"type": "DT_FLOAT"}}}, {"name": "efficientnet-lite4/model/blocks_3/strided_slice/stack", "op": "Const", "attr": {"value": {"tensor": {"dtype": "DT_INT32", "tensorShape": {"dim": [{"size": "1"}]}}}, "dtype": {"type": "DT_INT32"}}}, {"name": "efficientnet-lite4/model/blocks_3/strided_slice/stack_1", "op": "Const", "attr": {"dtype": {"type": "DT_INT32"}, "value": {"tensor": {"dtype": "DT_INT32", "tensorShape": {"dim": [{"size": "1"}]}}}}}, {"name": "efficientnet-lite4/model/blocks_3/strided_slice/stack_2", "op": "Const", "attr": {"dtype": {"type": "DT_INT32"}, "value": {"tensor": {"dtype": "DT_INT32", "tensorShape": {"dim": [{"size": "1"}]}}}}}, {"name": "efficientnet-lite4/model/blocks_3/random_uniform/shape/1", "op": "Const", "attr": {"dtype": {"type": "DT_INT32"}, "value": {"tensor": {"dtype": "DT_INT32", "tensorShape": {}}}}}, {"name": "efficientnet-lite4/model/blocks_3/random_uniform/shape/2", "op": "Const", "attr": {"value": {"tensor": {"dtype": "DT_INT32", "tensorShape": {}}}, "dtype": {"type": "DT_INT32"}}}, {"name": "efficientnet-lite4/model/blocks_3/random_uniform/shape/3", "op": "Const", "attr": {"value": {"tensor": {"dtype": "DT_INT32", "tensorShape": {}}}, "dtype": {"type": "DT_INT32"}}}, {"name": "ConstantFolding/efficientnet-lite4/model/blocks_2/div_recip", "op": "Const", "attr": {"value": {"tensor": {"dtype": "DT_FLOAT", "tensorShape": {}}}, "dtype": {"type": "DT_FLOAT"}}}, {"name": "efficientnet-lite4/model/blocks_2/add/x", "op": "Const", "attr": {"dtype": {"type": "DT_FLOAT"}, "value": {"tensor": {"dtype": "DT_FLOAT", "tensorShape": {}}}}}, {"name": "efficientnet-lite4/model/blocks_2/strided_slice/stack", "op": "Const", "attr": {"dtype": {"type": "DT_INT32"}, "value": {"tensor": {"dtype": "DT_INT32", "tensorShape": {"dim": [{"size": "1"}]}}}}}, {"name": "efficientnet-lite4/model/blocks_2/strided_slice/stack_1", "op": "Const", "attr": {"dtype": {"type": "DT_INT32"}, "value": {"tensor": {"dtype": "DT_INT32", "tensorShape": {"dim": [{"size": "1"}]}}}}}, {"name": "efficientnet-lite4/model/blocks_2/strided_slice/stack_2", "op": "Const", "attr": {"dtype": {"type": "DT_INT32"}, "value": {"tensor": {"dtype": "DT_INT32", "tensorShape": {"dim": [{"size": "1"}]}}}}}, {"name": "efficientnet-lite4/model/blocks_2/random_uniform/shape/1", "op": "Const", "attr": {"dtype": {"type": "DT_INT32"}, "value": {"tensor": {"dtype": "DT_INT32", "tensorShape": {}}}}}, {"name": "efficientnet-lite4/model/blocks_2/random_uniform/shape/2", "op": "Const", "attr": {"value": {"tensor": {"dtype": "DT_INT32", "tensorShape": {}}}, "dtype": {"type": "DT_INT32"}}}, {"name": "efficientnet-lite4/model/blocks_2/random_uniform/shape/3", "op": "Const", "attr": {"value": {"tensor": {"dtype": "DT_INT32", "tensorShape": {}}}, "dtype": {"type": "DT_INT32"}}}, {"name": "images", "op": "Placeholder", "attr": {"dtype": {"type": "DT_FLOAT"}, "shape": {"shape": {"dim": [{"size": "-1"}, {"size": "-1"}, {"size": "-1"}, {"size": "3"}]}}}}, {"name": "Const", "op": "Const", "attr": {"value": {"tensor": {"dtype": "DT_FLOAT", "tensorShape": {}}}, "dtype": {"type": "DT_FLOAT"}}}, {"name": "Const_1", "op": "Const", "attr": {"value": {"tensor": {"dtype": "DT_FLOAT", "tensorShape": {}}}, "dtype": {"type": "DT_FLOAT"}}}, {"name": "efficientnet-lite4/model/head/global_average_pooling2d/Mean/reduction_indices", "op": "Const", "attr": {"value": {"tensor": {"dtype": "DT_INT32", "tensorShape": {"dim": [{"size": "2"}]}}}, "dtype": {"type": "DT_INT32"}}}, {"name": "efficientnet-lite4/model/head/dropout/dropout/GreaterEqual/y", "op": "Const", "attr": {"value": {"tensor": {"dtype": "DT_FLOAT", "tensorShape": {}}}, "dtype": {"type": "DT_FLOAT"}}}, {"name": "efficientnet-lite4/head/dense/kernel", "op": "Const", "attr": {"dtype": {"type": "DT_FLOAT"}, "value": {"tensor": {"dtype": "DT_FLOAT", "tensorShape": {"dim": [{"size": "1280"}, {"size": "1000"}]}}}}}, {"name": "efficientnet-lite4/head/dense/bias", "op": "Const", "attr": {"value": {"tensor": {"dtype": "DT_FLOAT", "tensorShape": {"dim": [{"size": "1000"}]}}}, "dtype": {"type": "DT_FLOAT"}}}, {"name": "efficientnet-lite4/model/stem/conv2d/Conv2D_weights", "op": "Const", "attr": {"value": {"tensor": {"dtype": "DT_FLOAT", "tensorShape": {"dim": [{"size": "3"}, {"size": "3"}, {"size": "3"}, {"size": "32"}]}}}, "dtype": {"type": "DT_FLOAT"}}}, {"name": "efficientnet-lite4/model/blocks_26/depthwise_conv2d/depthwise_weights", "op": "Const", "attr": {"value": {"tensor": {"dtype": "DT_FLOAT", "tensorShape": {"dim": [{"size": "5"}, {"size": "5"}, {"size": "1632"}, {"size": "1"}]}}}, "dtype": {"type": "DT_FLOAT"}}}, {"name": "efficientnet-lite4/model/stem/conv2d/Conv2D_bn_offset", "op": "Const", "attr": {"value": {"tensor": {"dtype": "DT_FLOAT", "tensorShape": {"dim": [{"size": "32"}]}}}, "dtype": {"type": "DT_FLOAT"}}}, {"name": "efficientnet-lite4/model/blocks_0/depthwise_conv2d/depthwise_weights", "op": "Const", "attr": {"dtype": {"type": "DT_FLOAT"}, "value": {"tensor": {"dtype": "DT_FLOAT", "tensorShape": {"dim": [{"size": "3"}, {"size": "3"}, {"size": "32"}, {"size": "1"}]}}}}}, {"name": "efficientnet-lite4/model/blocks_0/depthwise_conv2d/depthwise_bn_offset", "op": "Const", "attr": {"dtype": {"type": "DT_FLOAT"}, "value": {"tensor": {"dtype": "DT_FLOAT", "tensorShape": {"dim": [{"size": "32"}]}}}}}, {"name": "efficientnet-lite4/model/blocks_0/conv2d/Conv2D_weights", "op": "Const", "attr": {"dtype": {"type": "DT_FLOAT"}, "value": {"tensor": {"dtype": "DT_FLOAT", "tensorShape": {"dim": [{"size": "1"}, {"size": "1"}, {"size": "32"}, {"size": "24"}]}}}}}, {"name": "efficientnet-lite4/model/blocks_26/depthwise_conv2d/depthwise_bn_offset", "op": "Const", "attr": {"value": {"tensor": {"dtype": "DT_FLOAT", "tensorShape": {"dim": [{"size": "1632"}]}}}, "dtype": {"type": "DT_FLOAT"}}}, {"name": "efficientnet-lite4/model/blocks_0/conv2d/Conv2D_bn_offset", "op": "Const", "attr": {"dtype": {"type": "DT_FLOAT"}, "value": {"tensor": {"dtype": "DT_FLOAT", "tensorShape": {"dim": [{"size": "24"}]}}}}}, {"name": "efficientnet-lite4/model/blocks_1/conv2d/Conv2D_weights", "op": "Const", "attr": {"value": {"tensor": {"dtype": "DT_FLOAT", "tensorShape": {"dim": [{"size": "1"}, {"size": "1"}, {"size": "24"}, {"size": "144"}]}}}, "dtype": {"type": "DT_FLOAT"}}}, {"name": "efficientnet-lite4/model/blocks_1/conv2d/Conv2D_bn_offset", "op": "Const", "attr": {"dtype": {"type": "DT_FLOAT"}, "value": {"tensor": {"dtype": "DT_FLOAT", "tensorShape": {"dim": [{"size": "144"}]}}}}}, {"name": "efficientnet-lite4/model/blocks_1/depthwise_conv2d/depthwise_weights", "op": "Const", "attr": {"value": {"tensor": {"dtype": "DT_FLOAT", "tensorShape": {"dim": [{"size": "3"}, {"size": "3"}, {"size": "144"}, {"size": "1"}]}}}, "dtype": {"type": "DT_FLOAT"}}}, {"name": "efficientnet-lite4/model/blocks_1/depthwise_conv2d/depthwise_bn_offset", "op": "Const", "attr": {"dtype": {"type": "DT_FLOAT"}, "value": {"tensor": {"dtype": "DT_FLOAT", "tensorShape": {"dim": [{"size": "144"}]}}}}}, {"name": "efficientnet-lite4/model/blocks_1/conv2d_1/Conv2D_weights", "op": "Const", "attr": {"dtype": {"type": "DT_FLOAT"}, "value": {"tensor": {"dtype": "DT_FLOAT", "tensorShape": {"dim": [{"size": "1"}, {"size": "1"}, {"size": "144"}, {"size": "32"}]}}}}}, {"name": "efficientnet-lite4/model/blocks_26/conv2d_1/Conv2D_weights", "op": "Const", "attr": {"value": {"tensor": {"dtype": "DT_FLOAT", "tensorShape": {"dim": [{"size": "1"}, {"size": "1"}, {"size": "1632"}, {"size": "272"}]}}}, "dtype": {"type": "DT_FLOAT"}}}, {"name": "efficientnet-lite4/model/blocks_1/conv2d_1/Conv2D_bn_offset", "op": "Const", "attr": {"value": {"tensor": {"dtype": "DT_FLOAT", "tensorShape": {"dim": [{"size": "32"}]}}}, "dtype": {"type": "DT_FLOAT"}}}, {"name": "efficientnet-lite4/model/blocks_2/conv2d/Conv2D_weights", "op": "Const", "attr": {"value": {"tensor": {"dtype": "DT_FLOAT", "tensorShape": {"dim": [{"size": "1"}, {"size": "1"}, {"size": "32"}, {"size": "192"}]}}}, "dtype": {"type": "DT_FLOAT"}}}, {"name": "efficientnet-lite4/model/head/conv2d/Conv2D_bn_offset", "op": "Const", "attr": {"value": {"tensor": {"dtype": "DT_FLOAT", "tensorShape": {"dim": [{"size": "1280"}]}}}, "dtype": {"type": "DT_FLOAT"}}}, {"name": "efficientnet-lite4/model/blocks_2/conv2d/Conv2D_bn_offset", "op": "Const", "attr": {"dtype": {"type": "DT_FLOAT"}, "value": {"tensor": {"dtype": "DT_FLOAT", "tensorShape": {"dim": [{"size": "192"}]}}}}}, {"name": "efficientnet-lite4/model/blocks_26/conv2d_1/Conv2D_bn_offset", "op": "Const", "attr": {"value": {"tensor": {"dtype": "DT_FLOAT", "tensorShape": {"dim": [{"size": "272"}]}}}, "dtype": {"type": "DT_FLOAT"}}}, {"name": "efficientnet-lite4/model/blocks_2/depthwise_conv2d/depthwise_weights", "op": "Const", "attr": {"value": {"tensor": {"dtype": "DT_FLOAT", "tensorShape": {"dim": [{"size": "3"}, {"size": "3"}, {"size": "192"}, {"size": "1"}]}}}, "dtype": {"type": "DT_FLOAT"}}}, {"name": "efficientnet-lite4/model/blocks_2/depthwise_conv2d/depthwise_bn_offset", "op": "Const", "attr": {"value": {"tensor": {"dtype": "DT_FLOAT", "tensorShape": {"dim": [{"size": "192"}]}}}, "dtype": {"type": "DT_FLOAT"}}}, {"name": "efficientnet-lite4/model/blocks_2/conv2d_1/Conv2D_weights", "op": "Const", "attr": {"dtype": {"type": "DT_FLOAT"}, "value": {"tensor": {"dtype": "DT_FLOAT", "tensorShape": {"dim": [{"size": "1"}, {"size": "1"}, {"size": "192"}, {"size": "32"}]}}}}}, {"name": "efficientnet-lite4/model/blocks_2/conv2d_1/Conv2D_bn_offset", "op": "Const", "attr": {"value": {"tensor": {"dtype": "DT_FLOAT", "tensorShape": {"dim": [{"size": "32"}]}}}, "dtype": {"type": "DT_FLOAT"}}}, {"name": "efficientnet-lite4/model/blocks_3/conv2d/Conv2D_weights", "op": "Const", "attr": {"dtype": {"type": "DT_FLOAT"}, "value": {"tensor": {"dtype": "DT_FLOAT", "tensorShape": {"dim": [{"size": "1"}, {"size": "1"}, {"size": "32"}, {"size": "192"}]}}}}}, {"name": "efficientnet-lite4/model/blocks_3/conv2d/Conv2D_bn_offset", "op": "Const", "attr": {"dtype": {"type": "DT_FLOAT"}, "value": {"tensor": {"dtype": "DT_FLOAT", "tensorShape": {"dim": [{"size": "192"}]}}}}}, {"name": "efficientnet-lite4/model/blocks_3/depthwise_conv2d/depthwise_weights", "op": "Const", "attr": {"value": {"tensor": {"dtype": "DT_FLOAT", "tensorShape": {"dim": [{"size": "3"}, {"size": "3"}, {"size": "192"}, {"size": "1"}]}}}, "dtype": {"type": "DT_FLOAT"}}}, {"name": "efficientnet-lite4/model/blocks_3/depthwise_conv2d/depthwise_bn_offset", "op": "Const", "attr": {"dtype": {"type": "DT_FLOAT"}, "value": {"tensor": {"dtype": "DT_FLOAT", "tensorShape": {"dim": [{"size": "192"}]}}}}}, {"name": "efficientnet-lite4/model/blocks_3/conv2d_1/Conv2D_weights", "op": "Const", "attr": {"dtype": {"type": "DT_FLOAT"}, "value": {"tensor": {"dtype": "DT_FLOAT", "tensorShape": {"dim": [{"size": "1"}, {"size": "1"}, {"size": "192"}, {"size": "32"}]}}}}}, {"name": "efficientnet-lite4/model/blocks_3/conv2d_1/Conv2D_bn_offset", "op": "Const", "attr": {"value": {"tensor": {"dtype": "DT_FLOAT", "tensorShape": {"dim": [{"size": "32"}]}}}, "dtype": {"type": "DT_FLOAT"}}}, {"name": "efficientnet-lite4/model/blocks_4/conv2d/Conv2D_weights", "op": "Const", "attr": {"value": {"tensor": {"dtype": "DT_FLOAT", "tensorShape": {"dim": [{"size": "1"}, {"size": "1"}, {"size": "32"}, {"size": "192"}]}}}, "dtype": {"type": "DT_FLOAT"}}}, {"name": "efficientnet-lite4/model/blocks_4/conv2d/Conv2D_bn_offset", "op": "Const", "attr": {"dtype": {"type": "DT_FLOAT"}, "value": {"tensor": {"dtype": "DT_FLOAT", "tensorShape": {"dim": [{"size": "192"}]}}}}}, {"name": "efficientnet-lite4/model/blocks_4/depthwise_conv2d/depthwise_weights", "op": "Const", "attr": {"value": {"tensor": {"dtype": "DT_FLOAT", "tensorShape": {"dim": [{"size": "3"}, {"size": "3"}, {"size": "192"}, {"size": "1"}]}}}, "dtype": {"type": "DT_FLOAT"}}}, {"name": "efficientnet-lite4/model/blocks_4/depthwise_conv2d/depthwise_bn_offset", "op": "Const", "attr": {"value": {"tensor": {"dtype": "DT_FLOAT", "tensorShape": {"dim": [{"size": "192"}]}}}, "dtype": {"type": "DT_FLOAT"}}}, {"name": "efficientnet-lite4/model/blocks_4/conv2d_1/Conv2D_weights", "op": "Const", "attr": {"value": {"tensor": {"dtype": "DT_FLOAT", "tensorShape": {"dim": [{"size": "1"}, {"size": "1"}, {"size": "192"}, {"size": "32"}]}}}, "dtype": {"type": "DT_FLOAT"}}}, {"name": "efficientnet-lite4/model/blocks_4/conv2d_1/Conv2D_bn_offset", "op": "Const", "attr": {"dtype": {"type": "DT_FLOAT"}, "value": {"tensor": {"dtype": "DT_FLOAT", "tensorShape": {"dim": [{"size": "32"}]}}}}}, {"name": "efficientnet-lite4/model/blocks_5/conv2d/Conv2D_weights", "op": "Const", "attr": {"dtype": {"type": "DT_FLOAT"}, "value": {"tensor": {"dtype": "DT_FLOAT", "tensorShape": {"dim": [{"size": "1"}, {"size": "1"}, {"size": "32"}, {"size": "192"}]}}}}}, {"name": "efficientnet-lite4/model/blocks_5/conv2d/Conv2D_bn_offset", "op": "Const", "attr": {"value": {"tensor": {"dtype": "DT_FLOAT", "tensorShape": {"dim": [{"size": "192"}]}}}, "dtype": {"type": "DT_FLOAT"}}}, {"name": "efficientnet-lite4/model/blocks_5/depthwise_conv2d/depthwise_weights", "op": "Const", "attr": {"dtype": {"type": "DT_FLOAT"}, "value": {"tensor": {"dtype": "DT_FLOAT", "tensorShape": {"dim": [{"size": "5"}, {"size": "5"}, {"size": "192"}, {"size": "1"}]}}}}}, {"name": "efficientnet-lite4/model/blocks_5/depthwise_conv2d/depthwise_bn_offset", "op": "Const", "attr": {"dtype": {"type": "DT_FLOAT"}, "value": {"tensor": {"dtype": "DT_FLOAT", "tensorShape": {"dim": [{"size": "192"}]}}}}}, {"name": "efficientnet-lite4/model/blocks_5/conv2d_1/Conv2D_weights", "op": "Const", "attr": {"dtype": {"type": "DT_FLOAT"}, "value": {"tensor": {"dtype": "DT_FLOAT", "tensorShape": {"dim": [{"size": "1"}, {"size": "1"}, {"size": "192"}, {"size": "56"}]}}}}}, {"name": "efficientnet-lite4/model/blocks_5/conv2d_1/Conv2D_bn_offset", "op": "Const", "attr": {"dtype": {"type": "DT_FLOAT"}, "value": {"tensor": {"dtype": "DT_FLOAT", "tensorShape": {"dim": [{"size": "56"}]}}}}}, {"name": "efficientnet-lite4/model/blocks_6/conv2d/Conv2D_weights", "op": "Const", "attr": {"value": {"tensor": {"dtype": "DT_FLOAT", "tensorShape": {"dim": [{"size": "1"}, {"size": "1"}, {"size": "56"}, {"size": "336"}]}}}, "dtype": {"type": "DT_FLOAT"}}}, {"name": "efficientnet-lite4/model/blocks_27/conv2d/Conv2D_weights", "op": "Const", "attr": {"value": {"tensor": {"dtype": "DT_FLOAT", "tensorShape": {"dim": [{"size": "1"}, {"size": "1"}, {"size": "272"}, {"size": "1632"}]}}}, "dtype": {"type": "DT_FLOAT"}}}, {"name": "efficientnet-lite4/model/blocks_6/conv2d/Conv2D_bn_offset", "op": "Const", "attr": {"value": {"tensor": {"dtype": "DT_FLOAT", "tensorShape": {"dim": [{"size": "336"}]}}}, "dtype": {"type": "DT_FLOAT"}}}, {"name": "efficientnet-lite4/model/blocks_6/depthwise_conv2d/depthwise_weights", "op": "Const", "attr": {"value": {"tensor": {"dtype": "DT_FLOAT", "tensorShape": {"dim": [{"size": "5"}, {"size": "5"}, {"size": "336"}, {"size": "1"}]}}}, "dtype": {"type": "DT_FLOAT"}}}, {"name": "efficientnet-lite4/model/blocks_6/depthwise_conv2d/depthwise_bn_offset", "op": "Const", "attr": {"value": {"tensor": {"dtype": "DT_FLOAT", "tensorShape": {"dim": [{"size": "336"}]}}}, "dtype": {"type": "DT_FLOAT"}}}, {"name": "efficientnet-lite4/model/blocks_6/conv2d_1/Conv2D_weights", "op": "Const", "attr": {"value": {"tensor": {"dtype": "DT_FLOAT", "tensorShape": {"dim": [{"size": "1"}, {"size": "1"}, {"size": "336"}, {"size": "56"}]}}}, "dtype": {"type": "DT_FLOAT"}}}, {"name": "efficientnet-lite4/model/blocks_27/conv2d/Conv2D_bn_offset", "op": "Const", "attr": {"value": {"tensor": {"dtype": "DT_FLOAT", "tensorShape": {"dim": [{"size": "1632"}]}}}, "dtype": {"type": "DT_FLOAT"}}}, {"name": "efficientnet-lite4/model/blocks_6/conv2d_1/Conv2D_bn_offset", "op": "Const", "attr": {"value": {"tensor": {"dtype": "DT_FLOAT", "tensorShape": {"dim": [{"size": "56"}]}}}, "dtype": {"type": "DT_FLOAT"}}}, {"name": "efficientnet-lite4/model/blocks_7/conv2d/Conv2D_weights", "op": "Const", "attr": {"dtype": {"type": "DT_FLOAT"}, "value": {"tensor": {"dtype": "DT_FLOAT", "tensorShape": {"dim": [{"size": "1"}, {"size": "1"}, {"size": "56"}, {"size": "336"}]}}}}}, {"name": "efficientnet-lite4/model/blocks_7/conv2d/Conv2D_bn_offset", "op": "Const", "attr": {"value": {"tensor": {"dtype": "DT_FLOAT", "tensorShape": {"dim": [{"size": "336"}]}}}, "dtype": {"type": "DT_FLOAT"}}}, {"name": "efficientnet-lite4/model/blocks_7/depthwise_conv2d/depthwise_weights", "op": "Const", "attr": {"value": {"tensor": {"dtype": "DT_FLOAT", "tensorShape": {"dim": [{"size": "5"}, {"size": "5"}, {"size": "336"}, {"size": "1"}]}}}, "dtype": {"type": "DT_FLOAT"}}}, {"name": "efficientnet-lite4/model/blocks_7/depthwise_conv2d/depthwise_bn_offset", "op": "Const", "attr": {"value": {"tensor": {"dtype": "DT_FLOAT", "tensorShape": {"dim": [{"size": "336"}]}}}, "dtype": {"type": "DT_FLOAT"}}}, {"name": "efficientnet-lite4/model/blocks_7/conv2d_1/Conv2D_weights", "op": "Const", "attr": {"value": {"tensor": {"dtype": "DT_FLOAT", "tensorShape": {"dim": [{"size": "1"}, {"size": "1"}, {"size": "336"}, {"size": "56"}]}}}, "dtype": {"type": "DT_FLOAT"}}}, {"name": "efficientnet-lite4/model/blocks_27/depthwise_conv2d/depthwise_weights", "op": "Const", "attr": {"dtype": {"type": "DT_FLOAT"}, "value": {"tensor": {"dtype": "DT_FLOAT", "tensorShape": {"dim": [{"size": "5"}, {"size": "5"}, {"size": "1632"}, {"size": "1"}]}}}}}, {"name": "efficientnet-lite4/model/blocks_7/conv2d_1/Conv2D_bn_offset", "op": "Const", "attr": {"value": {"tensor": {"dtype": "DT_FLOAT", "tensorShape": {"dim": [{"size": "56"}]}}}, "dtype": {"type": "DT_FLOAT"}}}, {"name": "efficientnet-lite4/model/blocks_8/conv2d/Conv2D_weights", "op": "Const", "attr": {"dtype": {"type": "DT_FLOAT"}, "value": {"tensor": {"dtype": "DT_FLOAT", "tensorShape": {"dim": [{"size": "1"}, {"size": "1"}, {"size": "56"}, {"size": "336"}]}}}}}, {"name": "efficientnet-lite4/model/blocks_8/conv2d/Conv2D_bn_offset", "op": "Const", "attr": {"value": {"tensor": {"dtype": "DT_FLOAT", "tensorShape": {"dim": [{"size": "336"}]}}}, "dtype": {"type": "DT_FLOAT"}}}, {"name": "efficientnet-lite4/model/blocks_27/depthwise_conv2d/depthwise_bn_offset", "op": "Const", "attr": {"dtype": {"type": "DT_FLOAT"}, "value": {"tensor": {"dtype": "DT_FLOAT", "tensorShape": {"dim": [{"size": "1632"}]}}}}}, {"name": "efficientnet-lite4/model/blocks_8/depthwise_conv2d/depthwise_weights", "op": "Const", "attr": {"dtype": {"type": "DT_FLOAT"}, "value": {"tensor": {"dtype": "DT_FLOAT", "tensorShape": {"dim": [{"size": "5"}, {"size": "5"}, {"size": "336"}, {"size": "1"}]}}}}}, {"name": "efficientnet-lite4/model/blocks_8/depthwise_conv2d/depthwise_bn_offset", "op": "Const", "attr": {"dtype": {"type": "DT_FLOAT"}, "value": {"tensor": {"dtype": "DT_FLOAT", "tensorShape": {"dim": [{"size": "336"}]}}}}}, {"name": "efficientnet-lite4/model/blocks_8/conv2d_1/Conv2D_weights", "op": "Const", "attr": {"dtype": {"type": "DT_FLOAT"}, "value": {"tensor": {"dtype": "DT_FLOAT", "tensorShape": {"dim": [{"size": "1"}, {"size": "1"}, {"size": "336"}, {"size": "56"}]}}}}}, {"name": "efficientnet-lite4/model/blocks_8/conv2d_1/Conv2D_bn_offset", "op": "Const", "attr": {"dtype": {"type": "DT_FLOAT"}, "value": {"tensor": {"dtype": "DT_FLOAT", "tensorShape": {"dim": [{"size": "56"}]}}}}}, {"name": "efficientnet-lite4/model/blocks_9/conv2d/Conv2D_weights", "op": "Const", "attr": {"dtype": {"type": "DT_FLOAT"}, "value": {"tensor": {"dtype": "DT_FLOAT", "tensorShape": {"dim": [{"size": "1"}, {"size": "1"}, {"size": "56"}, {"size": "336"}]}}}}}, {"name": "efficientnet-lite4/model/blocks_9/conv2d/Conv2D_bn_offset", "op": "Const", "attr": {"dtype": {"type": "DT_FLOAT"}, "value": {"tensor": {"dtype": "DT_FLOAT", "tensorShape": {"dim": [{"size": "336"}]}}}}}, {"name": "efficientnet-lite4/model/blocks_27/conv2d_1/Conv2D_weights", "op": "Const", "attr": {"value": {"tensor": {"dtype": "DT_FLOAT", "tensorShape": {"dim": [{"size": "1"}, {"size": "1"}, {"size": "1632"}, {"size": "272"}]}}}, "dtype": {"type": "DT_FLOAT"}}}, {"name": "efficientnet-lite4/model/blocks_9/depthwise_conv2d/depthwise_weights", "op": "Const", "attr": {"value": {"tensor": {"dtype": "DT_FLOAT", "tensorShape": {"dim": [{"size": "3"}, {"size": "3"}, {"size": "336"}, {"size": "1"}]}}}, "dtype": {"type": "DT_FLOAT"}}}, {"name": "efficientnet-lite4/model/blocks_9/depthwise_conv2d/depthwise_bn_offset", "op": "Const", "attr": {"value": {"tensor": {"dtype": "DT_FLOAT", "tensorShape": {"dim": [{"size": "336"}]}}}, "dtype": {"type": "DT_FLOAT"}}}, {"name": "efficientnet-lite4/model/blocks_9/conv2d_1/Conv2D_weights", "op": "Const", "attr": {"value": {"tensor": {"dtype": "DT_FLOAT", "tensorShape": {"dim": [{"size": "1"}, {"size": "1"}, {"size": "336"}, {"size": "112"}]}}}, "dtype": {"type": "DT_FLOAT"}}}, {"name": "efficientnet-lite4/model/blocks_9/conv2d_1/Conv2D_bn_offset", "op": "Const", "attr": {"value": {"tensor": {"dtype": "DT_FLOAT", "tensorShape": {"dim": [{"size": "112"}]}}}, "dtype": {"type": "DT_FLOAT"}}}, {"name": "efficientnet-lite4/model/blocks_10/conv2d/Conv2D_weights", "op": "Const", "attr": {"dtype": {"type": "DT_FLOAT"}, "value": {"tensor": {"dtype": "DT_FLOAT", "tensorShape": {"dim": [{"size": "1"}, {"size": "1"}, {"size": "112"}, {"size": "672"}]}}}}}, {"name": "efficientnet-lite4/model/blocks_27/conv2d_1/Conv2D_bn_offset", "op": "Const", "attr": {"value": {"tensor": {"dtype": "DT_FLOAT", "tensorShape": {"dim": [{"size": "272"}]}}}, "dtype": {"type": "DT_FLOAT"}}}, {"name": "efficientnet-lite4/model/blocks_10/conv2d/Conv2D_bn_offset", "op": "Const", "attr": {"value": {"tensor": {"dtype": "DT_FLOAT", "tensorShape": {"dim": [{"size": "672"}]}}}, "dtype": {"type": "DT_FLOAT"}}}, {"name": "efficientnet-lite4/model/blocks_10/depthwise_conv2d/depthwise_weights", "op": "Const", "attr": {"dtype": {"type": "DT_FLOAT"}, "value": {"tensor": {"dtype": "DT_FLOAT", "tensorShape": {"dim": [{"size": "3"}, {"size": "3"}, {"size": "672"}, {"size": "1"}]}}}}}, {"name": "efficientnet-lite4/model/blocks_10/depthwise_conv2d/depthwise_bn_offset", "op": "Const", "attr": {"value": {"tensor": {"dtype": "DT_FLOAT", "tensorShape": {"dim": [{"size": "672"}]}}}, "dtype": {"type": "DT_FLOAT"}}}, {"name": "efficientnet-lite4/model/blocks_10/conv2d_1/Conv2D_weights", "op": "Const", "attr": {"dtype": {"type": "DT_FLOAT"}, "value": {"tensor": {"dtype": "DT_FLOAT", "tensorShape": {"dim": [{"size": "1"}, {"size": "1"}, {"size": "672"}, {"size": "112"}]}}}}}, {"name": "efficientnet-lite4/model/blocks_10/conv2d_1/Conv2D_bn_offset", "op": "Const", "attr": {"value": {"tensor": {"dtype": "DT_FLOAT", "tensorShape": {"dim": [{"size": "112"}]}}}, "dtype": {"type": "DT_FLOAT"}}}, {"name": "efficientnet-lite4/model/blocks_11/conv2d/Conv2D_weights", "op": "Const", "attr": {"value": {"tensor": {"dtype": "DT_FLOAT", "tensorShape": {"dim": [{"size": "1"}, {"size": "1"}, {"size": "112"}, {"size": "672"}]}}}, "dtype": {"type": "DT_FLOAT"}}}, {"name": "efficientnet-lite4/model/blocks_11/conv2d/Conv2D_bn_offset", "op": "Const", "attr": {"dtype": {"type": "DT_FLOAT"}, "value": {"tensor": {"dtype": "DT_FLOAT", "tensorShape": {"dim": [{"size": "672"}]}}}}}, {"name": "efficientnet-lite4/model/blocks_11/depthwise_conv2d/depthwise_weights", "op": "Const", "attr": {"dtype": {"type": "DT_FLOAT"}, "value": {"tensor": {"dtype": "DT_FLOAT", "tensorShape": {"dim": [{"size": "3"}, {"size": "3"}, {"size": "672"}, {"size": "1"}]}}}}}, {"name": "efficientnet-lite4/model/blocks_11/depthwise_conv2d/depthwise_bn_offset", "op": "Const", "attr": {"dtype": {"type": "DT_FLOAT"}, "value": {"tensor": {"dtype": "DT_FLOAT", "tensorShape": {"dim": [{"size": "672"}]}}}}}, {"name": "efficientnet-lite4/model/blocks_11/conv2d_1/Conv2D_weights", "op": "Const", "attr": {"dtype": {"type": "DT_FLOAT"}, "value": {"tensor": {"dtype": "DT_FLOAT", "tensorShape": {"dim": [{"size": "1"}, {"size": "1"}, {"size": "672"}, {"size": "112"}]}}}}}, {"name": "efficientnet-lite4/model/blocks_11/conv2d_1/Conv2D_bn_offset", "op": "Const", "attr": {"dtype": {"type": "DT_FLOAT"}, "value": {"tensor": {"dtype": "DT_FLOAT", "tensorShape": {"dim": [{"size": "112"}]}}}}}, {"name": "efficientnet-lite4/model/blocks_12/conv2d/Conv2D_weights", "op": "Const", "attr": {"value": {"tensor": {"dtype": "DT_FLOAT", "tensorShape": {"dim": [{"size": "1"}, {"size": "1"}, {"size": "112"}, {"size": "672"}]}}}, "dtype": {"type": "DT_FLOAT"}}}, {"name": "efficientnet-lite4/model/blocks_12/conv2d/Conv2D_bn_offset", "op": "Const", "attr": {"dtype": {"type": "DT_FLOAT"}, "value": {"tensor": {"dtype": "DT_FLOAT", "tensorShape": {"dim": [{"size": "672"}]}}}}}, {"name": "efficientnet-lite4/model/blocks_12/depthwise_conv2d/depthwise_weights", "op": "Const", "attr": {"dtype": {"type": "DT_FLOAT"}, "value": {"tensor": {"dtype": "DT_FLOAT", "tensorShape": {"dim": [{"size": "3"}, {"size": "3"}, {"size": "672"}, {"size": "1"}]}}}}}, {"name": "efficientnet-lite4/model/blocks_12/depthwise_conv2d/depthwise_bn_offset", "op": "Const", "attr": {"value": {"tensor": {"dtype": "DT_FLOAT", "tensorShape": {"dim": [{"size": "672"}]}}}, "dtype": {"type": "DT_FLOAT"}}}, {"name": "efficientnet-lite4/model/blocks_12/conv2d_1/Conv2D_weights", "op": "Const", "attr": {"dtype": {"type": "DT_FLOAT"}, "value": {"tensor": {"dtype": "DT_FLOAT", "tensorShape": {"dim": [{"size": "1"}, {"size": "1"}, {"size": "672"}, {"size": "112"}]}}}}}, {"name": "efficientnet-lite4/model/blocks_12/conv2d_1/Conv2D_bn_offset", "op": "Const", "attr": {"value": {"tensor": {"dtype": "DT_FLOAT", "tensorShape": {"dim": [{"size": "112"}]}}}, "dtype": {"type": "DT_FLOAT"}}}, {"name": "efficientnet-lite4/model/blocks_13/conv2d/Conv2D_weights", "op": "Const", "attr": {"value": {"tensor": {"dtype": "DT_FLOAT", "tensorShape": {"dim": [{"size": "1"}, {"size": "1"}, {"size": "112"}, {"size": "672"}]}}}, "dtype": {"type": "DT_FLOAT"}}}, {"name": "efficientnet-lite4/model/blocks_13/conv2d/Conv2D_bn_offset", "op": "Const", "attr": {"value": {"tensor": {"dtype": "DT_FLOAT", "tensorShape": {"dim": [{"size": "672"}]}}}, "dtype": {"type": "DT_FLOAT"}}}, {"name": "efficientnet-lite4/model/blocks_13/depthwise_conv2d/depthwise_weights", "op": "Const", "attr": {"value": {"tensor": {"dtype": "DT_FLOAT", "tensorShape": {"dim": [{"size": "3"}, {"size": "3"}, {"size": "672"}, {"size": "1"}]}}}, "dtype": {"type": "DT_FLOAT"}}}, {"name": "efficientnet-lite4/model/blocks_13/depthwise_conv2d/depthwise_bn_offset", "op": "Const", "attr": {"value": {"tensor": {"dtype": "DT_FLOAT", "tensorShape": {"dim": [{"size": "672"}]}}}, "dtype": {"type": "DT_FLOAT"}}}, {"name": "efficientnet-lite4/model/blocks_13/conv2d_1/Conv2D_weights", "op": "Const", "attr": {"value": {"tensor": {"dtype": "DT_FLOAT", "tensorShape": {"dim": [{"size": "1"}, {"size": "1"}, {"size": "672"}, {"size": "112"}]}}}, "dtype": {"type": "DT_FLOAT"}}}, {"name": "efficientnet-lite4/model/blocks_28/conv2d/Conv2D_weights", "op": "Const", "attr": {"value": {"tensor": {"dtype": "DT_FLOAT", "tensorShape": {"dim": [{"size": "1"}, {"size": "1"}, {"size": "272"}, {"size": "1632"}]}}}, "dtype": {"type": "DT_FLOAT"}}}, {"name": "efficientnet-lite4/model/blocks_13/conv2d_1/Conv2D_bn_offset", "op": "Const", "attr": {"dtype": {"type": "DT_FLOAT"}, "value": {"tensor": {"dtype": "DT_FLOAT", "tensorShape": {"dim": [{"size": "112"}]}}}}}, {"name": "efficientnet-lite4/model/blocks_14/conv2d/Conv2D_weights", "op": "Const", "attr": {"dtype": {"type": "DT_FLOAT"}, "value": {"tensor": {"dtype": "DT_FLOAT", "tensorShape": {"dim": [{"size": "1"}, {"size": "1"}, {"size": "112"}, {"size": "672"}]}}}}}, {"name": "efficientnet-lite4/model/blocks_14/conv2d/Conv2D_bn_offset", "op": "Const", "attr": {"dtype": {"type": "DT_FLOAT"}, "value": {"tensor": {"dtype": "DT_FLOAT", "tensorShape": {"dim": [{"size": "672"}]}}}}}, {"name": "efficientnet-lite4/model/blocks_28/conv2d/Conv2D_bn_offset", "op": "Const", "attr": {"dtype": {"type": "DT_FLOAT"}, "value": {"tensor": {"dtype": "DT_FLOAT", "tensorShape": {"dim": [{"size": "1632"}]}}}}}, {"name": "efficientnet-lite4/model/blocks_14/depthwise_conv2d/depthwise_weights", "op": "Const", "attr": {"dtype": {"type": "DT_FLOAT"}, "value": {"tensor": {"dtype": "DT_FLOAT", "tensorShape": {"dim": [{"size": "3"}, {"size": "3"}, {"size": "672"}, {"size": "1"}]}}}}}, {"name": "efficientnet-lite4/model/blocks_14/depthwise_conv2d/depthwise_bn_offset", "op": "Const", "attr": {"dtype": {"type": "DT_FLOAT"}, "value": {"tensor": {"dtype": "DT_FLOAT", "tensorShape": {"dim": [{"size": "672"}]}}}}}, {"name": "efficientnet-lite4/model/blocks_14/conv2d_1/Conv2D_weights", "op": "Const", "attr": {"value": {"tensor": {"dtype": "DT_FLOAT", "tensorShape": {"dim": [{"size": "1"}, {"size": "1"}, {"size": "672"}, {"size": "112"}]}}}, "dtype": {"type": "DT_FLOAT"}}}, {"name": "efficientnet-lite4/model/blocks_14/conv2d_1/Conv2D_bn_offset", "op": "Const", "attr": {"dtype": {"type": "DT_FLOAT"}, "value": {"tensor": {"dtype": "DT_FLOAT", "tensorShape": {"dim": [{"size": "112"}]}}}}}, {"name": "efficientnet-lite4/model/blocks_15/conv2d/Conv2D_weights", "op": "Const", "attr": {"dtype": {"type": "DT_FLOAT"}, "value": {"tensor": {"dtype": "DT_FLOAT", "tensorShape": {"dim": [{"size": "1"}, {"size": "1"}, {"size": "112"}, {"size": "672"}]}}}}}, {"name": "efficientnet-lite4/model/blocks_15/conv2d/Conv2D_bn_offset", "op": "Const", "attr": {"value": {"tensor": {"dtype": "DT_FLOAT", "tensorShape": {"dim": [{"size": "672"}]}}}, "dtype": {"type": "DT_FLOAT"}}}, {"name": "efficientnet-lite4/model/blocks_28/depthwise_conv2d/depthwise_weights", "op": "Const", "attr": {"dtype": {"type": "DT_FLOAT"}, "value": {"tensor": {"dtype": "DT_FLOAT", "tensorShape": {"dim": [{"size": "5"}, {"size": "5"}, {"size": "1632"}, {"size": "1"}]}}}}}, {"name": "efficientnet-lite4/model/blocks_15/depthwise_conv2d/depthwise_weights", "op": "Const", "attr": {"dtype": {"type": "DT_FLOAT"}, "value": {"tensor": {"dtype": "DT_FLOAT", "tensorShape": {"dim": [{"size": "5"}, {"size": "5"}, {"size": "672"}, {"size": "1"}]}}}}}, {"name": "efficientnet-lite4/model/blocks_15/depthwise_conv2d/depthwise_bn_offset", "op": "Const", "attr": {"dtype": {"type": "DT_FLOAT"}, "value": {"tensor": {"dtype": "DT_FLOAT", "tensorShape": {"dim": [{"size": "672"}]}}}}}, {"name": "efficientnet-lite4/model/blocks_15/conv2d_1/Conv2D_weights", "op": "Const", "attr": {"dtype": {"type": "DT_FLOAT"}, "value": {"tensor": {"dtype": "DT_FLOAT", "tensorShape": {"dim": [{"size": "1"}, {"size": "1"}, {"size": "672"}, {"size": "160"}]}}}}}, {"name": "efficientnet-lite4/model/blocks_15/conv2d_1/Conv2D_bn_offset", "op": "Const", "attr": {"dtype": {"type": "DT_FLOAT"}, "value": {"tensor": {"dtype": "DT_FLOAT", "tensorShape": {"dim": [{"size": "160"}]}}}}}, {"name": "efficientnet-lite4/model/blocks_16/conv2d/Conv2D_weights", "op": "Const", "attr": {"dtype": {"type": "DT_FLOAT"}, "value": {"tensor": {"dtype": "DT_FLOAT", "tensorShape": {"dim": [{"size": "1"}, {"size": "1"}, {"size": "160"}, {"size": "960"}]}}}}}, {"name": "efficientnet-lite4/model/blocks_28/depthwise_conv2d/depthwise_bn_offset", "op": "Const", "attr": {"value": {"tensor": {"dtype": "DT_FLOAT", "tensorShape": {"dim": [{"size": "1632"}]}}}, "dtype": {"type": "DT_FLOAT"}}}, {"name": "efficientnet-lite4/model/blocks_16/conv2d/Conv2D_bn_offset", "op": "Const", "attr": {"value": {"tensor": {"dtype": "DT_FLOAT", "tensorShape": {"dim": [{"size": "960"}]}}}, "dtype": {"type": "DT_FLOAT"}}}, {"name": "efficientnet-lite4/model/blocks_16/depthwise_conv2d/depthwise_weights", "op": "Const", "attr": {"dtype": {"type": "DT_FLOAT"}, "value": {"tensor": {"dtype": "DT_FLOAT", "tensorShape": {"dim": [{"size": "5"}, {"size": "5"}, {"size": "960"}, {"size": "1"}]}}}}}, {"name": "efficientnet-lite4/model/blocks_16/depthwise_conv2d/depthwise_bn_offset", "op": "Const", "attr": {"value": {"tensor": {"dtype": "DT_FLOAT", "tensorShape": {"dim": [{"size": "960"}]}}}, "dtype": {"type": "DT_FLOAT"}}}, {"name": "efficientnet-lite4/model/blocks_16/conv2d_1/Conv2D_weights", "op": "Const", "attr": {"value": {"tensor": {"dtype": "DT_FLOAT", "tensorShape": {"dim": [{"size": "1"}, {"size": "1"}, {"size": "960"}, {"size": "160"}]}}}, "dtype": {"type": "DT_FLOAT"}}}, {"name": "efficientnet-lite4/model/blocks_16/conv2d_1/Conv2D_bn_offset", "op": "Const", "attr": {"dtype": {"type": "DT_FLOAT"}, "value": {"tensor": {"dtype": "DT_FLOAT", "tensorShape": {"dim": [{"size": "160"}]}}}}}, {"name": "efficientnet-lite4/model/blocks_17/conv2d/Conv2D_weights", "op": "Const", "attr": {"dtype": {"type": "DT_FLOAT"}, "value": {"tensor": {"dtype": "DT_FLOAT", "tensorShape": {"dim": [{"size": "1"}, {"size": "1"}, {"size": "160"}, {"size": "960"}]}}}}}, {"name": "efficientnet-lite4/model/blocks_28/conv2d_1/Conv2D_weights", "op": "Const", "attr": {"dtype": {"type": "DT_FLOAT"}, "value": {"tensor": {"dtype": "DT_FLOAT", "tensorShape": {"dim": [{"size": "1"}, {"size": "1"}, {"size": "1632"}, {"size": "272"}]}}}}}, {"name": "efficientnet-lite4/model/blocks_17/conv2d/Conv2D_bn_offset", "op": "Const", "attr": {"dtype": {"type": "DT_FLOAT"}, "value": {"tensor": {"dtype": "DT_FLOAT", "tensorShape": {"dim": [{"size": "960"}]}}}}}, {"name": "efficientnet-lite4/model/blocks_17/depthwise_conv2d/depthwise_weights", "op": "Const", "attr": {"dtype": {"type": "DT_FLOAT"}, "value": {"tensor": {"dtype": "DT_FLOAT", "tensorShape": {"dim": [{"size": "5"}, {"size": "5"}, {"size": "960"}, {"size": "1"}]}}}}}, {"name": "efficientnet-lite4/model/blocks_17/depthwise_conv2d/depthwise_bn_offset", "op": "Const", "attr": {"value": {"tensor": {"dtype": "DT_FLOAT", "tensorShape": {"dim": [{"size": "960"}]}}}, "dtype": {"type": "DT_FLOAT"}}}, {"name": "efficientnet-lite4/model/blocks_17/conv2d_1/Conv2D_weights", "op": "Const", "attr": {"value": {"tensor": {"dtype": "DT_FLOAT", "tensorShape": {"dim": [{"size": "1"}, {"size": "1"}, {"size": "960"}, {"size": "160"}]}}}, "dtype": {"type": "DT_FLOAT"}}}, {"name": "efficientnet-lite4/model/blocks_28/conv2d_1/Conv2D_bn_offset", "op": "Const", "attr": {"dtype": {"type": "DT_FLOAT"}, "value": {"tensor": {"dtype": "DT_FLOAT", "tensorShape": {"dim": [{"size": "272"}]}}}}}, {"name": "efficientnet-lite4/model/blocks_17/conv2d_1/Conv2D_bn_offset", "op": "Const", "attr": {"value": {"tensor": {"dtype": "DT_FLOAT", "tensorShape": {"dim": [{"size": "160"}]}}}, "dtype": {"type": "DT_FLOAT"}}}, {"name": "efficientnet-lite4/model/blocks_18/conv2d/Conv2D_weights", "op": "Const", "attr": {"value": {"tensor": {"dtype": "DT_FLOAT", "tensorShape": {"dim": [{"size": "1"}, {"size": "1"}, {"size": "160"}, {"size": "960"}]}}}, "dtype": {"type": "DT_FLOAT"}}}, {"name": "efficientnet-lite4/model/blocks_18/conv2d/Conv2D_bn_offset", "op": "Const", "attr": {"dtype": {"type": "DT_FLOAT"}, "value": {"tensor": {"dtype": "DT_FLOAT", "tensorShape": {"dim": [{"size": "960"}]}}}}}, {"name": "efficientnet-lite4/model/blocks_18/depthwise_conv2d/depthwise_weights", "op": "Const", "attr": {"dtype": {"type": "DT_FLOAT"}, "value": {"tensor": {"dtype": "DT_FLOAT", "tensorShape": {"dim": [{"size": "5"}, {"size": "5"}, {"size": "960"}, {"size": "1"}]}}}}}, {"name": "efficientnet-lite4/model/blocks_18/depthwise_conv2d/depthwise_bn_offset", "op": "Const", "attr": {"value": {"tensor": {"dtype": "DT_FLOAT", "tensorShape": {"dim": [{"size": "960"}]}}}, "dtype": {"type": "DT_FLOAT"}}}, {"name": "efficientnet-lite4/model/blocks_18/conv2d_1/Conv2D_weights", "op": "Const", "attr": {"dtype": {"type": "DT_FLOAT"}, "value": {"tensor": {"dtype": "DT_FLOAT", "tensorShape": {"dim": [{"size": "1"}, {"size": "1"}, {"size": "960"}, {"size": "160"}]}}}}}, {"name": "efficientnet-lite4/model/blocks_18/conv2d_1/Conv2D_bn_offset", "op": "Const", "attr": {"dtype": {"type": "DT_FLOAT"}, "value": {"tensor": {"dtype": "DT_FLOAT", "tensorShape": {"dim": [{"size": "160"}]}}}}}, {"name": "efficientnet-lite4/model/blocks_19/conv2d/Conv2D_weights", "op": "Const", "attr": {"dtype": {"type": "DT_FLOAT"}, "value": {"tensor": {"dtype": "DT_FLOAT", "tensorShape": {"dim": [{"size": "1"}, {"size": "1"}, {"size": "160"}, {"size": "960"}]}}}}}, {"name": "efficientnet-lite4/model/blocks_19/conv2d/Conv2D_bn_offset", "op": "Const", "attr": {"value": {"tensor": {"dtype": "DT_FLOAT", "tensorShape": {"dim": [{"size": "960"}]}}}, "dtype": {"type": "DT_FLOAT"}}}, {"name": "efficientnet-lite4/model/blocks_19/depthwise_conv2d/depthwise_weights", "op": "Const", "attr": {"value": {"tensor": {"dtype": "DT_FLOAT", "tensorShape": {"dim": [{"size": "5"}, {"size": "5"}, {"size": "960"}, {"size": "1"}]}}}, "dtype": {"type": "DT_FLOAT"}}}, {"name": "efficientnet-lite4/model/blocks_19/depthwise_conv2d/depthwise_bn_offset", "op": "Const", "attr": {"value": {"tensor": {"dtype": "DT_FLOAT", "tensorShape": {"dim": [{"size": "960"}]}}}, "dtype": {"type": "DT_FLOAT"}}}, {"name": "efficientnet-lite4/model/blocks_19/conv2d_1/Conv2D_weights", "op": "Const", "attr": {"dtype": {"type": "DT_FLOAT"}, "value": {"tensor": {"dtype": "DT_FLOAT", "tensorShape": {"dim": [{"size": "1"}, {"size": "1"}, {"size": "960"}, {"size": "160"}]}}}}}, {"name": "efficientnet-lite4/model/blocks_19/conv2d_1/Conv2D_bn_offset", "op": "Const", "attr": {"value": {"tensor": {"dtype": "DT_FLOAT", "tensorShape": {"dim": [{"size": "160"}]}}}, "dtype": {"type": "DT_FLOAT"}}}, {"name": "efficientnet-lite4/model/blocks_20/conv2d/Conv2D_weights", "op": "Const", "attr": {"value": {"tensor": {"dtype": "DT_FLOAT", "tensorShape": {"dim": [{"size": "1"}, {"size": "1"}, {"size": "160"}, {"size": "960"}]}}}, "dtype": {"type": "DT_FLOAT"}}}, {"name": "efficientnet-lite4/model/blocks_20/conv2d/Conv2D_bn_offset", "op": "Const", "attr": {"dtype": {"type": "DT_FLOAT"}, "value": {"tensor": {"dtype": "DT_FLOAT", "tensorShape": {"dim": [{"size": "960"}]}}}}}, {"name": "efficientnet-lite4/model/blocks_20/depthwise_conv2d/depthwise_weights", "op": "Const", "attr": {"dtype": {"type": "DT_FLOAT"}, "value": {"tensor": {"dtype": "DT_FLOAT", "tensorShape": {"dim": [{"size": "5"}, {"size": "5"}, {"size": "960"}, {"size": "1"}]}}}}}, {"name": "efficientnet-lite4/model/blocks_20/depthwise_conv2d/depthwise_bn_offset", "op": "Const", "attr": {"dtype": {"type": "DT_FLOAT"}, "value": {"tensor": {"dtype": "DT_FLOAT", "tensorShape": {"dim": [{"size": "960"}]}}}}}, {"name": "efficientnet-lite4/model/blocks_20/conv2d_1/Conv2D_weights", "op": "Const", "attr": {"value": {"tensor": {"dtype": "DT_FLOAT", "tensorShape": {"dim": [{"size": "1"}, {"size": "1"}, {"size": "960"}, {"size": "160"}]}}}, "dtype": {"type": "DT_FLOAT"}}}, {"name": "efficientnet-lite4/model/blocks_20/conv2d_1/Conv2D_bn_offset", "op": "Const", "attr": {"dtype": {"type": "DT_FLOAT"}, "value": {"tensor": {"dtype": "DT_FLOAT", "tensorShape": {"dim": [{"size": "160"}]}}}}}, {"name": "efficientnet-lite4/model/blocks_21/conv2d/Conv2D_weights", "op": "Const", "attr": {"value": {"tensor": {"dtype": "DT_FLOAT", "tensorShape": {"dim": [{"size": "1"}, {"size": "1"}, {"size": "160"}, {"size": "960"}]}}}, "dtype": {"type": "DT_FLOAT"}}}, {"name": "efficientnet-lite4/model/blocks_21/conv2d/Conv2D_bn_offset", "op": "Const", "attr": {"dtype": {"type": "DT_FLOAT"}, "value": {"tensor": {"dtype": "DT_FLOAT", "tensorShape": {"dim": [{"size": "960"}]}}}}}, {"name": "efficientnet-lite4/model/blocks_29/conv2d/Conv2D_weights", "op": "Const", "attr": {"dtype": {"type": "DT_FLOAT"}, "value": {"tensor": {"dtype": "DT_FLOAT", "tensorShape": {"dim": [{"size": "1"}, {"size": "1"}, {"size": "272"}, {"size": "1632"}]}}}}}, {"name": "efficientnet-lite4/model/blocks_21/depthwise_conv2d/depthwise_weights", "op": "Const", "attr": {"dtype": {"type": "DT_FLOAT"}, "value": {"tensor": {"dtype": "DT_FLOAT", "tensorShape": {"dim": [{"size": "5"}, {"size": "5"}, {"size": "960"}, {"size": "1"}]}}}}}, {"name": "efficientnet-lite4/model/blocks_21/depthwise_conv2d/depthwise_bn_offset", "op": "Const", "attr": {"dtype": {"type": "DT_FLOAT"}, "value": {"tensor": {"dtype": "DT_FLOAT", "tensorShape": {"dim": [{"size": "960"}]}}}}}, {"name": "efficientnet-lite4/model/blocks_21/conv2d_1/Conv2D_weights", "op": "Const", "attr": {"dtype": {"type": "DT_FLOAT"}, "value": {"tensor": {"dtype": "DT_FLOAT", "tensorShape": {"dim": [{"size": "1"}, {"size": "1"}, {"size": "960"}, {"size": "272"}]}}}}}, {"name": "efficientnet-lite4/model/blocks_21/conv2d_1/Conv2D_bn_offset", "op": "Const", "attr": {"dtype": {"type": "DT_FLOAT"}, "value": {"tensor": {"dtype": "DT_FLOAT", "tensorShape": {"dim": [{"size": "272"}]}}}}}, {"name": "efficientnet-lite4/model/blocks_22/conv2d/Conv2D_weights", "op": "Const", "attr": {"dtype": {"type": "DT_FLOAT"}, "value": {"tensor": {"dtype": "DT_FLOAT", "tensorShape": {"dim": [{"size": "1"}, {"size": "1"}, {"size": "272"}, {"size": "1632"}]}}}}}, {"name": "efficientnet-lite4/model/blocks_29/conv2d/Conv2D_bn_offset", "op": "Const", "attr": {"value": {"tensor": {"dtype": "DT_FLOAT", "tensorShape": {"dim": [{"size": "1632"}]}}}, "dtype": {"type": "DT_FLOAT"}}}, {"name": "efficientnet-lite4/model/blocks_22/conv2d/Conv2D_bn_offset", "op": "Const", "attr": {"value": {"tensor": {"dtype": "DT_FLOAT", "tensorShape": {"dim": [{"size": "1632"}]}}}, "dtype": {"type": "DT_FLOAT"}}}, {"name": "efficientnet-lite4/model/blocks_22/depthwise_conv2d/depthwise_weights", "op": "Const", "attr": {"dtype": {"type": "DT_FLOAT"}, "value": {"tensor": {"dtype": "DT_FLOAT", "tensorShape": {"dim": [{"size": "5"}, {"size": "5"}, {"size": "1632"}, {"size": "1"}]}}}}}, {"name": "efficientnet-lite4/model/blocks_22/depthwise_conv2d/depthwise_bn_offset", "op": "Const", "attr": {"dtype": {"type": "DT_FLOAT"}, "value": {"tensor": {"dtype": "DT_FLOAT", "tensorShape": {"dim": [{"size": "1632"}]}}}}}, {"name": "efficientnet-lite4/model/blocks_22/conv2d_1/Conv2D_weights", "op": "Const", "attr": {"value": {"tensor": {"dtype": "DT_FLOAT", "tensorShape": {"dim": [{"size": "1"}, {"size": "1"}, {"size": "1632"}, {"size": "272"}]}}}, "dtype": {"type": "DT_FLOAT"}}}, {"name": "efficientnet-lite4/model/blocks_22/conv2d_1/Conv2D_bn_offset", "op": "Const", "attr": {"dtype": {"type": "DT_FLOAT"}, "value": {"tensor": {"dtype": "DT_FLOAT", "tensorShape": {"dim": [{"size": "272"}]}}}}}, {"name": "efficientnet-lite4/model/blocks_23/conv2d/Conv2D_weights", "op": "Const", "attr": {"dtype": {"type": "DT_FLOAT"}, "value": {"tensor": {"dtype": "DT_FLOAT", "tensorShape": {"dim": [{"size": "1"}, {"size": "1"}, {"size": "272"}, {"size": "1632"}]}}}}}, {"name": "efficientnet-lite4/model/blocks_29/depthwise_conv2d/depthwise_weights", "op": "Const", "attr": {"dtype": {"type": "DT_FLOAT"}, "value": {"tensor": {"dtype": "DT_FLOAT", "tensorShape": {"dim": [{"size": "3"}, {"size": "3"}, {"size": "1632"}, {"size": "1"}]}}}}}, {"name": "efficientnet-lite4/model/blocks_23/conv2d/Conv2D_bn_offset", "op": "Const", "attr": {"value": {"tensor": {"dtype": "DT_FLOAT", "tensorShape": {"dim": [{"size": "1632"}]}}}, "dtype": {"type": "DT_FLOAT"}}}, {"name": "efficientnet-lite4/model/blocks_23/depthwise_conv2d/depthwise_weights", "op": "Const", "attr": {"value": {"tensor": {"dtype": "DT_FLOAT", "tensorShape": {"dim": [{"size": "5"}, {"size": "5"}, {"size": "1632"}, {"size": "1"}]}}}, "dtype": {"type": "DT_FLOAT"}}}, {"name": "efficientnet-lite4/model/blocks_23/depthwise_conv2d/depthwise_bn_offset", "op": "Const", "attr": {"value": {"tensor": {"dtype": "DT_FLOAT", "tensorShape": {"dim": [{"size": "1632"}]}}}, "dtype": {"type": "DT_FLOAT"}}}, {"name": "efficientnet-lite4/model/blocks_23/conv2d_1/Conv2D_weights", "op": "Const", "attr": {"dtype": {"type": "DT_FLOAT"}, "value": {"tensor": {"dtype": "DT_FLOAT", "tensorShape": {"dim": [{"size": "1"}, {"size": "1"}, {"size": "1632"}, {"size": "272"}]}}}}}, {"name": "efficientnet-lite4/model/blocks_29/depthwise_conv2d/depthwise_bn_offset", "op": "Const", "attr": {"value": {"tensor": {"dtype": "DT_FLOAT", "tensorShape": {"dim": [{"size": "1632"}]}}}, "dtype": {"type": "DT_FLOAT"}}}, {"name": "efficientnet-lite4/model/blocks_23/conv2d_1/Conv2D_bn_offset", "op": "Const", "attr": {"dtype": {"type": "DT_FLOAT"}, "value": {"tensor": {"dtype": "DT_FLOAT", "tensorShape": {"dim": [{"size": "272"}]}}}}}, {"name": "efficientnet-lite4/model/blocks_24/conv2d/Conv2D_weights", "op": "Const", "attr": {"value": {"tensor": {"dtype": "DT_FLOAT", "tensorShape": {"dim": [{"size": "1"}, {"size": "1"}, {"size": "272"}, {"size": "1632"}]}}}, "dtype": {"type": "DT_FLOAT"}}}, {"name": "efficientnet-lite4/model/blocks_24/conv2d/Conv2D_bn_offset", "op": "Const", "attr": {"dtype": {"type": "DT_FLOAT"}, "value": {"tensor": {"dtype": "DT_FLOAT", "tensorShape": {"dim": [{"size": "1632"}]}}}}}, {"name": "efficientnet-lite4/model/blocks_24/depthwise_conv2d/depthwise_weights", "op": "Const", "attr": {"dtype": {"type": "DT_FLOAT"}, "value": {"tensor": {"dtype": "DT_FLOAT", "tensorShape": {"dim": [{"size": "5"}, {"size": "5"}, {"size": "1632"}, {"size": "1"}]}}}}}, {"name": "efficientnet-lite4/model/blocks_24/depthwise_conv2d/depthwise_bn_offset", "op": "Const", "attr": {"value": {"tensor": {"dtype": "DT_FLOAT", "tensorShape": {"dim": [{"size": "1632"}]}}}, "dtype": {"type": "DT_FLOAT"}}}, {"name": "efficientnet-lite4/model/blocks_24/conv2d_1/Conv2D_weights", "op": "Const", "attr": {"value": {"tensor": {"dtype": "DT_FLOAT", "tensorShape": {"dim": [{"size": "1"}, {"size": "1"}, {"size": "1632"}, {"size": "272"}]}}}, "dtype": {"type": "DT_FLOAT"}}}, {"name": "efficientnet-lite4/model/blocks_29/conv2d_1/Conv2D_weights", "op": "Const", "attr": {"value": {"tensor": {"dtype": "DT_FLOAT", "tensorShape": {"dim": [{"size": "1"}, {"size": "1"}, {"size": "1632"}, {"size": "448"}]}}}, "dtype": {"type": "DT_FLOAT"}}}, {"name": "efficientnet-lite4/model/blocks_24/conv2d_1/Conv2D_bn_offset", "op": "Const", "attr": {"value": {"tensor": {"dtype": "DT_FLOAT", "tensorShape": {"dim": [{"size": "272"}]}}}, "dtype": {"type": "DT_FLOAT"}}}, {"name": "efficientnet-lite4/model/blocks_25/conv2d/Conv2D_weights", "op": "Const", "attr": {"value": {"tensor": {"dtype": "DT_FLOAT", "tensorShape": {"dim": [{"size": "1"}, {"size": "1"}, {"size": "272"}, {"size": "1632"}]}}}, "dtype": {"type": "DT_FLOAT"}}}, {"name": "efficientnet-lite4/model/blocks_25/conv2d/Conv2D_bn_offset", "op": "Const", "attr": {"value": {"tensor": {"dtype": "DT_FLOAT", "tensorShape": {"dim": [{"size": "1632"}]}}}, "dtype": {"type": "DT_FLOAT"}}}, {"name": "efficientnet-lite4/model/blocks_29/conv2d_1/Conv2D_bn_offset", "op": "Const", "attr": {"dtype": {"type": "DT_FLOAT"}, "value": {"tensor": {"dtype": "DT_FLOAT", "tensorShape": {"dim": [{"size": "448"}]}}}}}, {"name": "efficientnet-lite4/model/blocks_25/depthwise_conv2d/depthwise_weights", "op": "Const", "attr": {"value": {"tensor": {"dtype": "DT_FLOAT", "tensorShape": {"dim": [{"size": "5"}, {"size": "5"}, {"size": "1632"}, {"size": "1"}]}}}, "dtype": {"type": "DT_FLOAT"}}}, {"name": "efficientnet-lite4/model/blocks_25/depthwise_conv2d/depthwise_bn_offset", "op": "Const", "attr": {"value": {"tensor": {"dtype": "DT_FLOAT", "tensorShape": {"dim": [{"size": "1632"}]}}}, "dtype": {"type": "DT_FLOAT"}}}, {"name": "efficientnet-lite4/model/blocks_25/conv2d_1/Conv2D_weights", "op": "Const", "attr": {"value": {"tensor": {"dtype": "DT_FLOAT", "tensorShape": {"dim": [{"size": "1"}, {"size": "1"}, {"size": "1632"}, {"size": "272"}]}}}, "dtype": {"type": "DT_FLOAT"}}}, {"name": "efficientnet-lite4/model/blocks_25/conv2d_1/Conv2D_bn_offset", "op": "Const", "attr": {"value": {"tensor": {"dtype": "DT_FLOAT", "tensorShape": {"dim": [{"size": "272"}]}}}, "dtype": {"type": "DT_FLOAT"}}}, {"name": "efficientnet-lite4/model/blocks_26/conv2d/Conv2D_weights", "op": "Const", "attr": {"dtype": {"type": "DT_FLOAT"}, "value": {"tensor": {"dtype": "DT_FLOAT", "tensorShape": {"dim": [{"size": "1"}, {"size": "1"}, {"size": "272"}, {"size": "1632"}]}}}}}, {"name": "efficientnet-lite4/model/head/conv2d/Conv2D_weights", "op": "Const", "attr": {"dtype": {"type": "DT_FLOAT"}, "value": {"tensor": {"dtype": "DT_FLOAT", "tensorShape": {"dim": [{"size": "1"}, {"size": "1"}, {"size": "448"}, {"size": "1280"}]}}}}}, {"name": "efficientnet-lite4/model/blocks_26/conv2d/Conv2D_bn_offset", "op": "Const", "attr": {"dtype": {"type": "DT_FLOAT"}, "value": {"tensor": {"dtype": "DT_FLOAT", "tensorShape": {"dim": [{"size": "1632"}]}}}}}, {"name": "mul", "op": "Mul", "input": ["images", "Const"], "attr": {"T": {"type": "DT_FLOAT"}}}, {"name": "add", "op": "AddV2", "input": ["mul", "Const_1"], "attr": {"T": {"type": "DT_FLOAT"}}}, {"name": "efficientnet-lite4/model/stem/Relu6", "op": "_FusedConv2D", "input": ["add", "efficientnet-lite4/model/stem/conv2d/Conv2D_weights", "efficientnet-lite4/model/stem/conv2d/Conv2D_bn_offset"], "device": "/device:CPU:0", "attr": {"dilations": {"list": {"i": ["1", "1", "1", "1"]}}, "T": {"type": "DT_FLOAT"}, "epsilon": {"f": 0.0}, "explicit_paddings": {"list": {}}, "padding": {"s": "U0FNRQ=="}, "use_cudnn_on_gpu": {"b": true}, "strides": {"list": {"i": ["1", "2", "2", "1"]}}, "num_args": {"i": "1"}, "fused_ops": {"list": {"s": ["Qmlhc0FkZA==", "UmVsdTY="]}}, "data_format": {"s": "TkhXQw=="}}}, {"name": "efficientnet-lite4/model/blocks_0/depthwise_conv2d/depthwise", "op": "FusedDepthwiseConv2dNative", "input": ["efficientnet-lite4/model/stem/Relu6", "efficientnet-lite4/model/blocks_0/depthwise_conv2d/depthwise_weights", "efficientnet-lite4/model/blocks_0/depthwise_conv2d/depthwise_bn_offset"], "attr": {"explicit_paddings": {"list": {}}, "padding": {"s": "U0FNRQ=="}, "data_format": {"s": "TkhXQw=="}, "fused_ops": {"list": {"s": ["Qmlhc0FkZA==", "UmVsdTY="]}}, "strides": {"list": {"i": ["1", "1", "1", "1"]}}, "num_args": {"i": "1"}, "T": {"type": "DT_FLOAT"}, "dilations": {"list": {"i": ["1", "1", "1", "1"]}}}}, {"name": "efficientnet-lite4/model/blocks_0/tpu_batch_normalization_1/FusedBatchNormV3", "op": "_FusedConv2D", "input": ["efficientnet-lite4/model/blocks_0/depthwise_conv2d/depthwise", "efficientnet-lite4/model/blocks_0/conv2d/Conv2D_weights", "efficientnet-lite4/model/blocks_0/conv2d/Conv2D_bn_offset"], "device": "/device:CPU:0", "attr": {"explicit_paddings": {"list": {}}, "use_cudnn_on_gpu": {"b": true}, "strides": {"list": {"i": ["1", "1", "1", "1"]}}, "fused_ops": {"list": {"s": ["Qmlhc0FkZA=="]}}, "dilations": {"list": {"i": ["1", "1", "1", "1"]}}, "epsilon": {"f": 0.0}, "num_args": {"i": "1"}, "data_format": {"s": "TkhXQw=="}, "padding": {"s": "U0FNRQ=="}, "T": {"type": "DT_FLOAT"}}}, {"name": "efficientnet-lite4/model/blocks_1/Relu6", "op": "_FusedConv2D", "input": ["efficientnet-lite4/model/blocks_0/tpu_batch_normalization_1/FusedBatchNormV3", "efficientnet-lite4/model/blocks_1/conv2d/Conv2D_weights", "efficientnet-lite4/model/blocks_1/conv2d/Conv2D_bn_offset"], "device": "/device:CPU:0", "attr": {"dilations": {"list": {"i": ["1", "1", "1", "1"]}}, "padding": {"s": "U0FNRQ=="}, "fused_ops": {"list": {"s": ["Qmlhc0FkZA==", "UmVsdTY="]}}, "T": {"type": "DT_FLOAT"}, "strides": {"list": {"i": ["1", "1", "1", "1"]}}, "num_args": {"i": "1"}, "epsilon": {"f": 0.0}, "explicit_paddings": {"list": {}}, "data_format": {"s": "TkhXQw=="}, "use_cudnn_on_gpu": {"b": true}}}, {"name": "efficientnet-lite4/model/blocks_1/depthwise_conv2d/depthwise", "op": "FusedDepthwiseConv2dNative", "input": ["efficientnet-lite4/model/blocks_1/Relu6", "efficientnet-lite4/model/blocks_1/depthwise_conv2d/depthwise_weights", "efficientnet-lite4/model/blocks_1/depthwise_conv2d/depthwise_bn_offset"], "attr": {"data_format": {"s": "TkhXQw=="}, "padding": {"s": "U0FNRQ=="}, "T": {"type": "DT_FLOAT"}, "dilations": {"list": {"i": ["1", "1", "1", "1"]}}, "fused_ops": {"list": {"s": ["Qmlhc0FkZA==", "UmVsdTY="]}}, "strides": {"list": {"i": ["1", "2", "2", "1"]}}, "num_args": {"i": "1"}, "explicit_paddings": {"list": {}}}}, {"name": "efficientnet-lite4/model/blocks_1/tpu_batch_normalization_2/FusedBatchNormV3", "op": "_FusedConv2D", "input": ["efficientnet-lite4/model/blocks_1/depthwise_conv2d/depthwise", "efficientnet-lite4/model/blocks_1/conv2d_1/Conv2D_weights", "efficientnet-lite4/model/blocks_1/conv2d_1/Conv2D_bn_offset"], "device": "/device:CPU:0", "attr": {"explicit_paddings": {"list": {}}, "fused_ops": {"list": {"s": ["Qmlhc0FkZA=="]}}, "num_args": {"i": "1"}, "dilations": {"list": {"i": ["1", "1", "1", "1"]}}, "padding": {"s": "U0FNRQ=="}, "strides": {"list": {"i": ["1", "1", "1", "1"]}}, "data_format": {"s": "TkhXQw=="}, "epsilon": {"f": 0.0}, "use_cudnn_on_gpu": {"b": true}, "T": {"type": "DT_FLOAT"}}}, {"name": "efficientnet-lite4/model/blocks_2/Relu6", "op": "_FusedConv2D", "input": ["efficientnet-lite4/model/blocks_1/tpu_batch_normalization_2/FusedBatchNormV3", "efficientnet-lite4/model/blocks_2/conv2d/Conv2D_weights", "efficientnet-lite4/model/blocks_2/conv2d/Conv2D_bn_offset"], "device": "/device:CPU:0", "attr": {"dilations": {"list": {"i": ["1", "1", "1", "1"]}}, "T": {"type": "DT_FLOAT"}, "padding": {"s": "U0FNRQ=="}, "fused_ops": {"list": {"s": ["Qmlhc0FkZA==", "UmVsdTY="]}}, "explicit_paddings": {"list": {}}, "use_cudnn_on_gpu": {"b": true}, "num_args": {"i": "1"}, "epsilon": {"f": 0.0}, "strides": {"list": {"i": ["1", "1", "1", "1"]}}, "data_format": {"s": "TkhXQw=="}}}, {"name": "efficientnet-lite4/model/blocks_2/depthwise_conv2d/depthwise", "op": "FusedDepthwiseConv2dNative", "input": ["efficientnet-lite4/model/blocks_2/Relu6", "efficientnet-lite4/model/blocks_2/depthwise_conv2d/depthwise_weights", "efficientnet-lite4/model/blocks_2/depthwise_conv2d/depthwise_bn_offset"], "attr": {"fused_ops": {"list": {"s": ["Qmlhc0FkZA==", "UmVsdTY="]}}, "padding": {"s": "U0FNRQ=="}, "explicit_paddings": {"list": {}}, "data_format": {"s": "TkhXQw=="}, "T": {"type": "DT_FLOAT"}, "num_args": {"i": "1"}, "dilations": {"list": {"i": ["1", "1", "1", "1"]}}, "strides": {"list": {"i": ["1", "1", "1", "1"]}}}}, {"name": "efficientnet-lite4/model/blocks_2/tpu_batch_normalization_2/FusedBatchNormV3", "op": "_FusedConv2D", "input": ["efficientnet-lite4/model/blocks_2/depthwise_conv2d/depthwise", "efficientnet-lite4/model/blocks_2/conv2d_1/Conv2D_weights", "efficientnet-lite4/model/blocks_2/conv2d_1/Conv2D_bn_offset"], "device": "/device:CPU:0", "attr": {"num_args": {"i": "1"}, "strides": {"list": {"i": ["1", "1", "1", "1"]}}, "dilations": {"list": {"i": ["1", "1", "1", "1"]}}, "explicit_paddings": {"list": {}}, "T": {"type": "DT_FLOAT"}, "fused_ops": {"list": {"s": ["Qmlhc0FkZA=="]}}, "data_format": {"s": "TkhXQw=="}, "use_cudnn_on_gpu": {"b": true}, "padding": {"s": "U0FNRQ=="}, "epsilon": {"f": 0.0}}}, {"name": "efficientnet-lite4/model/blocks_2/div", "op": "Mul", "input": ["efficientnet-lite4/model/blocks_2/tpu_batch_normalization_2/FusedBatchNormV3", "ConstantFolding/efficientnet-lite4/model/blocks_2/div_recip"], "attr": {"T": {"type": "DT_FLOAT"}}}, {"name": "efficientnet-lite4/model/blocks_2/Shape", "op": "Shape", "input": ["efficientnet-lite4/model/blocks_2/tpu_batch_normalization_2/FusedBatchNormV3"], "attr": {"T": {"type": "DT_FLOAT"}, "out_type": {"type": "DT_INT32"}}}, {"name": "efficientnet-lite4/model/blocks_2/strided_slice", "op": "StridedSlice", "input": ["efficientnet-lite4/model/blocks_2/Shape", "efficientnet-lite4/model/blocks_2/strided_slice/stack", "efficientnet-lite4/model/blocks_2/strided_slice/stack_1", "efficientnet-lite4/model/blocks_2/strided_slice/stack_2"], "attr": {"new_axis_mask": {"i": "0"}, "shrink_axis_mask": {"i": "1"}, "end_mask": {"i": "0"}, "T": {"type": "DT_INT32"}, "Index": {"type": "DT_INT32"}, "begin_mask": {"i": "0"}, "ellipsis_mask": {"i": "0"}}}, {"name": "efficientnet-lite4/model/blocks_2/random_uniform/shape", "op": "Pack", "input": ["efficientnet-lite4/model/blocks_2/strided_slice", "efficientnet-lite4/model/blocks_2/random_uniform/shape/1", "efficientnet-lite4/model/blocks_2/random_uniform/shape/2", "efficientnet-lite4/model/blocks_2/random_uniform/shape/3"], "attr": {"axis": {"i": "0"}, "N": {"i": "4"}, "T": {"type": "DT_INT32"}}}, {"name": "efficientnet-lite4/model/blocks_2/random_uniform/RandomUniform", "op": "RandomUniform", "input": ["efficientnet-lite4/model/blocks_2/random_uniform/shape"], "attr": {"dtype": {"type": "DT_FLOAT"}, "seed": {"i": "0"}, "seed2": {"i": "0"}, "T": {"type": "DT_INT32"}}}, {"name": "efficientnet-lite4/model/blocks_2/add", "op": "AddV2", "input": ["efficientnet-lite4/model/blocks_2/add/x", "efficientnet-lite4/model/blocks_2/random_uniform/RandomUniform"], "attr": {"T": {"type": "DT_FLOAT"}}}, {"name": "efficientnet-lite4/model/blocks_2/Floor", "op": "Floor", "input": ["efficientnet-lite4/model/blocks_2/add"], "attr": {"T": {"type": "DT_FLOAT"}}}, {"name": "efficientnet-lite4/model/blocks_2/mul", "op": "Mul", "input": ["efficientnet-lite4/model/blocks_2/div", "efficientnet-lite4/model/blocks_2/Floor"], "attr": {"T": {"type": "DT_FLOAT"}}}, {"name": "efficientnet-lite4/model/blocks_2/Add_1", "op": "Add", "input": ["efficientnet-lite4/model/blocks_2/mul", "efficientnet-lite4/model/blocks_1/tpu_batch_normalization_2/FusedBatchNormV3"], "attr": {"T": {"type": "DT_FLOAT"}}}, {"name": "efficientnet-lite4/model/blocks_3/Relu6", "op": "_FusedConv2D", "input": ["efficientnet-lite4/model/blocks_2/Add_1", "efficientnet-lite4/model/blocks_3/conv2d/Conv2D_weights", "efficientnet-lite4/model/blocks_3/conv2d/Conv2D_bn_offset"], "device": "/device:CPU:0", "attr": {"explicit_paddings": {"list": {}}, "strides": {"list": {"i": ["1", "1", "1", "1"]}}, "padding": {"s": "U0FNRQ=="}, "use_cudnn_on_gpu": {"b": true}, "fused_ops": {"list": {"s": ["Qmlhc0FkZA==", "UmVsdTY="]}}, "T": {"type": "DT_FLOAT"}, "num_args": {"i": "1"}, "epsilon": {"f": 0.0}, "data_format": {"s": "TkhXQw=="}, "dilations": {"list": {"i": ["1", "1", "1", "1"]}}}}, {"name": "efficientnet-lite4/model/blocks_3/depthwise_conv2d/depthwise", "op": "FusedDepthwiseConv2dNative", "input": ["efficientnet-lite4/model/blocks_3/Relu6", "efficientnet-lite4/model/blocks_3/depthwise_conv2d/depthwise_weights", "efficientnet-lite4/model/blocks_3/depthwise_conv2d/depthwise_bn_offset"], "attr": {"padding": {"s": "U0FNRQ=="}, "explicit_paddings": {"list": {}}, "strides": {"list": {"i": ["1", "1", "1", "1"]}}, "data_format": {"s": "TkhXQw=="}, "fused_ops": {"list": {"s": ["Qmlhc0FkZA==", "UmVsdTY="]}}, "T": {"type": "DT_FLOAT"}, "num_args": {"i": "1"}, "dilations": {"list": {"i": ["1", "1", "1", "1"]}}}}, {"name": "efficientnet-lite4/model/blocks_3/tpu_batch_normalization_2/FusedBatchNormV3", "op": "_FusedConv2D", "input": ["efficientnet-lite4/model/blocks_3/depthwise_conv2d/depthwise", "efficientnet-lite4/model/blocks_3/conv2d_1/Conv2D_weights", "efficientnet-lite4/model/blocks_3/conv2d_1/Conv2D_bn_offset"], "device": "/device:CPU:0", "attr": {"fused_ops": {"list": {"s": ["Qmlhc0FkZA=="]}}, "T": {"type": "DT_FLOAT"}, "epsilon": {"f": 0.0}, "explicit_paddings": {"list": {}}, "data_format": {"s": "TkhXQw=="}, "padding": {"s": "U0FNRQ=="}, "num_args": {"i": "1"}, "dilations": {"list": {"i": ["1", "1", "1", "1"]}}, "strides": {"list": {"i": ["1", "1", "1", "1"]}}, "use_cudnn_on_gpu": {"b": true}}}, {"name": "efficientnet-lite4/model/blocks_3/div", "op": "Mul", "input": ["efficientnet-lite4/model/blocks_3/tpu_batch_normalization_2/FusedBatchNormV3", "ConstantFolding/efficientnet-lite4/model/blocks_3/div_recip"], "attr": {"T": {"type": "DT_FLOAT"}}}, {"name": "efficientnet-lite4/model/blocks_3/Shape", "op": "Shape", "input": ["efficientnet-lite4/model/blocks_3/tpu_batch_normalization_2/FusedBatchNormV3"], "attr": {"T": {"type": "DT_FLOAT"}, "out_type": {"type": "DT_INT32"}}}, {"name": "efficientnet-lite4/model/blocks_3/strided_slice", "op": "StridedSlice", "input": ["efficientnet-lite4/model/blocks_3/Shape", "efficientnet-lite4/model/blocks_3/strided_slice/stack", "efficientnet-lite4/model/blocks_3/strided_slice/stack_1", "efficientnet-lite4/model/blocks_3/strided_slice/stack_2"], "attr": {"new_axis_mask": {"i": "0"}, "begin_mask": {"i": "0"}, "T": {"type": "DT_INT32"}, "ellipsis_mask": {"i": "0"}, "Index": {"type": "DT_INT32"}, "end_mask": {"i": "0"}, "shrink_axis_mask": {"i": "1"}}}, {"name": "efficientnet-lite4/model/blocks_3/random_uniform/shape", "op": "Pack", "input": ["efficientnet-lite4/model/blocks_3/strided_slice", "efficientnet-lite4/model/blocks_3/random_uniform/shape/1", "efficientnet-lite4/model/blocks_3/random_uniform/shape/2", "efficientnet-lite4/model/blocks_3/random_uniform/shape/3"], "attr": {"N": {"i": "4"}, "axis": {"i": "0"}, "T": {"type": "DT_INT32"}}}, {"name": "efficientnet-lite4/model/blocks_3/random_uniform/RandomUniform", "op": "RandomUniform", "input": ["efficientnet-lite4/model/blocks_3/random_uniform/shape"], "attr": {"T": {"type": "DT_INT32"}, "dtype": {"type": "DT_FLOAT"}, "seed2": {"i": "0"}, "seed": {"i": "0"}}}, {"name": "efficientnet-lite4/model/blocks_3/add", "op": "AddV2", "input": ["efficientnet-lite4/model/blocks_3/add/x", "efficientnet-lite4/model/blocks_3/random_uniform/RandomUniform"], "attr": {"T": {"type": "DT_FLOAT"}}}, {"name": "efficientnet-lite4/model/blocks_3/Floor", "op": "Floor", "input": ["efficientnet-lite4/model/blocks_3/add"], "attr": {"T": {"type": "DT_FLOAT"}}}, {"name": "efficientnet-lite4/model/blocks_3/mul", "op": "Mul", "input": ["efficientnet-lite4/model/blocks_3/div", "efficientnet-lite4/model/blocks_3/Floor"], "attr": {"T": {"type": "DT_FLOAT"}}}, {"name": "efficientnet-lite4/model/blocks_3/Add_1", "op": "Add", "input": ["efficientnet-lite4/model/blocks_3/mul", "efficientnet-lite4/model/blocks_2/Add_1"], "attr": {"T": {"type": "DT_FLOAT"}}}, {"name": "efficientnet-lite4/model/blocks_4/Relu6", "op": "_FusedConv2D", "input": ["efficientnet-lite4/model/blocks_3/Add_1", "efficientnet-lite4/model/blocks_4/conv2d/Conv2D_weights", "efficientnet-lite4/model/blocks_4/conv2d/Conv2D_bn_offset"], "device": "/device:CPU:0", "attr": {"padding": {"s": "U0FNRQ=="}, "T": {"type": "DT_FLOAT"}, "epsilon": {"f": 0.0}, "use_cudnn_on_gpu": {"b": true}, "data_format": {"s": "TkhXQw=="}, "num_args": {"i": "1"}, "dilations": {"list": {"i": ["1", "1", "1", "1"]}}, "explicit_paddings": {"list": {}}, "strides": {"list": {"i": ["1", "1", "1", "1"]}}, "fused_ops": {"list": {"s": ["Qmlhc0FkZA==", "UmVsdTY="]}}}}, {"name": "efficientnet-lite4/model/blocks_4/depthwise_conv2d/depthwise", "op": "FusedDepthwiseConv2dNative", "input": ["efficientnet-lite4/model/blocks_4/Relu6", "efficientnet-lite4/model/blocks_4/depthwise_conv2d/depthwise_weights", "efficientnet-lite4/model/blocks_4/depthwise_conv2d/depthwise_bn_offset"], "attr": {"dilations": {"list": {"i": ["1", "1", "1", "1"]}}, "num_args": {"i": "1"}, "fused_ops": {"list": {"s": ["Qmlhc0FkZA==", "UmVsdTY="]}}, "padding": {"s": "U0FNRQ=="}, "strides": {"list": {"i": ["1", "1", "1", "1"]}}, "explicit_paddings": {"list": {}}, "T": {"type": "DT_FLOAT"}, "data_format": {"s": "TkhXQw=="}}}, {"name": "efficientnet-lite4/model/blocks_4/tpu_batch_normalization_2/FusedBatchNormV3", "op": "_FusedConv2D", "input": ["efficientnet-lite4/model/blocks_4/depthwise_conv2d/depthwise", "efficientnet-lite4/model/blocks_4/conv2d_1/Conv2D_weights", "efficientnet-lite4/model/blocks_4/conv2d_1/Conv2D_bn_offset"], "device": "/device:CPU:0", "attr": {"num_args": {"i": "1"}, "data_format": {"s": "TkhXQw=="}, "dilations": {"list": {"i": ["1", "1", "1", "1"]}}, "epsilon": {"f": 0.0}, "strides": {"list": {"i": ["1", "1", "1", "1"]}}, "use_cudnn_on_gpu": {"b": true}, "fused_ops": {"list": {"s": ["Qmlhc0FkZA=="]}}, "padding": {"s": "U0FNRQ=="}, "explicit_paddings": {"list": {}}, "T": {"type": "DT_FLOAT"}}}, {"name": "efficientnet-lite4/model/blocks_4/div", "op": "Mul", "input": ["efficientnet-lite4/model/blocks_4/tpu_batch_normalization_2/FusedBatchNormV3", "ConstantFolding/efficientnet-lite4/model/blocks_4/div_recip"], "attr": {"T": {"type": "DT_FLOAT"}}}, {"name": "efficientnet-lite4/model/blocks_4/Shape", "op": "Shape", "input": ["efficientnet-lite4/model/blocks_4/tpu_batch_normalization_2/FusedBatchNormV3"], "attr": {"T": {"type": "DT_FLOAT"}, "out_type": {"type": "DT_INT32"}}}, {"name": "efficientnet-lite4/model/blocks_4/strided_slice", "op": "StridedSlice", "input": ["efficientnet-lite4/model/blocks_4/Shape", "efficientnet-lite4/model/blocks_4/strided_slice/stack", "efficientnet-lite4/model/blocks_4/strided_slice/stack_1", "efficientnet-lite4/model/blocks_4/strided_slice/stack_2"], "attr": {"begin_mask": {"i": "0"}, "T": {"type": "DT_INT32"}, "Index": {"type": "DT_INT32"}, "new_axis_mask": {"i": "0"}, "end_mask": {"i": "0"}, "ellipsis_mask": {"i": "0"}, "shrink_axis_mask": {"i": "1"}}}, {"name": "efficientnet-lite4/model/blocks_4/random_uniform/shape", "op": "Pack", "input": ["efficientnet-lite4/model/blocks_4/strided_slice", "efficientnet-lite4/model/blocks_4/random_uniform/shape/1", "efficientnet-lite4/model/blocks_4/random_uniform/shape/2", "efficientnet-lite4/model/blocks_4/random_uniform/shape/3"], "attr": {"N": {"i": "4"}, "axis": {"i": "0"}, "T": {"type": "DT_INT32"}}}, {"name": "efficientnet-lite4/model/blocks_4/random_uniform/RandomUniform", "op": "RandomUniform", "input": ["efficientnet-lite4/model/blocks_4/random_uniform/shape"], "attr": {"T": {"type": "DT_INT32"}, "seed2": {"i": "0"}, "seed": {"i": "0"}, "dtype": {"type": "DT_FLOAT"}}}, {"name": "efficientnet-lite4/model/blocks_4/add", "op": "AddV2", "input": ["efficientnet-lite4/model/blocks_4/add/x", "efficientnet-lite4/model/blocks_4/random_uniform/RandomUniform"], "attr": {"T": {"type": "DT_FLOAT"}}}, {"name": "efficientnet-lite4/model/blocks_4/Floor", "op": "Floor", "input": ["efficientnet-lite4/model/blocks_4/add"], "attr": {"T": {"type": "DT_FLOAT"}}}, {"name": "efficientnet-lite4/model/blocks_4/mul", "op": "Mul", "input": ["efficientnet-lite4/model/blocks_4/div", "efficientnet-lite4/model/blocks_4/Floor"], "attr": {"T": {"type": "DT_FLOAT"}}}, {"name": "efficientnet-lite4/model/blocks_4/Add_1", "op": "Add", "input": ["efficientnet-lite4/model/blocks_4/mul", "efficientnet-lite4/model/blocks_3/Add_1"], "attr": {"T": {"type": "DT_FLOAT"}}}, {"name": "efficientnet-lite4/model/blocks_5/Relu6", "op": "_FusedConv2D", "input": ["efficientnet-lite4/model/blocks_4/Add_1", "efficientnet-lite4/model/blocks_5/conv2d/Conv2D_weights", "efficientnet-lite4/model/blocks_5/conv2d/Conv2D_bn_offset"], "device": "/device:CPU:0", "attr": {"dilations": {"list": {"i": ["1", "1", "1", "1"]}}, "strides": {"list": {"i": ["1", "1", "1", "1"]}}, "epsilon": {"f": 0.0}, "use_cudnn_on_gpu": {"b": true}, "num_args": {"i": "1"}, "data_format": {"s": "TkhXQw=="}, "explicit_paddings": {"list": {}}, "fused_ops": {"list": {"s": ["Qmlhc0FkZA==", "UmVsdTY="]}}, "padding": {"s": "U0FNRQ=="}, "T": {"type": "DT_FLOAT"}}}, {"name": "efficientnet-lite4/model/blocks_5/depthwise_conv2d/depthwise", "op": "FusedDepthwiseConv2dNative", "input": ["efficientnet-lite4/model/blocks_5/Relu6", "efficientnet-lite4/model/blocks_5/depthwise_conv2d/depthwise_weights", "efficientnet-lite4/model/blocks_5/depthwise_conv2d/depthwise_bn_offset"], "attr": {"explicit_paddings": {"list": {}}, "T": {"type": "DT_FLOAT"}, "dilations": {"list": {"i": ["1", "1", "1", "1"]}}, "fused_ops": {"list": {"s": ["Qmlhc0FkZA==", "UmVsdTY="]}}, "num_args": {"i": "1"}, "padding": {"s": "U0FNRQ=="}, "strides": {"list": {"i": ["1", "2", "2", "1"]}}, "data_format": {"s": "TkhXQw=="}}}, {"name": "efficientnet-lite4/model/blocks_5/tpu_batch_normalization_2/FusedBatchNormV3", "op": "_FusedConv2D", "input": ["efficientnet-lite4/model/blocks_5/depthwise_conv2d/depthwise", "efficientnet-lite4/model/blocks_5/conv2d_1/Conv2D_weights", "efficientnet-lite4/model/blocks_5/conv2d_1/Conv2D_bn_offset"], "device": "/device:CPU:0", "attr": {"explicit_paddings": {"list": {}}, "fused_ops": {"list": {"s": ["Qmlhc0FkZA=="]}}, "epsilon": {"f": 0.0}, "dilations": {"list": {"i": ["1", "1", "1", "1"]}}, "strides": {"list": {"i": ["1", "1", "1", "1"]}}, "data_format": {"s": "TkhXQw=="}, "padding": {"s": "U0FNRQ=="}, "num_args": {"i": "1"}, "T": {"type": "DT_FLOAT"}, "use_cudnn_on_gpu": {"b": true}}}, {"name": "efficientnet-lite4/model/blocks_6/Relu6", "op": "_FusedConv2D", "input": ["efficientnet-lite4/model/blocks_5/tpu_batch_normalization_2/FusedBatchNormV3", "efficientnet-lite4/model/blocks_6/conv2d/Conv2D_weights", "efficientnet-lite4/model/blocks_6/conv2d/Conv2D_bn_offset"], "device": "/device:CPU:0", "attr": {"explicit_paddings": {"list": {}}, "fused_ops": {"list": {"s": ["Qmlhc0FkZA==", "UmVsdTY="]}}, "strides": {"list": {"i": ["1", "1", "1", "1"]}}, "T": {"type": "DT_FLOAT"}, "use_cudnn_on_gpu": {"b": true}, "epsilon": {"f": 0.0}, "dilations": {"list": {"i": ["1", "1", "1", "1"]}}, "padding": {"s": "U0FNRQ=="}, "num_args": {"i": "1"}, "data_format": {"s": "TkhXQw=="}}}, {"name": "efficientnet-lite4/model/blocks_6/depthwise_conv2d/depthwise", "op": "FusedDepthwiseConv2dNative", "input": ["efficientnet-lite4/model/blocks_6/Relu6", "efficientnet-lite4/model/blocks_6/depthwise_conv2d/depthwise_weights", "efficientnet-lite4/model/blocks_6/depthwise_conv2d/depthwise_bn_offset"], "attr": {"fused_ops": {"list": {"s": ["Qmlhc0FkZA==", "UmVsdTY="]}}, "strides": {"list": {"i": ["1", "1", "1", "1"]}}, "num_args": {"i": "1"}, "dilations": {"list": {"i": ["1", "1", "1", "1"]}}, "T": {"type": "DT_FLOAT"}, "padding": {"s": "U0FNRQ=="}, "data_format": {"s": "TkhXQw=="}, "explicit_paddings": {"list": {}}}}, {"name": "efficientnet-lite4/model/blocks_6/tpu_batch_normalization_2/FusedBatchNormV3", "op": "_FusedConv2D", "input": ["efficientnet-lite4/model/blocks_6/depthwise_conv2d/depthwise", "efficientnet-lite4/model/blocks_6/conv2d_1/Conv2D_weights", "efficientnet-lite4/model/blocks_6/conv2d_1/Conv2D_bn_offset"], "device": "/device:CPU:0", "attr": {"data_format": {"s": "TkhXQw=="}, "padding": {"s": "U0FNRQ=="}, "strides": {"list": {"i": ["1", "1", "1", "1"]}}, "num_args": {"i": "1"}, "use_cudnn_on_gpu": {"b": true}, "explicit_paddings": {"list": {}}, "dilations": {"list": {"i": ["1", "1", "1", "1"]}}, "epsilon": {"f": 0.0}, "fused_ops": {"list": {"s": ["Qmlhc0FkZA=="]}}, "T": {"type": "DT_FLOAT"}}}, {"name": "efficientnet-lite4/model/blocks_6/div", "op": "Mul", "input": ["efficientnet-lite4/model/blocks_6/tpu_batch_normalization_2/FusedBatchNormV3", "ConstantFolding/efficientnet-lite4/model/blocks_6/div_recip"], "attr": {"T": {"type": "DT_FLOAT"}}}, {"name": "efficientnet-lite4/model/blocks_6/Shape", "op": "Shape", "input": ["efficientnet-lite4/model/blocks_6/tpu_batch_normalization_2/FusedBatchNormV3"], "attr": {"T": {"type": "DT_FLOAT"}, "out_type": {"type": "DT_INT32"}}}, {"name": "efficientnet-lite4/model/blocks_6/strided_slice", "op": "StridedSlice", "input": ["efficientnet-lite4/model/blocks_6/Shape", "efficientnet-lite4/model/blocks_6/strided_slice/stack", "efficientnet-lite4/model/blocks_6/strided_slice/stack_1", "efficientnet-lite4/model/blocks_6/strided_slice/stack_2"], "attr": {"ellipsis_mask": {"i": "0"}, "Index": {"type": "DT_INT32"}, "new_axis_mask": {"i": "0"}, "end_mask": {"i": "0"}, "begin_mask": {"i": "0"}, "shrink_axis_mask": {"i": "1"}, "T": {"type": "DT_INT32"}}}, {"name": "efficientnet-lite4/model/blocks_6/random_uniform/shape", "op": "Pack", "input": ["efficientnet-lite4/model/blocks_6/strided_slice", "efficientnet-lite4/model/blocks_6/random_uniform/shape/1", "efficientnet-lite4/model/blocks_6/random_uniform/shape/2", "efficientnet-lite4/model/blocks_6/random_uniform/shape/3"], "attr": {"N": {"i": "4"}, "axis": {"i": "0"}, "T": {"type": "DT_INT32"}}}, {"name": "efficientnet-lite4/model/blocks_6/random_uniform/RandomUniform", "op": "RandomUniform", "input": ["efficientnet-lite4/model/blocks_6/random_uniform/shape"], "attr": {"T": {"type": "DT_INT32"}, "dtype": {"type": "DT_FLOAT"}, "seed2": {"i": "0"}, "seed": {"i": "0"}}}, {"name": "efficientnet-lite4/model/blocks_6/add", "op": "AddV2", "input": ["efficientnet-lite4/model/blocks_6/add/x", "efficientnet-lite4/model/blocks_6/random_uniform/RandomUniform"], "attr": {"T": {"type": "DT_FLOAT"}}}, {"name": "efficientnet-lite4/model/blocks_6/Floor", "op": "Floor", "input": ["efficientnet-lite4/model/blocks_6/add"], "attr": {"T": {"type": "DT_FLOAT"}}}, {"name": "efficientnet-lite4/model/blocks_6/mul", "op": "Mul", "input": ["efficientnet-lite4/model/blocks_6/div", "efficientnet-lite4/model/blocks_6/Floor"], "attr": {"T": {"type": "DT_FLOAT"}}}, {"name": "efficientnet-lite4/model/blocks_6/Add_1", "op": "Add", "input": ["efficientnet-lite4/model/blocks_6/mul", "efficientnet-lite4/model/blocks_5/tpu_batch_normalization_2/FusedBatchNormV3"], "attr": {"T": {"type": "DT_FLOAT"}}}, {"name": "efficientnet-lite4/model/blocks_7/Relu6", "op": "_FusedConv2D", "input": ["efficientnet-lite4/model/blocks_6/Add_1", "efficientnet-lite4/model/blocks_7/conv2d/Conv2D_weights", "efficientnet-lite4/model/blocks_7/conv2d/Conv2D_bn_offset"], "device": "/device:CPU:0", "attr": {"strides": {"list": {"i": ["1", "1", "1", "1"]}}, "epsilon": {"f": 0.0}, "data_format": {"s": "TkhXQw=="}, "padding": {"s": "U0FNRQ=="}, "T": {"type": "DT_FLOAT"}, "dilations": {"list": {"i": ["1", "1", "1", "1"]}}, "num_args": {"i": "1"}, "use_cudnn_on_gpu": {"b": true}, "fused_ops": {"list": {"s": ["Qmlhc0FkZA==", "UmVsdTY="]}}, "explicit_paddings": {"list": {}}}}, {"name": "efficientnet-lite4/model/blocks_7/depthwise_conv2d/depthwise", "op": "FusedDepthwiseConv2dNative", "input": ["efficientnet-lite4/model/blocks_7/Relu6", "efficientnet-lite4/model/blocks_7/depthwise_conv2d/depthwise_weights", "efficientnet-lite4/model/blocks_7/depthwise_conv2d/depthwise_bn_offset"], "attr": {"strides": {"list": {"i": ["1", "1", "1", "1"]}}, "dilations": {"list": {"i": ["1", "1", "1", "1"]}}, "padding": {"s": "U0FNRQ=="}, "data_format": {"s": "TkhXQw=="}, "num_args": {"i": "1"}, "T": {"type": "DT_FLOAT"}, "fused_ops": {"list": {"s": ["Qmlhc0FkZA==", "UmVsdTY="]}}, "explicit_paddings": {"list": {}}}}, {"name": "efficientnet-lite4/model/blocks_7/tpu_batch_normalization_2/FusedBatchNormV3", "op": "_FusedConv2D", "input": ["efficientnet-lite4/model/blocks_7/depthwise_conv2d/depthwise", "efficientnet-lite4/model/blocks_7/conv2d_1/Conv2D_weights", "efficientnet-lite4/model/blocks_7/conv2d_1/Conv2D_bn_offset"], "device": "/device:CPU:0", "attr": {"fused_ops": {"list": {"s": ["Qmlhc0FkZA=="]}}, "dilations": {"list": {"i": ["1", "1", "1", "1"]}}, "data_format": {"s": "TkhXQw=="}, "num_args": {"i": "1"}, "strides": {"list": {"i": ["1", "1", "1", "1"]}}, "use_cudnn_on_gpu": {"b": true}, "T": {"type": "DT_FLOAT"}, "explicit_paddings": {"list": {}}, "epsilon": {"f": 0.0}, "padding": {"s": "U0FNRQ=="}}}, {"name": "efficientnet-lite4/model/blocks_7/div", "op": "Mul", "input": ["efficientnet-lite4/model/blocks_7/tpu_batch_normalization_2/FusedBatchNormV3", "ConstantFolding/efficientnet-lite4/model/blocks_7/div_recip"], "attr": {"T": {"type": "DT_FLOAT"}}}, {"name": "efficientnet-lite4/model/blocks_7/Shape", "op": "Shape", "input": ["efficientnet-lite4/model/blocks_7/tpu_batch_normalization_2/FusedBatchNormV3"], "attr": {"T": {"type": "DT_FLOAT"}, "out_type": {"type": "DT_INT32"}}}, {"name": "efficientnet-lite4/model/blocks_7/strided_slice", "op": "StridedSlice", "input": ["efficientnet-lite4/model/blocks_7/Shape", "efficientnet-lite4/model/blocks_7/strided_slice/stack", "efficientnet-lite4/model/blocks_7/strided_slice/stack_1", "efficientnet-lite4/model/blocks_7/strided_slice/stack_2"], "attr": {"Index": {"type": "DT_INT32"}, "end_mask": {"i": "0"}, "shrink_axis_mask": {"i": "1"}, "T": {"type": "DT_INT32"}, "begin_mask": {"i": "0"}, "new_axis_mask": {"i": "0"}, "ellipsis_mask": {"i": "0"}}}, {"name": "efficientnet-lite4/model/blocks_7/random_uniform/shape", "op": "Pack", "input": ["efficientnet-lite4/model/blocks_7/strided_slice", "efficientnet-lite4/model/blocks_7/random_uniform/shape/1", "efficientnet-lite4/model/blocks_7/random_uniform/shape/2", "efficientnet-lite4/model/blocks_7/random_uniform/shape/3"], "attr": {"N": {"i": "4"}, "T": {"type": "DT_INT32"}, "axis": {"i": "0"}}}, {"name": "efficientnet-lite4/model/blocks_7/random_uniform/RandomUniform", "op": "RandomUniform", "input": ["efficientnet-lite4/model/blocks_7/random_uniform/shape"], "attr": {"seed2": {"i": "0"}, "seed": {"i": "0"}, "dtype": {"type": "DT_FLOAT"}, "T": {"type": "DT_INT32"}}}, {"name": "efficientnet-lite4/model/blocks_7/add", "op": "AddV2", "input": ["efficientnet-lite4/model/blocks_7/add/x", "efficientnet-lite4/model/blocks_7/random_uniform/RandomUniform"], "attr": {"T": {"type": "DT_FLOAT"}}}, {"name": "efficientnet-lite4/model/blocks_7/Floor", "op": "Floor", "input": ["efficientnet-lite4/model/blocks_7/add"], "attr": {"T": {"type": "DT_FLOAT"}}}, {"name": "efficientnet-lite4/model/blocks_7/mul", "op": "Mul", "input": ["efficientnet-lite4/model/blocks_7/div", "efficientnet-lite4/model/blocks_7/Floor"], "attr": {"T": {"type": "DT_FLOAT"}}}, {"name": "efficientnet-lite4/model/blocks_7/Add_1", "op": "Add", "input": ["efficientnet-lite4/model/blocks_7/mul", "efficientnet-lite4/model/blocks_6/Add_1"], "attr": {"T": {"type": "DT_FLOAT"}}}, {"name": "efficientnet-lite4/model/blocks_8/Relu6", "op": "_FusedConv2D", "input": ["efficientnet-lite4/model/blocks_7/Add_1", "efficientnet-lite4/model/blocks_8/conv2d/Conv2D_weights", "efficientnet-lite4/model/blocks_8/conv2d/Conv2D_bn_offset"], "device": "/device:CPU:0", "attr": {"explicit_paddings": {"list": {}}, "epsilon": {"f": 0.0}, "use_cudnn_on_gpu": {"b": true}, "strides": {"list": {"i": ["1", "1", "1", "1"]}}, "fused_ops": {"list": {"s": ["Qmlhc0FkZA==", "UmVsdTY="]}}, "T": {"type": "DT_FLOAT"}, "num_args": {"i": "1"}, "data_format": {"s": "TkhXQw=="}, "padding": {"s": "U0FNRQ=="}, "dilations": {"list": {"i": ["1", "1", "1", "1"]}}}}, {"name": "efficientnet-lite4/model/blocks_8/depthwise_conv2d/depthwise", "op": "FusedDepthwiseConv2dNative", "input": ["efficientnet-lite4/model/blocks_8/Relu6", "efficientnet-lite4/model/blocks_8/depthwise_conv2d/depthwise_weights", "efficientnet-lite4/model/blocks_8/depthwise_conv2d/depthwise_bn_offset"], "attr": {"num_args": {"i": "1"}, "padding": {"s": "U0FNRQ=="}, "data_format": {"s": "TkhXQw=="}, "dilations": {"list": {"i": ["1", "1", "1", "1"]}}, "T": {"type": "DT_FLOAT"}, "fused_ops": {"list": {"s": ["Qmlhc0FkZA==", "UmVsdTY="]}}, "explicit_paddings": {"list": {}}, "strides": {"list": {"i": ["1", "1", "1", "1"]}}}}, {"name": "efficientnet-lite4/model/blocks_8/tpu_batch_normalization_2/FusedBatchNormV3", "op": "_FusedConv2D", "input": ["efficientnet-lite4/model/blocks_8/depthwise_conv2d/depthwise", "efficientnet-lite4/model/blocks_8/conv2d_1/Conv2D_weights", "efficientnet-lite4/model/blocks_8/conv2d_1/Conv2D_bn_offset"], "device": "/device:CPU:0", "attr": {"explicit_paddings": {"list": {}}, "strides": {"list": {"i": ["1", "1", "1", "1"]}}, "use_cudnn_on_gpu": {"b": true}, "data_format": {"s": "TkhXQw=="}, "epsilon": {"f": 0.0}, "padding": {"s": "U0FNRQ=="}, "fused_ops": {"list": {"s": ["Qmlhc0FkZA=="]}}, "dilations": {"list": {"i": ["1", "1", "1", "1"]}}, "T": {"type": "DT_FLOAT"}, "num_args": {"i": "1"}}}, {"name": "efficientnet-lite4/model/blocks_8/div", "op": "Mul", "input": ["efficientnet-lite4/model/blocks_8/tpu_batch_normalization_2/FusedBatchNormV3", "ConstantFolding/efficientnet-lite4/model/blocks_8/div_recip"], "attr": {"T": {"type": "DT_FLOAT"}}}, {"name": "efficientnet-lite4/model/blocks_8/Shape", "op": "Shape", "input": ["efficientnet-lite4/model/blocks_8/tpu_batch_normalization_2/FusedBatchNormV3"], "attr": {"T": {"type": "DT_FLOAT"}, "out_type": {"type": "DT_INT32"}}}, {"name": "efficientnet-lite4/model/blocks_8/strided_slice", "op": "StridedSlice", "input": ["efficientnet-lite4/model/blocks_8/Shape", "efficientnet-lite4/model/blocks_8/strided_slice/stack", "efficientnet-lite4/model/blocks_8/strided_slice/stack_1", "efficientnet-lite4/model/blocks_8/strided_slice/stack_2"], "attr": {"shrink_axis_mask": {"i": "1"}, "end_mask": {"i": "0"}, "Index": {"type": "DT_INT32"}, "ellipsis_mask": {"i": "0"}, "begin_mask": {"i": "0"}, "new_axis_mask": {"i": "0"}, "T": {"type": "DT_INT32"}}}, {"name": "efficientnet-lite4/model/blocks_8/random_uniform/shape", "op": "Pack", "input": ["efficientnet-lite4/model/blocks_8/strided_slice", "efficientnet-lite4/model/blocks_8/random_uniform/shape/1", "efficientnet-lite4/model/blocks_8/random_uniform/shape/2", "efficientnet-lite4/model/blocks_8/random_uniform/shape/3"], "attr": {"N": {"i": "4"}, "axis": {"i": "0"}, "T": {"type": "DT_INT32"}}}, {"name": "efficientnet-lite4/model/blocks_8/random_uniform/RandomUniform", "op": "RandomUniform", "input": ["efficientnet-lite4/model/blocks_8/random_uniform/shape"], "attr": {"dtype": {"type": "DT_FLOAT"}, "seed2": {"i": "0"}, "seed": {"i": "0"}, "T": {"type": "DT_INT32"}}}, {"name": "efficientnet-lite4/model/blocks_8/add", "op": "AddV2", "input": ["efficientnet-lite4/model/blocks_8/add/x", "efficientnet-lite4/model/blocks_8/random_uniform/RandomUniform"], "attr": {"T": {"type": "DT_FLOAT"}}}, {"name": "efficientnet-lite4/model/blocks_8/Floor", "op": "Floor", "input": ["efficientnet-lite4/model/blocks_8/add"], "attr": {"T": {"type": "DT_FLOAT"}}}, {"name": "efficientnet-lite4/model/blocks_8/mul", "op": "Mul", "input": ["efficientnet-lite4/model/blocks_8/div", "efficientnet-lite4/model/blocks_8/Floor"], "attr": {"T": {"type": "DT_FLOAT"}}}, {"name": "efficientnet-lite4/model/blocks_8/Add_1", "op": "Add", "input": ["efficientnet-lite4/model/blocks_8/mul", "efficientnet-lite4/model/blocks_7/Add_1"], "attr": {"T": {"type": "DT_FLOAT"}}}, {"name": "efficientnet-lite4/model/blocks_9/Relu6", "op": "_FusedConv2D", "input": ["efficientnet-lite4/model/blocks_8/Add_1", "efficientnet-lite4/model/blocks_9/conv2d/Conv2D_weights", "efficientnet-lite4/model/blocks_9/conv2d/Conv2D_bn_offset"], "device": "/device:CPU:0", "attr": {"T": {"type": "DT_FLOAT"}, "data_format": {"s": "TkhXQw=="}, "num_args": {"i": "1"}, "fused_ops": {"list": {"s": ["Qmlhc0FkZA==", "UmVsdTY="]}}, "padding": {"s": "U0FNRQ=="}, "strides": {"list": {"i": ["1", "1", "1", "1"]}}, "explicit_paddings": {"list": {}}, "use_cudnn_on_gpu": {"b": true}, "dilations": {"list": {"i": ["1", "1", "1", "1"]}}, "epsilon": {"f": 0.0}}}, {"name": "efficientnet-lite4/model/blocks_9/depthwise_conv2d/depthwise", "op": "FusedDepthwiseConv2dNative", "input": ["efficientnet-lite4/model/blocks_9/Relu6", "efficientnet-lite4/model/blocks_9/depthwise_conv2d/depthwise_weights", "efficientnet-lite4/model/blocks_9/depthwise_conv2d/depthwise_bn_offset"], "attr": {"data_format": {"s": "TkhXQw=="}, "T": {"type": "DT_FLOAT"}, "strides": {"list": {"i": ["1", "2", "2", "1"]}}, "dilations": {"list": {"i": ["1", "1", "1", "1"]}}, "explicit_paddings": {"list": {}}, "num_args": {"i": "1"}, "fused_ops": {"list": {"s": ["Qmlhc0FkZA==", "UmVsdTY="]}}, "padding": {"s": "U0FNRQ=="}}}, {"name": "efficientnet-lite4/model/blocks_9/tpu_batch_normalization_2/FusedBatchNormV3", "op": "_FusedConv2D", "input": ["efficientnet-lite4/model/blocks_9/depthwise_conv2d/depthwise", "efficientnet-lite4/model/blocks_9/conv2d_1/Conv2D_weights", "efficientnet-lite4/model/blocks_9/conv2d_1/Conv2D_bn_offset"], "device": "/device:CPU:0", "attr": {"T": {"type": "DT_FLOAT"}, "padding": {"s": "U0FNRQ=="}, "dilations": {"list": {"i": ["1", "1", "1", "1"]}}, "epsilon": {"f": 0.0}, "data_format": {"s": "TkhXQw=="}, "strides": {"list": {"i": ["1", "1", "1", "1"]}}, "use_cudnn_on_gpu": {"b": true}, "num_args": {"i": "1"}, "explicit_paddings": {"list": {}}, "fused_ops": {"list": {"s": ["Qmlhc0FkZA=="]}}}}, {"name": "efficientnet-lite4/model/blocks_10/Relu6", "op": "_FusedConv2D", "input": ["efficientnet-lite4/model/blocks_9/tpu_batch_normalization_2/FusedBatchNormV3", "efficientnet-lite4/model/blocks_10/conv2d/Conv2D_weights", "efficientnet-lite4/model/blocks_10/conv2d/Conv2D_bn_offset"], "device": "/device:CPU:0", "attr": {"dilations": {"list": {"i": ["1", "1", "1", "1"]}}, "use_cudnn_on_gpu": {"b": true}, "T": {"type": "DT_FLOAT"}, "data_format": {"s": "TkhXQw=="}, "explicit_paddings": {"list": {}}, "fused_ops": {"list": {"s": ["Qmlhc0FkZA==", "UmVsdTY="]}}, "padding": {"s": "U0FNRQ=="}, "epsilon": {"f": 0.0}, "num_args": {"i": "1"}, "strides": {"list": {"i": ["1", "1", "1", "1"]}}}}, {"name": "efficientnet-lite4/model/blocks_10/depthwise_conv2d/depthwise", "op": "FusedDepthwiseConv2dNative", "input": ["efficientnet-lite4/model/blocks_10/Relu6", "efficientnet-lite4/model/blocks_10/depthwise_conv2d/depthwise_weights", "efficientnet-lite4/model/blocks_10/depthwise_conv2d/depthwise_bn_offset"], "attr": {"explicit_paddings": {"list": {}}, "T": {"type": "DT_FLOAT"}, "padding": {"s": "U0FNRQ=="}, "data_format": {"s": "TkhXQw=="}, "fused_ops": {"list": {"s": ["Qmlhc0FkZA==", "UmVsdTY="]}}, "strides": {"list": {"i": ["1", "1", "1", "1"]}}, "num_args": {"i": "1"}, "dilations": {"list": {"i": ["1", "1", "1", "1"]}}}}, {"name": "efficientnet-lite4/model/blocks_10/tpu_batch_normalization_2/FusedBatchNormV3", "op": "_FusedConv2D", "input": ["efficientnet-lite4/model/blocks_10/depthwise_conv2d/depthwise", "efficientnet-lite4/model/blocks_10/conv2d_1/Conv2D_weights", "efficientnet-lite4/model/blocks_10/conv2d_1/Conv2D_bn_offset"], "device": "/device:CPU:0", "attr": {"dilations": {"list": {"i": ["1", "1", "1", "1"]}}, "padding": {"s": "U0FNRQ=="}, "use_cudnn_on_gpu": {"b": true}, "num_args": {"i": "1"}, "T": {"type": "DT_FLOAT"}, "strides": {"list": {"i": ["1", "1", "1", "1"]}}, "data_format": {"s": "TkhXQw=="}, "explicit_paddings": {"list": {}}, "epsilon": {"f": 0.0}, "fused_ops": {"list": {"s": ["Qmlhc0FkZA=="]}}}}, {"name": "efficientnet-lite4/model/blocks_10/div", "op": "Mul", "input": ["efficientnet-lite4/model/blocks_10/tpu_batch_normalization_2/FusedBatchNormV3", "ConstantFolding/efficientnet-lite4/model/blocks_10/div_recip"], "attr": {"T": {"type": "DT_FLOAT"}}}, {"name": "efficientnet-lite4/model/blocks_10/Shape", "op": "Shape", "input": ["efficientnet-lite4/model/blocks_10/tpu_batch_normalization_2/FusedBatchNormV3"], "attr": {"out_type": {"type": "DT_INT32"}, "T": {"type": "DT_FLOAT"}}}, {"name": "efficientnet-lite4/model/blocks_10/strided_slice", "op": "StridedSlice", "input": ["efficientnet-lite4/model/blocks_10/Shape", "efficientnet-lite4/model/blocks_10/strided_slice/stack", "efficientnet-lite4/model/blocks_10/strided_slice/stack_1", "efficientnet-lite4/model/blocks_10/strided_slice/stack_2"], "attr": {"new_axis_mask": {"i": "0"}, "begin_mask": {"i": "0"}, "Index": {"type": "DT_INT32"}, "ellipsis_mask": {"i": "0"}, "end_mask": {"i": "0"}, "T": {"type": "DT_INT32"}, "shrink_axis_mask": {"i": "1"}}}, {"name": "efficientnet-lite4/model/blocks_10/random_uniform/shape", "op": "Pack", "input": ["efficientnet-lite4/model/blocks_10/strided_slice", "efficientnet-lite4/model/blocks_10/random_uniform/shape/1", "efficientnet-lite4/model/blocks_10/random_uniform/shape/2", "efficientnet-lite4/model/blocks_10/random_uniform/shape/3"], "attr": {"N": {"i": "4"}, "T": {"type": "DT_INT32"}, "axis": {"i": "0"}}}, {"name": "efficientnet-lite4/model/blocks_10/random_uniform/RandomUniform", "op": "RandomUniform", "input": ["efficientnet-lite4/model/blocks_10/random_uniform/shape"], "attr": {"seed2": {"i": "0"}, "seed": {"i": "0"}, "dtype": {"type": "DT_FLOAT"}, "T": {"type": "DT_INT32"}}}, {"name": "efficientnet-lite4/model/blocks_10/add", "op": "AddV2", "input": ["efficientnet-lite4/model/blocks_10/add/x", "efficientnet-lite4/model/blocks_10/random_uniform/RandomUniform"], "attr": {"T": {"type": "DT_FLOAT"}}}, {"name": "efficientnet-lite4/model/blocks_10/Floor", "op": "Floor", "input": ["efficientnet-lite4/model/blocks_10/add"], "attr": {"T": {"type": "DT_FLOAT"}}}, {"name": "efficientnet-lite4/model/blocks_10/mul", "op": "Mul", "input": ["efficientnet-lite4/model/blocks_10/div", "efficientnet-lite4/model/blocks_10/Floor"], "attr": {"T": {"type": "DT_FLOAT"}}}, {"name": "efficientnet-lite4/model/blocks_10/Add_1", "op": "Add", "input": ["efficientnet-lite4/model/blocks_10/mul", "efficientnet-lite4/model/blocks_9/tpu_batch_normalization_2/FusedBatchNormV3"], "attr": {"T": {"type": "DT_FLOAT"}}}, {"name": "efficientnet-lite4/model/blocks_11/Relu6", "op": "_FusedConv2D", "input": ["efficientnet-lite4/model/blocks_10/Add_1", "efficientnet-lite4/model/blocks_11/conv2d/Conv2D_weights", "efficientnet-lite4/model/blocks_11/conv2d/Conv2D_bn_offset"], "device": "/device:CPU:0", "attr": {"use_cudnn_on_gpu": {"b": true}, "dilations": {"list": {"i": ["1", "1", "1", "1"]}}, "data_format": {"s": "TkhXQw=="}, "strides": {"list": {"i": ["1", "1", "1", "1"]}}, "padding": {"s": "U0FNRQ=="}, "T": {"type": "DT_FLOAT"}, "fused_ops": {"list": {"s": ["Qmlhc0FkZA==", "UmVsdTY="]}}, "num_args": {"i": "1"}, "epsilon": {"f": 0.0}, "explicit_paddings": {"list": {}}}}, {"name": "efficientnet-lite4/model/blocks_11/depthwise_conv2d/depthwise", "op": "FusedDepthwiseConv2dNative", "input": ["efficientnet-lite4/model/blocks_11/Relu6", "efficientnet-lite4/model/blocks_11/depthwise_conv2d/depthwise_weights", "efficientnet-lite4/model/blocks_11/depthwise_conv2d/depthwise_bn_offset"], "attr": {"padding": {"s": "U0FNRQ=="}, "dilations": {"list": {"i": ["1", "1", "1", "1"]}}, "strides": {"list": {"i": ["1", "1", "1", "1"]}}, "fused_ops": {"list": {"s": ["Qmlhc0FkZA==", "UmVsdTY="]}}, "data_format": {"s": "TkhXQw=="}, "num_args": {"i": "1"}, "explicit_paddings": {"list": {}}, "T": {"type": "DT_FLOAT"}}}, {"name": "efficientnet-lite4/model/blocks_11/tpu_batch_normalization_2/FusedBatchNormV3", "op": "_FusedConv2D", "input": ["efficientnet-lite4/model/blocks_11/depthwise_conv2d/depthwise", "efficientnet-lite4/model/blocks_11/conv2d_1/Conv2D_weights", "efficientnet-lite4/model/blocks_11/conv2d_1/Conv2D_bn_offset"], "device": "/device:CPU:0", "attr": {"padding": {"s": "U0FNRQ=="}, "num_args": {"i": "1"}, "data_format": {"s": "TkhXQw=="}, "strides": {"list": {"i": ["1", "1", "1", "1"]}}, "dilations": {"list": {"i": ["1", "1", "1", "1"]}}, "use_cudnn_on_gpu": {"b": true}, "explicit_paddings": {"list": {}}, "fused_ops": {"list": {"s": ["Qmlhc0FkZA=="]}}, "epsilon": {"f": 0.0}, "T": {"type": "DT_FLOAT"}}}, {"name": "efficientnet-lite4/model/blocks_11/div", "op": "Mul", "input": ["efficientnet-lite4/model/blocks_11/tpu_batch_normalization_2/FusedBatchNormV3", "ConstantFolding/efficientnet-lite4/model/blocks_11/div_recip"], "attr": {"T": {"type": "DT_FLOAT"}}}, {"name": "efficientnet-lite4/model/blocks_11/Shape", "op": "Shape", "input": ["efficientnet-lite4/model/blocks_11/tpu_batch_normalization_2/FusedBatchNormV3"], "attr": {"T": {"type": "DT_FLOAT"}, "out_type": {"type": "DT_INT32"}}}, {"name": "efficientnet-lite4/model/blocks_11/strided_slice", "op": "StridedSlice", "input": ["efficientnet-lite4/model/blocks_11/Shape", "efficientnet-lite4/model/blocks_11/strided_slice/stack", "efficientnet-lite4/model/blocks_11/strided_slice/stack_1", "efficientnet-lite4/model/blocks_11/strided_slice/stack_2"], "attr": {"end_mask": {"i": "0"}, "new_axis_mask": {"i": "0"}, "shrink_axis_mask": {"i": "1"}, "ellipsis_mask": {"i": "0"}, "Index": {"type": "DT_INT32"}, "begin_mask": {"i": "0"}, "T": {"type": "DT_INT32"}}}, {"name": "efficientnet-lite4/model/blocks_11/random_uniform/shape", "op": "Pack", "input": ["efficientnet-lite4/model/blocks_11/strided_slice", "efficientnet-lite4/model/blocks_11/random_uniform/shape/1", "efficientnet-lite4/model/blocks_11/random_uniform/shape/2", "efficientnet-lite4/model/blocks_11/random_uniform/shape/3"], "attr": {"T": {"type": "DT_INT32"}, "N": {"i": "4"}, "axis": {"i": "0"}}}, {"name": "efficientnet-lite4/model/blocks_11/random_uniform/RandomUniform", "op": "RandomUniform", "input": ["efficientnet-lite4/model/blocks_11/random_uniform/shape"], "attr": {"dtype": {"type": "DT_FLOAT"}, "T": {"type": "DT_INT32"}, "seed2": {"i": "0"}, "seed": {"i": "0"}}}, {"name": "efficientnet-lite4/model/blocks_11/add", "op": "AddV2", "input": ["efficientnet-lite4/model/blocks_11/add/x", "efficientnet-lite4/model/blocks_11/random_uniform/RandomUniform"], "attr": {"T": {"type": "DT_FLOAT"}}}, {"name": "efficientnet-lite4/model/blocks_11/Floor", "op": "Floor", "input": ["efficientnet-lite4/model/blocks_11/add"], "attr": {"T": {"type": "DT_FLOAT"}}}, {"name": "efficientnet-lite4/model/blocks_11/mul", "op": "Mul", "input": ["efficientnet-lite4/model/blocks_11/div", "efficientnet-lite4/model/blocks_11/Floor"], "attr": {"T": {"type": "DT_FLOAT"}}}, {"name": "efficientnet-lite4/model/blocks_11/Add_1", "op": "Add", "input": ["efficientnet-lite4/model/blocks_11/mul", "efficientnet-lite4/model/blocks_10/Add_1"], "attr": {"T": {"type": "DT_FLOAT"}}}, {"name": "efficientnet-lite4/model/blocks_12/Relu6", "op": "_FusedConv2D", "input": ["efficientnet-lite4/model/blocks_11/Add_1", "efficientnet-lite4/model/blocks_12/conv2d/Conv2D_weights", "efficientnet-lite4/model/blocks_12/conv2d/Conv2D_bn_offset"], "device": "/device:CPU:0", "attr": {"use_cudnn_on_gpu": {"b": true}, "T": {"type": "DT_FLOAT"}, "explicit_paddings": {"list": {}}, "dilations": {"list": {"i": ["1", "1", "1", "1"]}}, "epsilon": {"f": 0.0}, "fused_ops": {"list": {"s": ["Qmlhc0FkZA==", "UmVsdTY="]}}, "num_args": {"i": "1"}, "data_format": {"s": "TkhXQw=="}, "strides": {"list": {"i": ["1", "1", "1", "1"]}}, "padding": {"s": "U0FNRQ=="}}}, {"name": "efficientnet-lite4/model/blocks_12/depthwise_conv2d/depthwise", "op": "FusedDepthwiseConv2dNative", "input": ["efficientnet-lite4/model/blocks_12/Relu6", "efficientnet-lite4/model/blocks_12/depthwise_conv2d/depthwise_weights", "efficientnet-lite4/model/blocks_12/depthwise_conv2d/depthwise_bn_offset"], "attr": {"fused_ops": {"list": {"s": ["Qmlhc0FkZA==", "UmVsdTY="]}}, "padding": {"s": "U0FNRQ=="}, "T": {"type": "DT_FLOAT"}, "num_args": {"i": "1"}, "data_format": {"s": "TkhXQw=="}, "explicit_paddings": {"list": {}}, "strides": {"list": {"i": ["1", "1", "1", "1"]}}, "dilations": {"list": {"i": ["1", "1", "1", "1"]}}}}, {"name": "efficientnet-lite4/model/blocks_12/tpu_batch_normalization_2/FusedBatchNormV3", "op": "_FusedConv2D", "input": ["efficientnet-lite4/model/blocks_12/depthwise_conv2d/depthwise", "efficientnet-lite4/model/blocks_12/conv2d_1/Conv2D_weights", "efficientnet-lite4/model/blocks_12/conv2d_1/Conv2D_bn_offset"], "device": "/device:CPU:0", "attr": {"use_cudnn_on_gpu": {"b": true}, "epsilon": {"f": 0.0}, "dilations": {"list": {"i": ["1", "1", "1", "1"]}}, "explicit_paddings": {"list": {}}, "num_args": {"i": "1"}, "T": {"type": "DT_FLOAT"}, "strides": {"list": {"i": ["1", "1", "1", "1"]}}, "data_format": {"s": "TkhXQw=="}, "padding": {"s": "U0FNRQ=="}, "fused_ops": {"list": {"s": ["Qmlhc0FkZA=="]}}}}, {"name": "efficientnet-lite4/model/blocks_12/div", "op": "Mul", "input": ["efficientnet-lite4/model/blocks_12/tpu_batch_normalization_2/FusedBatchNormV3", "ConstantFolding/efficientnet-lite4/model/blocks_12/div_recip"], "attr": {"T": {"type": "DT_FLOAT"}}}, {"name": "efficientnet-lite4/model/blocks_12/Shape", "op": "Shape", "input": ["efficientnet-lite4/model/blocks_12/tpu_batch_normalization_2/FusedBatchNormV3"], "attr": {"T": {"type": "DT_FLOAT"}, "out_type": {"type": "DT_INT32"}}}, {"name": "efficientnet-lite4/model/blocks_12/strided_slice", "op": "StridedSlice", "input": ["efficientnet-lite4/model/blocks_12/Shape", "efficientnet-lite4/model/blocks_12/strided_slice/stack", "efficientnet-lite4/model/blocks_12/strided_slice/stack_1", "efficientnet-lite4/model/blocks_12/strided_slice/stack_2"], "attr": {"begin_mask": {"i": "0"}, "end_mask": {"i": "0"}, "Index": {"type": "DT_INT32"}, "shrink_axis_mask": {"i": "1"}, "ellipsis_mask": {"i": "0"}, "T": {"type": "DT_INT32"}, "new_axis_mask": {"i": "0"}}}, {"name": "efficientnet-lite4/model/blocks_12/random_uniform/shape", "op": "Pack", "input": ["efficientnet-lite4/model/blocks_12/strided_slice", "efficientnet-lite4/model/blocks_12/random_uniform/shape/1", "efficientnet-lite4/model/blocks_12/random_uniform/shape/2", "efficientnet-lite4/model/blocks_12/random_uniform/shape/3"], "attr": {"axis": {"i": "0"}, "T": {"type": "DT_INT32"}, "N": {"i": "4"}}}, {"name": "efficientnet-lite4/model/blocks_12/random_uniform/RandomUniform", "op": "RandomUniform", "input": ["efficientnet-lite4/model/blocks_12/random_uniform/shape"], "attr": {"dtype": {"type": "DT_FLOAT"}, "seed2": {"i": "0"}, "T": {"type": "DT_INT32"}, "seed": {"i": "0"}}}, {"name": "efficientnet-lite4/model/blocks_12/add", "op": "AddV2", "input": ["efficientnet-lite4/model/blocks_12/add/x", "efficientnet-lite4/model/blocks_12/random_uniform/RandomUniform"], "attr": {"T": {"type": "DT_FLOAT"}}}, {"name": "efficientnet-lite4/model/blocks_12/Floor", "op": "Floor", "input": ["efficientnet-lite4/model/blocks_12/add"], "attr": {"T": {"type": "DT_FLOAT"}}}, {"name": "efficientnet-lite4/model/blocks_12/mul", "op": "Mul", "input": ["efficientnet-lite4/model/blocks_12/div", "efficientnet-lite4/model/blocks_12/Floor"], "attr": {"T": {"type": "DT_FLOAT"}}}, {"name": "efficientnet-lite4/model/blocks_12/Add_1", "op": "Add", "input": ["efficientnet-lite4/model/blocks_12/mul", "efficientnet-lite4/model/blocks_11/Add_1"], "attr": {"T": {"type": "DT_FLOAT"}}}, {"name": "efficientnet-lite4/model/blocks_13/Relu6", "op": "_FusedConv2D", "input": ["efficientnet-lite4/model/blocks_12/Add_1", "efficientnet-lite4/model/blocks_13/conv2d/Conv2D_weights", "efficientnet-lite4/model/blocks_13/conv2d/Conv2D_bn_offset"], "device": "/device:CPU:0", "attr": {"data_format": {"s": "TkhXQw=="}, "explicit_paddings": {"list": {}}, "use_cudnn_on_gpu": {"b": true}, "strides": {"list": {"i": ["1", "1", "1", "1"]}}, "epsilon": {"f": 0.0}, "fused_ops": {"list": {"s": ["Qmlhc0FkZA==", "UmVsdTY="]}}, "padding": {"s": "U0FNRQ=="}, "T": {"type": "DT_FLOAT"}, "dilations": {"list": {"i": ["1", "1", "1", "1"]}}, "num_args": {"i": "1"}}}, {"name": "efficientnet-lite4/model/blocks_13/depthwise_conv2d/depthwise", "op": "FusedDepthwiseConv2dNative", "input": ["efficientnet-lite4/model/blocks_13/Relu6", "efficientnet-lite4/model/blocks_13/depthwise_conv2d/depthwise_weights", "efficientnet-lite4/model/blocks_13/depthwise_conv2d/depthwise_bn_offset"], "attr": {"padding": {"s": "U0FNRQ=="}, "T": {"type": "DT_FLOAT"}, "explicit_paddings": {"list": {}}, "num_args": {"i": "1"}, "strides": {"list": {"i": ["1", "1", "1", "1"]}}, "fused_ops": {"list": {"s": ["Qmlhc0FkZA==", "UmVsdTY="]}}, "dilations": {"list": {"i": ["1", "1", "1", "1"]}}, "data_format": {"s": "TkhXQw=="}}}, {"name": "efficientnet-lite4/model/blocks_13/tpu_batch_normalization_2/FusedBatchNormV3", "op": "_FusedConv2D", "input": ["efficientnet-lite4/model/blocks_13/depthwise_conv2d/depthwise", "efficientnet-lite4/model/blocks_13/conv2d_1/Conv2D_weights", "efficientnet-lite4/model/blocks_13/conv2d_1/Conv2D_bn_offset"], "device": "/device:CPU:0", "attr": {"explicit_paddings": {"list": {}}, "use_cudnn_on_gpu": {"b": true}, "padding": {"s": "U0FNRQ=="}, "data_format": {"s": "TkhXQw=="}, "epsilon": {"f": 0.0}, "dilations": {"list": {"i": ["1", "1", "1", "1"]}}, "num_args": {"i": "1"}, "fused_ops": {"list": {"s": ["Qmlhc0FkZA=="]}}, "strides": {"list": {"i": ["1", "1", "1", "1"]}}, "T": {"type": "DT_FLOAT"}}}, {"name": "efficientnet-lite4/model/blocks_13/div", "op": "Mul", "input": ["efficientnet-lite4/model/blocks_13/tpu_batch_normalization_2/FusedBatchNormV3", "ConstantFolding/efficientnet-lite4/model/blocks_13/div_recip"], "attr": {"T": {"type": "DT_FLOAT"}}}, {"name": "efficientnet-lite4/model/blocks_13/Shape", "op": "Shape", "input": ["efficientnet-lite4/model/blocks_13/tpu_batch_normalization_2/FusedBatchNormV3"], "attr": {"out_type": {"type": "DT_INT32"}, "T": {"type": "DT_FLOAT"}}}, {"name": "efficientnet-lite4/model/blocks_13/strided_slice", "op": "StridedSlice", "input": ["efficientnet-lite4/model/blocks_13/Shape", "efficientnet-lite4/model/blocks_13/strided_slice/stack", "efficientnet-lite4/model/blocks_13/strided_slice/stack_1", "efficientnet-lite4/model/blocks_13/strided_slice/stack_2"], "attr": {"shrink_axis_mask": {"i": "1"}, "end_mask": {"i": "0"}, "new_axis_mask": {"i": "0"}, "Index": {"type": "DT_INT32"}, "T": {"type": "DT_INT32"}, "begin_mask": {"i": "0"}, "ellipsis_mask": {"i": "0"}}}, {"name": "efficientnet-lite4/model/blocks_13/random_uniform/shape", "op": "Pack", "input": ["efficientnet-lite4/model/blocks_13/strided_slice", "efficientnet-lite4/model/blocks_13/random_uniform/shape/1", "efficientnet-lite4/model/blocks_13/random_uniform/shape/2", "efficientnet-lite4/model/blocks_13/random_uniform/shape/3"], "attr": {"N": {"i": "4"}, "T": {"type": "DT_INT32"}, "axis": {"i": "0"}}}, {"name": "efficientnet-lite4/model/blocks_13/random_uniform/RandomUniform", "op": "RandomUniform", "input": ["efficientnet-lite4/model/blocks_13/random_uniform/shape"], "attr": {"dtype": {"type": "DT_FLOAT"}, "T": {"type": "DT_INT32"}, "seed": {"i": "0"}, "seed2": {"i": "0"}}}, {"name": "efficientnet-lite4/model/blocks_13/add", "op": "AddV2", "input": ["efficientnet-lite4/model/blocks_13/add/x", "efficientnet-lite4/model/blocks_13/random_uniform/RandomUniform"], "attr": {"T": {"type": "DT_FLOAT"}}}, {"name": "efficientnet-lite4/model/blocks_13/Floor", "op": "Floor", "input": ["efficientnet-lite4/model/blocks_13/add"], "attr": {"T": {"type": "DT_FLOAT"}}}, {"name": "efficientnet-lite4/model/blocks_13/mul", "op": "Mul", "input": ["efficientnet-lite4/model/blocks_13/div", "efficientnet-lite4/model/blocks_13/Floor"], "attr": {"T": {"type": "DT_FLOAT"}}}, {"name": "efficientnet-lite4/model/blocks_13/Add_1", "op": "Add", "input": ["efficientnet-lite4/model/blocks_13/mul", "efficientnet-lite4/model/blocks_12/Add_1"], "attr": {"T": {"type": "DT_FLOAT"}}}, {"name": "efficientnet-lite4/model/blocks_14/Relu6", "op": "_FusedConv2D", "input": ["efficientnet-lite4/model/blocks_13/Add_1", "efficientnet-lite4/model/blocks_14/conv2d/Conv2D_weights", "efficientnet-lite4/model/blocks_14/conv2d/Conv2D_bn_offset"], "device": "/device:CPU:0", "attr": {"num_args": {"i": "1"}, "fused_ops": {"list": {"s": ["Qmlhc0FkZA==", "UmVsdTY="]}}, "dilations": {"list": {"i": ["1", "1", "1", "1"]}}, "T": {"type": "DT_FLOAT"}, "padding": {"s": "U0FNRQ=="}, "strides": {"list": {"i": ["1", "1", "1", "1"]}}, "use_cudnn_on_gpu": {"b": true}, "data_format": {"s": "TkhXQw=="}, "explicit_paddings": {"list": {}}, "epsilon": {"f": 0.0}}}, {"name": "efficientnet-lite4/model/blocks_14/depthwise_conv2d/depthwise", "op": "FusedDepthwiseConv2dNative", "input": ["efficientnet-lite4/model/blocks_14/Relu6", "efficientnet-lite4/model/blocks_14/depthwise_conv2d/depthwise_weights", "efficientnet-lite4/model/blocks_14/depthwise_conv2d/depthwise_bn_offset"], "attr": {"fused_ops": {"list": {"s": ["Qmlhc0FkZA==", "UmVsdTY="]}}, "strides": {"list": {"i": ["1", "1", "1", "1"]}}, "T": {"type": "DT_FLOAT"}, "num_args": {"i": "1"}, "explicit_paddings": {"list": {}}, "padding": {"s": "U0FNRQ=="}, "dilations": {"list": {"i": ["1", "1", "1", "1"]}}, "data_format": {"s": "TkhXQw=="}}}, {"name": "efficientnet-lite4/model/blocks_14/tpu_batch_normalization_2/FusedBatchNormV3", "op": "_FusedConv2D", "input": ["efficientnet-lite4/model/blocks_14/depthwise_conv2d/depthwise", "efficientnet-lite4/model/blocks_14/conv2d_1/Conv2D_weights", "efficientnet-lite4/model/blocks_14/conv2d_1/Conv2D_bn_offset"], "device": "/device:CPU:0", "attr": {"data_format": {"s": "TkhXQw=="}, "fused_ops": {"list": {"s": ["Qmlhc0FkZA=="]}}, "T": {"type": "DT_FLOAT"}, "explicit_paddings": {"list": {}}, "strides": {"list": {"i": ["1", "1", "1", "1"]}}, "padding": {"s": "U0FNRQ=="}, "epsilon": {"f": 0.0}, "use_cudnn_on_gpu": {"b": true}, "dilations": {"list": {"i": ["1", "1", "1", "1"]}}, "num_args": {"i": "1"}}}, {"name": "efficientnet-lite4/model/blocks_14/div", "op": "Mul", "input": ["efficientnet-lite4/model/blocks_14/tpu_batch_normalization_2/FusedBatchNormV3", "ConstantFolding/efficientnet-lite4/model/blocks_14/div_recip"], "attr": {"T": {"type": "DT_FLOAT"}}}, {"name": "efficientnet-lite4/model/blocks_14/Shape", "op": "Shape", "input": ["efficientnet-lite4/model/blocks_14/tpu_batch_normalization_2/FusedBatchNormV3"], "attr": {"out_type": {"type": "DT_INT32"}, "T": {"type": "DT_FLOAT"}}}, {"name": "efficientnet-lite4/model/blocks_14/strided_slice", "op": "StridedSlice", "input": ["efficientnet-lite4/model/blocks_14/Shape", "efficientnet-lite4/model/blocks_14/strided_slice/stack", "efficientnet-lite4/model/blocks_14/strided_slice/stack_1", "efficientnet-lite4/model/blocks_14/strided_slice/stack_2"], "attr": {"T": {"type": "DT_INT32"}, "shrink_axis_mask": {"i": "1"}, "new_axis_mask": {"i": "0"}, "Index": {"type": "DT_INT32"}, "begin_mask": {"i": "0"}, "end_mask": {"i": "0"}, "ellipsis_mask": {"i": "0"}}}, {"name": "efficientnet-lite4/model/blocks_14/random_uniform/shape", "op": "Pack", "input": ["efficientnet-lite4/model/blocks_14/strided_slice", "efficientnet-lite4/model/blocks_14/random_uniform/shape/1", "efficientnet-lite4/model/blocks_14/random_uniform/shape/2", "efficientnet-lite4/model/blocks_14/random_uniform/shape/3"], "attr": {"N": {"i": "4"}, "axis": {"i": "0"}, "T": {"type": "DT_INT32"}}}, {"name": "efficientnet-lite4/model/blocks_14/random_uniform/RandomUniform", "op": "RandomUniform", "input": ["efficientnet-lite4/model/blocks_14/random_uniform/shape"], "attr": {"seed": {"i": "0"}, "dtype": {"type": "DT_FLOAT"}, "seed2": {"i": "0"}, "T": {"type": "DT_INT32"}}}, {"name": "efficientnet-lite4/model/blocks_14/add", "op": "AddV2", "input": ["efficientnet-lite4/model/blocks_14/add/x", "efficientnet-lite4/model/blocks_14/random_uniform/RandomUniform"], "attr": {"T": {"type": "DT_FLOAT"}}}, {"name": "efficientnet-lite4/model/blocks_14/Floor", "op": "Floor", "input": ["efficientnet-lite4/model/blocks_14/add"], "attr": {"T": {"type": "DT_FLOAT"}}}, {"name": "efficientnet-lite4/model/blocks_14/mul", "op": "Mul", "input": ["efficientnet-lite4/model/blocks_14/div", "efficientnet-lite4/model/blocks_14/Floor"], "attr": {"T": {"type": "DT_FLOAT"}}}, {"name": "efficientnet-lite4/model/blocks_14/Add_1", "op": "Add", "input": ["efficientnet-lite4/model/blocks_14/mul", "efficientnet-lite4/model/blocks_13/Add_1"], "attr": {"T": {"type": "DT_FLOAT"}}}, {"name": "efficientnet-lite4/model/blocks_15/Relu6", "op": "_FusedConv2D", "input": ["efficientnet-lite4/model/blocks_14/Add_1", "efficientnet-lite4/model/blocks_15/conv2d/Conv2D_weights", "efficientnet-lite4/model/blocks_15/conv2d/Conv2D_bn_offset"], "device": "/device:CPU:0", "attr": {"use_cudnn_on_gpu": {"b": true}, "data_format": {"s": "TkhXQw=="}, "T": {"type": "DT_FLOAT"}, "num_args": {"i": "1"}, "fused_ops": {"list": {"s": ["Qmlhc0FkZA==", "UmVsdTY="]}}, "dilations": {"list": {"i": ["1", "1", "1", "1"]}}, "epsilon": {"f": 0.0}, "padding": {"s": "U0FNRQ=="}, "strides": {"list": {"i": ["1", "1", "1", "1"]}}, "explicit_paddings": {"list": {}}}}, {"name": "efficientnet-lite4/model/blocks_15/depthwise_conv2d/depthwise", "op": "FusedDepthwiseConv2dNative", "input": ["efficientnet-lite4/model/blocks_15/Relu6", "efficientnet-lite4/model/blocks_15/depthwise_conv2d/depthwise_weights", "efficientnet-lite4/model/blocks_15/depthwise_conv2d/depthwise_bn_offset"], "attr": {"explicit_paddings": {"list": {}}, "fused_ops": {"list": {"s": ["Qmlhc0FkZA==", "UmVsdTY="]}}, "padding": {"s": "U0FNRQ=="}, "dilations": {"list": {"i": ["1", "1", "1", "1"]}}, "strides": {"list": {"i": ["1", "1", "1", "1"]}}, "T": {"type": "DT_FLOAT"}, "data_format": {"s": "TkhXQw=="}, "num_args": {"i": "1"}}}, {"name": "efficientnet-lite4/model/blocks_15/tpu_batch_normalization_2/FusedBatchNormV3", "op": "_FusedConv2D", "input": ["efficientnet-lite4/model/blocks_15/depthwise_conv2d/depthwise", "efficientnet-lite4/model/blocks_15/conv2d_1/Conv2D_weights", "efficientnet-lite4/model/blocks_15/conv2d_1/Conv2D_bn_offset"], "device": "/device:CPU:0", "attr": {"dilations": {"list": {"i": ["1", "1", "1", "1"]}}, "use_cudnn_on_gpu": {"b": true}, "data_format": {"s": "TkhXQw=="}, "num_args": {"i": "1"}, "T": {"type": "DT_FLOAT"}, "fused_ops": {"list": {"s": ["Qmlhc0FkZA=="]}}, "strides": {"list": {"i": ["1", "1", "1", "1"]}}, "explicit_paddings": {"list": {}}, "epsilon": {"f": 0.0}, "padding": {"s": "U0FNRQ=="}}}, {"name": "efficientnet-lite4/model/blocks_16/Relu6", "op": "_FusedConv2D", "input": ["efficientnet-lite4/model/blocks_15/tpu_batch_normalization_2/FusedBatchNormV3", "efficientnet-lite4/model/blocks_16/conv2d/Conv2D_weights", "efficientnet-lite4/model/blocks_16/conv2d/Conv2D_bn_offset"], "device": "/device:CPU:0", "attr": {"explicit_paddings": {"list": {}}, "fused_ops": {"list": {"s": ["Qmlhc0FkZA==", "UmVsdTY="]}}, "dilations": {"list": {"i": ["1", "1", "1", "1"]}}, "padding": {"s": "U0FNRQ=="}, "epsilon": {"f": 0.0}, "T": {"type": "DT_FLOAT"}, "strides": {"list": {"i": ["1", "1", "1", "1"]}}, "data_format": {"s": "TkhXQw=="}, "use_cudnn_on_gpu": {"b": true}, "num_args": {"i": "1"}}}, {"name": "efficientnet-lite4/model/blocks_16/depthwise_conv2d/depthwise", "op": "FusedDepthwiseConv2dNative", "input": ["efficientnet-lite4/model/blocks_16/Relu6", "efficientnet-lite4/model/blocks_16/depthwise_conv2d/depthwise_weights", "efficientnet-lite4/model/blocks_16/depthwise_conv2d/depthwise_bn_offset"], "attr": {"explicit_paddings": {"list": {}}, "strides": {"list": {"i": ["1", "1", "1", "1"]}}, "padding": {"s": "U0FNRQ=="}, "fused_ops": {"list": {"s": ["Qmlhc0FkZA==", "UmVsdTY="]}}, "data_format": {"s": "TkhXQw=="}, "num_args": {"i": "1"}, "dilations": {"list": {"i": ["1", "1", "1", "1"]}}, "T": {"type": "DT_FLOAT"}}}, {"name": "efficientnet-lite4/model/blocks_16/tpu_batch_normalization_2/FusedBatchNormV3", "op": "_FusedConv2D", "input": ["efficientnet-lite4/model/blocks_16/depthwise_conv2d/depthwise", "efficientnet-lite4/model/blocks_16/conv2d_1/Conv2D_weights", "efficientnet-lite4/model/blocks_16/conv2d_1/Conv2D_bn_offset"], "device": "/device:CPU:0", "attr": {"fused_ops": {"list": {"s": ["Qmlhc0FkZA=="]}}, "strides": {"list": {"i": ["1", "1", "1", "1"]}}, "use_cudnn_on_gpu": {"b": true}, "T": {"type": "DT_FLOAT"}, "explicit_paddings": {"list": {}}, "num_args": {"i": "1"}, "padding": {"s": "U0FNRQ=="}, "dilations": {"list": {"i": ["1", "1", "1", "1"]}}, "epsilon": {"f": 0.0}, "data_format": {"s": "TkhXQw=="}}}, {"name": "efficientnet-lite4/model/blocks_16/div", "op": "Mul", "input": ["efficientnet-lite4/model/blocks_16/tpu_batch_normalization_2/FusedBatchNormV3", "ConstantFolding/efficientnet-lite4/model/blocks_16/div_recip"], "attr": {"T": {"type": "DT_FLOAT"}}}, {"name": "efficientnet-lite4/model/blocks_16/Shape", "op": "Shape", "input": ["efficientnet-lite4/model/blocks_16/tpu_batch_normalization_2/FusedBatchNormV3"], "attr": {"out_type": {"type": "DT_INT32"}, "T": {"type": "DT_FLOAT"}}}, {"name": "efficientnet-lite4/model/blocks_16/strided_slice", "op": "StridedSlice", "input": ["efficientnet-lite4/model/blocks_16/Shape", "efficientnet-lite4/model/blocks_16/strided_slice/stack", "efficientnet-lite4/model/blocks_16/strided_slice/stack_1", "efficientnet-lite4/model/blocks_16/strided_slice/stack_2"], "attr": {"Index": {"type": "DT_INT32"}, "begin_mask": {"i": "0"}, "end_mask": {"i": "0"}, "new_axis_mask": {"i": "0"}, "T": {"type": "DT_INT32"}, "ellipsis_mask": {"i": "0"}, "shrink_axis_mask": {"i": "1"}}}, {"name": "efficientnet-lite4/model/blocks_16/random_uniform/shape", "op": "Pack", "input": ["efficientnet-lite4/model/blocks_16/strided_slice", "efficientnet-lite4/model/blocks_16/random_uniform/shape/1", "efficientnet-lite4/model/blocks_16/random_uniform/shape/2", "efficientnet-lite4/model/blocks_16/random_uniform/shape/3"], "attr": {"T": {"type": "DT_INT32"}, "axis": {"i": "0"}, "N": {"i": "4"}}}, {"name": "efficientnet-lite4/model/blocks_16/random_uniform/RandomUniform", "op": "RandomUniform", "input": ["efficientnet-lite4/model/blocks_16/random_uniform/shape"], "attr": {"T": {"type": "DT_INT32"}, "seed2": {"i": "0"}, "dtype": {"type": "DT_FLOAT"}, "seed": {"i": "0"}}}, {"name": "efficientnet-lite4/model/blocks_16/add", "op": "AddV2", "input": ["efficientnet-lite4/model/blocks_16/add/x", "efficientnet-lite4/model/blocks_16/random_uniform/RandomUniform"], "attr": {"T": {"type": "DT_FLOAT"}}}, {"name": "efficientnet-lite4/model/blocks_16/Floor", "op": "Floor", "input": ["efficientnet-lite4/model/blocks_16/add"], "attr": {"T": {"type": "DT_FLOAT"}}}, {"name": "efficientnet-lite4/model/blocks_16/mul", "op": "Mul", "input": ["efficientnet-lite4/model/blocks_16/div", "efficientnet-lite4/model/blocks_16/Floor"], "attr": {"T": {"type": "DT_FLOAT"}}}, {"name": "efficientnet-lite4/model/blocks_16/Add_1", "op": "Add", "input": ["efficientnet-lite4/model/blocks_16/mul", "efficientnet-lite4/model/blocks_15/tpu_batch_normalization_2/FusedBatchNormV3"], "attr": {"T": {"type": "DT_FLOAT"}}}, {"name": "efficientnet-lite4/model/blocks_17/Relu6", "op": "_FusedConv2D", "input": ["efficientnet-lite4/model/blocks_16/Add_1", "efficientnet-lite4/model/blocks_17/conv2d/Conv2D_weights", "efficientnet-lite4/model/blocks_17/conv2d/Conv2D_bn_offset"], "device": "/device:CPU:0", "attr": {"dilations": {"list": {"i": ["1", "1", "1", "1"]}}, "T": {"type": "DT_FLOAT"}, "strides": {"list": {"i": ["1", "1", "1", "1"]}}, "padding": {"s": "U0FNRQ=="}, "epsilon": {"f": 0.0}, "data_format": {"s": "TkhXQw=="}, "use_cudnn_on_gpu": {"b": true}, "num_args": {"i": "1"}, "fused_ops": {"list": {"s": ["Qmlhc0FkZA==", "UmVsdTY="]}}, "explicit_paddings": {"list": {}}}}, {"name": "efficientnet-lite4/model/blocks_17/depthwise_conv2d/depthwise", "op": "FusedDepthwiseConv2dNative", "input": ["efficientnet-lite4/model/blocks_17/Relu6", "efficientnet-lite4/model/blocks_17/depthwise_conv2d/depthwise_weights", "efficientnet-lite4/model/blocks_17/depthwise_conv2d/depthwise_bn_offset"], "attr": {"strides": {"list": {"i": ["1", "1", "1", "1"]}}, "T": {"type": "DT_FLOAT"}, "fused_ops": {"list": {"s": ["Qmlhc0FkZA==", "UmVsdTY="]}}, "data_format": {"s": "TkhXQw=="}, "explicit_paddings": {"list": {}}, "dilations": {"list": {"i": ["1", "1", "1", "1"]}}, "num_args": {"i": "1"}, "padding": {"s": "U0FNRQ=="}}}, {"name": "efficientnet-lite4/model/blocks_17/tpu_batch_normalization_2/FusedBatchNormV3", "op": "_FusedConv2D", "input": ["efficientnet-lite4/model/blocks_17/depthwise_conv2d/depthwise", "efficientnet-lite4/model/blocks_17/conv2d_1/Conv2D_weights", "efficientnet-lite4/model/blocks_17/conv2d_1/Conv2D_bn_offset"], "device": "/device:CPU:0", "attr": {"padding": {"s": "U0FNRQ=="}, "num_args": {"i": "1"}, "epsilon": {"f": 0.0}, "explicit_paddings": {"list": {}}, "dilations": {"list": {"i": ["1", "1", "1", "1"]}}, "use_cudnn_on_gpu": {"b": true}, "T": {"type": "DT_FLOAT"}, "fused_ops": {"list": {"s": ["Qmlhc0FkZA=="]}}, "data_format": {"s": "TkhXQw=="}, "strides": {"list": {"i": ["1", "1", "1", "1"]}}}}, {"name": "efficientnet-lite4/model/blocks_17/div", "op": "Mul", "input": ["efficientnet-lite4/model/blocks_17/tpu_batch_normalization_2/FusedBatchNormV3", "ConstantFolding/efficientnet-lite4/model/blocks_17/div_recip"], "attr": {"T": {"type": "DT_FLOAT"}}}, {"name": "efficientnet-lite4/model/blocks_17/Shape", "op": "Shape", "input": ["efficientnet-lite4/model/blocks_17/tpu_batch_normalization_2/FusedBatchNormV3"], "attr": {"T": {"type": "DT_FLOAT"}, "out_type": {"type": "DT_INT32"}}}, {"name": "efficientnet-lite4/model/blocks_17/strided_slice", "op": "StridedSlice", "input": ["efficientnet-lite4/model/blocks_17/Shape", "efficientnet-lite4/model/blocks_17/strided_slice/stack", "efficientnet-lite4/model/blocks_17/strided_slice/stack_1", "efficientnet-lite4/model/blocks_17/strided_slice/stack_2"], "attr": {"T": {"type": "DT_INT32"}, "shrink_axis_mask": {"i": "1"}, "ellipsis_mask": {"i": "0"}, "Index": {"type": "DT_INT32"}, "new_axis_mask": {"i": "0"}, "begin_mask": {"i": "0"}, "end_mask": {"i": "0"}}}, {"name": "efficientnet-lite4/model/blocks_17/random_uniform/shape", "op": "Pack", "input": ["efficientnet-lite4/model/blocks_17/strided_slice", "efficientnet-lite4/model/blocks_17/random_uniform/shape/1", "efficientnet-lite4/model/blocks_17/random_uniform/shape/2", "efficientnet-lite4/model/blocks_17/random_uniform/shape/3"], "attr": {"N": {"i": "4"}, "T": {"type": "DT_INT32"}, "axis": {"i": "0"}}}, {"name": "efficientnet-lite4/model/blocks_17/random_uniform/RandomUniform", "op": "RandomUniform", "input": ["efficientnet-lite4/model/blocks_17/random_uniform/shape"], "attr": {"seed2": {"i": "0"}, "T": {"type": "DT_INT32"}, "seed": {"i": "0"}, "dtype": {"type": "DT_FLOAT"}}}, {"name": "efficientnet-lite4/model/blocks_17/add", "op": "AddV2", "input": ["efficientnet-lite4/model/blocks_17/add/x", "efficientnet-lite4/model/blocks_17/random_uniform/RandomUniform"], "attr": {"T": {"type": "DT_FLOAT"}}}, {"name": "efficientnet-lite4/model/blocks_17/Floor", "op": "Floor", "input": ["efficientnet-lite4/model/blocks_17/add"], "attr": {"T": {"type": "DT_FLOAT"}}}, {"name": "efficientnet-lite4/model/bloc…
{"list": {"i": ["1", "1", "1", "1"]}}, "padding": {"s": "U0FNRQ=="}, "num_args": {"i": "1"}, "strides": {"list": {"i": ["1", "1", "1", "1"]}}, "explicit_paddings": {"list": {}}, "T": {"type": "DT_FLOAT"}, "data_format": {"s": "TkhXQw=="}}}, {"name": "efficientnet-lite4/model/blocks_28/depthwise_conv2d/depthwise", "op": "FusedDepthwiseConv2dNative", "input": ["efficientnet-lite4/model/blocks_28/Relu6", "efficientnet-lite4/model/blocks_28/depthwise_conv2d/depthwise_weights", "efficientnet-lite4/model/blocks_28/depthwise_conv2d/depthwise_bn_offset"], "attr": {"fused_ops": {"list": {"s": ["Qmlhc0FkZA==", "UmVsdTY="]}}, "T": {"type": "DT_FLOAT"}, "padding": {"s": "U0FNRQ=="}, "num_args": {"i": "1"}, "strides": {"list": {"i": ["1", "1", "1", "1"]}}, "explicit_paddings": {"list": {}}, "dilations": {"list": {"i": ["1", "1", "1", "1"]}}, "data_format": {"s": "TkhXQw=="}}}, {"name": "efficientnet-lite4/model/blocks_28/tpu_batch_normalization_2/FusedBatchNormV3", "op": "_FusedConv2D", "input": ["efficientnet-lite4/model/blocks_28/depthwise_conv2d/depthwise", "efficientnet-lite4/model/blocks_28/conv2d_1/Conv2D_weights", "efficientnet-lite4/model/blocks_28/conv2d_1/Conv2D_bn_offset"], "device": "/device:CPU:0", "attr": {"strides": {"list": {"i": ["1", "1", "1", "1"]}}, "padding": {"s": "U0FNRQ=="}, "explicit_paddings": {"list": {}}, "epsilon": {"f": 0.0}, "num_args": {"i": "1"}, "T": {"type": "DT_FLOAT"}, "use_cudnn_on_gpu": {"b": true}, "fused_ops": {"list": {"s": ["Qmlhc0FkZA=="]}}, "dilations": {"list": {"i": ["1", "1", "1", "1"]}}, "data_format": {"s": "TkhXQw=="}}}, {"name": "efficientnet-lite4/model/blocks_28/div", "op": "Mul", "input": ["efficientnet-lite4/model/blocks_28/tpu_batch_normalization_2/FusedBatchNormV3", "ConstantFolding/efficientnet-lite4/model/blocks_28/div_recip"], "attr": {"T": {"type": "DT_FLOAT"}}}, {"name": "efficientnet-lite4/model/blocks_28/Shape", "op": "Shape", "input": ["efficientnet-lite4/model/blocks_28/tpu_batch_normalization_2/FusedBatchNormV3"], "attr": {"T": {"type": "DT_FLOAT"}, "out_type": {"type": "DT_INT32"}}}, {"name": "efficientnet-lite4/model/blocks_28/strided_slice", "op": "StridedSlice", "input": ["efficientnet-lite4/model/blocks_28/Shape", "efficientnet-lite4/model/blocks_28/strided_slice/stack", "efficientnet-lite4/model/blocks_28/strided_slice/stack_1", "efficientnet-lite4/model/blocks_28/strided_slice/stack_2"], "attr": {"end_mask": {"i": "0"}, "ellipsis_mask": {"i": "0"}, "begin_mask": {"i": "0"}, "Index": {"type": "DT_INT32"}, "new_axis_mask": {"i": "0"}, "T": {"type": "DT_INT32"}, "shrink_axis_mask": {"i": "1"}}}, {"name": "efficientnet-lite4/model/blocks_28/random_uniform/shape", "op": "Pack", "input": ["efficientnet-lite4/model/blocks_28/strided_slice", "efficientnet-lite4/model/blocks_28/random_uniform/shape/1", "efficientnet-lite4/model/blocks_28/random_uniform/shape/2", "efficientnet-lite4/model/blocks_28/random_uniform/shape/3"], "attr": {"N": {"i": "4"}, "T": {"type": "DT_INT32"}, "axis": {"i": "0"}}}, {"name": "efficientnet-lite4/model/blocks_28/random_uniform/RandomUniform", "op": "RandomUniform", "input": ["efficientnet-lite4/model/blocks_28/random_uniform/shape"], "attr": {"dtype": {"type": "DT_FLOAT"}, "seed2": {"i": "0"}, "seed": {"i": "0"}, "T": {"type": "DT_INT32"}}}, {"name": "efficientnet-lite4/model/blocks_28/add", "op": "AddV2", "input": ["efficientnet-lite4/model/blocks_28/add/x", "efficientnet-lite4/model/blocks_28/random_uniform/RandomUniform"], "attr": {"T": {"type": "DT_FLOAT"}}}, {"name": "efficientnet-lite4/model/blocks_28/Floor", "op": "Floor", "input": ["efficientnet-lite4/model/blocks_28/add"], "attr": {"T": {"type": "DT_FLOAT"}}}, {"name": "efficientnet-lite4/model/blocks_28/mul", "op": "Mul", "input": ["efficientnet-lite4/model/blocks_28/div", "efficientnet-lite4/model/blocks_28/Floor"], "attr": {"T": {"type": "DT_FLOAT"}}}, {"name": "efficientnet-lite4/model/blocks_28/Add_1", "op": "Add", "input": ["efficientnet-lite4/model/blocks_28/mul", "efficientnet-lite4/model/blocks_27/Add_1"], "attr": {"T": {"type": "DT_FLOAT"}}}, {"name": "efficientnet-lite4/model/blocks_29/Relu6", "op": "_FusedConv2D", "input": ["efficientnet-lite4/model/blocks_28/Add_1", "efficientnet-lite4/model/blocks_29/conv2d/Conv2D_weights", "efficientnet-lite4/model/blocks_29/conv2d/Conv2D_bn_offset"], "device": "/device:CPU:0", "attr": {"use_cudnn_on_gpu": {"b": true}, "num_args": {"i": "1"}, "T": {"type": "DT_FLOAT"}, "explicit_paddings": {"list": {}}, "dilations": {"list": {"i": ["1", "1", "1", "1"]}}, "strides": {"list": {"i": ["1", "1", "1", "1"]}}, "fused_ops": {"list": {"s": ["Qmlhc0FkZA==", "UmVsdTY="]}}, "epsilon": {"f": 0.0}, "data_format": {"s": "TkhXQw=="}, "padding": {"s": "U0FNRQ=="}}}, {"name": "efficientnet-lite4/model/blocks_29/depthwise_conv2d/depthwise", "op": "FusedDepthwiseConv2dNative", "input": ["efficientnet-lite4/model/blocks_29/Relu6", "efficientnet-lite4/model/blocks_29/depthwise_conv2d/depthwise_weights", "efficientnet-lite4/model/blocks_29/depthwise_conv2d/depthwise_bn_offset"], "attr": {"T": {"type": "DT_FLOAT"}, "padding": {"s": "U0FNRQ=="}, "fused_ops": {"list": {"s": ["Qmlhc0FkZA==", "UmVsdTY="]}}, "explicit_paddings": {"list": {}}, "strides": {"list": {"i": ["1", "1", "1", "1"]}}, "dilations": {"list": {"i": ["1", "1", "1", "1"]}}, "data_format": {"s": "TkhXQw=="}, "num_args": {"i": "1"}}}, {"name": "efficientnet-lite4/model/blocks_29/tpu_batch_normalization_2/FusedBatchNormV3", "op": "_FusedConv2D", "input": ["efficientnet-lite4/model/blocks_29/depthwise_conv2d/depthwise", "efficientnet-lite4/model/blocks_29/conv2d_1/Conv2D_weights", "efficientnet-lite4/model/blocks_29/conv2d_1/Conv2D_bn_offset"], "device": "/device:CPU:0", "attr": {"epsilon": {"f": 0.0}, "padding": {"s": "U0FNRQ=="}, "data_format": {"s": "TkhXQw=="}, "use_cudnn_on_gpu": {"b": true}, "dilations": {"list": {"i": ["1", "1", "1", "1"]}}, "T": {"type": "DT_FLOAT"}, "fused_ops": {"list": {"s": ["Qmlhc0FkZA=="]}}, "explicit_paddings": {"list": {}}, "num_args": {"i": "1"}, "strides": {"list": {"i": ["1", "1", "1", "1"]}}}}, {"name": "efficientnet-lite4/model/head/Relu6", "op": "_FusedConv2D", "input": ["efficientnet-lite4/model/blocks_29/tpu_batch_normalization_2/FusedBatchNormV3", "efficientnet-lite4/model/head/conv2d/Conv2D_weights", "efficientnet-lite4/model/head/conv2d/Conv2D_bn_offset"], "device": "/device:CPU:0", "attr": {"fused_ops": {"list": {"s": ["Qmlhc0FkZA==", "UmVsdTY="]}}, "padding": {"s": "U0FNRQ=="}, "explicit_paddings": {"list": {}}, "num_args": {"i": "1"}, "data_format": {"s": "TkhXQw=="}, "strides": {"list": {"i": ["1", "1", "1", "1"]}}, "T": {"type": "DT_FLOAT"}, "dilations": {"list": {"i": ["1", "1", "1", "1"]}}, "epsilon": {"f": 0.0}, "use_cudnn_on_gpu": {"b": true}}}, {"name": "efficientnet-lite4/model/head/global_average_pooling2d/Mean", "op": "Mean", "input": ["efficientnet-lite4/model/head/Relu6", "efficientnet-lite4/model/head/global_average_pooling2d/Mean/reduction_indices"], "attr": {"keep_dims": {"b": false}, "T": {"type": "DT_FLOAT"}, "Tidx": {"type": "DT_INT32"}}}, {"name": "efficientnet-lite4/model/head/dropout/dropout/Mul", "op": "Mul", "input": ["efficientnet-lite4/model/head/dropout/dropout/Const", "efficientnet-lite4/model/head/global_average_pooling2d/Mean"], "attr": {"T": {"type": "DT_FLOAT"}, "_grappler_ArithmeticOptimizer_MinimizeBroadcasts": {"b": true}}}, {"name": "efficientnet-lite4/model/head/dropout/dropout/Shape", "op": "Shape", "input": ["efficientnet-lite4/model/head/global_average_pooling2d/Mean"], "attr": {"out_type": {"type": "DT_INT32"}, "T": {"type": "DT_FLOAT"}}}, {"name": "efficientnet-lite4/model/head/dropout/dropout/random_uniform/RandomUniform", "op": "RandomUniform", "input": ["efficientnet-lite4/model/head/dropout/dropout/Shape"], "attr": {"dtype": {"type": "DT_FLOAT"}, "seed2": {"i": "0"}, "seed": {"i": "0"}, "T": {"type": "DT_INT32"}}}, {"name": "efficientnet-lite4/model/head/dropout/dropout/GreaterEqual", "op": "GreaterEqual", "input": ["efficientnet-lite4/model/head/dropout/dropout/random_uniform/RandomUniform", "efficientnet-lite4/model/head/dropout/dropout/GreaterEqual/y"], "attr": {"T": {"type": "DT_FLOAT"}}}, {"name": "efficientnet-lite4/model/head/dropout/dropout/Cast", "op": "Cast", "input": ["efficientnet-lite4/model/head/dropout/dropout/GreaterEqual"], "attr": {"Truncate": {"b": false}, "SrcT": {"type": "DT_BOOL"}, "DstT": {"type": "DT_FLOAT"}}}, {"name": "efficientnet-lite4/model/head/dropout/dropout/Mul_1", "op": "Mul", "input": ["efficientnet-lite4/model/head/dropout/dropout/Mul", "efficientnet-lite4/model/head/dropout/dropout/Cast"], "attr": {"T": {"type": "DT_FLOAT"}, "_grappler_ArithmeticOptimizer_MinimizeBroadcasts": {"b": true}}}, {"name": "efficientnet-lite4/model/head/dense/BiasAdd", "op": "_FusedMatMul", "input": ["efficientnet-lite4/model/head/dropout/dropout/Mul_1", "efficientnet-lite4/head/dense/kernel", "efficientnet-lite4/head/dense/bias"], "device": "/device:CPU:0", "attr": {"transpose_b": {"b": false}, "transpose_a": {"b": false}, "T": {"type": "DT_FLOAT"}, "epsilon": {"f": 0.0}, "fused_ops": {"list": {"s": ["Qmlhc0FkZA=="]}}, "num_args": {"i": "1"}}}, {"name": "logits", "op": "Identity", "input": ["efficientnet-lite4/model/head/dense/BiasAdd"], "attr": {"T": {"type": "DT_FLOAT"}}}], "library": {}, "versions": {"producer": 561}}, "weightsManifest": [{"paths": ["group1-shard1of13.bin", "group1-shard2of13.bin", "group1-shard3of13.bin", "group1-shard4of13.bin", "group1-shard5of13.bin", "group1-shard6of13.bin", "group1-shard7of13.bin", "group1-shard8of13.bin", "group1-shard9of13.bin", "group1-shard10of13.bin", "group1-shard11of13.bin", "group1-shard12of13.bin", "group1-shard13of13.bin"], "weights": [{"name": "efficientnet-lite4/model/head/dropout/dropout/Const", "shape": [], "dtype": "float32"}, {"name": "ConstantFolding/efficientnet-lite4/model/blocks_28/div_recip", "shape": [], "dtype": "float32"}, {"name": "efficientnet-lite4/model/blocks_28/add/x", "shape": [], "dtype": "float32"}, {"name": "efficientnet-lite4/model/blocks_28/strided_slice/stack", "shape": [1], "dtype": "int32"}, {"name": "efficientnet-lite4/model/blocks_28/strided_slice/stack_1", "shape": [1], "dtype": "int32"}, {"name": "efficientnet-lite4/model/blocks_28/strided_slice/stack_2", "shape": [1], "dtype": "int32"}, {"name": "efficientnet-lite4/model/blocks_28/random_uniform/shape/1", "shape": [], "dtype": "int32"}, {"name": "efficientnet-lite4/model/blocks_28/random_uniform/shape/2", "shape": [], "dtype": "int32"}, {"name": "efficientnet-lite4/model/blocks_28/random_uniform/shape/3", "shape": [], "dtype": "int32"}, {"name": "ConstantFolding/efficientnet-lite4/model/blocks_27/div_recip", "shape": [], "dtype": "float32"}, {"name": "efficientnet-lite4/model/blocks_27/add/x", "shape": [], "dtype": "float32"}, {"name": "efficientnet-lite4/model/blocks_27/strided_slice/stack", "shape": [1], "dtype": "int32"}, {"name": "efficientnet-lite4/model/blocks_27/strided_slice/stack_1", "shape": [1], "dtype": "int32"}, {"name": "efficientnet-lite4/model/blocks_27/strided_slice/stack_2", "shape": [1], "dtype": "int32"}, {"name": "efficientnet-lite4/model/blocks_27/random_uniform/shape/1", "shape": [], "dtype": "int32"}, {"name": "efficientnet-lite4/model/blocks_27/random_uniform/shape/2", "shape": [], "dtype": "int32"}, {"name": "efficientnet-lite4/model/blocks_27/random_uniform/shape/3", "shape": [], "dtype": "int32"}, {"name": "ConstantFolding/efficientnet-lite4/model/blocks_26/div_recip", "shape": [], "dtype": "float32"}, {"name": "efficientnet-lite4/model/blocks_26/add/x", "shape": [], "dtype": "float32"}, {"name": "efficientnet-lite4/model/blocks_26/strided_slice/stack", "shape": [1], "dtype": "int32"}, {"name": "efficientnet-lite4/model/blocks_26/strided_slice/stack_1", "shape": [1], "dtype": "int32"}, {"name": "efficientnet-lite4/model/blocks_26/strided_slice/stack_2", "shape": [1], "dtype": "int32"}, {"name": "efficientnet-lite4/model/blocks_26/random_uniform/shape/1", "shape": [], "dtype": "int32"}, {"name": "efficientnet-lite4/model/blocks_26/random_uniform/shape/2", "shape": [], "dtype": "int32"}, {"name": "efficientnet-lite4/model/blocks_26/random_uniform/shape/3", "shape": [], "dtype": "int32"}, {"name": "ConstantFolding/efficientnet-lite4/model/blocks_25/div_recip", "shape": [], "dtype": "float32"}, {"name": "efficientnet-lite4/model/blocks_25/add/x", "shape": [], "dtype": "float32"}, {"name": "efficientnet-lite4/model/blocks_25/strided_slice/stack", "shape": [1], "dtype": "int32"}, {"name": "efficientnet-lite4/model/blocks_25/strided_slice/stack_1", "shape": [1], "dtype": "int32"}, {"name": "efficientnet-lite4/model/blocks_25/strided_slice/stack_2", "shape": [1], "dtype": "int32"}, {"name": "efficientnet-lite4/model/blocks_25/random_uniform/shape/1", "shape": [], "dtype": "int32"}, {"name": "efficientnet-lite4/model/blocks_25/random_uniform/shape/2", "shape": [], "dtype": "int32"}, {"name": "efficientnet-lite4/model/blocks_25/random_uniform/shape/3", "shape": [], "dtype": "int32"}, {"name": "ConstantFolding/efficientnet-lite4/model/blocks_24/div_recip", "shape": [], "dtype": "float32"}, {"name": "efficientnet-lite4/model/blocks_24/add/x", "shape": [], "dtype": "float32"}, {"name": "efficientnet-lite4/model/blocks_24/strided_slice/stack", "shape": [1], "dtype": "int32"}, {"name": "efficientnet-lite4/model/blocks_24/strided_slice/stack_1", "shape": [1], "dtype": "int32"}, {"name": "efficientnet-lite4/model/blocks_24/strided_slice/stack_2", "shape": [1], "dtype": "int32"}, {"name": "efficientnet-lite4/model/blocks_24/random_uniform/shape/1", "shape": [], "dtype": "int32"}, {"name": "efficientnet-lite4/model/blocks_24/random_uniform/shape/2", "shape": [], "dtype": "int32"}, {"name": "efficientnet-lite4/model/blocks_24/random_uniform/shape/3", "shape": [], "dtype": "int32"}, {"name": "ConstantFolding/efficientnet-lite4/model/blocks_23/div_recip", "shape": [], "dtype": "float32"}, {"name": "efficientnet-lite4/model/blocks_23/add/x", "shape": [], "dtype": "float32"}, {"name": "efficientnet-lite4/model/blocks_23/strided_slice/stack", "shape": [1], "dtype": "int32"}, {"name": "efficientnet-lite4/model/blocks_23/strided_slice/stack_1", "shape": [1], "dtype": "int32"}, {"name": "efficientnet-lite4/model/blocks_23/strided_slice/stack_2", "shape": [1], "dtype": "int32"}, {"name": "efficientnet-lite4/model/blocks_23/random_uniform/shape/1", "shape": [], "dtype": "int32"}, {"name": "efficientnet-lite4/model/blocks_23/random_uniform/shape/2", "shape": [], "dtype": "int32"}, {"name": "efficientnet-lite4/model/blocks_23/random_uniform/shape/3", "shape": [], "dtype": "int32"}, {"name": "ConstantFolding/efficientnet-lite4/model/blocks_22/div_recip", "shape": [], "dtype": "float32"}, {"name": "efficientnet-lite4/model/blocks_22/add/x", "shape": [], "dtype": "float32"}, {"name": "efficientnet-lite4/model/blocks_22/strided_slice/stack", "shape": [1], "dtype": "int32"}, {"name": "efficientnet-lite4/model/blocks_22/strided_slice/stack_1", "shape": [1], "dtype": "int32"}, {"name": "efficientnet-lite4/model/blocks_22/strided_slice/stack_2", "shape": [1], "dtype": "int32"}, {"name": "efficientnet-lite4/model/blocks_22/random_uniform/shape/1", "shape": [], "dtype": "int32"}, {"name": "efficientnet-lite4/model/blocks_22/random_uniform/shape/2", "shape": [], "dtype": "int32"}, {"name": "efficientnet-lite4/model/blocks_22/random_uniform/shape/3", "shape": [], "dtype": "int32"}, {"name": "ConstantFolding/efficientnet-lite4/model/blocks_20/div_recip", "shape": [], "dtype": "float32"}, {"name": "efficientnet-lite4/model/blocks_20/add/x", "shape": [], "dtype": "float32"}, {"name": "efficientnet-lite4/model/blocks_20/strided_slice/stack", "shape": [1], "dtype": "int32"}, {"name": "efficientnet-lite4/model/blocks_20/strided_slice/stack_1", "shape": [1], "dtype": "int32"}, {"name": "efficientnet-lite4/model/blocks_20/strided_slice/stack_2", "shape": [1], "dtype": "int32"}, {"name": "efficientnet-lite4/model/blocks_20/random_uniform/shape/1", "shape": [], "dtype": "int32"}, {"name": "efficientnet-lite4/model/blocks_20/random_uniform/shape/2", "shape": [], "dtype": "int32"}, {"name": "efficientnet-lite4/model/blocks_20/random_uniform/shape/3", "shape": [], "dtype": "int32"}, {"name": "ConstantFolding/efficientnet-lite4/model/blocks_19/div_recip", "shape": [], "dtype": "float32"}, {"name": "efficientnet-lite4/model/blocks_19/add/x", "shape": [], "dtype": "float32"}, {"name": "efficientnet-lite4/model/blocks_19/strided_slice/stack", "shape": [1], "dtype": "int32"}, {"name": "efficientnet-lite4/model/blocks_19/strided_slice/stack_1", "shape": [1], "dtype": "int32"}, {"name": "efficientnet-lite4/model/blocks_19/strided_slice/stack_2", "shape": [1], "dtype": "int32"}, {"name": "efficientnet-lite4/model/blocks_19/random_uniform/shape/1", "shape": [], "dtype": "int32"}, {"name": "efficientnet-lite4/model/blocks_19/random_uniform/shape/2", "shape": [], "dtype": "int32"}, {"name": "efficientnet-lite4/model/blocks_19/random_uniform/shape/3", "shape": [], "dtype": "int32"}, {"name": "ConstantFolding/efficientnet-lite4/model/blocks_18/div_recip", "shape": [], "dtype": "float32"}, {"name": "efficientnet-lite4/model/blocks_18/add/x", "shape": [], "dtype": "float32"}, {"name": "efficientnet-lite4/model/blocks_18/strided_slice/stack", "shape": [1], "dtype": "int32"}, {"name": "efficientnet-lite4/model/blocks_18/strided_slice/stack_1", "shape": [1], "dtype": "int32"}, {"name": "efficientnet-lite4/model/blocks_18/strided_slice/stack_2", "shape": [1], "dtype": "int32"}, {"name": "efficientnet-lite4/model/blocks_18/random_uniform/shape/1", "shape": [], "dtype": "int32"}, {"name": "efficientnet-lite4/model/blocks_18/random_uniform/shape/2", "shape": [], "dtype": "int32"}, {"name": "efficientnet-lite4/model/blocks_18/random_uniform/shape/3", "shape": [], "dtype": "int32"}, {"name": "ConstantFolding/efficientnet-lite4/model/blocks_17/div_recip", "shape": [], "dtype": "float32"}, {"name": "efficientnet-lite4/model/blocks_17/add/x", "shape": [], "dtype": "float32"}, {"name": "efficientnet-lite4/model/blocks_17/strided_slice/stack", "shape": [1], "dtype": "int32"}, {"name": "efficientnet-lite4/model/blocks_17/strided_slice/stack_1", "shape": [1], "dtype": "int32"}, {"name": "efficientnet-lite4/model/blocks_17/strided_slice/stack_2", "shape": [1], "dtype": "int32"}, {"name": "efficientnet-lite4/model/blocks_17/random_uniform/shape/1", "shape": [], "dtype": "int32"}, {"name": "efficientnet-lite4/model/blocks_17/random_uniform/shape/2", "shape": [], "dtype": "int32"}, {"name": "efficientnet-lite4/model/blocks_17/random_uniform/shape/3", "shape": [], "dtype": "int32"}, {"name": "ConstantFolding/efficientnet-lite4/model/blocks_16/div_recip", "shape": [], "dtype": "float32"}, {"name": "efficientnet-lite4/model/blocks_16/add/x", "shape": [], "dtype": "float32"}, {"name": "efficientnet-lite4/model/blocks_16/strided_slice/stack", "shape": [1], "dtype": "int32"}, {"name": "efficientnet-lite4/model/blocks_16/strided_slice/stack_1", "shape": [1], "dtype": "int32"}, {"name": "efficientnet-lite4/model/blocks_16/strided_slice/stack_2", "shape": [1], "dtype": "int32"}, {"name": "efficientnet-lite4/model/blocks_16/random_uniform/shape/1", "shape": [], "dtype": "int32"}, {"name": "efficientnet-lite4/model/blocks_16/random_uniform/shape/2", "shape": [], "dtype": "int32"}, {"name": "efficientnet-lite4/model/blocks_16/random_uniform/shape/3", "shape": [], "dtype": "int32"}, {"name": "ConstantFolding/efficientnet-lite4/model/blocks_14/div_recip", "shape": [], "dtype": "float32"}, {"name": "efficientnet-lite4/model/blocks_14/add/x", "shape": [], "dtype": "float32"}, {"name": "efficientnet-lite4/model/blocks_14/strided_slice/stack", "shape": [1], "dtype": "int32"}, {"name": "efficientnet-lite4/model/blocks_14/strided_slice/stack_1", "shape": [1], "dtype": "int32"}, {"name": "efficientnet-lite4/model/blocks_14/strided_slice/stack_2", "shape": [1], "dtype": "int32"}, {"name": "efficientnet-lite4/model/blocks_14/random_uniform/shape/1", "shape": [], "dtype": "int32"}, {"name": "efficientnet-lite4/model/blocks_14/random_uniform/shape/2", "shape": [], "dtype": "int32"}, {"name": "efficientnet-lite4/model/blocks_14/random_uniform/shape/3", "shape": [], "dtype": "int32"}, {"name": "ConstantFolding/efficientnet-lite4/model/blocks_13/div_recip", "shape": [], "dtype": "float32"}, {"name": "efficientnet-lite4/model/blocks_13/add/x", "shape": [], "dtype": "float32"}, {"name": "efficientnet-lite4/model/blocks_13/strided_slice/stack", "shape": [1], "dtype": "int32"}, {"name": "efficientnet-lite4/model/blocks_13/strided_slice/stack_1", "shape": [1], "dtype": "int32"}, {"name": "efficientnet-lite4/model/blocks_13/strided_slice/stack_2", "shape": [1], "dtype": "int32"}, {"name": "efficientnet-lite4/model/blocks_13/random_uniform/shape/1", "shape": [], "dtype": "int32"}, {"name": "efficientnet-lite4/model/blocks_13/random_uniform/shape/2", "shape": [], "dtype": "int32"}, {"name": "efficientnet-lite4/model/blocks_13/random_uniform/shape/3", "shape": [], "dtype": "int32"}, {"name": "ConstantFolding/efficientnet-lite4/model/blocks_12/div_recip", "shape": [], "dtype": "float32"}, {"name": "efficientnet-lite4/model/blocks_12/add/x", "shape": [], "dtype": "float32"}, {"name": "efficientnet-lite4/model/blocks_12/strided_slice/stack", "shape": [1], "dtype": "int32"}, {"name": "efficientnet-lite4/model/blocks_12/strided_slice/stack_1", "shape": [1], "dtype": "int32"}, {"name": "efficientnet-lite4/model/blocks_12/strided_slice/stack_2", "shape": [1], "dtype": "int32"}, {"name": "efficientnet-lite4/model/blocks_12/random_uniform/shape/1", "shape": [], "dtype": "int32"}, {"name": "efficientnet-lite4/model/blocks_12/random_uniform/shape/2", "shape": [], "dtype": "int32"}, {"name": "efficientnet-lite4/model/blocks_12/random_uniform/shape/3", "shape": [], "dtype": "int32"}, {"name": "ConstantFolding/efficientnet-lite4/model/blocks_11/div_recip", "shape": [], "dtype": "float32"}, {"name": "efficientnet-lite4/model/blocks_11/add/x", "shape": [], "dtype": "float32"}, {"name": "efficientnet-lite4/model/blocks_11/strided_slice/stack", "shape": [1], "dtype": "int32"}, {"name": "efficientnet-lite4/model/blocks_11/strided_slice/stack_1", "shape": [1], "dtype": "int32"}, {"name": "efficientnet-lite4/model/blocks_11/strided_slice/stack_2", "shape": [1], "dtype": "int32"}, {"name": "efficientnet-lite4/model/blocks_11/random_uniform/shape/1", "shape": [], "dtype": "int32"}, {"name": "efficientnet-lite4/model/blocks_11/random_uniform/shape/2", "shape": [], "dtype": "int32"}, {"name": "efficientnet-lite4/model/blocks_11/random_uniform/shape/3", "shape": [], "dtype": "int32"}, {"name": "ConstantFolding/efficientnet-lite4/model/blocks_10/div_recip", "shape": [], "dtype": "float32"}, {"name": "efficientnet-lite4/model/blocks_10/add/x", "shape": [], "dtype": "float32"}, {"name": "efficientnet-lite4/model/blocks_10/strided_slice/stack", "shape": [1], "dtype": "int32"}, {"name": "efficientnet-lite4/model/blocks_10/strided_slice/stack_1", "shape": [1], "dtype": "int32"}, {"name": "efficientnet-lite4/model/blocks_10/strided_slice/stack_2", "shape": [1], "dtype": "int32"}, {"name": "efficientnet-lite4/model/blocks_10/random_uniform/shape/1", "shape": [], "dtype": "int32"}, {"name": "efficientnet-lite4/model/blocks_10/random_uniform/shape/2", "shape": [], "dtype": "int32"}, {"name": "efficientnet-lite4/model/blocks_10/random_uniform/shape/3", "shape": [], "dtype": "int32"}, {"name": "ConstantFolding/efficientnet-lite4/model/blocks_8/div_recip", "shape": [], "dtype": "float32"}, {"name": "efficientnet-lite4/model/blocks_8/add/x", "shape": [], "dtype": "float32"}, {"name": "efficientnet-lite4/model/blocks_8/strided_slice/stack", "shape": [1], "dtype": "int32"}, {"name": "efficientnet-lite4/model/blocks_8/strided_slice/stack_1", "shape": [1], "dtype": "int32"}, {"name": "efficientnet-lite4/model/blocks_8/strided_slice/stack_2", "shape": [1], "dtype": "int32"}, {"name": "efficientnet-lite4/model/blocks_8/random_uniform/shape/1", "shape": [], "dtype": "int32"}, {"name": "efficientnet-lite4/model/blocks_8/random_uniform/shape/2", "shape": [], "dtype": "int32"}, {"name": "efficientnet-lite4/model/blocks_8/random_uniform/shape/3", "shape": [], "dtype": "int32"}, {"name": "ConstantFolding/efficientnet-lite4/model/blocks_7/div_recip", "shape": [], "dtype": "float32"}, {"name": "efficientnet-lite4/model/blocks_7/add/x", "shape": [], "dtype": "float32"}, {"name": "efficientnet-lite4/model/blocks_7/strided_slice/stack", "shape": [1], "dtype": "int32"}, {"name": "efficientnet-lite4/model/blocks_7/strided_slice/stack_1", "shape": [1], "dtype": "int32"}, {"name": "efficientnet-lite4/model/blocks_7/strided_slice/stack_2", "shape": [1], "dtype": "int32"}, {"name": "efficientnet-lite4/model/blocks_7/random_uniform/shape/1", "shape": [], "dtype": "int32"}, {"name": "efficientnet-lite4/model/blocks_7/random_uniform/shape/2", "shape": [], "dtype": "int32"}, {"name": "efficientnet-lite4/model/blocks_7/random_uniform/shape/3", "shape": [], "dtype": "int32"}, {"name": "ConstantFolding/efficientnet-lite4/model/blocks_6/div_recip", "shape": [], "dtype": "float32"}, {"name": "efficientnet-lite4/model/blocks_6/add/x", "shape": [], "dtype": "float32"}, {"name": "efficientnet-lite4/model/blocks_6/strided_slice/stack", "shape": [1], "dtype": "int32"}, {"name": "efficientnet-lite4/model/blocks_6/strided_slice/stack_1", "shape": [1], "dtype": "int32"}, {"name": "efficientnet-lite4/model/blocks_6/strided_slice/stack_2", "shape": [1], "dtype": "int32"}, {"name": "efficientnet-lite4/model/blocks_6/random_uniform/shape/1", "shape": [], "dtype": "int32"}, {"name": "efficientnet-lite4/model/blocks_6/random_uniform/shape/2", "shape": [], "dtype": "int32"}, {"name": "efficientnet-lite4/model/blocks_6/random_uniform/shape/3", "shape": [], "dtype": "int32"}, {"name": "ConstantFolding/efficientnet-lite4/model/blocks_4/div_recip", "shape": [], "dtype": "float32"}, {"name": "efficientnet-lite4/model/blocks_4/add/x", "shape": [], "dtype": "float32"}, {"name": "efficientnet-lite4/model/blocks_4/strided_slice/stack", "shape": [1], "dtype": "int32"}, {"name": "efficientnet-lite4/model/blocks_4/strided_slice/stack_1", "shape": [1], "dtype": "int32"}, {"name": "efficientnet-lite4/model/blocks_4/strided_slice/stack_2", "shape": [1], "dtype": "int32"}, {"name": "efficientnet-lite4/model/blocks_4/random_uniform/shape/1", "shape": [], "dtype": "int32"}, {"name": "efficientnet-lite4/model/blocks_4/random_uniform/shape/2", "shape": [], "dtype": "int32"}, {"name": "efficientnet-lite4/model/blocks_4/random_uniform/shape/3", "shape": [], "dtype": "int32"}, {"name": "ConstantFolding/efficientnet-lite4/model/blocks_3/div_recip", "shape": [], "dtype": "float32"}, {"name": "efficientnet-lite4/model/blocks_3/add/x", "shape": [], "dtype": "float32"}, {"name": "efficientnet-lite4/model/blocks_3/strided_slice/stack", "shape": [1], "dtype": "int32"}, {"name": "efficientnet-lite4/model/blocks_3/strided_slice/stack_1", "shape": [1], "dtype": "int32"}, {"name": "efficientnet-lite4/model/blocks_3/strided_slice/stack_2", "shape": [1], "dtype": "int32"}, {"name": "efficientnet-lite4/model/blocks_3/random_uniform/shape/1", "shape": [], "dtype": "int32"}, {"name": "efficientnet-lite4/model/blocks_3/random_uniform/shape/2", "shape": [], "dtype": "int32"}, {"name": "efficientnet-lite4/model/blocks_3/random_uniform/shape/3", "shape": [], "dtype": "int32"}, {"name": "ConstantFolding/efficientnet-lite4/model/blocks_2/div_recip", "shape": [], "dtype": "float32"}, {"name": "efficientnet-lite4/model/blocks_2/add/x", "shape": [], "dtype": "float32"}, {"name": "efficientnet-lite4/model/blocks_2/strided_slice/stack", "shape": [1], "dtype": "int32"}, {"name": "efficientnet-lite4/model/blocks_2/strided_slice/stack_1", "shape": [1], "dtype": "int32"}, {"name": "efficientnet-lite4/model/blocks_2/strided_slice/stack_2", "shape": [1], "dtype": "int32"}, {"name": "efficientnet-lite4/model/blocks_2/random_uniform/shape/1", "shape": [], "dtype": "int32"}, {"name": "efficientnet-lite4/model/blocks_2/random_uniform/shape/2", "shape": [], "dtype": "int32"}, {"name": "efficientnet-lite4/model/blocks_2/random_uniform/shape/3", "shape": [], "dtype": "int32"}, {"name": "Const", "shape": [], "dtype": "float32"}, {"name": "Const_1", "shape": [], "dtype": "float32"}, {"name": "efficientnet-lite4/model/head/global_average_pooling2d/Mean/reduction_indices", "shape": [2], "dtype": "int32"}, {"name": "efficientnet-lite4/model/head/dropout/dropout/GreaterEqual/y", "shape": [], "dtype": "float32"}, {"name": "efficientnet-lite4/head/dense/kernel", "shape": [1280, 1000], "dtype": "float32"}, {"name": "efficientnet-lite4/head/dense/bias", "shape": [1000], "dtype": "float32"}, {"name": "efficientnet-lite4/model/stem/conv2d/Conv2D_weights", "shape": [3, 3, 3, 32], "dtype": "float32"}, {"name": "efficientnet-lite4/model/blocks_26/depthwise_conv2d/depthwise_weights", "shape": [5, 5, 1632, 1], "dtype": "float32"}, {"name": "efficientnet-lite4/model/stem/conv2d/Conv2D_bn_offset", "shape": [32], "dtype": "float32"}, {"name": "efficientnet-lite4/model/blocks_0/depthwise_conv2d/depthwise_weights", "shape": [3, 3, 32, 1], "dtype": "float32"}, {"name": "efficientnet-lite4/model/blocks_0/depthwise_conv2d/depthwise_bn_offset", "shape": [32], "dtype": "float32"}, {"name": "efficientnet-lite4/model/blocks_0/conv2d/Conv2D_weights", "shape": [1, 1, 32, 24], "dtype": "float32"}, {"name": "efficientnet-lite4/model/blocks_26/depthwise_conv2d/depthwise_bn_offset", "shape": [1632], "dtype": "float32"}, {"name": "efficientnet-lite4/model/blocks_0/conv2d/Conv2D_bn_offset", "shape": [24], "dtype": "float32"}, {"name": "efficientnet-lite4/model/blocks_1/conv2d/Conv2D_weights", "shape": [1, 1, 24, 144], "dtype": "float32"}, {"name": "efficientnet-lite4/model/blocks_1/conv2d/Conv2D_bn_offset", "shape": [144], "dtype": "float32"}, {"name": "efficientnet-lite4/model/blocks_1/depthwise_conv2d/depthwise_weights", "shape": [3, 3, 144, 1], "dtype": "float32"}, {"name": "efficientnet-lite4/model/blocks_1/depthwise_conv2d/depthwise_bn_offset", "shape": [144], "dtype": "float32"}, {"name": "efficientnet-lite4/model/blocks_1/conv2d_1/Conv2D_weights", "shape": [1, 1, 144, 32], "dtype": "float32"}, {"name": "efficientnet-lite4/model/blocks_26/conv2d_1/Conv2D_weights", "shape": [1, 1, 1632, 272], "dtype": "float32"}, {"name": "efficientnet-lite4/model/blocks_1/conv2d_1/Conv2D_bn_offset", "shape": [32], "dtype": "float32"}, {"name": "efficientnet-lite4/model/blocks_2/conv2d/Conv2D_weights", "shape": [1, 1, 32, 192], "dtype": "float32"}, {"name": "efficientnet-lite4/model/head/conv2d/Conv2D_bn_offset", "shape": [1280], "dtype": "float32"}, {"name": "efficientnet-lite4/model/blocks_2/conv2d/Conv2D_bn_offset", "shape": [192], "dtype": "float32"}, {"name": "efficientnet-lite4/model/blocks_26/conv2d_1/Conv2D_bn_offset", "shape": [272], "dtype": "float32"}, {"name": "efficientnet-lite4/model/blocks_2/depthwise_conv2d/depthwise_weights", "shape": [3, 3, 192, 1], "dtype": "float32"}, {"name": "efficientnet-lite4/model/blocks_2/depthwise_conv2d/depthwise_bn_offset", "shape": [192], "dtype": "float32"}, {"name": "efficientnet-lite4/model/blocks_2/conv2d_1/Conv2D_weights", "shape": [1, 1, 192, 32], "dtype": "float32"}, {"name": "efficientnet-lite4/model/blocks_2/conv2d_1/Conv2D_bn_offset", "shape": [32], "dtype": "float32"}, {"name": "efficientnet-lite4/model/blocks_3/conv2d/Conv2D_weights", "shape": [1, 1, 32, 192], "dtype": "float32"}, {"name": "efficientnet-lite4/model/blocks_3/conv2d/Conv2D_bn_offset", "shape": [192], "dtype": "float32"}, {"name": "efficientnet-lite4/model/blocks_3/depthwise_conv2d/depthwise_weights", "shape": [3, 3, 192, 1], "dtype": "float32"}, {"name": "efficientnet-lite4/model/blocks_3/depthwise_conv2d/depthwise_bn_offset", "shape": [192], "dtype": "float32"}, {"name": "efficientnet-lite4/model/blocks_3/conv2d_1/Conv2D_weights", "shape": [1, 1, 192, 32], "dtype": "float32"}, {"name": "efficientnet-lite4/model/blocks_3/conv2d_1/Conv2D_bn_offset", "shape": [32], "dtype": "float32"}, {"name": "efficientnet-lite4/model/blocks_4/conv2d/Conv2D_weights", "shape": [1, 1, 32, 192], "dtype": "float32"}, {"name": "efficientnet-lite4/model/blocks_4/conv2d/Conv2D_bn_offset", "shape": [192], "dtype": "float32"}, {"name": "efficientnet-lite4/model/blocks_4/depthwise_conv2d/depthwise_weights", "shape": [3, 3, 192, 1], "dtype": "float32"}, {"name": "efficientnet-lite4/model/blocks_4/depthwise_conv2d/depthwise_bn_offset", "shape": [192], "dtype": "float32"}, {"name": "efficientnet-lite4/model/blocks_4/conv2d_1/Conv2D_weights", "shape": [1, 1, 192, 32], "dtype": "float32"}, {"name": "efficientnet-lite4/model/blocks_4/conv2d_1/Conv2D_bn_offset", "shape": [32], "dtype": "float32"}, {"name": "efficientnet-lite4/model/blocks_5/conv2d/Conv2D_weights", "shape": [1, 1, 32, 192], "dtype": "float32"}, {"name": "efficientnet-lite4/model/blocks_5/conv2d/Conv2D_bn_offset", "shape": [192], "dtype": "float32"}, {"name": "efficientnet-lite4/model/blocks_5/depthwise_conv2d/depthwise_weights", "shape": [5, 5, 192, 1], "dtype": "float32"}, {"name": "efficientnet-lite4/model/blocks_5/depthwise_conv2d/depthwise_bn_offset", "shape": [192], "dtype": "float32"}, {"name": "efficientnet-lite4/model/blocks_5/conv2d_1/Conv2D_weights", "shape": [1, 1, 192, 56], "dtype": "float32"}, {"name": "efficientnet-lite4/model/blocks_5/conv2d_1/Conv2D_bn_offset", "shape": [56], "dtype": "float32"}, {"name": "efficientnet-lite4/model/blocks_6/conv2d/Conv2D_weights", "shape": [1, 1, 56, 336], "dtype": "float32"}, {"name": "efficientnet-lite4/model/blocks_27/conv2d/Conv2D_weights", "shape": [1, 1, 272, 1632], "dtype": "float32"}, {"name": "efficientnet-lite4/model/blocks_6/conv2d/Conv2D_bn_offset", "shape": [336], "dtype": "float32"}, {"name": "efficientnet-lite4/model/blocks_6/depthwise_conv2d/depthwise_weights", "shape": [5, 5, 336, 1], "dtype": "float32"}, {"name": "efficientnet-lite4/model/blocks_6/depthwise_conv2d/depthwise_bn_offset", "shape": [336], "dtype": "float32"}, {"name": "efficientnet-lite4/model/blocks_6/conv2d_1/Conv2D_weights", "shape": [1, 1, 336, 56], "dtype": "float32"}, {"name": "efficientnet-lite4/model/blocks_27/conv2d/Conv2D_bn_offset", "shape": [1632], "dtype": "float32"}, {"name": "efficientnet-lite4/model/blocks_6/conv2d_1/Conv2D_bn_offset", "shape": [56], "dtype": "float32"}, {"name": "efficientnet-lite4/model/blocks_7/conv2d/Conv2D_weights", "shape": [1, 1, 56, 336], "dtype": "float32"}, {"name": "efficientnet-lite4/model/blocks_7/conv2d/Conv2D_bn_offset", "shape": [336], "dtype": "float32"}, {"name": "efficientnet-lite4/model/blocks_7/depthwise_conv2d/depthwise_weights", "shape": [5, 5, 336, 1], "dtype": "float32"}, {"name": "efficientnet-lite4/model/blocks_7/depthwise_conv2d/depthwise_bn_offset", "shape": [336], "dtype": "float32"}, {"name": "efficientnet-lite4/model/blocks_7/conv2d_1/Conv2D_weights", "shape": [1, 1, 336, 56], "dtype": "float32"}, {"name": "efficientnet-lite4/model/blocks_27/depthwise_conv2d/depthwise_weights", "shape": [5, 5, 1632, 1], "dtype": "float32"}, {"name": "efficientnet-lite4/model/blocks_7/conv2d_1/Conv2D_bn_offset", "shape": [56], "dtype": "float32"}, {"name": "efficientnet-lite4/model/blocks_8/conv2d/Conv2D_weights", "shape": [1, 1, 56, 336], "dtype": "float32"}, {"name": "efficientnet-lite4/model/blocks_8/conv2d/Conv2D_bn_offset", "shape": [336], "dtype": "float32"}, {"name": "efficientnet-lite4/model/blocks_27/depthwise_conv2d/depthwise_bn_offset", "shape": [1632], "dtype": "float32"}, {"name": "efficientnet-lite4/model/blocks_8/depthwise_conv2d/depthwise_weights", "shape": [5, 5, 336, 1], "dtype": "float32"}, {"name": "efficientnet-lite4/model/blocks_8/depthwise_conv2d/depthwise_bn_offset", "shape": [336], "dtype": "float32"}, {"name": "efficientnet-lite4/model/blocks_8/conv2d_1/Conv2D_weights", "shape": [1, 1, 336, 56], "dtype": "float32"}, {"name": "efficientnet-lite4/model/blocks_8/conv2d_1/Conv2D_bn_offset", "shape": [56], "dtype": "float32"}, {"name": "efficientnet-lite4/model/blocks_9/conv2d/Conv2D_weights", "shape": [1, 1, 56, 336], "dtype": "float32"}, {"name": "efficientnet-lite4/model/blocks_9/conv2d/Conv2D_bn_offset", "shape": [336], "dtype": "float32"}, {"name": "efficientnet-lite4/model/blocks_27/conv2d_1/Conv2D_weights", "shape": [1, 1, 1632, 272], "dtype": "float32"}, {"name": "efficientnet-lite4/model/blocks_9/depthwise_conv2d/depthwise_weights", "shape": [3, 3, 336, 1], "dtype": "float32"}, {"name": "efficientnet-lite4/model/blocks_9/depthwise_conv2d/depthwise_bn_offset", "shape": [336], "dtype": "float32"}, {"name": "efficientnet-lite4/model/blocks_9/conv2d_1/Conv2D_weights", "shape": [1, 1, 336, 112], "dtype": "float32"}, {"name": "efficientnet-lite4/model/blocks_9/conv2d_1/Conv2D_bn_offset", "shape": [112], "dtype": "float32"}, {"name": "efficientnet-lite4/model/blocks_10/conv2d/Conv2D_weights", "shape": [1, 1, 112, 672], "dtype": "float32"}, {"name": "efficientnet-lite4/model/blocks_27/conv2d_1/Conv2D_bn_offset", "shape": [272], "dtype": "float32"}, {"name": "efficientnet-lite4/model/blocks_10/conv2d/Conv2D_bn_offset", "shape": [672], "dtype": "float32"}, {"name": "efficientnet-lite4/model/blocks_10/depthwise_conv2d/depthwise_weights", "shape": [3, 3, 672, 1], "dtype": "float32"}, {"name": "efficientnet-lite4/model/blocks_10/depthwise_conv2d/depthwise_bn_offset", "shape": [672], "dtype": "float32"}, {"name": "efficientnet-lite4/model/blocks_10/conv2d_1/Conv2D_weights", "shape": [1, 1, 672, 112], "dtype": "float32"}, {"name": "efficientnet-lite4/model/blocks_10/conv2d_1/Conv2D_bn_offset", "shape": [112], "dtype": "float32"}, {"name": "efficientnet-lite4/model/blocks_11/conv2d/Conv2D_weights", "shape": [1, 1, 112, 672], "dtype": "float32"}, {"name": "efficientnet-lite4/model/blocks_11/conv2d/Conv2D_bn_offset", "shape": [672], "dtype": "float32"}, {"name": "efficientnet-lite4/model/blocks_11/depthwise_conv2d/depthwise_weights", "shape": [3, 3, 672, 1], "dtype": "float32"}, {"name": "efficientnet-lite4/model/blocks_11/depthwise_conv2d/depthwise_bn_offset", "shape": [672], "dtype": "float32"}, {"name": "efficientnet-lite4/model/blocks_11/conv2d_1/Conv2D_weights", "shape": [1, 1, 672, 112], "dtype": "float32"}, {"name": "efficientnet-lite4/model/blocks_11/conv2d_1/Conv2D_bn_offset", "shape": [112], "dtype": "float32"}, {"name": "efficientnet-lite4/model/blocks_12/conv2d/Conv2D_weights", "shape": [1, 1, 112, 672], "dtype": "float32"}, {"name": "efficientnet-lite4/model/blocks_12/conv2d/Conv2D_bn_offset", "shape": [672], "dtype": "float32"}, {"name": "efficientnet-lite4/model/blocks_12/depthwise_conv2d/depthwise_weights", "shape": [3, 3, 672, 1], "dtype": "float32"}, {"name": "efficientnet-lite4/model/blocks_12/depthwise_conv2d/depthwise_bn_offset", "shape": [672], "dtype": "float32"}, {"name": "efficientnet-lite4/model/blocks_12/conv2d_1/Conv2D_weights", "shape": [1, 1, 672, 112], "dtype": "float32"}, {"name": "efficientnet-lite4/model/blocks_12/conv2d_1/Conv2D_bn_offset", "shape": [112], "dtype": "float32"}, {"name": "efficientnet-lite4/model/blocks_13/conv2d/Conv2D_weights", "shape": [1, 1, 112, 672], "dtype": "float32"}, {"name": "efficientnet-lite4/model/blocks_13/conv2d/Conv2D_bn_offset", "shape": [672], "dtype": "float32"}, {"name": "efficientnet-lite4/model/blocks_13/depthwise_conv2d/depthwise_weights", "shape": [3, 3, 672, 1], "dtype": "float32"}, {"name": "efficientnet-lite4/model/blocks_13/depthwise_conv2d/depthwise_bn_offset", "shape": [672], "dtype": "float32"}, {"name": "efficientnet-lite4/model/blocks_13/conv2d_1/Conv2D_weights", "shape": [1, 1, 672, 112], "dtype": "float32"}, {"name": "efficientnet-lite4/model/blocks_28/conv2d/Conv2D_weights", "shape": [1, 1, 272, 1632], "dtype": "float32"}, {"name": "efficientnet-lite4/model/blocks_13/conv2d_1/Conv2D_bn_offset", "shape": [112], "dtype": "float32"}, {"name": "efficientnet-lite4/model/blocks_14/conv2d/Conv2D_weights", "shape": [1, 1, 112, 672], "dtype": "float32"}, {"name": "efficientnet-lite4/model/blocks_14/conv2d/Conv2D_bn_offset", "shape": [672], "dtype": "float32"}, {"name": "efficientnet-lite4/model/blocks_28/conv2d/Conv2D_bn_offset", "shape": [1632], "dtype": "float32"}, {"name": "efficientnet-lite4/model/blocks_14/depthwise_conv2d/depthwise_weights", "shape": [3, 3, 672, 1], "dtype": "float32"}, {"name": "efficientnet-lite4/model/blocks_14/depthwise_conv2d/depthwise_bn_offset", "shape": [672], "dtype": "float32"}, {"name": "efficientnet-lite4/model/blocks_14/conv2d_1/Conv2D_weights", "shape": [1, 1, 672, 112], "dtype": "float32"}, {"name": "efficientnet-lite4/model/blocks_14/conv2d_1/Conv2D_bn_offset", "shape": [112], "dtype": "float32"}, {"name": "efficientnet-lite4/model/blocks_15/conv2d/Conv2D_weights", "shape": [1, 1, 112, 672], "dtype": "float32"}, {"name": "efficientnet-lite4/model/blocks_15/conv2d/Conv2D_bn_offset", "shape": [672], "dtype": "float32"}, {"name": "efficientnet-lite4/model/blocks_28/depthwise_conv2d/depthwise_weights", "shape": [5, 5, 1632, 1], "dtype": "float32"}, {"name": "efficientnet-lite4/model/blocks_15/depthwise_conv2d/depthwise_weights", "shape": [5, 5, 672, 1], "dtype": "float32"}, {"name": "efficientnet-lite4/model/blocks_15/depthwise_conv2d/depthwise_bn_offset", "shape": [672], "dtype": "float32"}, {"name": "efficientnet-lite4/model/blocks_15/conv2d_1/Conv2D_weights", "shape": [1, 1, 672, 160], "dtype": "float32"}, {"name": "efficientnet-lite4/model/blocks_15/conv2d_1/Conv2D_bn_offset", "shape": [160], "dtype": "float32"}, {"name": "efficientnet-lite4/model/blocks_16/conv2d/Conv2D_weights", "shape": [1, 1, 160, 960], "dtype": "float32"}, {"name": "efficientnet-lite4/model/blocks_28/depthwise_conv2d/depthwise_bn_offset", "shape": [1632], "dtype": "float32"}, {"name": "efficientnet-lite4/model/blocks_16/conv2d/Conv2D_bn_offset", "shape": [960], "dtype": "float32"}, {"name": "efficientnet-lite4/model/blocks_16/depthwise_conv2d/depthwise_weights", "shape": [5, 5, 960, 1], "dtype": "float32"}, {"name": "efficientnet-lite4/model/blocks_16/depthwise_conv2d/depthwise_bn_offset", "shape": [960], "dtype": "float32"}, {"name": "efficientnet-lite4/model/blocks_16/conv2d_1/Conv2D_weights", "shape": [1, 1, 960, 160], "dtype": "float32"}, {"name": "efficientnet-lite4/model/blocks_16/conv2d_1/Conv2D_bn_offset", "shape": [160], "dtype": "float32"}, {"name": "efficientnet-lite4/model/blocks_17/conv2d/Conv2D_weights", "shape": [1, 1, 160, 960], "dtype": "float32"}, {"name": "efficientnet-lite4/model/blocks_28/conv2d_1/Conv2D_weights", "shape": [1, 1, 1632, 272], "dtype": "float32"}, {"name": "efficientnet-lite4/model/blocks_17/conv2d/Conv2D_bn_offset", "shape": [960], "dtype": "float32"}, {"name": "efficientnet-lite4/model/blocks_17/depthwise_conv2d/depthwise_weights", "shape": [5, 5, 960, 1], "dtype": "float32"}, {"name": "efficientnet-lite4/model/blocks_17/depthwise_conv2d/depthwise_bn_offset", "shape": [960], "dtype": "float32"}, {"name": "efficientnet-lite4/model/blocks_17/conv2d_1/Conv2D_weights", "shape": [1, 1, 960, 160], "dtype": "float32"}, {"name": "efficientnet-lite4/model/blocks_28/conv2d_1/Conv2D_bn_offset", "shape": [272], "dtype": "float32"}, {"name": "efficientnet-lite4/model/blocks_17/conv2d_1/Conv2D_bn_offset", "shape": [160], "dtype": "float32"}, {"name": "efficientnet-lite4/model/blocks_18/conv2d/Conv2D_weights", "shape": [1, 1, 160, 960], "dtype": "float32"}, {"name": "efficientnet-lite4/model/blocks_18/conv2d/Conv2D_bn_offset", "shape": [960], "dtype": "float32"}, {"name": "efficientnet-lite4/model/blocks_18/depthwise_conv2d/depthwise_weights", "shape": [5, 5, 960, 1], "dtype": "float32"}, {"name": "efficientnet-lite4/model/blocks_18/depthwise_conv2d/depthwise_bn_offset", "shape": [960], "dtype": "float32"}, {"name": "efficientnet-lite4/model/blocks_18/conv2d_1/Conv2D_weights", "shape": [1, 1, 960, 160], "dtype": "float32"}, {"name": "efficientnet-lite4/model/blocks_18/conv2d_1/Conv2D_bn_offset", "shape": [160], "dtype": "float32"}, {"name": "efficientnet-lite4/model/blocks_19/conv2d/Conv2D_weights", "shape": [1, 1, 160, 960], "dtype": "float32"}, {"name": "efficientnet-lite4/model/blocks_19/conv2d/Conv2D_bn_offset", "shape": [960], "dtype": "float32"}, {"name": "efficientnet-lite4/model/blocks_19/depthwise_conv2d/depthwise_weights", "shape": [5, 5, 960, 1], "dtype": "float32"}, {"name": "efficientnet-lite4/model/blocks_19/depthwise_conv2d/depthwise_bn_offset", "shape": [960], "dtype": "float32"}, {"name": "efficientnet-lite4/model/blocks_19/conv2d_1/Conv2D_weights", "shape": [1, 1, 960, 160], "dtype": "float32"}, {"name": "efficientnet-lite4/model/blocks_19/conv2d_1/Conv2D_bn_offset", "shape": [160], "dtype": "float32"}, {"name": "efficientnet-lite4/model/blocks_20/conv2d/Conv2D_weights", "shape": [1, 1, 160, 960], "dtype": "float32"}, {"name": "efficientnet-lite4/model/blocks_20/conv2d/Conv2D_bn_offset", "shape": [960], "dtype": "float32"}, {"name": "efficientnet-lite4/model/blocks_20/depthwise_conv2d/depthwise_weights", "shape": [5, 5, 960, 1], "dtype": "float32"}, {"name": "efficientnet-lite4/model/blocks_20/depthwise_conv2d/depthwise_bn_offset", "shape": [960], "dtype": "float32"}, {"name": "efficientnet-lite4/model/blocks_20/conv2d_1/Conv2D_weights", "shape": [1, 1, 960, 160], "dtype": "float32"}, {"name": "efficientnet-lite4/model/blocks_20/conv2d_1/Conv2D_bn_offset", "shape": [160], "dtype": "float32"}, {"name": "efficientnet-lite4/model/blocks_21/conv2d/Conv2D_weights", "shape": [1, 1, 160, 960], "dtype": "float32"}, {"name": "efficientnet-lite4/model/blocks_21/conv2d/Conv2D_bn_offset", "shape": [960], "dtype": "float32"}, {"name": "efficientnet-lite4/model/blocks_29/conv2d/Conv2D_weights", "shape": [1, 1, 272, 1632], "dtype": "float32"}, {"name": "efficientnet-lite4/model/blocks_21/depthwise_conv2d/depthwise_weights", "shape": [5, 5, 960, 1], "dtype": "float32"}, {"name": "efficientnet-lite4/model/blocks_21/depthwise_conv2d/depthwise_bn_offset", "shape": [960], "dtype": "float32"}, {"name": "efficientnet-lite4/model/blocks_21/conv2d_1/Conv2D_weights", "shape": [1, 1, 960, 272], "dtype": "float32"}, {"name": "efficientnet-lite4/model/blocks_21/conv2d_1/Conv2D_bn_offset", "shape": [272], "dtype": "float32"}, {"name": "efficientnet-lite4/model/blocks_22/conv2d/Conv2D_weights", "shape": [1, 1, 272, 1632], "dtype": "float32"}, {"name": "efficientnet-lite4/model/blocks_29/conv2d/Conv2D_bn_offset", "shape": [1632], "dtype": "float32"}, {"name": "efficientnet-lite4/model/blocks_22/conv2d/Conv2D_bn_offset", "shape": [1632], "dtype": "float32"}, {"name": "efficientnet-lite4/model/blocks_22/depthwise_conv2d/depthwise_weights", "shape": [5, 5, 1632, 1], "dtype": "float32"}, {"name": "efficientnet-lite4/model/blocks_22/depthwise_conv2d/depthwise_bn_offset", "shape": [1632], "dtype": "float32"}, {"name": "efficientnet-lite4/model/blocks_22/conv2d_1/Conv2D_weights", "shape": [1, 1, 1632, 272], "dtype": "float32"}, {"name": "efficientnet-lite4/model/blocks_22/conv2d_1/Conv2D_bn_offset", "shape": [272], "dtype": "float32"}, {"name": "efficientnet-lite4/model/blocks_23/conv2d/Conv2D_weights", "shape": [1, 1, 272, 1632], "dtype": "float32"}, {"name": "efficientnet-lite4/model/blocks_29/depthwise_conv2d/depthwise_weights", "shape": [3, 3, 1632, 1], "dtype": "float32"}, {"name": "efficientnet-lite4/model/blocks_23/conv2d/Conv2D_bn_offset", "shape": [1632], "dtype": "float32"}, {"name": "efficientnet-lite4/model/blocks_23/depthwise_conv2d/depthwise_weights", "shape": [5, 5, 1632, 1], "dtype": "float32"}, {"name": "efficientnet-lite4/model/blocks_23/depthwise_conv2d/depthwise_bn_offset", "shape": [1632], "dtype": "float32"}, {"name": "efficientnet-lite4/model/blocks_23/conv2d_1/Conv2D_weights", "shape": [1, 1, 1632, 272], "dtype": "float32"}, {"name": "efficientnet-lite4/model/blocks_29/depthwise_conv2d/depthwise_bn_offset", "shape": [1632], "dtype": "float32"}, {"name": "efficientnet-lite4/model/blocks_23/conv2d_1/Conv2D_bn_offset", "shape": [272], "dtype": "float32"}, {"name": "efficientnet-lite4/model/blocks_24/conv2d/Conv2D_weights", "shape": [1, 1, 272, 1632], "dtype": "float32"}, {"name": "efficientnet-lite4/model/blocks_24/conv2d/Conv2D_bn_offset", "shape": [1632], "dtype": "float32"}, {"name": "efficientnet-lite4/model/blocks_24/depthwise_conv2d/depthwise_weights", "shape": [5, 5, 1632, 1], "dtype": "float32"}, {"name": "efficientnet-lite4/model/blocks_24/depthwise_conv2d/depthwise_bn_offset", "shape": [1632], "dtype": "float32"}, {"name": "efficientnet-lite4/model/blocks_24/conv2d_1/Conv2D_weights", "shape": [1, 1, 1632, 272], "dtype": "float32"}, {"name": "efficientnet-lite4/model/blocks_29/conv2d_1/Conv2D_weights", "shape": [1, 1, 1632, 448], "dtype": "float32"}, {"name": "efficientnet-lite4/model/blocks_24/conv2d_1/Conv2D_bn_offset", "shape": [272], "dtype": "float32"}, {"name": "efficientnet-lite4/model/blocks_25/conv2d/Conv2D_weights", "shape": [1, 1, 272, 1632], "dtype": "float32"}, {"name": "efficientnet-lite4/model/blocks_25/conv2d/Conv2D_bn_offset", "shape": [1632], "dtype": "float32"}, {"name": "efficientnet-lite4/model/blocks_29/conv2d_1/Conv2D_bn_offset", "shape": [448], "dtype": "float32"}, {"name": "efficientnet-lite4/model/blocks_25/depthwise_conv2d/depthwise_weights", "shape": [5, 5, 1632, 1], "dtype": "float32"}, {"name": "efficientnet-lite4/model/blocks_25/depthwise_conv2d/depthwise_bn_offset", "shape": [1632], "dtype": "float32"}, {"name": "efficientnet-lite4/model/blocks_25/conv2d_1/Conv2D_weights", "shape": [1, 1, 1632, 272], "dtype": "float32"}, {"name": "efficientnet-lite4/model/blocks_25/conv2d_1/Conv2D_bn_offset", "shape": [272], "dtype": "float32"}, {"name": "efficientnet-lite4/model/blocks_26/conv2d/Conv2D_weights", "shape": [1, 1, 272, 1632], "dtype": "float32"}, {"name": "efficientnet-lite4/model/head/conv2d/Conv2D_weights", "shape": [1, 1, 448, 1280], "dtype": "float32"}, {"name": "efficientnet-lite4/model/blocks_26/conv2d/Conv2D_bn_offset", "shape": [1632], "dtype": "float32"}]}]}