{"format": "graph-model", "generatedBy": "2.4.2", "convertedBy": "TensorFlow.js Converter v2.8.1", "signature": {"inputs": {"images:0": {"name": "images:0", "dtype": "DT_FLOAT", "tensorShape": {"dim": [{"size": "-1"}, {"size": "321"}, {"size": "321"}, {"size": "3"}]}}}, "outputs": {"module_apply_default/transpose_1:0": {"name": "module_apply_default/transpose_1:0", "dtype": "DT_FLOAT", "tensorShape": {"dim": [{"size": "-1"}, {"size": "19293"}]}}}}, "modelTopology": {"node": [{"name": "module_apply_default/Const", "op": "Const", "attr": {"value": {"tensor": {"dtype": "DT_FLOAT", "tensorShape": {"dim": [{"size": "19293"}, {"size": "64"}]}}}, "dtype": {"type": "DT_FLOAT"}}}, {"name": "module_apply_default/module_apply_default/embed/Tensordot/Const", "op": "Const", "attr": {"value": {"tensor": {"dtype": "DT_INT32", "tensorShape": {"dim": [{"size": "1"}]}}}, "dtype": {"type": "DT_INT32"}}}, {"name": "module_apply_default/module_apply_default/embed/Tensordot/axes", "op": "Const", "attr": {"value": {"tensor": {"dtype": "DT_INT32", "tensorShape": {"dim": [{"size": "1"}]}}}, "dtype": {"type": "DT_INT32"}}}, {"name": "module_apply_default/module_apply_default/embed/Tensordot/GatherV2_1/axis", "op": "Const", "attr": {"dtype": {"type": "DT_INT32"}, "value": {"tensor": {"dtype": "DT_INT32", "tensorShape": {}}}}}, {"name": "module_apply_default/module_apply_default/embed/Tensordot/Const_1", "op": "Const", "attr": {"dtype": {"type": "DT_INT32"}, "value": {"tensor": {"dtype": "DT_INT32", "tensorShape": {"dim": [{"size": "1"}]}}}}}, {"name": "module_apply_default/module_apply_default/embed/weights", "op": "Const", "attr": {"value": {"tensor": {"dtype": "DT_FLOAT", "tensorShape": {"dim": [{"size": "1280"}, {"size": "64"}]}}}, "dtype": {"type": "DT_FLOAT"}}}, {"name": "module_apply_default/module_apply_default/MobilenetV3/Conv_2/hard_swish/mul_1/y", "op": "Const", "attr": {"dtype": {"type": "DT_FLOAT"}, "value": {"tensor": {"dtype": "DT_FLOAT", "tensorShape": {}}}}}, {"name": "module_apply_default/module_apply_default/MobilenetV3/Conv_1/hard_swish/mul_1/y", "op": "Const", "attr": {"value": {"tensor": {"dtype": "DT_FLOAT", "tensorShape": {}}}, "dtype": {"type": "DT_FLOAT"}}}, {"name": "module_apply_default/module_apply_default/MobilenetV3/expanded_conv_14/squeeze_excite/Conv_1/mul/y", "op": "Const", "attr": {"dtype": {"type": "DT_FLOAT"}, "value": {"tensor": {"dtype": "DT_FLOAT", "tensorShape": {}}}}}, {"name": "module_apply_default/module_apply_default/MobilenetV3/expanded_conv_14/squeeze_excite/Mean/reduction_indices", "op": "Const", "attr": {"value": {"tensor": {"dtype": "DT_INT32", "tensorShape": {"dim": [{"size": "2"}]}}}, "dtype": {"type": "DT_INT32"}}}, {"name": "module_apply_default/module_apply_default/MobilenetV3/expanded_conv_14/squeeze_excite/Conv/weights", "op": "Const", "attr": {"value": {"tensor": {"dtype": "DT_FLOAT", "tensorShape": {"dim": [{"size": "1"}, {"size": "1"}, {"size": "960"}, {"size": "240"}]}}}, "dtype": {"type": "DT_FLOAT"}}}, {"name": "module_apply_default/module_apply_default/MobilenetV3/expanded_conv_14/squeeze_excite/Conv/biases", "op": "Const", "attr": {"dtype": {"type": "DT_FLOAT"}, "value": {"tensor": {"dtype": "DT_FLOAT", "tensorShape": {"dim": [{"size": "240"}]}}}}}, {"name": "module_apply_default/module_apply_default/MobilenetV3/expanded_conv_14/squeeze_excite/Conv_1/weights", "op": "Const", "attr": {"dtype": {"type": "DT_FLOAT"}, "value": {"tensor": {"dtype": "DT_FLOAT", "tensorShape": {"dim": [{"size": "1"}, {"size": "1"}, {"size": "240"}, {"size": "960"}]}}}}}, {"name": "module_apply_default/module_apply_default/MobilenetV3/expanded_conv_14/squeeze_excite/Conv_1/biases", "op": "Const", "attr": {"dtype": {"type": "DT_FLOAT"}, "value": {"tensor": {"dtype": "DT_FLOAT", "tensorShape": {"dim": [{"size": "960"}]}}}}}, {"name": "module_apply_default/module_apply_default/MobilenetV3/expanded_conv_14/squeeze_excite/Conv_1/add/y", "op": "Const", "attr": {"value": {"tensor": {"dtype": "DT_FLOAT", "tensorShape": {}}}, "dtype": {"type": "DT_FLOAT"}}}, {"name": "module_apply_default/module_apply_default/MobilenetV3/expanded_conv_14/depthwise/hard_swish/mul_1/y", "op": "Const", "attr": {"dtype": {"type": "DT_FLOAT"}, "value": {"tensor": {"dtype": "DT_FLOAT", "tensorShape": {}}}}}, {"name": "module_apply_default/module_apply_default/MobilenetV3/expanded_conv_14/expand/hard_swish/mul_1/y", "op": "Const", "attr": {"dtype": {"type": "DT_FLOAT"}, "value": {"tensor": {"dtype": "DT_FLOAT", "tensorShape": {}}}}}, {"name": "module_apply_default/module_apply_default/MobilenetV3/expanded_conv_14/expand/hard_swish/add/y", "op": "Const", "attr": {"dtype": {"type": "DT_FLOAT"}, "value": {"tensor": {"dtype": "DT_FLOAT", "tensorShape": {}}}}}, {"name": "module_apply_default/module_apply_default/MobilenetV3/expanded_conv_14/depthwise/hard_swish/add/y", "op": "Const", "attr": {"dtype": {"type": "DT_FLOAT"}, "value": {"tensor": {"dtype": "DT_FLOAT", "tensorShape": {}}}}}, {"name": "module_apply_default/module_apply_default/MobilenetV3/expanded_conv_13/squeeze_excite/Conv_1/mul/y", "op": "Const", "attr": {"value": {"tensor": {"dtype": "DT_FLOAT", "tensorShape": {}}}, "dtype": {"type": "DT_FLOAT"}}}, {"name": "module_apply_default/module_apply_default/MobilenetV3/expanded_conv_13/squeeze_excite/Mean/reduction_indices", "op": "Const", "attr": {"value": {"tensor": {"dtype": "DT_INT32", "tensorShape": {"dim": [{"size": "2"}]}}}, "dtype": {"type": "DT_INT32"}}}, {"name": "module_apply_default/module_apply_default/MobilenetV3/expanded_conv_13/squeeze_excite/Conv/weights", "op": "Const", "attr": {"dtype": {"type": "DT_FLOAT"}, "value": {"tensor": {"dtype": "DT_FLOAT", "tensorShape": {"dim": [{"size": "1"}, {"size": "1"}, {"size": "960"}, {"size": "240"}]}}}}}, {"name": "module_apply_default/module_apply_default/MobilenetV3/expanded_conv_13/squeeze_excite/Conv/biases", "op": "Const", "attr": {"dtype": {"type": "DT_FLOAT"}, "value": {"tensor": {"dtype": "DT_FLOAT", "tensorShape": {"dim": [{"size": "240"}]}}}}}, {"name": "module_apply_default/module_apply_default/MobilenetV3/expanded_conv_13/squeeze_excite/Conv_1/weights", "op": "Const", "attr": {"value": {"tensor": {"dtype": "DT_FLOAT", "tensorShape": {"dim": [{"size": "1"}, {"size": "1"}, {"size": "240"}, {"size": "960"}]}}}, "dtype": {"type": "DT_FLOAT"}}}, {"name": "module_apply_default/module_apply_default/MobilenetV3/expanded_conv_13/squeeze_excite/Conv_1/biases", "op": "Const", "attr": {"value": {"tensor": {"dtype": "DT_FLOAT", "tensorShape": {"dim": [{"size": "960"}]}}}, "dtype": {"type": "DT_FLOAT"}}}, {"name": "module_apply_default/module_apply_default/MobilenetV3/expanded_conv_13/squeeze_excite/Conv_1/add/y", "op": "Const", "attr": {"value": {"tensor": {"dtype": "DT_FLOAT", "tensorShape": {}}}, "dtype": {"type": "DT_FLOAT"}}}, {"name": "module_apply_default/module_apply_default/MobilenetV3/expanded_conv_13/depthwise/hard_swish/mul_1/y", "op": "Const", "attr": {"value": {"tensor": {"dtype": "DT_FLOAT", "tensorShape": {}}}, "dtype": {"type": "DT_FLOAT"}}}, {"name": "module_apply_default/module_apply_default/MobilenetV3/expanded_conv_13/expand/hard_swish/mul_1/y", "op": "Const", "attr": {"dtype": {"type": "DT_FLOAT"}, "value": {"tensor": {"dtype": "DT_FLOAT", "tensorShape": {}}}}}, {"name": "module_apply_default/module_apply_default/MobilenetV3/expanded_conv_13/expand/hard_swish/add/y", "op": "Const", "attr": {"dtype": {"type": "DT_FLOAT"}, "value": {"tensor": {"dtype": "DT_FLOAT", "tensorShape": {}}}}}, {"name": "module_apply_default/module_apply_default/MobilenetV3/expanded_conv_13/depthwise/hard_swish/add/y", "op": "Const", "attr": {"value": {"tensor": {"dtype": "DT_FLOAT", "tensorShape": {}}}, "dtype": {"type": "DT_FLOAT"}}}, {"name": "module_apply_default/module_apply_default/MobilenetV3/expanded_conv_12/squeeze_excite/Conv_1/mul/y", "op": "Const", "attr": {"value": {"tensor": {"dtype": "DT_FLOAT", "tensorShape": {}}}, "dtype": {"type": "DT_FLOAT"}}}, {"name": "module_apply_default/module_apply_default/MobilenetV3/expanded_conv_12/squeeze_excite/Mean/reduction_indices", "op": "Const", "attr": {"dtype": {"type": "DT_INT32"}, "value": {"tensor": {"dtype": "DT_INT32", "tensorShape": {"dim": [{"size": "2"}]}}}}}, {"name": "module_apply_default/module_apply_default/MobilenetV3/expanded_conv_12/squeeze_excite/Conv/weights", "op": "Const", "attr": {"value": {"tensor": {"dtype": "DT_FLOAT", "tensorShape": {"dim": [{"size": "1"}, {"size": "1"}, {"size": "672"}, {"size": "168"}]}}}, "dtype": {"type": "DT_FLOAT"}}}, {"name": "module_apply_default/module_apply_default/MobilenetV3/expanded_conv_12/squeeze_excite/Conv/biases", "op": "Const", "attr": {"value": {"tensor": {"dtype": "DT_FLOAT", "tensorShape": {"dim": [{"size": "168"}]}}}, "dtype": {"type": "DT_FLOAT"}}}, {"name": "module_apply_default/module_apply_default/MobilenetV3/expanded_conv_12/squeeze_excite/Conv_1/weights", "op": "Const", "attr": {"dtype": {"type": "DT_FLOAT"}, "value": {"tensor": {"dtype": "DT_FLOAT", "tensorShape": {"dim": [{"size": "1"}, {"size": "1"}, {"size": "168"}, {"size": "672"}]}}}}}, {"name": "module_apply_default/module_apply_default/MobilenetV3/expanded_conv_12/squeeze_excite/Conv_1/biases", "op": "Const", "attr": {"value": {"tensor": {"dtype": "DT_FLOAT", "tensorShape": {"dim": [{"size": "672"}]}}}, "dtype": {"type": "DT_FLOAT"}}}, {"name": "module_apply_default/module_apply_default/MobilenetV3/expanded_conv_12/squeeze_excite/Conv_1/add/y", "op": "Const", "attr": {"value": {"tensor": {"dtype": "DT_FLOAT", "tensorShape": {}}}, "dtype": {"type": "DT_FLOAT"}}}, {"name": "module_apply_default/module_apply_default/MobilenetV3/expanded_conv_12/depthwise/hard_swish/mul_1/y", "op": "Const", "attr": {"value": {"tensor": {"dtype": "DT_FLOAT", "tensorShape": {}}}, "dtype": {"type": "DT_FLOAT"}}}, {"name": "module_apply_default/module_apply_default/MobilenetV3/expanded_conv_12/expand/hard_swish/mul_1/y", "op": "Const", "attr": {"value": {"tensor": {"dtype": "DT_FLOAT", "tensorShape": {}}}, "dtype": {"type": "DT_FLOAT"}}}, {"name": "module_apply_default/module_apply_default/MobilenetV3/expanded_conv_11/squeeze_excite/Conv_1/mul/y", "op": "Const", "attr": {"value": {"tensor": {"dtype": "DT_FLOAT", "tensorShape": {}}}, "dtype": {"type": "DT_FLOAT"}}}, {"name": "module_apply_default/module_apply_default/MobilenetV3/expanded_conv_11/squeeze_excite/Mean/reduction_indices", "op": "Const", "attr": {"value": {"tensor": {"dtype": "DT_INT32", "tensorShape": {"dim": [{"size": "2"}]}}}, "dtype": {"type": "DT_INT32"}}}, {"name": "module_apply_default/module_apply_default/MobilenetV3/expanded_conv_11/squeeze_excite/Conv/weights", "op": "Const", "attr": {"value": {"tensor": {"dtype": "DT_FLOAT", "tensorShape": {"dim": [{"size": "1"}, {"size": "1"}, {"size": "672"}, {"size": "168"}]}}}, "dtype": {"type": "DT_FLOAT"}}}, {"name": "module_apply_default/module_apply_default/MobilenetV3/expanded_conv_11/squeeze_excite/Conv/biases", "op": "Const", "attr": {"value": {"tensor": {"dtype": "DT_FLOAT", "tensorShape": {"dim": [{"size": "168"}]}}}, "dtype": {"type": "DT_FLOAT"}}}, {"name": "module_apply_default/module_apply_default/MobilenetV3/expanded_conv_11/squeeze_excite/Conv_1/weights", "op": "Const", "attr": {"dtype": {"type": "DT_FLOAT"}, "value": {"tensor": {"dtype": "DT_FLOAT", "tensorShape": {"dim": [{"size": "1"}, {"size": "1"}, {"size": "168"}, {"size": "672"}]}}}}}, {"name": "module_apply_default/module_apply_default/MobilenetV3/expanded_conv_11/squeeze_excite/Conv_1/biases", "op": "Const", "attr": {"dtype": {"type": "DT_FLOAT"}, "value": {"tensor": {"dtype": "DT_FLOAT", "tensorShape": {"dim": [{"size": "672"}]}}}}}, {"name": "module_apply_default/module_apply_default/MobilenetV3/expanded_conv_11/squeeze_excite/Conv_1/add/y", "op": "Const", "attr": {"dtype": {"type": "DT_FLOAT"}, "value": {"tensor": {"dtype": "DT_FLOAT", "tensorShape": {}}}}}, {"name": "module_apply_default/module_apply_default/MobilenetV3/expanded_conv_11/depthwise/hard_swish/mul_1/y", "op": "Const", "attr": {"dtype": {"type": "DT_FLOAT"}, "value": {"tensor": {"dtype": "DT_FLOAT", "tensorShape": {}}}}}, {"name": "module_apply_default/module_apply_default/MobilenetV3/expanded_conv_11/expand/hard_swish/mul_1/y", "op": "Const", "attr": {"value": {"tensor": {"dtype": "DT_FLOAT", "tensorShape": {}}}, "dtype": {"type": "DT_FLOAT"}}}, {"name": "module_apply_default/module_apply_default/MobilenetV3/expanded_conv_11/expand/hard_swish/add/y", "op": "Const", "attr": {"dtype": {"type": "DT_FLOAT"}, "value": {"tensor": {"dtype": "DT_FLOAT", "tensorShape": {}}}}}, {"name": "module_apply_default/module_apply_default/MobilenetV3/expanded_conv_11/depthwise/hard_swish/add/y", "op": "Const", "attr": {"value": {"tensor": {"dtype": "DT_FLOAT", "tensorShape": {}}}, "dtype": {"type": "DT_FLOAT"}}}, {"name": "module_apply_default/module_apply_default/MobilenetV3/expanded_conv_10/squeeze_excite/Conv_1/mul/y", "op": "Const", "attr": {"dtype": {"type": "DT_FLOAT"}, "value": {"tensor": {"dtype": "DT_FLOAT", "tensorShape": {}}}}}, {"name": "module_apply_default/module_apply_default/MobilenetV3/expanded_conv_10/squeeze_excite/Mean/reduction_indices", "op": "Const", "attr": {"value": {"tensor": {"dtype": "DT_INT32", "tensorShape": {"dim": [{"size": "2"}]}}}, "dtype": {"type": "DT_INT32"}}}, {"name": "module_apply_default/module_apply_default/MobilenetV3/expanded_conv_10/squeeze_excite/Conv/weights", "op": "Const", "attr": {"value": {"tensor": {"dtype": "DT_FLOAT", "tensorShape": {"dim": [{"size": "1"}, {"size": "1"}, {"size": "480"}, {"size": "120"}]}}}, "dtype": {"type": "DT_FLOAT"}}}, {"name": "module_apply_default/module_apply_default/MobilenetV3/expanded_conv_10/squeeze_excite/Conv/biases", "op": "Const", "attr": {"dtype": {"type": "DT_FLOAT"}, "value": {"tensor": {"dtype": "DT_FLOAT", "tensorShape": {"dim": [{"size": "120"}]}}}}}, {"name": "module_apply_default/module_apply_default/MobilenetV3/expanded_conv_10/squeeze_excite/Conv_1/weights", "op": "Const", "attr": {"dtype": {"type": "DT_FLOAT"}, "value": {"tensor": {"dtype": "DT_FLOAT", "tensorShape": {"dim": [{"size": "1"}, {"size": "1"}, {"size": "120"}, {"size": "480"}]}}}}}, {"name": "module_apply_default/module_apply_default/MobilenetV3/expanded_conv_10/squeeze_excite/Conv_1/biases", "op": "Const", "attr": {"dtype": {"type": "DT_FLOAT"}, "value": {"tensor": {"dtype": "DT_FLOAT", "tensorShape": {"dim": [{"size": "480"}]}}}}}, {"name": "module_apply_default/module_apply_default/MobilenetV3/expanded_conv_10/squeeze_excite/Conv_1/add/y", "op": "Const", "attr": {"value": {"tensor": {"dtype": "DT_FLOAT", "tensorShape": {}}}, "dtype": {"type": "DT_FLOAT"}}}, {"name": "module_apply_default/module_apply_default/MobilenetV3/expanded_conv_10/depthwise/hard_swish/mul_1/y", "op": "Const", "attr": {"dtype": {"type": "DT_FLOAT"}, "value": {"tensor": {"dtype": "DT_FLOAT", "tensorShape": {}}}}}, {"name": "module_apply_default/module_apply_default/MobilenetV3/expanded_conv_10/expand/hard_swish/mul_1/y", "op": "Const", "attr": {"dtype": {"type": "DT_FLOAT"}, "value": {"tensor": {"dtype": "DT_FLOAT", "tensorShape": {}}}}}, {"name": "module_apply_default/module_apply_default/MobilenetV3/expanded_conv_9/depthwise/hard_swish/mul_1/y", "op": "Const", "attr": {"dtype": {"type": "DT_FLOAT"}, "value": {"tensor": {"dtype": "DT_FLOAT", "tensorShape": {}}}}}, {"name": "module_apply_default/module_apply_default/MobilenetV3/expanded_conv_9/expand/hard_swish/mul_1/y", "op": "Const", "attr": {"value": {"tensor": {"dtype": "DT_FLOAT", "tensorShape": {}}}, "dtype": {"type": "DT_FLOAT"}}}, {"name": "module_apply_default/module_apply_default/MobilenetV3/expanded_conv_9/expand/hard_swish/add/y", "op": "Const", "attr": {"dtype": {"type": "DT_FLOAT"}, "value": {"tensor": {"dtype": "DT_FLOAT", "tensorShape": {}}}}}, {"name": "module_apply_default/module_apply_default/MobilenetV3/expanded_conv_9/depthwise/hard_swish/add/y", "op": "Const", "attr": {"value": {"tensor": {"dtype": "DT_FLOAT", "tensorShape": {}}}, "dtype": {"type": "DT_FLOAT"}}}, {"name": "module_apply_default/module_apply_default/MobilenetV3/expanded_conv_8/depthwise/hard_swish/mul_1/y", "op": "Const", "attr": {"value": {"tensor": {"dtype": "DT_FLOAT", "tensorShape": {}}}, "dtype": {"type": "DT_FLOAT"}}}, {"name": "module_apply_default/module_apply_default/MobilenetV3/expanded_conv_8/expand/hard_swish/mul_1/y", "op": "Const", "attr": {"dtype": {"type": "DT_FLOAT"}, "value": {"tensor": {"dtype": "DT_FLOAT", "tensorShape": {}}}}}, {"name": "module_apply_default/module_apply_default/MobilenetV3/expanded_conv_8/expand/hard_swish/add/y", "op": "Const", "attr": {"value": {"tensor": {"dtype": "DT_FLOAT", "tensorShape": {}}}, "dtype": {"type": "DT_FLOAT"}}}, {"name": "module_apply_default/module_apply_default/MobilenetV3/expanded_conv_8/depthwise/hard_swish/add/y", "op": "Const", "attr": {"dtype": {"type": "DT_FLOAT"}, "value": {"tensor": {"dtype": "DT_FLOAT", "tensorShape": {}}}}}, {"name": "module_apply_default/module_apply_default/MobilenetV3/expanded_conv_7/depthwise/hard_swish/mul_1/y", "op": "Const", "attr": {"value": {"tensor": {"dtype": "DT_FLOAT", "tensorShape": {}}}, "dtype": {"type": "DT_FLOAT"}}}, {"name": "module_apply_default/module_apply_default/MobilenetV3/expanded_conv_7/expand/hard_swish/mul_1/y", "op": "Const", "attr": {"dtype": {"type": "DT_FLOAT"}, "value": {"tensor": {"dtype": "DT_FLOAT", "tensorShape": {}}}}}, {"name": "module_apply_default/module_apply_default/MobilenetV3/expanded_conv_7/expand/hard_swish/add/y", "op": "Const", "attr": {"value": {"tensor": {"dtype": "DT_FLOAT", "tensorShape": {}}}, "dtype": {"type": "DT_FLOAT"}}}, {"name": "module_apply_default/module_apply_default/MobilenetV3/expanded_conv_7/depthwise/hard_swish/add/y", "op": "Const", "attr": {"value": {"tensor": {"dtype": "DT_FLOAT", "tensorShape": {}}}, "dtype": {"type": "DT_FLOAT"}}}, {"name": "module_apply_default/module_apply_default/MobilenetV3/expanded_conv_6/depthwise/hard_swish/mul_1/y", "op": "Const", "attr": {"value": {"tensor": {"dtype": "DT_FLOAT", "tensorShape": {}}}, "dtype": {"type": "DT_FLOAT"}}}, {"name": "module_apply_default/module_apply_default/MobilenetV3/expanded_conv_6/expand/hard_swish/mul_1/y", "op": "Const", "attr": {"dtype": {"type": "DT_FLOAT"}, "value": {"tensor": {"dtype": "DT_FLOAT", "tensorShape": {}}}}}, {"name": "module_apply_default/module_apply_default/MobilenetV3/expanded_conv_5/squeeze_excite/Conv_1/mul/y", "op": "Const", "attr": {"value": {"tensor": {"dtype": "DT_FLOAT", "tensorShape": {}}}, "dtype": {"type": "DT_FLOAT"}}}, {"name": "module_apply_default/module_apply_default/MobilenetV3/expanded_conv_5/squeeze_excite/Mean/reduction_indices", "op": "Const", "attr": {"dtype": {"type": "DT_INT32"}, "value": {"tensor": {"dtype": "DT_INT32", "tensorShape": {"dim": [{"size": "2"}]}}}}}, {"name": "module_apply_default/module_apply_default/MobilenetV3/expanded_conv_5/squeeze_excite/Conv/weights", "op": "Const", "attr": {"value": {"tensor": {"dtype": "DT_FLOAT", "tensorShape": {"dim": [{"size": "1"}, {"size": "1"}, {"size": "120"}, {"size": "32"}]}}}, "dtype": {"type": "DT_FLOAT"}}}, {"name": "module_apply_default/module_apply_default/MobilenetV3/expanded_conv_5/squeeze_excite/Conv/biases", "op": "Const", "attr": {"dtype": {"type": "DT_FLOAT"}, "value": {"tensor": {"dtype": "DT_FLOAT", "tensorShape": {"dim": [{"size": "32"}]}}}}}, {"name": "module_apply_default/module_apply_default/MobilenetV3/expanded_conv_5/squeeze_excite/Conv_1/weights", "op": "Const", "attr": {"dtype": {"type": "DT_FLOAT"}, "value": {"tensor": {"dtype": "DT_FLOAT", "tensorShape": {"dim": [{"size": "1"}, {"size": "1"}, {"size": "32"}, {"size": "120"}]}}}}}, {"name": "module_apply_default/module_apply_default/MobilenetV3/expanded_conv_5/squeeze_excite/Conv_1/biases", "op": "Const", "attr": {"dtype": {"type": "DT_FLOAT"}, "value": {"tensor": {"dtype": "DT_FLOAT", "tensorShape": {"dim": [{"size": "120"}]}}}}}, {"name": "module_apply_default/module_apply_default/MobilenetV3/expanded_conv_5/squeeze_excite/Conv_1/add/y", "op": "Const", "attr": {"value": {"tensor": {"dtype": "DT_FLOAT", "tensorShape": {}}}, "dtype": {"type": "DT_FLOAT"}}}, {"name": "module_apply_default/module_apply_default/MobilenetV3/expanded_conv_4/squeeze_excite/Conv_1/mul/y", "op": "Const", "attr": {"dtype": {"type": "DT_FLOAT"}, "value": {"tensor": {"dtype": "DT_FLOAT", "tensorShape": {}}}}}, {"name": "module_apply_default/module_apply_default/MobilenetV3/expanded_conv_4/squeeze_excite/Mean/reduction_indices", "op": "Const", "attr": {"value": {"tensor": {"dtype": "DT_INT32", "tensorShape": {"dim": [{"size": "2"}]}}}, "dtype": {"type": "DT_INT32"}}}, {"name": "module_apply_default/module_apply_default/MobilenetV3/expanded_conv_4/squeeze_excite/Conv/weights", "op": "Const", "attr": {"value": {"tensor": {"dtype": "DT_FLOAT", "tensorShape": {"dim": [{"size": "1"}, {"size": "1"}, {"size": "120"}, {"size": "32"}]}}}, "dtype": {"type": "DT_FLOAT"}}}, {"name": "module_apply_default/module_apply_default/MobilenetV3/expanded_conv_4/squeeze_excite/Conv/biases", "op": "Const", "attr": {"dtype": {"type": "DT_FLOAT"}, "value": {"tensor": {"dtype": "DT_FLOAT", "tensorShape": {"dim": [{"size": "32"}]}}}}}, {"name": "module_apply_default/module_apply_default/MobilenetV3/expanded_conv_4/squeeze_excite/Conv_1/weights", "op": "Const", "attr": {"value": {"tensor": {"dtype": "DT_FLOAT", "tensorShape": {"dim": [{"size": "1"}, {"size": "1"}, {"size": "32"}, {"size": "120"}]}}}, "dtype": {"type": "DT_FLOAT"}}}, {"name": "module_apply_default/module_apply_default/MobilenetV3/expanded_conv_4/squeeze_excite/Conv_1/biases", "op": "Const", "attr": {"value": {"tensor": {"dtype": "DT_FLOAT", "tensorShape": {"dim": [{"size": "120"}]}}}, "dtype": {"type": "DT_FLOAT"}}}, {"name": "module_apply_default/module_apply_default/MobilenetV3/expanded_conv_4/squeeze_excite/Conv_1/add/y", "op": "Const", "attr": {"value": {"tensor": {"dtype": "DT_FLOAT", "tensorShape": {}}}, "dtype": {"type": "DT_FLOAT"}}}, {"name": "module_apply_default/module_apply_default/MobilenetV3/expanded_conv_3/squeeze_excite/Conv_1/mul/y", "op": "Const", "attr": {"value": {"tensor": {"dtype": "DT_FLOAT", "tensorShape": {}}}, "dtype": {"type": "DT_FLOAT"}}}, {"name": "module_apply_default/module_apply_default/MobilenetV3/expanded_conv_3/squeeze_excite/Mean/reduction_indices", "op": "Const", "attr": {"value": {"tensor": {"dtype": "DT_INT32", "tensorShape": {"dim": [{"size": "2"}]}}}, "dtype": {"type": "DT_INT32"}}}, {"name": "module_apply_default/module_apply_default/MobilenetV3/expanded_conv_3/squeeze_excite/Conv/weights", "op": "Const", "attr": {"dtype": {"type": "DT_FLOAT"}, "value": {"tensor": {"dtype": "DT_FLOAT", "tensorShape": {"dim": [{"size": "1"}, {"size": "1"}, {"size": "72"}, {"size": "24"}]}}}}}, {"name": "module_apply_default/module_apply_default/MobilenetV3/expanded_conv_3/squeeze_excite/Conv/biases", "op": "Const", "attr": {"dtype": {"type": "DT_FLOAT"}, "value": {"tensor": {"dtype": "DT_FLOAT", "tensorShape": {"dim": [{"size": "24"}]}}}}}, {"name": "module_apply_default/module_apply_default/MobilenetV3/expanded_conv_3/squeeze_excite/Conv_1/weights", "op": "Const", "attr": {"dtype": {"type": "DT_FLOAT"}, "value": {"tensor": {"dtype": "DT_FLOAT", "tensorShape": {"dim": [{"size": "1"}, {"size": "1"}, {"size": "24"}, {"size": "72"}]}}}}}, {"name": "module_apply_default/module_apply_default/MobilenetV3/expanded_conv_3/squeeze_excite/Conv_1/biases", "op": "Const", "attr": {"value": {"tensor": {"dtype": "DT_FLOAT", "tensorShape": {"dim": [{"size": "72"}]}}}, "dtype": {"type": "DT_FLOAT"}}}, {"name": "module_apply_default/module_apply_default/MobilenetV3/expanded_conv_3/squeeze_excite/Conv_1/add/y", "op": "Const", "attr": {"dtype": {"type": "DT_FLOAT"}, "value": {"tensor": {"dtype": "DT_FLOAT", "tensorShape": {}}}}}, {"name": "module_apply_default/module_apply_default/MobilenetV3/Conv/hard_swish/mul_1/y", "op": "Const", "attr": {"dtype": {"type": "DT_FLOAT"}, "value": {"tensor": {"dtype": "DT_FLOAT", "tensorShape": {}}}}}, {"name": "images", "op": "Placeholder", "attr": {"dtype": {"type": "DT_FLOAT"}, "shape": {"shape": {"dim": [{"size": "-1"}, {"size": "321"}, {"size": "321"}, {"size": "3"}]}}}}, {"name": "module_apply_default/hub_input/Mul/y", "op": "Const", "attr": {"dtype": {"type": "DT_FLOAT"}, "value": {"tensor": {"dtype": "DT_FLOAT", "tensorShape": {}}}}}, {"name": "module_apply_default/hub_input/Add/y", "op": "Const", "attr": {"dtype": {"type": "DT_FLOAT"}, "value": {"tensor": {"dtype": "DT_FLOAT", "tensorShape": {}}}}}, {"name": "module_apply_default/convert_image", "op": "Const", "attr": {"dtype": {"type": "DT_FLOAT"}, "value": {"tensor": {"dtype": "DT_FLOAT", "tensorShape": {}}}}}, {"name": "module_apply_default/module_apply_default/hub_input/tfhub_input_scaling/y", "op": "Const", "attr": {"dtype": {"type": "DT_FLOAT"}, "value": {"tensor": {"dtype": "DT_FLOAT", "tensorShape": {}}}}}, {"name": "module_apply_default/module_apply_default/MobilenetV3/Conv/hard_swish/add/y", "op": "Const", "attr": {"value": {"tensor": {"dtype": "DT_FLOAT", "tensorShape": {}}}, "dtype": {"type": "DT_FLOAT"}}}, {"name": "module_apply_default/module_apply_default/MobilenetV3/expanded_conv_6/expand/hard_swish/add/y", "op": "Const", "attr": {"value": {"tensor": {"dtype": "DT_FLOAT", "tensorShape": {}}}, "dtype": {"type": "DT_FLOAT"}}}, {"name": "module_apply_default/module_apply_default/MobilenetV3/expanded_conv_6/depthwise/hard_swish/add/y", "op": "Const", "attr": {"value": {"tensor": {"dtype": "DT_FLOAT", "tensorShape": {}}}, "dtype": {"type": "DT_FLOAT"}}}, {"name": "module_apply_default/module_apply_default/MobilenetV3/expanded_conv_10/expand/hard_swish/add/y", "op": "Const", "attr": {"dtype": {"type": "DT_FLOAT"}, "value": {"tensor": {"dtype": "DT_FLOAT", "tensorShape": {}}}}}, {"name": "module_apply_default/module_apply_default/MobilenetV3/expanded_conv_10/depthwise/hard_swish/add/y", "op": "Const", "attr": {"dtype": {"type": "DT_FLOAT"}, "value": {"tensor": {"dtype": "DT_FLOAT", "tensorShape": {}}}}}, {"name": "module_apply_default/module_apply_default/MobilenetV3/expanded_conv_12/expand/hard_swish/add/y", "op": "Const", "attr": {"dtype": {"type": "DT_FLOAT"}, "value": {"tensor": {"dtype": "DT_FLOAT", "tensorShape": {}}}}}, {"name": "module_apply_default/module_apply_default/MobilenetV3/expanded_conv_12/depthwise/hard_swish/add/y", "op": "Const", "attr": {"value": {"tensor": {"dtype": "DT_FLOAT", "tensorShape": {}}}, "dtype": {"type": "DT_FLOAT"}}}, {"name": "module_apply_default/module_apply_default/MobilenetV3/Conv_1/hard_swish/add/y", "op": "Const", "attr": {"dtype": {"type": "DT_FLOAT"}, "value": {"tensor": {"dtype": "DT_FLOAT", "tensorShape": {}}}}}, {"name": "module_apply_default/module_apply_default/MobilenetV3/Conv_2/weights", "op": "Const", "attr": {"dtype": {"type": "DT_FLOAT"}, "value": {"tensor": {"dtype": "DT_FLOAT", "tensorShape": {"dim": [{"size": "1"}, {"size": "1"}, {"size": "960"}, {"size": "1280"}]}}}}}, {"name": "module_apply_default/module_apply_default/MobilenetV3/Conv_2/biases", "op": "Const", "attr": {"value": {"tensor": {"dtype": "DT_FLOAT", "tensorShape": {"dim": [{"size": "1280"}]}}}, "dtype": {"type": "DT_FLOAT"}}}, {"name": "module_apply_default/module_apply_default/MobilenetV3/Conv_2/hard_swish/add/y", "op": "Const", "attr": {"value": {"tensor": {"dtype": "DT_FLOAT", "tensorShape": {}}}, "dtype": {"type": "DT_FLOAT"}}}, {"name": "module_apply_default/module_apply_default/gem/Maximum/y", "op": "Const", "attr": {"value": {"tensor": {"dtype": "DT_FLOAT", "tensorShape": {}}}, "dtype": {"type": "DT_FLOAT"}}}, {"name": "module_apply_default/module_apply_default/gem/gem_power", "op": "Const", "attr": {"value": {"tensor": {"dtype": "DT_FLOAT", "tensorShape": {}}}, "dtype": {"type": "DT_FLOAT"}}}, {"name": "module_apply_default/module_apply_default/gem/Mean/reduction_indices", "op": "Const", "attr": {"dtype": {"type": "DT_INT32"}, "value": {"tensor": {"dtype": "DT_INT32", "tensorShape": {"dim": [{"size": "2"}]}}}}}, {"name": "module_apply_default/module_apply_default/gem/truediv", "op": "Const", "attr": {"value": {"tensor": {"dtype": "DT_FLOAT", "tensorShape": {}}}, "dtype": {"type": "DT_FLOAT"}}}, {"name": "module_apply_default/module_apply_default/embed/Tensordot/free", "op": "Const", "attr": {"dtype": {"type": "DT_INT32"}, "value": {"tensor": {"dtype": "DT_INT32", "tensorShape": {"dim": [{"size": "3"}]}}}}}, {"name": "module_apply_default/module_apply_default/embed/Tensordot/GatherV2/axis", "op": "Const", "attr": {"dtype": {"type": "DT_INT32"}, "value": {"tensor": {"dtype": "DT_INT32", "tensorShape": {}}}}}, {"name": "module_apply_default/module_apply_default/embed/Tensordot/Const_2", "op": "Const", "attr": {"dtype": {"type": "DT_INT32"}, "value": {"tensor": {"dtype": "DT_INT32", "tensorShape": {"dim": [{"size": "1"}]}}}}}, {"name": "module_apply_default/module_apply_default/embed/Tensordot/concat_1/axis", "op": "Const", "attr": {"dtype": {"type": "DT_INT32"}, "value": {"tensor": {"dtype": "DT_INT32", "tensorShape": {}}}}}, {"name": "module_apply_default/module_apply_default/prelogits_norm/Sum/reduction_indices", "op": "Const", "attr": {"dtype": {"type": "DT_INT32"}, "value": {"tensor": {"dtype": "DT_INT32", "tensorShape": {}}}}}, {"name": "module_apply_default/module_apply_default/prelogits_norm/Maximum/y", "op": "Const", "attr": {"dtype": {"type": "DT_FLOAT"}, "value": {"tensor": {"dtype": "DT_FLOAT", "tensorShape": {}}}}}, {"name": "module_apply_default/transpose_1/perm", "op": "Const", "attr": {"value": {"tensor": {"dtype": "DT_INT32", "tensorShape": {"dim": [{"size": "2"}]}}}, "dtype": {"type": "DT_INT32"}}}, {"name": "module_apply_default/module_apply_default/MobilenetV3/Conv/Conv2D_weights", "op": "Const", "attr": {"value": {"tensor": {"dtype": "DT_FLOAT", "tensorShape": {"dim": [{"size": "3"}, {"size": "3"}, {"size": "3"}, {"size": "16"}]}}}, "dtype": {"type": "DT_FLOAT"}}}, {"name": "module_apply_default/module_apply_default/MobilenetV3/Conv/Conv2D_bn_offset", "op": "Const", "attr": {"value": {"tensor": {"dtype": "DT_FLOAT", "tensorShape": {"dim": [{"size": "16"}]}}}, "dtype": {"type": "DT_FLOAT"}}}, {"name": "module_apply_default/module_apply_default/MobilenetV3/expanded_conv/depthwise/depthwise_weights", "op": "Const", "attr": {"value": {"tensor": {"dtype": "DT_FLOAT", "tensorShape": {"dim": [{"size": "3"}, {"size": "3"}, {"size": "16"}, {"size": "1"}]}}}, "dtype": {"type": "DT_FLOAT"}}}, {"name": "module_apply_default/module_apply_default/MobilenetV3/expanded_conv/depthwise/depthwise_bn_offset", "op": "Const", "attr": {"dtype": {"type": "DT_FLOAT"}, "value": {"tensor": {"dtype": "DT_FLOAT", "tensorShape": {"dim": [{"size": "16"}]}}}}}, {"name": "module_apply_default/module_apply_default/MobilenetV3/expanded_conv/project/Conv2D_weights", "op": "Const", "attr": {"dtype": {"type": "DT_FLOAT"}, "value": {"tensor": {"dtype": "DT_FLOAT", "tensorShape": {"dim": [{"size": "1"}, {"size": "1"}, {"size": "16"}, {"size": "16"}]}}}}}, {"name": "module_apply_default/module_apply_default/MobilenetV3/expanded_conv/project/Conv2D_bn_offset", "op": "Const", "attr": {"value": {"tensor": {"dtype": "DT_FLOAT", "tensorShape": {"dim": [{"size": "16"}]}}}, "dtype": {"type": "DT_FLOAT"}}}, {"name": "module_apply_default/module_apply_default/MobilenetV3/expanded_conv_1/expand/Conv2D_weights", "op": "Const", "attr": {"dtype": {"type": "DT_FLOAT"}, "value": {"tensor": {"dtype": "DT_FLOAT", "tensorShape": {"dim": [{"size": "1"}, {"size": "1"}, {"size": "16"}, {"size": "64"}]}}}}}, {"name": "module_apply_default/module_apply_default/MobilenetV3/expanded_conv_1/expand/Conv2D_bn_offset", "op": "Const", "attr": {"value": {"tensor": {"dtype": "DT_FLOAT", "tensorShape": {"dim": [{"size": "64"}]}}}, "dtype": {"type": "DT_FLOAT"}}}, {"name": "module_apply_default/module_apply_default/MobilenetV3/expanded_conv_1/depthwise/depthwise_weights", "op": "Const", "attr": {"dtype": {"type": "DT_FLOAT"}, "value": {"tensor": {"dtype": "DT_FLOAT", "tensorShape": {"dim": [{"size": "3"}, {"size": "3"}, {"size": "64"}, {"size": "1"}]}}}}}, {"name": "module_apply_default/module_apply_default/MobilenetV3/expanded_conv_1/depthwise/depthwise_bn_offset", "op": "Const", "attr": {"dtype": {"type": "DT_FLOAT"}, "value": {"tensor": {"dtype": "DT_FLOAT", "tensorShape": {"dim": [{"size": "64"}]}}}}}, {"name": "module_apply_default/module_apply_default/MobilenetV3/expanded_conv_1/project/Conv2D_weights", "op": "Const", "attr": {"value": {"tensor": {"dtype": "DT_FLOAT", "tensorShape": {"dim": [{"size": "1"}, {"size": "1"}, {"size": "64"}, {"size": "24"}]}}}, "dtype": {"type": "DT_FLOAT"}}}, {"name": "module_apply_default/module_apply_default/MobilenetV3/expanded_conv_1/project/Conv2D_bn_offset", "op": "Const", "attr": {"value": {"tensor": {"dtype": "DT_FLOAT", "tensorShape": {"dim": [{"size": "24"}]}}}, "dtype": {"type": "DT_FLOAT"}}}, {"name": "module_apply_default/module_apply_default/MobilenetV3/expanded_conv_2/expand/Conv2D_weights", "op": "Const", "attr": {"dtype": {"type": "DT_FLOAT"}, "value": {"tensor": {"dtype": "DT_FLOAT", "tensorShape": {"dim": [{"size": "1"}, {"size": "1"}, {"size": "24"}, {"size": "72"}]}}}}}, {"name": "module_apply_default/module_apply_default/embed/BatchNorm/FusedBatchNormV3/Scaled", "op": "Const", "attr": {"dtype": {"type": "DT_FLOAT"}, "value": {"tensor": {"dtype": "DT_FLOAT", "tensorShape": {"dim": [{"size": "64"}]}}}}}, {"name": "module_apply_default/module_apply_default/MobilenetV3/expanded_conv_2/expand/Conv2D_bn_offset", "op": "Const", "attr": {"value": {"tensor": {"dtype": "DT_FLOAT", "tensorShape": {"dim": [{"size": "72"}]}}}, "dtype": {"type": "DT_FLOAT"}}}, {"name": "module_apply_default/module_apply_default/MobilenetV3/expanded_conv_2/depthwise/depthwise_weights", "op": "Const", "attr": {"value": {"tensor": {"dtype": "DT_FLOAT", "tensorShape": {"dim": [{"size": "3"}, {"size": "3"}, {"size": "72"}, {"size": "1"}]}}}, "dtype": {"type": "DT_FLOAT"}}}, {"name": "module_apply_default/module_apply_default/MobilenetV3/expanded_conv_2/depthwise/depthwise_bn_offset", "op": "Const", "attr": {"dtype": {"type": "DT_FLOAT"}, "value": {"tensor": {"dtype": "DT_FLOAT", "tensorShape": {"dim": [{"size": "72"}]}}}}}, {"name": "module_apply_default/module_apply_default/MobilenetV3/expanded_conv_2/project/Conv2D_weights", "op": "Const", "attr": {"value": {"tensor": {"dtype": "DT_FLOAT", "tensorShape": {"dim": [{"size": "1"}, {"size": "1"}, {"size": "72"}, {"size": "24"}]}}}, "dtype": {"type": "DT_FLOAT"}}}, {"name": "module_apply_default/module_apply_default/MobilenetV3/expanded_conv_2/project/Conv2D_bn_offset", "op": "Const", "attr": {"dtype": {"type": "DT_FLOAT"}, "value": {"tensor": {"dtype": "DT_FLOAT", "tensorShape": {"dim": [{"size": "24"}]}}}}}, {"name": "module_apply_default/module_apply_default/MobilenetV3/expanded_conv_3/expand/Conv2D_weights", "op": "Const", "attr": {"value": {"tensor": {"dtype": "DT_FLOAT", "tensorShape": {"dim": [{"size": "1"}, {"size": "1"}, {"size": "24"}, {"size": "72"}]}}}, "dtype": {"type": "DT_FLOAT"}}}, {"name": "module_apply_default/module_apply_default/MobilenetV3/expanded_conv_3/expand/Conv2D_bn_offset", "op": "Const", "attr": {"dtype": {"type": "DT_FLOAT"}, "value": {"tensor": {"dtype": "DT_FLOAT", "tensorShape": {"dim": [{"size": "72"}]}}}}}, {"name": "module_apply_default/module_apply_default/MobilenetV3/expanded_conv_3/depthwise/depthwise_weights", "op": "Const", "attr": {"value": {"tensor": {"dtype": "DT_FLOAT", "tensorShape": {"dim": [{"size": "5"}, {"size": "5"}, {"size": "72"}, {"size": "1"}]}}}, "dtype": {"type": "DT_FLOAT"}}}, {"name": "module_apply_default/module_apply_default/MobilenetV3/expanded_conv_3/depthwise/depthwise_bn_offset", "op": "Const", "attr": {"dtype": {"type": "DT_FLOAT"}, "value": {"tensor": {"dtype": "DT_FLOAT", "tensorShape": {"dim": [{"size": "72"}]}}}}}, {"name": "module_apply_default/module_apply_default/MobilenetV3/expanded_conv_14/project/Conv2D_weights", "op": "Const", "attr": {"value": {"tensor": {"dtype": "DT_FLOAT", "tensorShape": {"dim": [{"size": "1"}, {"size": "1"}, {"size": "960"}, {"size": "160"}]}}}, "dtype": {"type": "DT_FLOAT"}}}, {"name": "module_apply_default/module_apply_default/MobilenetV3/expanded_conv_3/project/Conv2D_weights", "op": "Const", "attr": {"value": {"tensor": {"dtype": "DT_FLOAT", "tensorShape": {"dim": [{"size": "1"}, {"size": "1"}, {"size": "72"}, {"size": "40"}]}}}, "dtype": {"type": "DT_FLOAT"}}}, {"name": "module_apply_default/module_apply_default/MobilenetV3/expanded_conv_14/project/Conv2D_bn_offset", "op": "Const", "attr": {"value": {"tensor": {"dtype": "DT_FLOAT", "tensorShape": {"dim": [{"size": "160"}]}}}, "dtype": {"type": "DT_FLOAT"}}}, {"name": "module_apply_default/module_apply_default/MobilenetV3/expanded_conv_3/project/Conv2D_bn_offset", "op": "Const", "attr": {"dtype": {"type": "DT_FLOAT"}, "value": {"tensor": {"dtype": "DT_FLOAT", "tensorShape": {"dim": [{"size": "40"}]}}}}}, {"name": "module_apply_default/module_apply_default/MobilenetV3/expanded_conv_4/expand/Conv2D_weights", "op": "Const", "attr": {"dtype": {"type": "DT_FLOAT"}, "value": {"tensor": {"dtype": "DT_FLOAT", "tensorShape": {"dim": [{"size": "1"}, {"size": "1"}, {"size": "40"}, {"size": "120"}]}}}}}, {"name": "module_apply_default/module_apply_default/MobilenetV3/expanded_conv_4/expand/Conv2D_bn_offset", "op": "Const", "attr": {"value": {"tensor": {"dtype": "DT_FLOAT", "tensorShape": {"dim": [{"size": "120"}]}}}, "dtype": {"type": "DT_FLOAT"}}}, {"name": "module_apply_default/module_apply_default/MobilenetV3/expanded_conv_4/depthwise/depthwise_weights", "op": "Const", "attr": {"value": {"tensor": {"dtype": "DT_FLOAT", "tensorShape": {"dim": [{"size": "5"}, {"size": "5"}, {"size": "120"}, {"size": "1"}]}}}, "dtype": {"type": "DT_FLOAT"}}}, {"name": "module_apply_default/module_apply_default/MobilenetV3/expanded_conv_4/depthwise/depthwise_bn_offset", "op": "Const", "attr": {"dtype": {"type": "DT_FLOAT"}, "value": {"tensor": {"dtype": "DT_FLOAT", "tensorShape": {"dim": [{"size": "120"}]}}}}}, {"name": "module_apply_default/module_apply_default/MobilenetV3/Conv_1/Conv2D_weights", "op": "Const", "attr": {"value": {"tensor": {"dtype": "DT_FLOAT", "tensorShape": {"dim": [{"size": "1"}, {"size": "1"}, {"size": "160"}, {"size": "960"}]}}}, "dtype": {"type": "DT_FLOAT"}}}, {"name": "module_apply_default/module_apply_default/MobilenetV3/Conv_1/Conv2D_bn_offset", "op": "Const", "attr": {"value": {"tensor": {"dtype": "DT_FLOAT", "tensorShape": {"dim": [{"size": "960"}]}}}, "dtype": {"type": "DT_FLOAT"}}}, {"name": "module_apply_default/module_apply_default/MobilenetV3/expanded_conv_4/project/Conv2D_weights", "op": "Const", "attr": {"value": {"tensor": {"dtype": "DT_FLOAT", "tensorShape": {"dim": [{"size": "1"}, {"size": "1"}, {"size": "120"}, {"size": "40"}]}}}, "dtype": {"type": "DT_FLOAT"}}}, {"name": "module_apply_default/module_apply_default/MobilenetV3/expanded_conv_4/project/Conv2D_bn_offset", "op": "Const", "attr": {"value": {"tensor": {"dtype": "DT_FLOAT", "tensorShape": {"dim": [{"size": "40"}]}}}, "dtype": {"type": "DT_FLOAT"}}}, {"name": "module_apply_default/module_apply_default/MobilenetV3/expanded_conv_5/expand/Conv2D_weights", "op": "Const", "attr": {"value": {"tensor": {"dtype": "DT_FLOAT", "tensorShape": {"dim": [{"size": "1"}, {"size": "1"}, {"size": "40"}, {"size": "120"}]}}}, "dtype": {"type": "DT_FLOAT"}}}, {"name": "module_apply_default/module_apply_default/MobilenetV3/expanded_conv_5/expand/Conv2D_bn_offset", "op": "Const", "attr": {"value": {"tensor": {"dtype": "DT_FLOAT", "tensorShape": {"dim": [{"size": "120"}]}}}, "dtype": {"type": "DT_FLOAT"}}}, {"name": "module_apply_default/module_apply_default/MobilenetV3/expanded_conv_5/depthwise/depthwise_weights", "op": "Const", "attr": {"dtype": {"type": "DT_FLOAT"}, "value": {"tensor": {"dtype": "DT_FLOAT", "tensorShape": {"dim": [{"size": "5"}, {"size": "5"}, {"size": "120"}, {"size": "1"}]}}}}}, {"name": "module_apply_default/module_apply_default/MobilenetV3/expanded_conv_5/depthwise/depthwise_bn_offset", "op": "Const", "attr": {"dtype": {"type": "DT_FLOAT"}, "value": {"tensor": {"dtype": "DT_FLOAT", "tensorShape": {"dim": [{"size": "120"}]}}}}}, {"name": "module_apply_default/module_apply_default/MobilenetV3/expanded_conv_5/project/Conv2D_weights", "op": "Const", "attr": {"value": {"tensor": {"dtype": "DT_FLOAT", "tensorShape": {"dim": [{"size": "1"}, {"size": "1"}, {"size": "120"}, {"size": "40"}]}}}, "dtype": {"type": "DT_FLOAT"}}}, {"name": "module_apply_default/module_apply_default/embed/BatchNorm/FusedBatchNormV3/Offset", "op": "Const", "attr": {"dtype": {"type": "DT_FLOAT"}, "value": {"tensor": {"dtype": "DT_FLOAT", "tensorShape": {"dim": [{"size": "64"}]}}}}}, {"name": "module_apply_default/module_apply_default/MobilenetV3/expanded_conv_5/project/Conv2D_bn_offset", "op": "Const", "attr": {"value": {"tensor": {"dtype": "DT_FLOAT", "tensorShape": {"dim": [{"size": "40"}]}}}, "dtype": {"type": "DT_FLOAT"}}}, {"name": "module_apply_default/module_apply_default/MobilenetV3/expanded_conv_6/expand/Conv2D_weights", "op": "Const", "attr": {"value": {"tensor": {"dtype": "DT_FLOAT", "tensorShape": {"dim": [{"size": "1"}, {"size": "1"}, {"size": "40"}, {"size": "240"}]}}}, "dtype": {"type": "DT_FLOAT"}}}, {"name": "module_apply_default/module_apply_default/MobilenetV3/expanded_conv_6/expand/Conv2D_bn_offset", "op": "Const", "attr": {"value": {"tensor": {"dtype": "DT_FLOAT", "tensorShape": {"dim": [{"size": "240"}]}}}, "dtype": {"type": "DT_FLOAT"}}}, {"name": "module_apply_default/module_apply_default/MobilenetV3/expanded_conv_6/depthwise/depthwise_weights", "op": "Const", "attr": {"dtype": {"type": "DT_FLOAT"}, "value": {"tensor": {"dtype": "DT_FLOAT", "tensorShape": {"dim": [{"size": "3"}, {"size": "3"}, {"size": "240"}, {"size": "1"}]}}}}}, {"name": "module_apply_default/module_apply_default/MobilenetV3/expanded_conv_6/depthwise/depthwise_bn_offset", "op": "Const", "attr": {"value": {"tensor": {"dtype": "DT_FLOAT", "tensorShape": {"dim": [{"size": "240"}]}}}, "dtype": {"type": "DT_FLOAT"}}}, {"name": "module_apply_default/module_apply_default/MobilenetV3/expanded_conv_6/project/Conv2D_weights", "op": "Const", "attr": {"value": {"tensor": {"dtype": "DT_FLOAT", "tensorShape": {"dim": [{"size": "1"}, {"size": "1"}, {"size": "240"}, {"size": "80"}]}}}, "dtype": {"type": "DT_FLOAT"}}}, {"name": "module_apply_default/module_apply_default/MobilenetV3/expanded_conv_6/project/Conv2D_bn_offset", "op": "Const", "attr": {"value": {"tensor": {"dtype": "DT_FLOAT", "tensorShape": {"dim": [{"size": "80"}]}}}, "dtype": {"type": "DT_FLOAT"}}}, {"name": "module_apply_default/module_apply_default/MobilenetV3/expanded_conv_7/expand/Conv2D_weights", "op": "Const", "attr": {"value": {"tensor": {"dtype": "DT_FLOAT", "tensorShape": {"dim": [{"size": "1"}, {"size": "1"}, {"size": "80"}, {"size": "200"}]}}}, "dtype": {"type": "DT_FLOAT"}}}, {"name": "module_apply_default/module_apply_default/MobilenetV3/expanded_conv_7/expand/Conv2D_bn_offset", "op": "Const", "attr": {"dtype": {"type": "DT_FLOAT"}, "value": {"tensor": {"dtype": "DT_FLOAT", "tensorShape": {"dim": [{"size": "200"}]}}}}}, {"name": "module_apply_default/module_apply_default/MobilenetV3/expanded_conv_7/depthwise/depthwise_weights", "op": "Const", "attr": {"value": {"tensor": {"dtype": "DT_FLOAT", "tensorShape": {"dim": [{"size": "3"}, {"size": "3"}, {"size": "200"}, {"size": "1"}]}}}, "dtype": {"type": "DT_FLOAT"}}}, {"name": "module_apply_default/module_apply_default/MobilenetV3/expanded_conv_7/depthwise/depthwise_bn_offset", "op": "Const", "attr": {"value": {"tensor": {"dtype": "DT_FLOAT", "tensorShape": {"dim": [{"size": "200"}]}}}, "dtype": {"type": "DT_FLOAT"}}}, {"name": "module_apply_default/module_apply_default/MobilenetV3/expanded_conv_7/project/Conv2D_weights", "op": "Const", "attr": {"value": {"tensor": {"dtype": "DT_FLOAT", "tensorShape": {"dim": [{"size": "1"}, {"size": "1"}, {"size": "200"}, {"size": "80"}]}}}, "dtype": {"type": "DT_FLOAT"}}}, {"name": "module_apply_default/module_apply_default/MobilenetV3/expanded_conv_7/project/Conv2D_bn_offset", "op": "Const", "attr": {"value": {"tensor": {"dtype": "DT_FLOAT", "tensorShape": {"dim": [{"size": "80"}]}}}, "dtype": {"type": "DT_FLOAT"}}}, {"name": "module_apply_default/module_apply_default/MobilenetV3/expanded_conv_8/expand/Conv2D_weights", "op": "Const", "attr": {"dtype": {"type": "DT_FLOAT"}, "value": {"tensor": {"dtype": "DT_FLOAT", "tensorShape": {"dim": [{"size": "1"}, {"size": "1"}, {"size": "80"}, {"size": "184"}]}}}}}, {"name": "module_apply_default/module_apply_default/MobilenetV3/expanded_conv_8/expand/Conv2D_bn_offset", "op": "Const", "attr": {"dtype": {"type": "DT_FLOAT"}, "value": {"tensor": {"dtype": "DT_FLOAT", "tensorShape": {"dim": [{"size": "184"}]}}}}}, {"name": "module_apply_default/module_apply_default/MobilenetV3/expanded_conv_8/depthwise/depthwise_weights", "op": "Const", "attr": {"dtype": {"type": "DT_FLOAT"}, "value": {"tensor": {"dtype": "DT_FLOAT", "tensorShape": {"dim": [{"size": "3"}, {"size": "3"}, {"size": "184"}, {"size": "1"}]}}}}}, {"name": "module_apply_default/module_apply_default/MobilenetV3/expanded_conv_8/depthwise/depthwise_bn_offset", "op": "Const", "attr": {"dtype": {"type": "DT_FLOAT"}, "value": {"tensor": {"dtype": "DT_FLOAT", "tensorShape": {"dim": [{"size": "184"}]}}}}}, {"name": "module_apply_default/module_apply_default/MobilenetV3/expanded_conv_8/project/Conv2D_weights", "op": "Const", "attr": {"value": {"tensor": {"dtype": "DT_FLOAT", "tensorShape": {"dim": [{"size": "1"}, {"size": "1"}, {"size": "184"}, {"size": "80"}]}}}, "dtype": {"type": "DT_FLOAT"}}}, {"name": "module_apply_default/module_apply_default/MobilenetV3/expanded_conv_8/project/Conv2D_bn_offset", "op": "Const", "attr": {"value": {"tensor": {"dtype": "DT_FLOAT", "tensorShape": {"dim": [{"size": "80"}]}}}, "dtype": {"type": "DT_FLOAT"}}}, {"name": "module_apply_default/module_apply_default/MobilenetV3/expanded_conv_9/expand/Conv2D_weights", "op": "Const", "attr": {"value": {"tensor": {"dtype": "DT_FLOAT", "tensorShape": {"dim": [{"size": "1"}, {"size": "1"}, {"size": "80"}, {"size": "184"}]}}}, "dtype": {"type": "DT_FLOAT"}}}, {"name": "module_apply_default/module_apply_default/MobilenetV3/expanded_conv_9/expand/Conv2D_bn_offset", "op": "Const", "attr": {"value": {"tensor": {"dtype": "DT_FLOAT", "tensorShape": {"dim": [{"size": "184"}]}}}, "dtype": {"type": "DT_FLOAT"}}}, {"name": "module_apply_default/module_apply_default/MobilenetV3/expanded_conv_9/depthwise/depthwise_weights", "op": "Const", "attr": {"dtype": {"type": "DT_FLOAT"}, "value": {"tensor": {"dtype": "DT_FLOAT", "tensorShape": {"dim": [{"size": "3"}, {"size": "3"}, {"size": "184"}, {"size": "1"}]}}}}}, {"name": "module_apply_default/module_apply_default/MobilenetV3/expanded_conv_9/depthwise/depthwise_bn_offset", "op": "Const", "attr": {"value": {"tensor": {"dtype": "DT_FLOAT", "tensorShape": {"dim": [{"size": "184"}]}}}, "dtype": {"type": "DT_FLOAT"}}}, {"name": "module_apply_default/module_apply_default/MobilenetV3/expanded_conv_9/project/Conv2D_weights", "op": "Const", "attr": {"value": {"tensor": {"dtype": "DT_FLOAT", "tensorShape": {"dim": [{"size": "1"}, {"size": "1"}, {"size": "184"}, {"size": "80"}]}}}, "dtype": {"type": "DT_FLOAT"}}}, {"name": "module_apply_default/module_apply_default/MobilenetV3/expanded_conv_9/project/Conv2D_bn_offset", "op": "Const", "attr": {"value": {"tensor": {"dtype": "DT_FLOAT", "tensorShape": {"dim": [{"size": "80"}]}}}, "dtype": {"type": "DT_FLOAT"}}}, {"name": "module_apply_default/module_apply_default/MobilenetV3/expanded_conv_10/expand/Conv2D_weights", "op": "Const", "attr": {"value": {"tensor": {"dtype": "DT_FLOAT", "tensorShape": {"dim": [{"size": "1"}, {"size": "1"}, {"size": "80"}, {"size": "480"}]}}}, "dtype": {"type": "DT_FLOAT"}}}, {"name": "module_apply_default/module_apply_default/MobilenetV3/expanded_conv_10/expand/Conv2D_bn_offset", "op": "Const", "attr": {"dtype": {"type": "DT_FLOAT"}, "value": {"tensor": {"dtype": "DT_FLOAT", "tensorShape": {"dim": [{"size": "480"}]}}}}}, {"name": "module_apply_default/module_apply_default/MobilenetV3/expanded_conv_10/depthwise/depthwise_weights", "op": "Const", "attr": {"dtype": {"type": "DT_FLOAT"}, "value": {"tensor": {"dtype": "DT_FLOAT", "tensorShape": {"dim": [{"size": "3"}, {"size": "3"}, {"size": "480"}, {"size": "1"}]}}}}}, {"name": "module_apply_default/module_apply_default/MobilenetV3/expanded_conv_10/depthwise/depthwise_bn_offset", "op": "Const", "attr": {"dtype": {"type": "DT_FLOAT"}, "value": {"tensor": {"dtype": "DT_FLOAT", "tensorShape": {"dim": [{"size": "480"}]}}}}}, {"name": "module_apply_default/module_apply_default/MobilenetV3/expanded_conv_10/project/Conv2D_weights", "op": "Const", "attr": {"dtype": {"type": "DT_FLOAT"}, "value": {"tensor": {"dtype": "DT_FLOAT", "tensorShape": {"dim": [{"size": "1"}, {"size": "1"}, {"size": "480"}, {"size": "112"}]}}}}}, {"name": "module_apply_default/module_apply_default/MobilenetV3/expanded_conv_10/project/Conv2D_bn_offset", "op": "Const", "attr": {"dtype": {"type": "DT_FLOAT"}, "value": {"tensor": {"dtype": "DT_FLOAT", "tensorShape": {"dim": [{"size": "112"}]}}}}}, {"name": "module_apply_default/module_apply_default/MobilenetV3/expanded_conv_11/expand/Conv2D_weights", "op": "Const", "attr": {"value": {"tensor": {"dtype": "DT_FLOAT", "tensorShape": {"dim": [{"size": "1"}, {"size": "1"}, {"size": "112"}, {"size": "672"}]}}}, "dtype": {"type": "DT_FLOAT"}}}, {"name": "module_apply_default/module_apply_default/MobilenetV3/expanded_conv_11/expand/Conv2D_bn_offset", "op": "Const", "attr": {"value": {"tensor": {"dtype": "DT_FLOAT", "tensorShape": {"dim": [{"size": "672"}]}}}, "dtype": {"type": "DT_FLOAT"}}}, {"name": "module_apply_default/module_apply_default/MobilenetV3/expanded_conv_11/depthwise/depthwise_weights", "op": "Const", "attr": {"dtype": {"type": "DT_FLOAT"}, "value": {"tensor": {"dtype": "DT_FLOAT", "tensorShape": {"dim": [{"size": "3"}, {"size": "3"}, {"size": "672"}, {"size": "1"}]}}}}}, {"name": "module_apply_default/module_apply_default/MobilenetV3/expanded_conv_11/depthwise/depthwise_bn_offset", "op": "Const", "attr": {"value": {"tensor": {"dtype": "DT_FLOAT", "tensorShape": {"dim": [{"size": "672"}]}}}, "dtype": {"type": "DT_FLOAT"}}}, {"name": "module_apply_default/module_apply_default/MobilenetV3/expanded_conv_11/project/Conv2D_weights", "op": "Const", "attr": {"value": {"tensor": {"dtype": "DT_FLOAT", "tensorShape": {"dim": [{"size": "1"}, {"size": "1"}, {"size": "672"}, {"size": "112"}]}}}, "dtype": {"type": "DT_FLOAT"}}}, {"name": "module_apply_default/module_apply_default/MobilenetV3/expanded_conv_11/project/Conv2D_bn_offset", "op": "Const", "attr": {"dtype": {"type": "DT_FLOAT"}, "value": {"tensor": {"dtype": "DT_FLOAT", "tensorShape": {"dim": [{"size": "112"}]}}}}}, {"name": "module_apply_default/module_apply_default/MobilenetV3/expanded_conv_12/expand/Conv2D_weights", "op": "Const", "attr": {"dtype": {"type": "DT_FLOAT"}, "value": {"tensor": {"dtype": "DT_FLOAT", "tensorShape": {"dim": [{"size": "1"}, {"size": "1"}, {"size": "112"}, {"size": "672"}]}}}}}, {"name": "module_apply_default/module_apply_default/MobilenetV3/expanded_conv_12/expand/Conv2D_bn_offset", "op": "Const", "attr": {"value": {"tensor": {"dtype": "DT_FLOAT", "tensorShape": {"dim": [{"size": "672"}]}}}, "dtype": {"type": "DT_FLOAT"}}}, {"name": "module_apply_default/module_apply_default/MobilenetV3/expanded_conv_12/depthwise/depthwise_weights", "op": "Const", "attr": {"dtype": {"type": "DT_FLOAT"}, "value": {"tensor": {"dtype": "DT_FLOAT", "tensorShape": {"dim": [{"size": "5"}, {"size": "5"}, {"size": "672"}, {"size": "1"}]}}}}}, {"name": "module_apply_default/module_apply_default/MobilenetV3/expanded_conv_12/depthwise/depthwise_bn_offset", "op": "Const", "attr": {"dtype": {"type": "DT_FLOAT"}, "value": {"tensor": {"dtype": "DT_FLOAT", "tensorShape": {"dim": [{"size": "672"}]}}}}}, {"name": "module_apply_default/module_apply_default/MobilenetV3/expanded_conv_12/project/Conv2D_weights", "op": "Const", "attr": {"value": {"tensor": {"dtype": "DT_FLOAT", "tensorShape": {"dim": [{"size": "1"}, {"size": "1"}, {"size": "672"}, {"size": "160"}]}}}, "dtype": {"type": "DT_FLOAT"}}}, {"name": "module_apply_default/module_apply_default/MobilenetV3/expanded_conv_12/project/Conv2D_bn_offset", "op": "Const", "attr": {"value": {"tensor": {"dtype": "DT_FLOAT", "tensorShape": {"dim": [{"size": "160"}]}}}, "dtype": {"type": "DT_FLOAT"}}}, {"name": "module_apply_default/module_apply_default/MobilenetV3/expanded_conv_13/expand/Conv2D_weights", "op": "Const", "attr": {"dtype": {"type": "DT_FLOAT"}, "value": {"tensor": {"dtype": "DT_FLOAT", "tensorShape": {"dim": [{"size": "1"}, {"size": "1"}, {"size": "160"}, {"size": "960"}]}}}}}, {"name": "module_apply_default/module_apply_default/MobilenetV3/expanded_conv_13/expand/Conv2D_bn_offset", "op": "Const", "attr": {"dtype": {"type": "DT_FLOAT"}, "value": {"tensor": {"dtype": "DT_FLOAT", "tensorShape": {"dim": [{"size": "960"}]}}}}}, {"name": "module_apply_default/module_apply_default/MobilenetV3/expanded_conv_13/depthwise/depthwise_weights", "op": "Const", "attr": {"value": {"tensor": {"dtype": "DT_FLOAT", "tensorShape": {"dim": [{"size": "5"}, {"size": "5"}, {"size": "960"}, {"size": "1"}]}}}, "dtype": {"type": "DT_FLOAT"}}}, {"name": "module_apply_default/module_apply_default/MobilenetV3/expanded_conv_13/depthwise/depthwise_bn_offset", "op": "Const", "attr": {"value": {"tensor": {"dtype": "DT_FLOAT", "tensorShape": {"dim": [{"size": "960"}]}}}, "dtype": {"type": "DT_FLOAT"}}}, {"name": "module_apply_default/module_apply_default/MobilenetV3/expanded_conv_13/project/Conv2D_weights", "op": "Const", "attr": {"value": {"tensor": {"dtype": "DT_FLOAT", "tensorShape": {"dim": [{"size": "1"}, {"size": "1"}, {"size": "960"}, {"size": "160"}]}}}, "dtype": {"type": "DT_FLOAT"}}}, {"name": "module_apply_default/module_apply_default/MobilenetV3/expanded_conv_13/project/Conv2D_bn_offset", "op": "Const", "attr": {"dtype": {"type": "DT_FLOAT"}, "value": {"tensor": {"dtype": "DT_FLOAT", "tensorShape": {"dim": [{"size": "160"}]}}}}}, {"name": "module_apply_default/module_apply_default/MobilenetV3/expanded_conv_14/expand/Conv2D_weights", "op": "Const", "attr": {"value": {"tensor": {"dtype": "DT_FLOAT", "tensorShape": {"dim": [{"size": "1"}, {"size": "1"}, {"size": "160"}, {"size": "960"}]}}}, "dtype": {"type": "DT_FLOAT"}}}, {"name": "module_apply_default/module_apply_default/MobilenetV3/expanded_conv_14/expand/Conv2D_bn_offset", "op": "Const", "attr": {"value": {"tensor": {"dtype": "DT_FLOAT", "tensorShape": {"dim": [{"size": "960"}]}}}, "dtype": {"type": "DT_FLOAT"}}}, {"name": "module_apply_default/module_apply_default/MobilenetV3/expanded_conv_14/depthwise/depthwise_weights", "op": "Const", "attr": {"dtype": {"type": "DT_FLOAT"}, "value": {"tensor": {"dtype": "DT_FLOAT", "tensorShape": {"dim": [{"size": "5"}, {"size": "5"}, {"size": "960"}, {"size": "1"}]}}}}}, {"name": "module_apply_default/module_apply_default/MobilenetV3/expanded_conv_14/depthwise/depthwise_bn_offset", "op": "Const", "attr": {"dtype": {"type": "DT_FLOAT"}, "value": {"tensor": {"dtype": "DT_FLOAT", "tensorShape": {"dim": [{"size": "960"}]}}}}}, {"name": "module_apply_default/hub_input/Mul", "op": "Mul", "input": ["images", "module_apply_default/hub_input/Mul/y"], "attr": {"T": {"type": "DT_FLOAT"}}}, {"name": "module_apply_default/hub_input/Add", "op": "Add", "input": ["module_apply_default/hub_input/Mul", "module_apply_default/hub_input/Add/y"], "attr": {"T": {"type": "DT_FLOAT"}}}, {"name": "module_apply_default/hub_input/tfhub_input_scaling", "op": "Cast", "input": ["module_apply_default/hub_input/Add"], "attr": {"Truncate": {"b": false}, "DstT": {"type": "DT_UINT8"}, "SrcT": {"type": "DT_FLOAT"}}}, {"name": "module_apply_default/convert_image/Cast", "op": "Cast", "input": ["module_apply_default/hub_input/tfhub_input_scaling"], "attr": {"DstT": {"type": "DT_FLOAT"}, "Truncate": {"b": false}, "SrcT": {"type": "DT_UINT8"}}}, {"name": "module_apply_default/module_apply_default/hub_input/Mul", "op": "Mul", "input": ["module_apply_default/convert_image/Cast", "module_apply_default/convert_image"], "attr": {"T": {"type": "DT_FLOAT"}}}, {"name": "module_apply_default/module_apply_default/hub_input/tfhub_input_scaling", "op": "Add", "input": ["module_apply_default/module_apply_default/hub_input/Mul", "module_apply_default/module_apply_default/hub_input/tfhub_input_scaling/y"], "attr": {"T": {"type": "DT_FLOAT"}}}, {"name": "module_apply_default/module_apply_default/MobilenetV3/Conv/BatchNorm/FusedBatchNormV3", "op": "_FusedConv2D", "input": ["module_apply_default/module_apply_default/hub_input/tfhub_input_scaling", "module_apply_default/module_apply_default/MobilenetV3/Conv/Conv2D_weights", "module_apply_default/module_apply_default/MobilenetV3/Conv/Conv2D_bn_offset"], "device": "/device:CPU:0", "attr": {"T": {"type": "DT_FLOAT"}, "use_cudnn_on_gpu": {"b": true}, "padding": {"s": "U0FNRQ=="}, "epsilon": {"f": 0.0}, "dilations": {"list": {"i": ["1", "1", "1", "1"]}}, "num_args": {"i": "1"}, "data_format": {"s": "TkhXQw=="}, "fused_ops": {"list": {"s": ["Qmlhc0FkZA=="]}}, "explicit_paddings": {"list": {}}, "strides": {"list": {"i": ["1", "2", "2", "1"]}}}}, {"name": "module_apply_default/module_apply_default/MobilenetV3/Conv/hard_swish/mul", "op": "Mul", "input": ["module_apply_default/module_apply_default/MobilenetV3/Conv/hard_swish/mul_1/y", "module_apply_default/module_apply_default/MobilenetV3/Conv/BatchNorm/FusedBatchNormV3"], "attr": {"T": {"type": "DT_FLOAT"}, "_grappler_ArithmeticOptimizer_MinimizeBroadcasts": {"b": true}}}, {"name": "module_apply_default/module_apply_default/MobilenetV3/Conv/hard_swish/add", "op": "AddV2", "input": ["module_apply_default/module_apply_default/MobilenetV3/Conv/BatchNorm/FusedBatchNormV3", "module_apply_default/module_apply_default/MobilenetV3/Conv/hard_swish/add/y"], "attr": {"T": {"type": "DT_FLOAT"}}}, {"name": "module_apply_default/module_apply_default/MobilenetV3/Conv/hard_swish/Relu6", "op": "Relu6", "input": ["module_apply_default/module_apply_default/MobilenetV3/Conv/hard_swish/add"], "attr": {"T": {"type": "DT_FLOAT"}}}, {"name": "module_apply_default/module_apply_default/MobilenetV3/Conv/hard_swish/mul_1", "op": "Mul", "input": ["module_apply_default/module_apply_default/MobilenetV3/Conv/hard_swish/mul", "module_apply_default/module_apply_default/MobilenetV3/Conv/hard_swish/Relu6"], "attr": {"T": {"type": "DT_FLOAT"}, "_grappler_ArithmeticOptimizer_MinimizeBroadcasts": {"b": true}}}, {"name": "module_apply_default/module_apply_default/MobilenetV3/expanded_conv/depthwise/depthwise", "op": "FusedDepthwiseConv2dNative", "input": ["module_apply_default/module_apply_default/MobilenetV3/Conv/hard_swish/mul_1", "module_apply_default/module_apply_default/MobilenetV3/expanded_conv/depthwise/depthwise_weights", "module_apply_default/module_apply_default/MobilenetV3/expanded_conv/depthwise/depthwise_bn_offset"], "attr": {"num_args": {"i": "1"}, "strides": {"list": {"i": ["1", "1", "1", "1"]}}, "explicit_paddings": {"list": {}}, "dilations": {"list": {"i": ["1", "1", "1", "1"]}}, "T": {"type": "DT_FLOAT"}, "fused_ops": {"list": {"s": ["Qmlhc0FkZA==", "UmVsdQ=="]}}, "data_format": {"s": "TkhXQw=="}, "padding": {"s": "U0FNRQ=="}}}, {"name": "module_apply_default/module_apply_default/MobilenetV3/expanded_conv/project/BatchNorm/FusedBatchNormV3", "op": "_FusedConv2D", "input": ["module_apply_default/module_apply_default/MobilenetV3/expanded_conv/depthwise/depthwise", "module_apply_default/module_apply_default/MobilenetV3/expanded_conv/project/Conv2D_weights", "module_apply_default/module_apply_default/MobilenetV3/expanded_conv/project/Conv2D_bn_offset"], "device": "/device:CPU:0", "attr": {"explicit_paddings": {"list": {}}, "num_args": {"i": "1"}, "dilations": {"list": {"i": ["1", "1", "1", "1"]}}, "T": {"type": "DT_FLOAT"}, "strides": {"list": {"i": ["1", "1", "1", "1"]}}, "padding": {"s": "U0FNRQ=="}, "fused_ops": {"list": {"s": ["Qmlhc0FkZA=="]}}, "use_cudnn_on_gpu": {"b": true}, "epsilon": {"f": 0.0}, "data_format": {"s": "TkhXQw=="}}}, {"name": "module_apply_default/module_apply_default/MobilenetV3/expanded_conv/add", "op": "AddV2", "input": ["module_apply_default/module_apply_default/MobilenetV3/expanded_conv/project/BatchNorm/FusedBatchNormV3", "module_apply_default/module_apply_default/MobilenetV3/Conv/hard_swish/mul_1"], "attr": {"T": {"type": "DT_FLOAT"}}}, {"name": "module_apply_default/module_apply_default/MobilenetV3/expanded_conv_1/expand/Relu", "op": "_FusedConv2D", "input": ["module_apply_default/module_apply_default/MobilenetV3/expanded_conv/add", "module_apply_default/module_apply_default/MobilenetV3/expanded_conv_1/expand/Conv2D_weights", "module_apply_default/module_apply_default/MobilenetV3/expanded_conv_1/expand/Conv2D_bn_offset"], "device": "/device:CPU:0", "attr": {"dilations": {"list": {"i": ["1", "1", "1", "1"]}}, "explicit_paddings": {"list": {}}, "use_cudnn_on_gpu": {"b": true}, "padding": {"s": "U0FNRQ=="}, "strides": {"list": {"i": ["1", "1", "1", "1"]}}, "fused_ops": {"list": {"s": ["Qmlhc0FkZA==", "UmVsdQ=="]}}, "T": {"type": "DT_FLOAT"}, "epsilon": {"f": 0.0}, "data_format": {"s": "TkhXQw=="}, "num_args": {"i": "1"}}}, {"name": "module_apply_default/module_apply_default/MobilenetV3/expanded_conv_1/depthwise/depthwise", "op": "FusedDepthwiseConv2dNative", "input": ["module_apply_default/module_apply_default/MobilenetV3/expanded_conv_1/expand/Relu", "module_apply_default/module_apply_default/MobilenetV3/expanded_conv_1/depthwise/depthwise_weights", "module_apply_default/module_apply_default/MobilenetV3/expanded_conv_1/depthwise/depthwise_bn_offset"], "attr": {"dilations": {"list": {"i": ["1", "1", "1", "1"]}}, "num_args": {"i": "1"}, "explicit_paddings": {"list": {}}, "strides": {"list": {"i": ["1", "2", "2", "1"]}}, "fused_ops": {"list": {"s": ["Qmlhc0FkZA==", "UmVsdQ=="]}}, "T": {"type": "DT_FLOAT"}, "data_format": {"s": "TkhXQw=="}, "padding": {"s": "U0FNRQ=="}}}, {"name": "module_apply_default/module_apply_default/MobilenetV3/expanded_conv_1/project/BatchNorm/FusedBatchNormV3", "op": "_FusedConv2D", "input": ["module_apply_default/module_apply_default/MobilenetV3/expanded_conv_1/depthwise/depthwise", "module_apply_default/module_apply_default/MobilenetV3/expanded_conv_1/project/Conv2D_weights", "module_apply_default/module_apply_default/MobilenetV3/expanded_conv_1/project/Conv2D_bn_offset"], "device": "/device:CPU:0", "attr": {"explicit_paddings": {"list": {}}, "num_args": {"i": "1"}, "dilations": {"list": {"i": ["1", "1", "1", "1"]}}, "padding": {"s": "U0FNRQ=="}, "T": {"type": "DT_FLOAT"}, "data_format": {"s": "TkhXQw=="}, "fused_ops": {"list": {"s": ["Qmlhc0FkZA=="]}}, "strides": {"list": {"i": ["1", "1", "1", "1"]}}, "use_cudnn_on_gpu": {"b": true}, "epsilon": {"f": 0.0}}}, {"name": "module_apply_default/module_apply_default/MobilenetV3/expanded_conv_2/expand/Relu", "op": "_FusedConv2D", "input": ["module_apply_default/module_apply_default/MobilenetV3/expanded_conv_1/project/BatchNorm/FusedBatchNormV3", "module_apply_default/module_apply_default/MobilenetV3/expanded_conv_2/expand/Conv2D_weights", "module_apply_default/module_apply_default/MobilenetV3/expanded_conv_2/expand/Conv2D_bn_offset"], "device": "/device:CPU:0", "attr": {"strides": {"list": {"i": ["1", "1", "1", "1"]}}, "use_cudnn_on_gpu": {"b": true}, "data_format": {"s": "TkhXQw=="}, "padding": {"s": "U0FNRQ=="}, "explicit_paddings": {"list": {}}, "T": {"type": "DT_FLOAT"}, "fused_ops": {"list": {"s": ["Qmlhc0FkZA==", "UmVsdQ=="]}}, "dilations": {"list": {"i": ["1", "1", "1", "1"]}}, "num_args": {"i": "1"}, "epsilon": {"f": 0.0}}}, {"name": "module_apply_default/module_apply_default/MobilenetV3/expanded_conv_2/depthwise/depthwise", "op": "FusedDepthwiseConv2dNative", "input": ["module_apply_default/module_apply_default/MobilenetV3/expanded_conv_2/expand/Relu", "module_apply_default/module_apply_default/MobilenetV3/expanded_conv_2/depthwise/depthwise_weights", "module_apply_default/module_apply_default/MobilenetV3/expanded_conv_2/depthwise/depthwise_bn_offset"], "attr": {"explicit_paddings": {"list": {}}, "fused_ops": {"list": {"s": ["Qmlhc0FkZA==", "UmVsdQ=="]}}, "num_args": {"i": "1"}, "strides": {"list": {"i": ["1", "1", "1", "1"]}}, "data_format": {"s": "TkhXQw=="}, "T": {"type": "DT_FLOAT"}, "padding": {"s": "U0FNRQ=="}, "dilations": {"list": {"i": ["1", "1", "1", "1"]}}}}, {"name": "module_apply_default/module_apply_default/MobilenetV3/expanded_conv_2/project/BatchNorm/FusedBatchNormV3", "op": "_FusedConv2D", "input": ["module_apply_default/module_apply_default/MobilenetV3/expanded_conv_2/depthwise/depthwise", "module_apply_default/module_apply_default/MobilenetV3/expanded_conv_2/project/Conv2D_weights", "module_apply_default/module_apply_default/MobilenetV3/expanded_conv_2/project/Conv2D_bn_offset"], "device": "/device:CPU:0", "attr": {"num_args": {"i": "1"}, "data_format": {"s": "TkhXQw=="}, "dilations": {"list": {"i": ["1", "1", "1", "1"]}}, "strides": {"list": {"i": ["1", "1", "1", "1"]}}, "fused_ops": {"list": {"s": ["Qmlhc0FkZA=="]}}, "epsilon": {"f": 0.0}, "T": {"type": "DT_FLOAT"}, "padding": {"s": "U0FNRQ=="}, "use_cudnn_on_gpu": {"b": true}, "explicit_paddings": {"list": {}}}}, {"name": "module_apply_default/module_apply_default/MobilenetV3/expanded_conv_2/add", "op": "AddV2", "input": ["module_apply_default/module_apply_default/MobilenetV3/expanded_conv_2/project/BatchNorm/FusedBatchNormV3", "module_apply_default/module_apply_default/MobilenetV3/expanded_conv_1/project/BatchNorm/FusedBatchNormV3"], "attr": {"T": {"type": "DT_FLOAT"}}}, {"name": "module_apply_default/module_apply_default/MobilenetV3/expanded_conv_3/expand/Relu", "op": "_FusedConv2D", "input": ["module_apply_default/module_apply_default/MobilenetV3/expanded_conv_2/add", "module_apply_default/module_apply_default/MobilenetV3/expanded_conv_3/expand/Conv2D_weights", "module_apply_default/module_apply_default/MobilenetV3/expanded_conv_3/expand/Conv2D_bn_offset"], "device": "/device:CPU:0", "attr": {"strides": {"list": {"i": ["1", "1", "1", "1"]}}, "fused_ops": {"list": {"s": ["Qmlhc0FkZA==", "UmVsdQ=="]}}, "T": {"type": "DT_FLOAT"}, "num_args": {"i": "1"}, "dilations": {"list": {"i": ["1", "1", "1", "1"]}}, "explicit_paddings": {"list": {}}, "epsilon": {"f": 0.0}, "use_cudnn_on_gpu": {"b": true}, "data_format": {"s": "TkhXQw=="}, "padding": {"s": "U0FNRQ=="}}}, {"name": "module_apply_default/module_apply_default/MobilenetV3/expanded_conv_3/depthwise/depthwise", "op": "FusedDepthwiseConv2dNative", "input": ["module_apply_default/module_apply_default/MobilenetV3/expanded_conv_3/expand/Relu", "module_apply_default/module_apply_default/MobilenetV3/expanded_conv_3/depthwise/depthwise_weights", "module_apply_default/module_apply_default/MobilenetV3/expanded_conv_3/depthwise/depthwise_bn_offset"], "attr": {"padding": {"s": "U0FNRQ=="}, "explicit_paddings": {"list": {}}, "fused_ops": {"list": {"s": ["Qmlhc0FkZA==", "UmVsdQ=="]}}, "strides": {"list": {"i": ["1", "2", "2", "1"]}}, "num_args": {"i": "1"}, "data_format": {"s": "TkhXQw=="}, "T": {"type": "DT_FLOAT"}, "dilations": {"list": {"i": ["1", "1", "1", "1"]}}}}, {"name": "module_apply_default/module_apply_default/MobilenetV3/expanded_conv_3/squeeze_excite/Mean", "op": "Mean", "input": ["module_apply_default/module_apply_default/MobilenetV3/expanded_conv_3/depthwise/depthwise", "module_apply_default/module_apply_default/MobilenetV3/expanded_conv_3/squeeze_excite/Mean/reduction_indices"], "attr": {"T": {"type": "DT_FLOAT"}, "keep_dims": {"b": true}, "Tidx": {"type": "DT_INT32"}}}, {"name": "module_apply_default/module_apply_default/MobilenetV3/expanded_conv_3/squeeze_excite/Conv/Relu", "op": "_FusedConv2D", "input": ["module_apply_default/module_apply_default/MobilenetV3/expanded_conv_3/squeeze_excite/Mean", "module_apply_default/module_apply_default/MobilenetV3/expanded_conv_3/squeeze_excite/Conv/weights", "module_apply_default/module_apply_default/MobilenetV3/expanded_conv_3/squeeze_excite/Conv/biases"], "device": "/device:CPU:0", "attr": {"padding": {"s": "U0FNRQ=="}, "data_format": {"s": "TkhXQw=="}, "explicit_paddings": {"list": {}}, "num_args": {"i": "1"}, "T": {"type": "DT_FLOAT"}, "strides": {"list": {"i": ["1", "1", "1", "1"]}}, "dilations": {"list": {"i": ["1", "1", "1", "1"]}}, "use_cudnn_on_gpu": {"b": true}, "fused_ops": {"list": {"s": ["Qmlhc0FkZA==", "UmVsdQ=="]}}, "epsilon": {"f": 0.0}}}, {"name": "module_apply_default/module_apply_default/MobilenetV3/expanded_conv_3/squeeze_excite/Conv_1/BiasAdd", "op": "_FusedConv2D", "input": ["module_apply_default/module_apply_default/MobilenetV3/expanded_conv_3/squeeze_excite/Conv/Relu", "module_apply_default/module_apply_default/MobilenetV3/expanded_conv_3/squeeze_excite/Conv_1/weights", "module_apply_default/module_apply_default/MobilenetV3/expanded_conv_3/squeeze_excite/Conv_1/biases"], "device": "/device:CPU:0", "attr": {"epsilon": {"f": 0.0}, "fused_ops": {"list": {"s": ["Qmlhc0FkZA=="]}}, "num_args": {"i": "1"}, "data_format": {"s": "TkhXQw=="}, "use_cudnn_on_gpu": {"b": true}, "padding": {"s": "U0FNRQ=="}, "dilations": {"list": {"i": ["1", "1", "1", "1"]}}, "T": {"type": "DT_FLOAT"}, "strides": {"list": {"i": ["1", "1", "1", "1"]}}, "explicit_paddings": {"list": {}}}}, {"name": "module_apply_default/module_apply_default/MobilenetV3/expanded_conv_3/squeeze_excite/Conv_1/add", "op": "AddV2", "input": ["module_apply_default/module_apply_default/MobilenetV3/expanded_conv_3/squeeze_excite/Conv_1/BiasAdd", "module_apply_default/module_apply_default/MobilenetV3/expanded_conv_3/squeeze_excite/Conv_1/add/y"], "attr": {"T": {"type": "DT_FLOAT"}}}, {"name": "module_apply_default/module_apply_default/MobilenetV3/expanded_conv_3/squeeze_excite/Conv_1/Relu6", "op": "Relu6", "input": ["module_apply_default/module_apply_default/MobilenetV3/expanded_conv_3/squeeze_excite/Conv_1/add"], "attr": {"T": {"type": "DT_FLOAT"}}}, {"name": "module_apply_default/module_apply_default/MobilenetV3/expanded_conv_3/squeeze_excite/Conv_1/mul", "op": "Mul", "input": ["module_apply_default/module_apply_default/MobilenetV3/expanded_conv_3/squeeze_excite/Conv_1/mul/y", "module_apply_default/module_apply_default/MobilenetV3/expanded_conv_3/squeeze_excite/Conv_1/Relu6"], "attr": {"_grappler_ArithmeticOptimizer_MinimizeBroadcasts": {"b": true}, "T": {"type": "DT_FLOAT"}}}, {"name": "module_apply_default/module_apply_default/MobilenetV3/expanded_conv_3/squeeze_excite/mul", "op": "Mul", "input": ["module_apply_default/module_apply_default/MobilenetV3/expanded_conv_3/squeeze_excite/Conv_1/mul", "module_apply_default/module_apply_default/MobilenetV3/expanded_conv_3/depthwise/depthwise"], "attr": {"_grappler_ArithmeticOptimizer_MinimizeBroadcasts": {"b": true}, "T": {"type": "DT_FLOAT"}}}, {"name": "module_apply_default/module_apply_default/MobilenetV3/expanded_conv_3/project/BatchNorm/FusedBatchNormV3", "op": "_FusedConv2D", "input": ["module_apply_default/module_apply_default/MobilenetV3/expanded_conv_3/squeeze_excite/mul", "module_apply_default/module_apply_default/MobilenetV3/expanded_conv_3/project/Conv2D_weights", "module_apply_default/module_apply_default/MobilenetV3/expanded_conv_3/project/Conv2D_bn_offset"], "device": "/device:CPU:0", "attr": {"epsilon": {"f": 0.0}, "dilations": {"list": {"i": ["1", "1", "1", "1"]}}, "padding": {"s": "U0FNRQ=="}, "num_args": {"i": "1"}, "fused_ops": {"list": {"s": ["Qmlhc0FkZA=="]}}, "data_format": {"s": "TkhXQw=="}, "use_cudnn_on_gpu": {"b": true}, "T": {"type": "DT_FLOAT"}, "strides": {"list": {"i": ["1", "1", "1", "1"]}}, "explicit_paddings": {"list": {}}}}, {"name": "module_apply_default/module_apply_default/MobilenetV3/expanded_conv_4/expand/Relu", "op": "_FusedConv2D", "input": ["module_apply_default/module_apply_default/MobilenetV3/expanded_conv_3/project/BatchNorm/FusedBatchNormV3", "module_apply_default/module_apply_default/MobilenetV3/expanded_conv_4/expand/Conv2D_weights", "module_apply_default/module_apply_default/MobilenetV3/expanded_conv_4/expand/Conv2D_bn_offset"], "device": "/device:CPU:0", "attr": {"num_args": {"i": "1"}, "padding": {"s": "U0FNRQ=="}, "use_cudnn_on_gpu": {"b": true}, "fused_ops": {"list": {"s": ["Qmlhc0FkZA==", "UmVsdQ=="]}}, "epsilon": {"f": 0.0}, "dilations": {"list": {"i": ["1", "1", "1", "1"]}}, "T": {"type": "DT_FLOAT"}, "explicit_paddings": {"list": {}}, "strides": {"list": {"i": ["1", "1", "1", "1"]}}, "data_format": {"s": "TkhXQw=="}}}, {"name": "module_apply_default/module_apply_default/MobilenetV3/expanded_conv_4/depthwise/depthwise", "op": "FusedDepthwiseConv2dNative", "input": ["module_apply_default/module_apply_default/MobilenetV3/expanded_conv_4/expand/Relu", "module_apply_default/module_apply_default/MobilenetV3/expanded_conv_4/depthwise/depthwise_weights", "module_apply_default/module_apply_default/MobilenetV3/expanded_conv_4/depthwise/depthwise_bn_offset"], "attr": {"T": {"type": "DT_FLOAT"}, "strides": {"list": {"i": ["1", "1", "1", "1"]}}, "fused_ops": {"list": {"s": ["Qmlhc0FkZA==", "UmVsdQ=="]}}, "dilations": {"list": {"i": ["1", "1", "1", "1"]}}, "num_args": {"i": "1"}, "data_format": {"s": "TkhXQw=="}, "padding": {"s": "U0FNRQ=="}, "explicit_paddings": {"list": {}}}}, {"name": "module_apply_default/module_apply_default/MobilenetV3/expanded_conv_4/squeeze_excite/Mean", "op": "Mean", "input": ["module_apply_default/module_apply_default/MobilenetV3/expanded_conv_4/depthwise/depthwise", "module_apply_default/module_apply_default/MobilenetV3/expanded_conv_4/squeeze_excite/Mean/reduction_indices"], "attr": {"T": {"type": "DT_FLOAT"}, "Tidx": {"type": "DT_INT32"}, "keep_dims": {"b": true}}}, {"name": "module_apply_default/module_apply_default/MobilenetV3/expanded_conv_4/squeeze_excite/Conv/Relu", "op": "_FusedConv2D", "input": ["module_apply_default/module_apply_default/MobilenetV3/expanded_conv_4/squeeze_excite/Mean", "module_apply_default/module_apply_default/MobilenetV3/expanded_conv_4/squeeze_excite/Conv/weights", "module_apply_default/module_apply_default/MobilenetV3/expanded_conv_4/squeeze_excite/Conv/biases"], "device": "/device:CPU:0", "attr": {"use_cudnn_on_gpu": {"b": true}, "explicit_paddings": {"list": {}}, "dilations": {"list": {"i": ["1", "1", "1", "1"]}}, "strides": {"list": {"i": ["1", "1", "1", "1"]}}, "epsilon": {"f": 0.0}, "data_format": {"s": "TkhXQw=="}, "T": {"type": "DT_FLOAT"}, "padding": {"s": "U0FNRQ=="}, "fused_ops": {"list": {"s": ["Qmlhc0FkZA==", "UmVsdQ=="]}}, "num_args": {"i": "1"}}}, {"name": "module_apply_default/module_apply_default/MobilenetV3/expanded_conv_4/squeeze_excite/Conv_1/BiasAdd", "op": "_FusedConv2D", "input": ["module_apply_default/module_apply_default/MobilenetV3/expanded_conv_4/squeeze_excite/Conv/Relu", "module_apply_default/module_apply_default/MobilenetV3/expanded_conv_4/squeeze_excite/Conv_1/weights", "module_apply_default/module_apply_default/MobilenetV3/expanded_conv_4/squeeze_excite/Conv_1/biases"], "device": "/device:CPU:0", "attr": {"fused_ops": {"list": {"s": ["Qmlhc0FkZA=="]}}, "strides": {"list": {"i": ["1", "1", "1", "1"]}}, "use_cudnn_on_gpu": {"b": true}, "explicit_paddings": {"list": {}}, "padding": {"s": "U0FNRQ=="}, "num_args": {"i": "1"}, "T": {"type": "DT_FLOAT"}, "data_format": {"s": "TkhXQw=="}, "dilations": {"list": {"i": ["1", "1", "1", "1"]}}, "epsilon": {"f": 0.0}}}, {"name": "module_apply_default/module_apply_default/MobilenetV3/expanded_conv_4/squeeze_excite/Conv_1/add", "op": "AddV2", "input": ["module_apply_default/module_apply_default/MobilenetV3/expanded_conv_4/squeeze_excite/Conv_1/BiasAdd", "module_apply_default/module_apply_default/MobilenetV3/expanded_conv_4/squeeze_excite/Conv_1/add/y"], "attr": {"T": {"type": "DT_FLOAT"}}}, {"name": "module_apply_default/module_apply_default/MobilenetV3/expanded_conv_4/squeeze_excite/Conv_1/Relu6", "op": "Relu6", "input": ["module_apply_default/module_apply_default/MobilenetV3/expanded_conv_4/squeeze_excite/Conv_1/add"], "attr": {"T": {"type": "DT_FLOAT"}}}, {"name": "module_apply_default/module_apply_default/MobilenetV3/expanded_conv_4/squeeze_excite/Conv_1/mul", "op": "Mul", "input": ["module_apply_default/module_apply_default/MobilenetV3/expanded_conv_4/squeeze_excite/Conv_1/mul/y", "module_apply_default/module_apply_default/MobilenetV3/expanded_conv_4/squeeze_excite/Conv_1/Relu6"], "attr": {"T": {"type": "DT_FLOAT"}, "_grappler_ArithmeticOptimizer_MinimizeBroadcasts": {"b": true}}}, {"name": "module_apply_default/module_apply_default/MobilenetV3/expanded_conv_4/squeeze_excite/mul", "op": "Mul", "input": ["module_apply_default/module_apply_default/MobilenetV3/expanded_conv_4/squeeze_excite/Conv_1/mul", "module_apply_default/module_apply_default/MobilenetV3/expanded_conv_4/depthwise/depthwise"], "attr": {"_grappler_ArithmeticOptimizer_MinimizeBroadcasts": {"b": true}, "T": {"type": "DT_FLOAT"}}}, {"name": "module_apply_default/module_apply_default/MobilenetV3/expanded_conv_4/project/BatchNorm/FusedBatchNormV3", "op": "_FusedConv2D", "input": ["module_apply_default/module_apply_default/MobilenetV3/expanded_conv_4/squeeze_excite/mul", "module_apply_default/module_apply_default/MobilenetV3/expanded_conv_4/project/Conv2D_weights", "module_apply_default/module_apply_default/MobilenetV3/expanded_conv_4/project/Conv2D_bn_offset"], "device": "/device:CPU:0", "attr": {"fused_ops": {"list": {"s": ["Qmlhc0FkZA=="]}}, "num_args": {"i": "1"}, "explicit_paddings": {"list": {}}, "epsilon": {"f": 0.0}, "padding": {"s": "U0FNRQ=="}, "use_cudnn_on_gpu": {"b": true}, "T": {"type": "DT_FLOAT"}, "dilations": {"list": {"i": ["1", "1", "1", "1"]}}, "data_format": {"s": "TkhXQw=="}, "strides": {"list": {"i": ["1", "1", "1", "1"]}}}}, {"name": "module_apply_default/module_apply_default/MobilenetV3/expanded_conv_4/add", "op": "AddV2", "input": ["module_apply_default/module_apply_default/MobilenetV3/expanded_conv_4/project/BatchNorm/FusedBatchNormV3", "module_apply_default/module_apply_default/MobilenetV3/expanded_conv_3/project/BatchNorm/FusedBatchNormV3"], "attr": {"T": {"type": "DT_FLOAT"}}}, {"name": "module_apply_default/module_apply_default/MobilenetV3/expanded_conv_5/expand/Relu", "op": "_FusedConv2D", "input": ["module_apply_default/module_apply_default/MobilenetV3/expanded_conv_4/add", "module_apply_default/module_apply_default/MobilenetV3/expanded_conv_5/expand/Conv2D_weights", "module_apply_default/module_apply_default/MobilenetV3/expanded_conv_5/expand/Conv2D_bn_offset"], "device": "/device:CPU:0", "attr": {"epsilon": {"f": 0.0}, "num_args": {"i": "1"}, "padding": {"s": "U0FNRQ=="}, "explicit_paddings": {"list": {}}, "strides": {"list": {"i": ["1", "1", "1", "1"]}}, "use_cudnn_on_gpu": {"b": true}, "data_format": {"s": "TkhXQw=="}, "T": {"type": "DT_FLOAT"}, "dilations": {"list": {"i": ["1", "1", "1", "1"]}}, "fused_ops": {"list": {"s": ["Qmlhc0FkZA==", "UmVsdQ=="]}}}}, {"name": "module_apply_default/module_apply_default/MobilenetV3/expanded_conv_5/depthwise/depthwise", "op": "FusedDepthwiseConv2dNative", "input": ["module_apply_default/module_apply_default/MobilenetV3/expanded_conv_5/expand/Relu", "module_apply_default/module_apply_default/MobilenetV3/expanded_conv_5/depthwise/depthwise_weights", "module_apply_default/module_apply_default/MobilenetV3/expanded_conv_5/depthwise/depthwise_bn_offset"], "attr": {"explicit_paddings": {"list": {}}, "num_args": {"i": "1"}, "data_format": {"s": "TkhXQw=="}, "T": {"type": "DT_FLOAT"}, "padding": {"s": "U0FNRQ=="}, "fused_ops": {"list": {"s": ["Qmlhc0FkZA==", "UmVsdQ=="]}}, "dilations": {"list": {"i": ["1", "1", "1", "1"]}}, "strides": {"list": {"i": ["1", "1", "1", "1"]}}}}, {"name": "module_apply_default/module_apply_default/MobilenetV3/expanded_conv_5/squeeze_excite/Mean", "op": "Mean", "input": ["module_apply_default/module_apply_default/MobilenetV3/expanded_conv_5/depthwise/depthwise", "module_apply_default/module_apply_default/MobilenetV3/expanded_conv_5/squeeze_excite/Mean/reduction_indices"], "attr": {"Tidx": {"type": "DT_INT32"}, "T": {"type": "DT_FLOAT"}, "keep_dims": {"b": true}}}, {"name": "module_apply_default/module_apply_default/MobilenetV3/expanded_conv_5/squeeze_excite/Conv/Relu", "op": "_FusedConv2D", "input": ["module_apply_default/module_apply_default/MobilenetV3/expanded_conv_5/squeeze_excite/Mean", "module_apply_default/module_apply_default/MobilenetV3/expanded_conv_5/squeeze_excite/Conv/weights", "module_apply_default/module_apply_default/MobilenetV3/expanded_conv_5/squeeze_excite/Conv/biases"], "device": "/device:CPU:0", "attr": {"strides": {"list": {"i": ["1", "1", "1", "1"]}}, "dilations": {"list": {"i": ["1", "1", "1", "1"]}}, "T": {"type": "DT_FLOAT"}, "epsilon": {"f": 0.0}, "explicit_paddings": {"list": {}}, "num_args": {"i": "1"}, "fused_ops": {"list": {"s": ["Qmlhc0FkZA==", "UmVsdQ=="]}}, "data_format": {"s": "TkhXQw=="}, "padding": {"s": "U0FNRQ=="}, "use_cudnn_on_gpu": {"b": true}}}, {"name": "module_apply_default/module_apply_default/MobilenetV3/expanded_conv_5/squeeze_excite/Conv_1/BiasAdd", "op": "_FusedConv2D", "input": ["module_apply_default/module_apply_default/MobilenetV3/expanded_conv_5/squeeze_excite/Conv/Relu", "module_apply_default/module_apply_default/MobilenetV3/expanded_conv_5/squeeze_excite/Conv_1/weights", "module_apply_default/module_apply_default/MobilenetV3/expanded_conv_5/squeeze_excite/Conv_1/biases"], "device": "/device:CPU:0", "attr": {"use_cudnn_on_gpu": {"b": true}, "epsilon": {"f": 0.0}, "num_args": {"i": "1"}, "T": {"type": "DT_FLOAT"}, "explicit_paddings": {"list": {}}, "data_format": {"s": "TkhXQw=="}, "dilations": {"list": {"i": ["1", "1", "1", "1"]}}, "padding": {"s": "U0FNRQ=="}, "fused_ops": {"list": {"s": ["Qmlhc0FkZA=="]}}, "strides": {"list": {"i": ["1", "1", "1", "1"]}}}}, {"name": "module_apply_default/module_apply_default/MobilenetV3/expanded_conv_5/squeeze_excite/Conv_1/add", "op": "AddV2", "input": ["module_apply_default/module_apply_default/MobilenetV3/expanded_conv_5/squeeze_excite/Conv_1/BiasAdd", "module_apply_default/module_apply_default/MobilenetV3/expanded_conv_5/squeeze_excite/Conv_1/add/y"], "attr": {"T": {"type": "DT_FLOAT"}}}, {"name": "module_apply_default/module_apply_default/MobilenetV3/expanded_conv_5/squeeze_excite/Conv_1/Relu6", "op": "Relu6", "input": ["module_apply_default/module_apply_default/MobilenetV3/expanded_conv_5/squeeze_excite/Conv_1/add"], "attr": {"T": {"type": "DT_FLOAT"}}}, {"name": "module_apply_default/module_apply_default/MobilenetV3/expanded_conv_5/squeeze_excite/Conv_1/mul", "op": "Mul", "input": ["module_apply_default/module_apply_default/MobilenetV3/expanded_conv_5/squeeze_excite/Conv_1/mul/y", "module_apply_default/module_apply_default/MobilenetV3/expanded_conv_5/squeeze_excite/Conv_1/Relu6"], "attr": {"T": {"type": "DT_FLOAT"}, "_grappler_ArithmeticOptimizer_MinimizeBroadcasts": {"b": true}}}, {"name": "module_apply_default/module_apply_default/MobilenetV3/expanded_conv_5/squeeze_excite/mul", "op": "Mul", "input": ["module_apply_default/module_apply_default/MobilenetV3/expanded_conv_5/squeeze_excite/Conv_1/mul", "module_apply_default/module_apply_default/MobilenetV3/expanded_conv_5/depthwise/depthwise"], "attr": {"_grappler_ArithmeticOptimizer_MinimizeBroadcasts": {"b": true}, "T": {"type": "DT_FLOAT"}}}, {"name": "module_apply_default/module_apply_default/MobilenetV3/expanded_conv_5/project/BatchNorm/FusedBatchNormV3", "op": "_FusedConv2D", "input": ["module_apply_default/module_apply_default/MobilenetV3/expanded_conv_5/squeeze_excite/mul", "module_apply_default/module_apply_default/MobilenetV3/expanded_conv_5/project/Conv2D_weights", "module_apply_default/module_apply_default/MobilenetV3/expanded_conv_5/project/Conv2D_bn_offset"], "device": "/device:CPU:0", "attr": {"explicit_paddings": {"list": {}}, "num_args": {"i": "1"}, "strides": {"list": {"i": ["1", "1", "1", "1"]}}, "padding": {"s": "U0FNRQ=="}, "use_cudnn_on_gpu": {"b": true}, "T": {"type": "DT_FLOAT"}, "epsilon": {"f": 0.0}, "data_format": {"s": "TkhXQw=="}, "fused_ops": {"list": {"s": ["Qmlhc0FkZA=="]}}, "dilations": {"list": {"i": ["1", "1", "1", "1"]}}}}, {"name": "module_apply_default/module_apply_default/MobilenetV3/expanded_conv_5/add", "op": "AddV2", "input": ["module_apply_default/module_apply_default/MobilenetV3/expanded_conv_5/project/BatchNorm/FusedBatchNormV3", "module_apply_default/module_apply_default/MobilenetV3/expanded_conv_4/add"], "attr": {"T": {"type": "DT_FLOAT"}}}, {"name": "module_apply_default/module_apply_default/MobilenetV3/expanded_conv_6/expand/BatchNorm/FusedBatchNormV3", "op": "_FusedConv2D", "input": ["module_apply_default/module_apply_default/MobilenetV3/expanded_conv_5/add", "module_apply_default/module_apply_default/MobilenetV3/expanded_conv_6/expand/Conv2D_weights", "module_apply_default/module_apply_default/MobilenetV3/expanded_conv_6/expand/Conv2D_bn_offset"], "device": "/device:CPU:0", "attr": {"strides": {"list": {"i": ["1", "1", "1", "1"]}}, "dilations": {"list": {"i": ["1", "1", "1", "1"]}}, "T": {"type": "DT_FLOAT"}, "num_args": {"i": "1"}, "padding": {"s": "U0FNRQ=="}, "fused_ops": {"list": {"s": ["Qmlhc0FkZA=="]}}, "explicit_paddings": {"list": {}}, "use_cudnn_on_gpu": {"b": true}, "epsilon": {"f": 0.0}, "data_format": {"s": "TkhXQw=="}}}, {"name": "module_apply_default/module_apply_default/MobilenetV3/expanded_conv_6/expand/hard_swish/mul", "op": "Mul", "input": ["module_apply_default/module_apply_default/MobilenetV3/expanded_conv_6/expand/hard_swish/mul_1/y", "module_apply_default/module_apply_default/MobilenetV3/expanded_conv_6/expand/BatchNorm/FusedBatchNormV3"], "attr": {"_grappler_ArithmeticOptimizer_MinimizeBroadcasts": {"b": true}, "T": {"type": "DT_FLOAT"}}}, {"name": "module_apply_default/module_apply_default/MobilenetV3/expanded_conv_6/expand/hard_swish/add", "op": "AddV2", "input": ["module_apply_default/module_apply_default/MobilenetV3/expanded_conv_6/expand/BatchNorm/FusedBatchNormV3", "module_apply_default/module_apply_default/MobilenetV3/expanded_conv_6/expand/hard_swish/add/y"], "attr": {"T": {"type": "DT_FLOAT"}}}, {"name": "module_apply_default/module_apply_default/MobilenetV3/expanded_conv_6/expand/hard_swish/Relu6", "op": "Relu6", "input": ["module_apply_default/module_apply_default/MobilenetV3/expanded_conv_6/expand/hard_swish/add"], "attr": {"T": {"type": "DT_FLOAT"}}}, {"name": "module_apply_default/module_apply_default/MobilenetV3/expanded_conv_6/expand/hard_swish/mul_1", "op": "Mul", "input": ["module_apply_default/module_apply_default/MobilenetV3/expanded_conv_6/expand/hard_swish/mul", "module_apply_default/module_apply_default/MobilenetV3/expanded_conv_6/expand/hard_swish/Relu6"], "attr": {"_grappler_ArithmeticOptimizer_MinimizeBroadcasts": {"b": true}, "T": {"type": "DT_FLOAT"}}}, {"name": "module_apply_default/module_apply_default/MobilenetV3/expanded_conv_6/depthwise/depthwise", "op": "FusedDepthwiseConv2dNative", "input": ["module_apply_default/module_apply_default/MobilenetV3/expanded_conv_6/expand/hard_swish/mul_1", "module_apply_default/module_apply_default/MobilenetV3/expanded_conv_6/depthwise/depthwise_weights", "module_apply_default/module_apply_default/MobilenetV3/expanded_conv_6/depthwise/depthwise_bn_offset"], "attr": {"data_format": {"s": "TkhXQw=="}, "padding": {"s": "U0FNRQ=="}, "num_args": {"i": "1"}, "dilations": {"list": {"i": ["1", "1", "1", "1"]}}, "explicit_paddings": {"list": {}}, "T": {"type": "DT_FLOAT"}, "fused_ops": {"list": {"s": ["Qmlhc0FkZA=="]}}, "strides": {"list": {"i": ["1", "2", "2", "1"]}}}}, {"name": "module_apply_default/module_apply_default/MobilenetV3/expanded_conv_6/depthwise/hard_swish/mul", "op": "Mul", "input": ["module_apply_default/module_apply_default/MobilenetV3/expanded_conv_6/depthwise/hard_swish/mul_1/y", "module_apply_default/module_apply_default/MobilenetV3/expanded_conv_6/depthwise/depthwise"], "attr": {"_grappler_ArithmeticOptimizer_MinimizeBroadcasts": {"b": true}, "T": {"type": "DT_FLOAT"}}}, {"name": "module_apply_default/module_apply_default/MobilenetV3/expanded_conv_6/depthwise/hard_swish/add", "op": "AddV2", "input": ["module_apply_default/module_apply_default/MobilenetV3/expanded_conv_6/depthwise/depthwise", "module_apply_default/module_apply_default/MobilenetV3/expanded_conv_6/depthwise/hard_swish/add/y"], "attr": {"T": {"type": "DT_FLOAT"}}}, {"name": "module_apply_default/module_apply_default/MobilenetV3/expanded_conv_6/depthwise/hard_swish/Relu6", "op": "Relu6", "input": ["module_apply_default/module_apply_default/MobilenetV3/expanded_conv_6/depthwise/hard_swish/add"], "attr": {"T": {"type": "DT_FLOAT"}}}, {"name": "module_apply_default/module_apply_default/MobilenetV3/expanded_conv_6/depthwise/hard_swish/mul_1", "op": "Mul", "input": ["module_apply_default/module_apply_default/MobilenetV3/expanded_conv_6/depthwise/hard_swish/mul", "module_apply_default/module_apply_default/MobilenetV3/expanded_conv_6/depthwise/hard_swish/Relu6"], "attr": {"T": {"type": "DT_FLOAT"}, "_grappler_ArithmeticOptimizer_MinimizeBroadcasts": {"b": true}}}, {"name": "module_apply_default/module_apply_default/MobilenetV3/expanded_conv_6/project/BatchNorm/FusedBatchNormV3", "op": "_FusedConv2D", "input": ["module_apply_default/module_apply_default/MobilenetV3/expanded_conv_6/depthwise/hard_swish/mul_1", "module_apply_default/module_apply_default/MobilenetV3/expanded_conv_6/project/Conv2D_weights", "module_apply_default/module_apply_default/MobilenetV3/expanded_conv_6/project/Conv2D_bn_offset"], "device": "/device:CPU:0", "attr": {"T": {"type": "DT_FLOAT"}, "use_cudnn_on_gpu": {"b": true}, "fused_ops": {"list": {"s": ["Qmlhc0FkZA=="]}}, "num_args": {"i": "1"}, "padding": {"s": "U0FNRQ=="}, "strides": {"list": {"i": ["1", "1", "1", "1"]}}, "dilations": {"list": {"i": ["1", "1", "1", "1"]}}, "epsilon": {"f": 0.0}, "explicit_paddings": {"list": {}}, "data_format": {"s": "TkhXQw=="}}}, {"name": "module_apply_default/module_apply_default/MobilenetV3/expanded_conv_7/expand/BatchNorm/FusedBatchNormV3", "op": "_FusedConv2D", "input": ["module_apply_default/module_apply_default/MobilenetV3/expanded_conv_6/project/BatchNorm/FusedBatchNormV3", "module_apply_default/module_apply_default/MobilenetV3/expanded_conv_7/expand/Conv2D_weights", "module_apply_default/module_apply_default/MobilenetV3/expanded_conv_7/expand/Conv2D_bn_offset"], "device": "/device:CPU:0", "attr": {"explicit_paddings": {"list": {}}, "epsilon": {"f": 0.0}, "num_args": {"i": "1"}, "dilations": {"list": {"i": ["1", "1", "1", "1"]}}, "strides": {"list": {"i": ["1", "1", "1", "1"]}}, "T": {"type": "DT_FLOAT"}, "data_format": {"s": "TkhXQw=="}, "padding": {"s": "U0FNRQ=="}, "use_cudnn_on_gpu": {"b": true}, "fused_ops": {"list": {"s": ["Qmlhc0FkZA=="]}}}}, {"name": "module_apply_default/module_apply_default/MobilenetV3/expanded_conv_7/expand/hard_swish/mul", "op": "Mul", "input": ["module_apply_default/module_apply_default/MobilenetV3/expanded_conv_7/expand/hard_swish/mul_1/y", "module_apply_default/module_apply_default/MobilenetV3/expanded_conv_7/expand/BatchNorm/FusedBatchNormV3"], "attr": {"_grappler_ArithmeticOptimizer_MinimizeBroadcasts": {"b": true}, "T": {"type": "DT_FLOAT"}}}, {"name": "module_apply_default/module_apply_default/MobilenetV3/expanded_conv_7/expand/hard_swish/add", "op": "AddV2", "input": ["module_apply_default/module_apply_default/MobilenetV3/expanded_conv_7/expand/BatchNorm/FusedBatchNormV3", "module_apply_default/module_apply_default/MobilenetV3/expanded_conv_7/expand/hard_swish/add/y"], "attr": {"T": {"type": "DT_FLOAT"}}}, {"name": "module_apply_default/module_apply_default/MobilenetV3/expanded_conv_7/expand/hard_swish/Relu6", "op": "Relu6", "input": ["module_apply_default/module_apply_default/MobilenetV3/expanded_conv_7/expand/hard_swish/add"], "attr": {"T": {"type": "DT_FLOAT"}}}, {"name": "module_apply_default/module_apply_default/MobilenetV3/expanded_conv_7/expand/hard_swish/mul_1", "op": "Mul", "input": ["module_apply_default/module_apply_default/MobilenetV3/expanded_conv_7/expand/hard_swish/mul", "module_apply_default/module_apply_default/MobilenetV3/expanded_conv_7/expand/hard_swish/Relu6"], "attr": {"_grappler_ArithmeticOptimizer_MinimizeBroadcasts": {"b": true}, "T": {"type": "DT_FLOAT"}}}, {"name": "module_apply_default/module_apply_default/MobilenetV3/expanded_conv_7/depthwise/depthwise", "op": "FusedDepthwiseConv2dNative", "input": ["module_apply_default/module_apply_default/MobilenetV3/expanded_conv_7/expand/hard_swish/mul_1", "module_apply_default/module_apply_default/MobilenetV3/expanded_conv_7/depthwise/depthwise_weights", "module_apply_default/module_apply_default/MobilenetV3/expanded_conv_7/depthwise/depthwise_bn_offset"], "attr": {"explicit_paddings": {"list": {}}, "data_format": {"s": "TkhXQw=="}, "T": {"type": "DT_FLOAT"}, "strides": {"list": {"i": ["1", "1", "1", "1"]}}, "dilations": {"list": {"i": ["1", "1", "1", "1"]}}, "num_args": {"i": "1"}, "fused_ops": {"list": {"s": ["Qmlhc0FkZA=="]}}, "padding": {"s": "U0FNRQ=="}}}, {"name": "module_apply_default/module_apply_default/MobilenetV3/expanded_conv_7/depthwise/hard_swish/mul", "op": "Mul", "input": ["module_apply_default/module_apply_default/MobilenetV3/expanded_conv_7/depthwise/hard_swish/mul_1/y", "module_apply_default/module_apply_default/MobilenetV3/expanded_conv_7/depthwise/depthwise"], "attr": {"_grappler_ArithmeticOptimizer_MinimizeBroadcasts": {"b": true}, "T": {"type": "DT_FLOAT"}}}, {"name": "module_apply_default/module_apply_default/MobilenetV3/expanded_conv_7/depthwise/hard_swish/add", "op": "AddV2", "input": ["module_apply_default/module_apply_default/MobilenetV3/expanded_conv_7/depthwise/depthwise", "module_apply_default/module_apply_default/MobilenetV3/expanded_conv_7/depthwise/hard_swish/add/y"], "attr": {"T": {"type": "DT_FLOAT"}}}, {"name": "module_apply_default/module_apply_default/MobilenetV3/expanded_conv_7/depthwise/hard_swish/Relu6", "op": "Relu6", "input": ["module_apply_default/module_apply_default/MobilenetV3/expanded_conv_7/depthwise/hard_swish/add"], "attr": {"T": {"type": "DT_FLOAT"}}}, {"name": "module_apply_default/module_apply_default/MobilenetV3/expanded_conv_7/depthwise/hard_swish/mul_1", "op": "Mul", "input": ["module_apply_default/module_apply_default/MobilenetV3/expanded_conv_7/depthwise/hard_swish/mul", "module_apply_default/module_apply_default/MobilenetV3/expanded_conv_7/depthwise/hard_swish/Relu6"], "attr": {"_grappler_ArithmeticOptimizer_MinimizeBroadcasts": {"b": true}, "T": {"type": "DT_FLOAT"}}}, {"name": "module_apply_default/module_apply_default/MobilenetV3/expanded_conv_7/project/BatchNorm/FusedBatchNormV3", "op": "_FusedConv2D", "input": ["module_apply_default/module_apply_default/MobilenetV3/expanded_conv_7/depthwise/hard_swish/mul_1", "module_apply_default/module_apply_default/MobilenetV3/expanded_conv_7/project/Conv2D_weights", "module_apply_default/module_apply_default/MobilenetV3/expanded_conv_7/project/Conv2D_bn_offset"], "device": "/device:CPU:0", "attr": {"strides": {"list": {"i": ["1", "1", "1", "1"]}}, "num_args": {"i": "1"}, "T": {"type": "DT_FLOAT"}, "epsilon": {"f": 0.0}, "fused_ops": {"list": {"s": ["Qmlhc0FkZA=="]}}, "use_cudnn_on_gpu": {"b": true}, "explicit_paddings": {"list": {}}, "padding": {"s": "U0FNRQ=="}, "dilations": {"list": {"i": ["1", "1", "1", "1"]}}, "data_format": {"s": "TkhXQw=="}}}, {"name": "module_apply_default/module_apply_default/MobilenetV3/expanded_conv_7/add", "op": "AddV2", "input": ["module_apply_default/module_apply_default/MobilenetV3/expanded_conv_7/project/BatchNorm/FusedBatchNormV3", "module_apply_default/module_apply_default/MobilenetV3/expanded_conv_6/project/BatchNorm/FusedBatchNormV3"], "attr": {"T": {"type": "DT_FLOAT"}}}, {"name": "module_apply_default/module_apply_default/MobilenetV3/expanded_conv_8/expand/BatchNorm/FusedBatchNormV3", "op": "_FusedConv2D", "input": ["module_apply_default/module_apply_default/MobilenetV3/expanded_conv_7/add", "module_apply_default/module_apply_default/MobilenetV3/expanded_conv_8/expand/Conv2D_weights", "module_apply_default/module_apply_default/MobilenetV3/expanded_conv_8/expand/Conv2D_bn_offset"], "device": "/device:CPU:0", "attr": {"fused_ops": {"list": {"s": ["Qmlhc0FkZA=="]}}, "strides": {"list": {"i": ["1", "1", "1", "1"]}}, "num_args": {"i": "1"}, "T": {"type": "DT_FLOAT"}, "padding": {"s": "U0FNRQ=="}, "data_format": {"s": "TkhXQw=="}, "epsilon": {"f": 0.0}, "dilations": {"list": {"i": ["1", "1", "1", "1"]}}, "use_cudnn_on_gpu": {"b": true}, "explicit_paddings": {"list": {}}}}, {"name": "module_apply_default/module_apply_default/MobilenetV3/expanded_conv_8/expand/hard_swish/mul", "op": "Mul", "input": ["module_apply_default/module_apply_default/MobilenetV3/expanded_conv_8/expand/hard_swish/mul_1/y", "module_apply_default/module_apply_default/MobilenetV3/expanded_conv_8/expand/BatchNorm/FusedBatchNormV3"], "attr": {"_grappler_ArithmeticOptimizer_MinimizeBroadcasts": {"b": true}, "T": {"type": "DT_FLOAT"}}}, {"name": "module_apply_default/module_apply_default/MobilenetV3/expanded_conv_8/expand/hard_swish/add", "op": "AddV2", "input": ["module_apply_default/module_apply_default/MobilenetV3/expanded_conv_8/expand/BatchNorm/FusedBatchNormV3", "module_apply_default/module_apply_default/MobilenetV3/expanded_conv_8/expand/hard_swish/add/y"], "attr": {"T": {"type": "DT_FLOAT"}}}, {"name": "module_apply_default/module_apply_default/MobilenetV3/expanded_conv_8/expand/hard_swish/Relu6", "op": "Relu6", "input": ["module_apply_default/module_apply_default/MobilenetV3/expanded_conv_8/expand/hard_swish/add"], "attr": {"T": {"type": "DT_FLOAT"}}}, {"name": "module_apply_default/module_apply_default/MobilenetV3/expanded_conv_8/expand/hard_swish/mul_1", "op": "Mul", "input": ["module_apply_default/module_apply_default/MobilenetV3/expanded_conv_8/expand/hard_swish/mul", "module_apply_default/module_apply_default/MobilenetV3/expanded_conv_8/expand/hard_swish/Relu6"], "attr": {"T": {"type": "DT_FLOAT"}, "_grappler_ArithmeticOptimizer_MinimizeBroadcasts": {"b": true}}}, {"name": "module_apply_default/module_apply_default/MobilenetV3/expanded_conv_8/depthwise/depthwise", "op": "FusedDepthwiseConv2dNative", "input": ["module_apply_default/module_apply_default/MobilenetV3/expanded_conv_8/expand/hard_swish/mul_1", "module_apply_default/module_apply_default/MobilenetV3/expanded_conv_8/depthwise/depthwise_weights", "module_apply_default/module_apply_default/MobilenetV3/expanded_conv_8/depthwise/depthwise_bn_offset"], "attr": {"strides": {"list": {"i": ["1", "1", "1", "1"]}}, "explicit_paddings": {"list": {}}, "num_args": {"i": "1"}, "dilations": {"list": {"i": ["1", "1", "1", "1"]}}, "data_format": {"s": "TkhXQw=="}, "fused_ops": {"list": {"s": ["Qmlhc0FkZA=="]}}, "padding": {"s": "U0FNRQ=="}, "T": {"type": "DT_FLOAT"}}}, {"name": "module_apply_default/module_apply_default/MobilenetV3/expanded_conv_8/depthwise/hard_swish/mul", "op": "Mul", "input": ["module_apply_default/module_apply_default/MobilenetV3/expanded_conv_8/depthwise/hard_swish/mul_1/y", "module_apply_default/module_apply_default/MobilenetV3/expanded_conv_8/depthwise/depthwise"], "attr": {"T": {"type": "DT_FLOAT"}, "_grappler_ArithmeticOptimizer_MinimizeBroadcasts": {"b": true}}}, {"name": "module_apply_default/module_apply_default/MobilenetV3/expanded_conv_8/depthwise/hard_swish/add", "op": "AddV2", "input": ["module_apply_default/module_apply_default/MobilenetV3/expanded_conv_8/depthwise/depthwise", "module_apply_default/module_apply_default/MobilenetV3/expanded_conv_8/depthwise/hard_swish/add/y"], "attr": {"T": {"type": "DT_FLOAT"}}}, {"name": "module_apply_default/module_apply_default/MobilenetV3/expanded_conv_8/depthwise/hard_swish/Relu6", "op": "Relu6", "input": ["module_apply_default/module_apply_default/MobilenetV3/expanded_conv_8/depthwise/hard_swish/add"], "attr": {"T": {"type": "DT_FLOAT"}}}, {"name": "module_apply_default/module_apply_default/MobilenetV3/expanded_conv_8/depthwise/hard_swish/mul_1", "op": "Mul", "input": ["module_apply_default/module_apply_default/MobilenetV3/expanded_conv_8/depthwise/hard_swish/mul", "module_apply_default/module_apply_default/MobilenetV3/expanded_conv_8/depthwise/hard_swish/Relu6"], "attr": {"T": {"type": "DT_FLOAT"}, "_grappler_ArithmeticOptimizer_MinimizeBroadcasts": {"b": true}}}, {"name": "module_apply_default/module_apply_default/MobilenetV3/expanded_conv_8/project/BatchNorm/FusedBatchNormV3", "op": "_FusedConv2D", "input": ["module_apply_default/module_apply_default/MobilenetV3/expanded_conv_8/depthwise/hard_swish/mul_1", "module_apply_default/module_apply_default/MobilenetV3/expanded_conv_8/project/Conv2D_weights", "module_apply_default/module_apply_default/MobilenetV3/expanded_conv_8/project/Conv2D_bn_offset"], "device": "/device:CPU:0", "attr": {"data_format": {"s": "TkhXQw=="}, "explicit_paddings": {"list": {}}, "use_cudnn_on_gpu": {"b": true}, "strides": {"list": {"i": ["1", "1", "1", "1"]}}, "padding": {"s": "U0FNRQ=="}, "T": {"type": "DT_FLOAT"}, "fused_ops": {"list": {"s": ["Qmlhc0FkZA=="]}}, "epsilon": {"f": 0.0}, "dilations": {"list": {"i": ["1", "1", "1", "1"]}}, "num_args": {"i": "1"}}}, {"name": "module_apply_default/module_apply_default/MobilenetV3/expanded_conv_8/add", "op": "AddV2", "input": ["module_apply_default/module_apply_default/MobilenetV3/expanded_conv_8/project/BatchNorm/FusedBatchNormV3", "module_apply_default/module_apply_default/MobilenetV3/expanded_conv_7/add"], "attr": {"T": {"type": "DT_FLOAT"}}}, {"name": "module_apply_default/module_apply_default/MobilenetV3/expanded_conv_9/expand/BatchNorm/FusedBatchNormV3", "op": "_FusedConv2D", "input": ["module_apply_default/module_apply_default/MobilenetV3/expanded_conv_8/add", "module_apply_default/module_apply_default/MobilenetV3/expanded_conv_9/expand/Conv2D_weights", "module_apply_default/module_apply_default/MobilenetV3/expanded_conv_9/expand/Conv2D_bn_offset"], "device": "/device:CPU:0", "attr": {"T": {"type": "DT_FLOAT"}, "epsilon": {"f": 0.0}, "padding": {"s": "U0FNRQ=="}, "data_format": {"s": "TkhXQw=="}, "fused_ops": {"list": {"s": ["Qmlhc0FkZA=="]}}, "num_args": {"i": "1"}, "strides": {"list": {"i": ["1", "1", "1", "1"]}}, "use_cudnn_on_gpu": {"b": true}, "explicit_paddings": {"list": {}}, "dilations": {"list": {"i": ["1", "1", "1", "1"]}}}}, {"name": "module_apply_default/module_apply_default/MobilenetV3/expanded_conv_9/expand/hard_swish/mul", "op": "Mul", "input": ["module_apply_default/module_apply_default/MobilenetV3/expanded_conv_9/expand/hard_swish/mul_1/y", "module_apply_default/module_apply_default/MobilenetV3/expanded_conv_9/expand/BatchNorm/FusedBatchNormV3"], "attr": {"_grappler_ArithmeticOptimizer_MinimizeBroadcasts": {"b": true}, "T": {"type": "DT_FLOAT"}}}, {"name": "module_apply_default/module_apply_default/MobilenetV3/expanded_conv_9/expand/hard_swish/add", "op": "AddV2", "input": ["module_apply_default/module_apply_default/MobilenetV3/expanded_conv_9/expand/BatchNorm/FusedBatchNormV3", "module_apply_default/module_apply_default/MobilenetV3/expanded_conv_9/expand/hard_swish/add/y"], "attr": {"T": {"type": "DT_FLOAT"}}}, {"name": "module_apply_default/module_apply_default/MobilenetV3/expanded_conv_9/expand/hard_swish/Relu6", "op": "Relu6", "input": ["module_apply_default/module_apply_default/MobilenetV3/expanded_conv_9/expand/hard_swish/add"], "attr": {"T": {"type": "DT_FLOAT"}}}, {"name": "module_apply_default/module_apply_default/MobilenetV3/expanded_conv_9/expand/hard_swish/mul_1", "op": "Mul", "input": ["module_apply_default/module_apply_default/MobilenetV3/expanded_conv_9/expand/hard_swish/mul", "module_apply_default/module_apply_default/MobilenetV3/expanded_conv_9/expand/hard_swish/Relu6"], "attr": {"T": {"type": "DT_FLOAT"}, "_grappler_ArithmeticOptimizer_MinimizeBroadcasts": {"b": true}}}, {"name": "module_apply_default/module_apply_default/MobilenetV3/expanded_conv_9/depthwise/depthwise", "op": "FusedDepthwiseConv2dNative", "input": ["module_apply_default/module_apply_default/MobilenetV3/expanded_conv_9/expand/hard_swish/mul_1", "module_apply_default/module_apply_default/MobilenetV3/expanded_conv_9/depthwise/depthwise_weights", "module_apply_default/module_apply_default/MobilenetV3/expanded_conv_9/depthwise/depthwise_bn_offset"], "attr": {"strides": {"list": {"i": ["1", "1", "1", "1"]}}, "fused_ops": {"list": {"s": ["Qmlhc0FkZA=="]}}, "T": {"type": "DT_FLOAT"}, "explicit_paddings": {"list": {}}, "dilations": {"list": {"i": ["1", "1", "1", "1"]}}, "num_args": {"i": "1"}, "padding": {"s": "U0FNRQ=="}, "data_format": {"s": "TkhXQw=="}}}, {"name": "module_apply_default/module_apply_default/MobilenetV3/expanded_conv_9/depthwise/hard_swish/mul", "op": "Mul", "input": ["module_apply_default/module_apply_default/MobilenetV3/expanded_conv_9/depthwise/hard_swish/mul_1/y", "module_apply_default/module_apply_default/MobilenetV3/expanded_conv_9/depthwise/depthwise"], "attr": {"T": {"type": "DT_FLOAT"}, "_grappler_ArithmeticOptimizer_MinimizeBroadcasts": {"b": true}}}, {"name": "module_apply_default/module_apply_default/MobilenetV3/expanded_conv_9/depthwise/hard_swish/add", "op": "AddV2", "input": ["module_apply_default/module_apply_default/MobilenetV3/expanded_conv_9/depthwise/depthwise", "module_apply_default/module_apply_default/MobilenetV3/expanded_conv_9/depthwise/hard_swish/add/y"], "attr": {"T": {"type": "DT_FLOAT"}}}, {"name": "module_apply_default/module_apply_default/MobilenetV3/expanded_conv_9/depthwise/hard_swish/Relu6", "op": "Relu6", "input": ["module_apply_default/module_apply_default/MobilenetV3/expanded_conv_9/depthwise/hard_swish/add"], "attr": {"T": {"type": "DT_FLOAT"}}}, {"name": "module_apply_default/module_apply_default/MobilenetV3/expanded_conv_9/depthwise/hard_swish/mul_1", "op": "Mul", "input": ["module_apply_default/module_apply_default/MobilenetV3/expanded_conv_9/depthwise/hard_swish/mul", "module_apply_default/module_apply_default/MobilenetV3/expanded_conv_9/depthwise/hard_swish/Relu6"], "attr": {"_grappler_ArithmeticOptimizer_MinimizeBroadcasts": {"b": true}, "T": {"type": "DT_FLOAT"}}}, {"name": "module_apply_default/module_apply_default/MobilenetV3/expanded_conv_9/project/BatchNorm/FusedBatchNormV3", "op": "_FusedConv2D", "input": ["module_apply_default/module_apply_default/MobilenetV3/expanded_conv_9/depthwise/hard_swish/mul_1", "module_apply_default/module_apply_default/MobilenetV3/expanded_conv_9/project/Conv2D_weights", "module_apply_default/module_apply_default/MobilenetV3/expanded_conv_9/project/Conv2D_bn_offset"], "device": "/device:CPU:0", "attr": {"T": {"type": "DT_FLOAT"}, "padding": {"s": "U0FNRQ=="}, "dilations": {"list": {"i": ["1", "1", "1", "1"]}}, "fused_ops": {"list": {"s": ["Qmlhc0FkZA=="]}}, "data_format": {"s": "TkhXQw=="}, "explicit_paddings": {"list": {}}, "num_args": {"i": "1"}, "epsilon": {"f": 0.0}, "use_cudnn_on_gpu": {"b": true}, "strides": {"list": {"i": ["1", "1", "1", "1"]}}}}, {"name": "module_apply_default/module_apply_default/MobilenetV3/expanded_conv_9/add", "op": "AddV2", "input": ["module_apply_default/module_apply_default/MobilenetV3/expanded_conv_9/project/BatchNorm/FusedBatchNormV3", "module_apply_default/module_apply_default/MobilenetV3/expanded_conv_8/add"], "attr": {"T": {"type": "DT_FLOAT"}}}, {"name": "module_apply_default/module_apply_default/MobilenetV3/expanded_conv_10/expand/BatchNorm/FusedBatchNormV3", "op": "_FusedConv2D", "input": ["module_apply_default/module_apply_default/MobilenetV3/expanded_conv_9/add", "module_apply_default/module_apply_default/MobilenetV3/expanded_conv_10/expand/Conv2D_weights", "module_apply_default/module_apply_default/MobilenetV3/expanded_conv_10/expand/Conv2D_bn_offset"], "device": "/device:CPU:0", "attr": {"T": {"type": "DT_FLOAT"}, "dilations": {"list": {"i": ["1", "1", "1", "1"]}}, "padding": {"s": "U0FNRQ=="}, "fused_ops": {"list": {"s": ["Qmlhc0FkZA=="]}}, "epsilon": {"f": 0.0}, "use_cudnn_on_gpu": {"b": true}, "num_args": {"i": "1"}, "data_format": {"s": "TkhXQw=="}, "strides": {"list": {"i": ["1", "1", "1", "1"]}}, "explicit_paddings": {"list": {}}}}, {"name": "module_apply_default/module_apply_default/MobilenetV3/expanded_conv_10/expand/hard_swish/mul", "op": "Mul", "input": ["module_apply_default/module_apply_default/MobilenetV3/expanded_conv_10/expand/hard_swish/mul_1/y", "module_apply_default/module_apply_default/MobilenetV3/expanded_conv_10/expand/BatchNorm/FusedBatchNormV3"], "attr": {"T": {"type": "DT_FLOAT"}, "_grappler_ArithmeticOptimizer_MinimizeBroadcasts": {"b": true}}}, {"name": "module_apply_default/module_apply_default/MobilenetV3/expanded_conv_10/expand/hard_swish/add", "op": "AddV2", "input": ["module_apply_default/module_apply_default/MobilenetV3/expanded_conv_10/expand/BatchNorm/FusedBatchNormV3", "module_apply_default/module_apply_default/MobilenetV3/expanded_conv_10/expand/hard_swish/add/y"], "attr": {"T": {"type": "DT_FLOAT"}}}, {"name": "module_apply_default/module_apply_default/MobilenetV3/expanded_conv_10/expand/hard_swish/Relu6", "op": "Relu6", "input": ["module_apply_default/module_apply_default/MobilenetV3/expanded_conv_10/expand/hard_swish/add"], "attr": {"T": {"type": "DT_FLOAT"}}}, {"name": "module_apply_default/module_apply_default/MobilenetV3/expanded_conv_10/expand/hard_swish/mul_1", "op": "Mul", "input": ["module_apply_default/module_apply_default/MobilenetV3/expanded_conv_10/expand/hard_swish/mul", "module_apply_default/module_apply_default/MobilenetV3/expanded_conv_10/expand/hard_swish/Relu6"], "attr": {"_grappler_ArithmeticOptimizer_MinimizeBroadcasts": {"b": true}, "T": {"type": "DT_FLOAT"}}}, {"name": "module_apply_default/module_apply_default/MobilenetV3/expanded_conv_10/depthwise/depthwise", "op": "FusedDepthwiseConv2dNative", "input": ["module_apply_default/module_apply_default/MobilenetV3/expanded_conv_10/expand/hard_swish/mul_1", "module_apply_default/module_apply_default/MobilenetV3/expanded_conv_10/depthwise/depthwise_weights", "module_apply_default/module_apply_default/MobilenetV3/expanded_conv_10/depthwise/depthwise_bn_offset"], "attr": {"data_format": {"s": "TkhXQw=="}, "explicit_paddings": {"list": {}}, "fused_ops": {"list": {"s": ["Qmlhc0FkZA=="]}}, "num_args": {"i": "1"}, "T": {"type": "DT_FLOAT"}, "dilations": {"list": {"i": ["1", "1", "1", "1"]}}, "padding": {"s": "U0FNRQ=="}, "strides": {"list": {"i": ["1", "1", "1", "1"]}}}}, {"name": "module_apply_default/module_apply_default/MobilenetV3/expanded_conv_10/depthwise/hard_swish/mul", "op": "Mul", "input": ["module_apply_default/module_apply_default/MobilenetV3/expanded_conv_10/depthwise/hard_swish/mul_1/y", "module_apply_default/module_apply_default/MobilenetV3/expanded_conv_10/depthwise/depthwise"], "attr": {"T": {"type": "DT_FLOAT"}, "_grappler_ArithmeticOptimizer_MinimizeBroadcasts": {"b": true}}}, {"name": "module_apply_default/module_apply_default/MobilenetV3/expanded_conv_10/depthwise/hard_swish/add", "op": "AddV2", "input": ["module_apply_default/module_apply_default/MobilenetV3/expanded_conv_10/depthwise/depthwise", "module_apply_default/module_apply_default/MobilenetV3/expanded_conv_10/depthwise/hard_swish/add/y"], "attr": {"T": {"type": "DT_FLOAT"}}}, {"name": "module_apply_default/module_apply_default/MobilenetV3/expanded_conv_10/depthwise/hard_swish/Relu6", "op": "Relu6", "input": ["module_apply_default/module_apply_default/MobilenetV3/expanded_conv_10/depthwise/hard_swish/add"], "attr": {"T": {"type": "DT_FLOAT"}}}, {"name": "module_apply_default/module_apply_default/MobilenetV3/expanded_conv_10/depthwise/hard_swish/mul_1", "op": "Mul", "input": ["module_apply_default/module_apply_default/MobilenetV3/expanded_conv_10/depthwise/hard_swish/mul", "module_apply_default/module_apply_default/MobilenetV3/expanded_conv_10/depthwise/hard_swish/Relu6"], "attr": {"_grappler_ArithmeticOptimizer_MinimizeBroadcasts": {"b": true}, "T": {"type": "DT_FLOAT"}}}, {"name": "module_apply_default/module_apply_default/MobilenetV3/expanded_conv_10/squeeze_excite/Mean", "op": "Mean", "input": ["module_apply_default/module_apply_default/MobilenetV3/expanded_conv_10/depthwise/hard_swish/mul_1", "module_apply_default/module_apply_default/MobilenetV3/expanded_conv_10/squeeze_excite/Mean/reduction_indices"], "attr": {"Tidx": {"type": "DT_INT32"}, "keep_dims": {"b": true}, "T": {"type": "DT_FLOAT"}}}, {"name": "module_apply_default/module_apply_default/MobilenetV3/expanded_conv_10/squeeze_excite/Conv/Relu", "op": "_FusedConv2D", "input": ["module_apply_default/module_apply_default/MobilenetV3/expanded_conv_10/squeeze_excite/Mean", "module_apply_default/module_apply_default/MobilenetV3/expanded_conv_10/squeeze_excite/Conv/weights", "module_apply_default/module_apply_default/MobilenetV3/expanded_conv_10/squeeze_excite/Conv/biases"], "device": "/device:CPU:0", "attr": {"epsilon": {"f": 0.0}, "T": {"type": "DT_FLOAT"}, "explicit_paddings": {"list": {}}, "num_args": {"i": "1"}, "fused_ops": {"list": {"s": ["Qmlhc0FkZA==", "UmVsdQ=="]}}, "use_cudnn_on_gpu": {"b": true}, "data_format": {"s": "TkhXQw=="}, "padding": {"s": "U0FNRQ=="}, "dilations": {"list": {"i": ["1", "1", "1", "1"]}}, "strides": {"list": {"i": ["1", "1", "1", "1"]}}}}, {"name": "module_apply_default/module_apply_default/MobilenetV3/expanded_conv_10/squeeze_excite/Conv_1/BiasAdd", "op": "_FusedConv2D", "input": ["module_apply_default/module_apply_default/MobilenetV3/expanded_conv_10/squeeze_excite/Conv/Relu", "module_apply_default/module_apply_default/MobilenetV3/expanded_conv_10/squeeze_excite/Conv_1/weights", "module_apply_default/module_apply_default/MobilenetV3/expanded_conv_10/squeeze_excite/Conv_1/biases"], "device": "/device:CPU:0", "attr": {"T": {"type": "DT_FLOAT"}, "num_args": {"i": "1"}, "fused_ops": {"list": {"s": ["Qmlhc0FkZA=="]}}, "use_cudnn_on_gpu": {"b": true}, "strides": {"list": {"i": ["1", "1", "1", "1"]}}, "epsilon": {"f": 0.0}, "data_format": {"s": "TkhXQw=="}, "explicit_paddings": {"list": {}}, "padding": {"s": "U0FNRQ=="}, "dilations": {"list": {"i": ["1", "1", "1", "1"]}}}}, {"name": "module_apply_default/module_apply_default/MobilenetV3/expanded_conv_10/squeeze_excite/Conv_1/add", "op": "AddV2", "input": ["module_apply_default/module_apply_default/MobilenetV3/expanded_conv_10/squeeze_excite/Conv_1/BiasAdd", "module_apply_default/module_apply_default/MobilenetV3/expanded_conv_10/squeeze_excite/Conv_1/add/y"], "attr": {"T": {"type": "DT_FLOAT"}}}, {"name": "module_apply_default/module_apply_default/MobilenetV3/expanded_conv_10/squeeze_excite/Conv_1/Relu6", "op": "Relu6", "input": ["module_apply_default/module_apply_default/MobilenetV3/expanded_conv_10/squeeze_excite/Conv_1/add"], "attr": {"T": {"type": "DT_FLOAT"}}}, {"name": "module_apply_default/module_apply_default/MobilenetV3/expanded_conv_10/squeeze_excite/Conv_1/mul", "op": "Mul", "input": ["module_apply_default/module_apply_default/MobilenetV3/expanded_conv_10/squeeze_excite/Conv_1/mul/y", "module_apply_default/module_apply_default/MobilenetV3/expanded_conv_10/squeeze_excite/Conv_1/Relu6"], "attr": {"T": {"type": "DT_FLOAT"}, "_grappler_ArithmeticOptimizer_MinimizeBroadcasts": {"b": true}}}, {"name": "module_apply_default/module_apply_default/MobilenetV3/expanded_conv_10/squeeze_excite/mul", "op": "Mul", "input": ["module_apply_default/module_apply_default/MobilenetV3/expanded_conv_10/squeeze_excite/Conv_1/mul", "module_apply_default/module_apply_default/MobilenetV3/expanded_conv_10/depthwise/hard_swish/mul_1"], "attr": {"_grappler_ArithmeticOptimizer_MinimizeBroadcasts": {"b": true}, "T": {"type": "DT_FLOAT"}}}, {"name": "module_apply_default/module_apply_default/MobilenetV3/expanded_conv_10/project/BatchNorm/FusedBatchNormV3", "op": "_FusedConv2D", "input": ["module_apply_default/module_apply_default/MobilenetV3/expanded_conv_10/squeeze_excite/mul", "module_apply_default/module_apply_default/MobilenetV3/expanded_conv_10/project/Conv2D_weights", "module_apply_default/module_apply_default/MobilenetV3/expanded_conv_10/project/Conv2D_bn_offset"], "device": "/device:CPU:0", "attr": {"dilations": {"list": {"i": ["1", "1", "1", "1"]}}, "num_args": {"i": "1"}, "T": {"type": "DT_FLOAT"}, "data_format": {"s": "TkhXQw=="}, "use_cudnn_on_gpu": {"b": true}, "epsilon": {"f": 0.0}, "fused_ops": {"list": {"s": ["Qmlhc0FkZA=="]}}, "strides": {"list": {"i": ["1", "1", "1", "1"]}}, "padding": {"s": "U0FNRQ=="}, "explicit_paddings": {"list": {}}}}, {"name": "module_apply_default/module_apply_default/MobilenetV3/expanded_conv_11/expand/BatchNorm/FusedBatchNormV3", "op": "_FusedConv2D", "input": ["module_apply_default/module_apply_default/MobilenetV3/expanded_conv_10/project/BatchNorm/FusedBatchNormV3", "module_apply_default/module_apply_default/MobilenetV3/expanded_conv_11/expand/Conv2D_weights", "module_apply_default/module_apply_default/MobilenetV3/expanded_conv_11/expand/Conv2D_bn_offset"], "device": "/device:CPU:0", "attr": {"explicit_paddings": {"list": {}}, "strides": {"list": {"i": ["1", "1", "1", "1"]}}, "data_format": {"s": "TkhXQw=="}, "fused_ops": {"list": {"s": ["Qmlhc0FkZA=="]}}, "T": {"type": "DT_FLOAT"}, "padding": {"s": "U0FNRQ=="}, "dilations": {"list": {"i": ["1", "1", "1", "1"]}}, "use_cudnn_on_gpu": {"b": true}, "num_args": {"i": "1"}, "epsilon": {"f": 0.0}}}, {"name": "module_apply_default/module_apply_default/MobilenetV3/expanded_conv_11/expand/hard_swish/mul", "op": "Mul", "input": ["module_apply_default/module_apply_default/MobilenetV3/expanded_conv_11/expand/hard_swish/mul_1/y", "module_apply_default/module_apply_default/MobilenetV3/expanded_conv_11/expand/BatchNorm/FusedBatchNormV3"], "attr": {"_grappler_ArithmeticOptimizer_MinimizeBroadcasts": {"b": true}, "T": {"type": "DT_FLOAT"}}}, {"name": "module_apply_default/module_apply_default/MobilenetV3/expanded_conv_11/expand/hard_swish/add", "op": "AddV2", "input": ["module_apply_default/module_apply_default/MobilenetV3/expanded_conv_11/expand/BatchNorm/FusedBatchNormV3", "module_apply_default/module_apply_default/MobilenetV3/expanded_conv_11/expand/hard_swish/add/y"], "attr": {"T": {"type": "DT_FLOAT"}}}, {"name": "module_apply_default/module_apply_default/MobilenetV3/expanded_conv_11/expand/hard_swish/Relu6", "op": "Relu6", "input": ["module_apply_default/module_apply_default/MobilenetV3/expanded_conv_11/expand/hard_swish/add"], "attr": {"T": {"type": "DT_FLOAT"}}}, {"name": "module_apply_default/module_apply_default/MobilenetV3/expanded_conv_11/expand/hard_swish/mul_1", "op": "Mul", "input": ["module_apply_default/module_apply_default/MobilenetV3/expanded_conv_11/expand/hard_swish/mul", "module_apply_default/module_apply_default/MobilenetV3/expanded_conv_11/expand/hard_swish/Relu6"], "attr": {"T": {"type": "DT_FLOAT"}, "_grappler_ArithmeticOptimizer_MinimizeBroadcasts": {"b": true}}}, {"name": "module_apply_default/module_apply_default/MobilenetV3/expanded_conv_11/depthwise/depthwise", "op": "FusedDepthwiseConv2dNative", "input": ["module_apply_default/module_apply_default/MobilenetV3/expanded_conv_11/expand/hard_swish/mul_1", "module_apply_default/module_apply_default/MobilenetV3/expanded_conv_11/depthwise/depthwise_weights", "module_apply_default/module_apply_default/MobilenetV3/expanded_conv_11/depthwise/depthwise_bn_offset"], "attr": {"strides": {"list": {"i": ["1", "1", "1", "1"]}}, "explicit_paddings": {"list": {}}, "padding": {"s": "U0FNRQ=="}, "data_format": {"s": "TkhXQw=="}, "T": {"type": "DT_FLOAT"}, "dilations": {"list": {"i": ["1", "1", "1", "1"]}}, "fused_ops": {"list": {"s": ["Qmlhc0FkZA=="]}}, "num_args": {"i": "1"}}}, {"name": "module_apply_default/module_apply_default/MobilenetV3/expanded_conv_11/depthwise/hard_swish/mul", "op": "Mul", "input": ["module_apply_default/module_apply_default/MobilenetV3/expanded_conv_11/depthwise/hard_swish/mul_1/y", "module_apply_default/module_apply_default/MobilenetV3/expanded_conv_11/depthwise/depthwise"], "attr": {"T": {"type": "DT_FLOAT"}, "_grappler_ArithmeticOptimizer_MinimizeBroadcasts": {"b": true}}}, {"name": "module_apply_default/module_apply_default/MobilenetV3/expanded_conv_11/depthwise/hard_swish/add", "op": "AddV2", "input": ["module_apply_default/module_apply_default/MobilenetV3/expanded_conv_11/depthwise/depthwise", "module_apply_default/module_apply_default/MobilenetV3/expanded_conv_11/depthwise/hard_swish/add/y"], "attr": {"T": {"type": "DT_FLOAT"}}}, {"name": "module_apply_default/module_apply_default/MobilenetV3/expanded_conv_11/depthwise/hard_swish/Relu6", "op": "Relu6", "input": ["module_apply_default/module_apply_default/MobilenetV3/expanded_conv_11/depthwise/hard_swish/add"], "attr": {"T": {"type": "DT_FLOAT"}}}, {"name": "module_apply_default/module_apply_default/MobilenetV3/expanded_conv_11/depthwise/hard_swish/mul_1", "op": "Mul", "input": ["module_apply_default/module_apply_default/MobilenetV3/expanded_conv_11/depthwise/hard_swish/mul", "module_apply_default/module_apply_default/MobilenetV3/expanded_conv_11/depthwise/hard_swish/Relu6"], "attr": {"_grappler_ArithmeticOptimizer_MinimizeBroadcasts": {"b": true}, "T": {"type": "DT_FLOAT"}}}, {"name": "module_apply_default/module_apply_default/MobilenetV3/expanded_conv_11/squeeze_excite/Mean", "op": "Mean", "input": ["module_apply_default/module_apply_default/MobilenetV3/expanded_conv_11/depthwise/hard_swish/mul_1", "module_apply_default/module_apply_default/MobilenetV3/expanded_conv_11/squeeze_excite/Mean/reduction_indices"], "attr": {"Tidx": {"type": "DT_INT32"}, "keep_dims": {"b": true}, "T": {"type": "DT_FLOAT"}}}, {"name": "module_apply_default/module_apply_default/MobilenetV3/expanded_conv_11/squeeze_excite/Conv/Relu", "op": "_FusedConv2D", "input": ["module_apply_default/module_apply_default/MobilenetV3/expanded_conv_11/squeeze_excite/Mean", "module_apply_default/module_apply_default/MobilenetV3/expanded_conv_11/squeeze_excite/Conv/weights", "module_apply_default/module_apply_default/MobilenetV3/expanded_conv_11/squeeze_excite/Conv/biases"], "device": "/device:CPU:0", "attr": {"padding": {"s": "U0FNRQ=="}, "fused_ops": {"list": {"s": ["Qmlhc0FkZA==", "UmVsdQ=="]}}, "strides": {"list": {"i": ["1", "1", "1", "1"]}}, "dilations": {"list": {"i": ["1", "1", "1", "1"]}}, "T": {"type": "DT_FLOAT"}, "explicit_paddings": {"list": {}}, "epsilon": {"f": 0.0}, "use_cudnn_on_gpu": {"b": true}, "data_format": {"s": "TkhXQw=="}, "num_args": {"i": "1"}}}, {"name": "module_apply_default/module_apply_default/MobilenetV3/expanded_conv_11/squeeze_excite/Conv_1/BiasAdd", "op": "_FusedConv2D", "input": ["module_apply_default/module_apply_default/MobilenetV3/expanded_conv_11/squeeze_excite/Conv/Relu", "module_apply_default/module_apply_default/MobilenetV3/expanded_conv_11/squeeze_excite/Conv_1/weights", "module_apply_default/module_apply_default/MobilenetV3/expanded_conv_11/squeeze_excite/Conv_1/biases"], "device": "/device:CPU:0", "attr": {"data_format": {"s": "TkhXQw=="}, "explicit_paddings": {"list": {}}, "use_cudnn_on_gpu": {"b": true}, "dilations": {"list": {"i": ["1", "1", "1", "1"]}}, "padding": {"s": "U0FNRQ=="}, "T": {"type": "DT_FLOAT"}, "num_args": {"i": "1"}, "epsilon": {"f": 0.0}, "fused_ops": {"list": {"s": ["Qmlhc0FkZA=="]}}, "strides": {"list": {"i": ["1", "1", "1", "1"]}}}}, {"name": "module_apply_default/module_apply_default/MobilenetV3/expanded_conv_11/squeeze_excite/Conv_1/add", "op": "AddV2", "input": ["module_apply_default/module_apply_default/MobilenetV3/expanded_conv_11/squeeze_excite/Conv_1/BiasAdd", "module_apply_default/module_apply_default/MobilenetV3/expanded_conv_11/squeeze_excite/Conv_1/add/y"], "attr": {"T": {"type": "DT_FLOAT"}}}, {"name": "module_apply_default/module_apply_default/MobilenetV3/expanded_conv_11/squeeze_excite/Conv_1/Relu6", "op": "Relu6", "input": ["module_apply_default/module_apply_default/MobilenetV3/expanded_conv_11/squeeze_excite/Conv_1/add"], "attr": {"T": {"type": "DT_FLOAT"}}}, {"name": "module_apply_default/module_apply_default/MobilenetV3/expanded_conv_11/squeeze_excite/Conv_1/mul", "op": "Mul", "input": ["module_apply_default/module_apply_default/MobilenetV3/expanded_conv_11/squeeze_excite/Conv_1/mul/y", "module_apply_default/module_apply_default/MobilenetV3/expanded_conv_11/squeeze_excite/Conv_1/Relu6"], "attr": {"T": {"type": "DT_FLOAT"}, "_grappler_ArithmeticOptimizer_MinimizeBroadcasts": {"b": true}}}, {"name": "module_apply_default/module_apply_default/MobilenetV3/expanded_conv_11/squeeze_excite/mul", "op": "Mul", "input": ["module_apply_default/module_apply_default/MobilenetV3/expanded_conv_11/squeeze_excite/Conv_1/mul", "module_apply_default/module_apply_default/MobilenetV3/expanded_conv_11/depthwise/hard_swish/mul_1"], "attr": {"T": {"type": "DT_FLOAT"}, "_grappler_ArithmeticOptimizer_MinimizeBroadcasts": {"b": true}}}, {"name": "module_apply_default/module_apply_default/MobilenetV3/expanded_conv_11/project/BatchNorm/FusedBatchNormV3", "op": "_FusedConv2D", "input": ["module_apply_default/module_apply_default/MobilenetV3/expanded_conv_11/squeeze_excite/mul", "module_apply_default/module_apply_default/MobilenetV3/expanded_conv_11/project/Conv2D_weights", "module_apply_default/module_apply_default/MobilenetV3/expanded_conv_11/project/Conv2D_bn_offset"], "device": "/device:CPU:0", "attr": {"use_cudnn_on_gpu": {"b": true}, "num_args": {"i": "1"}, "epsilon": {"f": 0.0}, "dilations": {"list": {"i": ["1", "1", "1", "1"]}}, "data_format": {"s": "TkhXQw=="}, "fused_ops": {"list": {"s": ["Qmlhc0FkZA=="]}}, "padding": {"s": "U0FNRQ=="}, "T": {"type": "DT_FLOAT"}, "strides": {"list": {"i": ["1", "1", "1", "1"]}}, "explicit_paddings": {"list": {}}}}, {"name": "module_apply_default/module_apply_default/MobilenetV3/expanded_conv_11/add", "op": "AddV2", "input": ["module_apply_default/module_apply_default/MobilenetV3/expanded_conv_11/project/BatchNorm/FusedBatchNormV3", "module_apply_default/module_apply_default/MobilenetV3/expanded_conv_10/project/BatchNorm/FusedBatchNormV3"], "attr": {"T": {"type": "DT_FLOAT"}}}, {"name": "module_apply_default/module_apply_default/MobilenetV3/expanded_conv_12/expand/BatchNorm/FusedBatchNormV3", "op": "_FusedConv2D", "input": ["module_apply_default/module_apply_default/MobilenetV3/expanded_conv_11/add", "module_apply_default/module_apply_default/MobilenetV3/expanded_conv_12/expand/Conv2D_weights", "module_apply_default/module_apply_default/MobilenetV3/expanded_conv_12/expand/Conv2D_bn_offset"], "device": "/device:CPU:0", "attr": {"num_args": {"i": "1"}, "explicit_paddings": {"list": {}}, "data_format": {"s": "TkhXQw=="}, "padding": {"s": "U0FNRQ=="}, "epsilon": {"f": 0.0}, "use_cudnn_on_gpu": {"b": true}, "fused_ops": {"list": {"s": ["Qmlhc0FkZA=="]}}, "T": {"type": "DT_FLOAT"}, "dilations": {"list": {"i": ["1", "1", "1", "1"]}}, "strides": {"list": {"i": ["1", "1", "1", "1"]}}}}, {"name": "module_apply_default/module_apply_default/MobilenetV3/expanded_conv_12/expand/hard_swish/mul", "op": "Mul", "input": ["module_apply_default/module_apply_default/MobilenetV3/expanded_conv_12/expand/hard_swish/mul_1/y", "module_apply_default/module_apply_default/MobilenetV3/expanded_conv_12/expand/BatchNorm/FusedBatchNormV3"], "attr": {"T": {"type": "DT_FLOAT"}, "_grappler_ArithmeticOptimizer_MinimizeBroadcasts": {"b": true}}}, {"name": "module_apply_default/module_apply_default/MobilenetV3/expanded_conv_12/expand/hard_swish/add", "op": "AddV2", "input": ["module_apply_default/module_apply_default/MobilenetV3/expanded_conv_12/expand/BatchNorm/FusedBatchNormV3", "module_apply_default/module_apply_default/MobilenetV3/expanded_conv_12/expand/hard_swish/add/y"], "attr": {"T": {"type": "DT_FLOAT"}}}, {"name": "module_apply_default/module_apply_default/MobilenetV3/expanded_conv_12/expand/hard_swish/Relu6", "op": "Relu6", "input": ["module_apply_default/module_apply_default/MobilenetV3/expanded_conv_12/expand/hard_swish/add"], "attr": {"T": {"type": "DT_FLOAT"}}}, {"name": "module_apply_default/module_apply_default/MobilenetV3/expanded_conv_12/expand/hard_swish/mul_1", "op": "Mul", "input": ["module_apply_default/module_apply_default/MobilenetV3/expanded_conv_12/expand/hard_swish/mul", "module_apply_default/module_apply_default/MobilenetV3/expanded_conv_12/expand/hard_swish/Relu6"], "attr": {"_grappler_ArithmeticOptimizer_MinimizeBroadcasts": {"b": true}, "T": {"type": "DT_FLOAT"}}}, {"name": "module_apply_default/module_apply_default/MobilenetV3/expanded_conv_12/depthwise/depthwise", "op": "FusedDepthwiseConv2dNative", "input": ["module_apply_default/module_apply_default/MobilenetV3/expanded_conv_12/expand/hard_swish/mul_1", "module_apply_default/module_apply_default/MobilenetV3/expanded_conv_12/depthwise/depthwise_weights", "module_apply_default/module_apply_default/MobilenetV3/expanded_conv_12/depthwise/depthwise_bn_offset"], "attr": {"padding": {"s": "U0FNRQ=="}, "num_args": {"i": "1"}, "fused_ops": {"list": {"s": ["Qmlhc0FkZA=="]}}, "explicit_paddings": {"list": {}}, "data_format": {"s": "TkhXQw=="}, "dilations": {"list": {"i": ["1", "1", "1", "1"]}}, "strides": {"list": {"i": ["1", "2", "2", "1"]}}, "T": {"type": "DT_FLOAT"}}}, {"name": "module_apply_default/module_apply_default/MobilenetV3/expanded_conv_12/depthwise/hard_swish/mul", "op": "Mul", "input": ["module_apply_default/module_apply_default/MobilenetV3/expanded_conv_12/depthwise/hard_swish/mul_1/y", "module_apply_default/module_apply_default/MobilenetV3/expanded_conv_12/depthwise/depthwise"], "attr": {"_grappler_ArithmeticOptimizer_MinimizeBroadcasts": {"b": true}, "T": {"type": "DT_FLOAT"}}}, {"name": "module_apply_default/module_apply_default/MobilenetV3/expanded_conv_12/depthwise/hard_swish/add", "op": "AddV2", "input": ["module_apply_default/module_apply_default/MobilenetV3/expanded_conv_12/depthwise/depthwise", "module_apply_default/module_apply_default/MobilenetV3/expanded_conv_12/depthwise/hard_swish/add/y"], "attr": {"T": {"type": "DT_FLOAT"}}}, {"name": "module_apply_default/module_apply_default/MobilenetV3/expanded_conv_12/depthwise/hard_swish/Relu6", "op": "Relu6", "input": ["module_apply_default/module_apply_default/MobilenetV3/expanded_conv_12/depthwise/hard_swish/add"], "attr": {"T": {"type": "DT_FLOAT"}}}, {"name": "module_apply_default/module_apply_default/MobilenetV3/expanded_conv_12/depthwise/hard_swish/mul_1", "op": "Mul", "input": ["module_apply_default/module_apply_default/MobilenetV3/expanded_conv_12/depthwise/hard_swish/mul", "module_apply_default/module_apply_default/MobilenetV3/expanded_conv_12/depthwise/hard_swish/Relu6"], "attr": {"_grappler_ArithmeticOptimizer_MinimizeBroadcasts": {"b": true}, "T": {"type": "DT_FLOAT"}}}, {"name": "module_apply_default/module_apply_default/MobilenetV3/expanded_conv_12/squeeze_excite/Mean", "op": "Mean", "input": ["module_apply_default/module_apply_default/MobilenetV3/expanded_conv_12/depthwise/hard_swish/mul_1", "module_apply_default/module_apply_default/MobilenetV3/expanded_conv_12/squeeze_excite/Mean/reduction_indices"], "attr": {"keep_dims": {"b": true}, "Tidx": {"type": "DT_INT32"}, "T": {"type": "DT_FLOAT"}}}, {"name": "module_apply_default/module_apply_default/MobilenetV3/expanded_conv_12/squeeze_excite/Conv/Relu", "op": "_FusedConv2D", "input": ["module_apply_default/module_apply_default/MobilenetV3/expanded_conv_12/squeeze_excite/Mean", "module_apply_default/module_apply_default/MobilenetV3/expanded_conv_12/squeeze_excite/Conv/weights", "module_apply_default/module_apply_default/MobilenetV3/expanded_conv_12/squeeze_excite/Conv/biases"], "device": "/device:CPU:0", "attr": {"data_format": {"s": "TkhXQw=="}, "epsilon": {"f": 0.0}, "fused_ops": {"list": {"s": ["Qmlhc0FkZA==", "UmVsdQ=="]}}, "use_cudnn_on_gpu": {"b": true}, "T": {"type": "DT_FLOAT"}, "num_args": {"i": "1"}, "strides": {"list": {"i": ["1", "1", "1", "1"]}}, "dilations": {"list": {"i": ["1", "1", "1", "1"]}}, "explicit_paddings": {"list": {}}, "padding": {"s": "U0FNRQ=="}}}, {"name": "module_apply_default/module_apply_default/MobilenetV3/expanded_conv_12/squeeze_excite/Conv_1/BiasAdd", "op": "_FusedConv2D", "input": ["module_apply_default/module_apply_default/MobilenetV3/expanded_conv_12/squeeze_excite/Conv/Relu", "module_apply_default/module_apply_default/MobilenetV3/expanded_conv_12/squeeze_excite/Conv_1/weights", "module_apply_default/module_apply_default/MobilenetV3/expanded_conv_12/squeeze_excite/Conv_1/biases"], "device": "/device:CPU:0", "attr": {"dilations": {"list": {"i": ["1", "1", "1", "1"]}}, "strides": {"list": {"i": ["1", "1", "1", "1"]}}, "explicit_paddings": {"list": {}}, "fused_ops": {"list": {"s": ["Qmlhc0FkZA=="]}}, "num_args": {"i": "1"}, "data_format": {"s": "TkhXQw=="}, "use_cudnn_on_gpu": {"b": true}, "epsilon": {"f": 0.0}, "T": {"type": "DT_FLOAT"}, "padding": {"s": "U0FNRQ=="}}}, {"name": "module_apply_default/module_apply_default/MobilenetV3/expanded_conv_12/squeeze_excite/Conv_1/add", "op": "AddV2", "input": ["module_apply_default/module_apply_default/MobilenetV3/expanded_conv_12/squeeze_excite/Conv_1/BiasAdd", "module_apply_default/module_apply_default/MobilenetV3/expanded_conv_12/squeeze_excite/Conv_1/add/y"], "attr": {"T": {"type": "DT_FLOAT"}}}, {"name": "module_apply_default/module_apply_default/MobilenetV3/expanded_conv_12/squeeze_excite/Conv_1/Relu6", "op": "Relu6", "input": ["module_apply_default/module_apply_default/MobilenetV3/expanded_conv_12/squeeze_excite/Conv_1/add"], "attr": {"T": {"type": "DT_FLOAT"}}}, {"name": "module_apply_default/module_apply_default/MobilenetV3/expanded_conv_12/squeeze_excite/Conv_1/mul", "op": "Mul", "input": ["module_apply_default/module_apply_default/MobilenetV3/expanded_conv_12/squeeze_excite/Conv_1/mul/y", "module_apply_default/module_apply_default/MobilenetV3/expanded_conv_12/squeeze_excite/Conv_1/Relu6"], "attr": {"T": {"type": "DT_FLOAT"}, "_grappler_ArithmeticOptimizer_MinimizeBroadcasts": {"b": true}}}, {"name": "module_apply_default/module_apply_default/MobilenetV3/expanded_conv_12/squeeze_excite/mul", "op": "Mul", "input": ["module_apply_default/module_apply_default/MobilenetV3/expanded_conv_12/squeeze_excite/Conv_1/mul", "module_apply_default/module_apply_default/MobilenetV3/expanded_conv_12/depthwise/hard_swish/mul_1"], "attr": {"T": {"type": "DT_FLOAT"}, "_grappler_ArithmeticOptimizer_MinimizeBroadcasts": {"b": true}}}, {"name": "module_apply_default/module_apply_default/MobilenetV3/expanded_conv_12/project/BatchNorm/FusedBatchNormV3", "op": "_FusedConv2D", "input": ["module_apply_default/module_apply_default/MobilenetV3/expanded_conv_12/squeeze_excite/mul", "module_apply_default/module_apply_default/MobilenetV3/expanded_conv_12/project/Conv2D_weights", "module_apply_default/module_apply_default/MobilenetV3/expanded_conv_12/project/Conv2D_bn_offset"], "device": "/device:CPU:0", "attr": {"fused_ops": {"list": {"s": ["Qmlhc0FkZA=="]}}, "T": {"type": "DT_FLOAT"}, "dilations": {"list": {"i": ["1", "1", "1", "1"]}}, "data_format": {"s": "TkhXQw=="}, "explicit_paddings": {"list": {}}, "num_args": {"i": "1"}, "padding": {"s": "U0FNRQ=="}, "strides": {"list": {"i": ["1", "1", "1", "1"]}}, "epsilon": {"f": 0.0}, "use_cudnn_on_gpu": {"b": true}}}, {"name": "module_apply_default/module_apply_default/MobilenetV3/expanded_conv_13/expand/BatchNorm/FusedBatchNormV3", "op": "_FusedConv2D", "input": ["module_apply_default/module_apply_default/MobilenetV3/expanded_conv_12/project/BatchNorm/FusedBatchNormV3", "module_apply_default/module_apply_default/MobilenetV3/expanded_conv_13/expand/Conv2D_weights", "module_apply_default/module_apply_default/MobilenetV3/expanded_conv_13/expand/Conv2D_bn_offset"], "device": "/device:CPU:0", "attr": {"padding": {"s": "U0FNRQ=="}, "data_format": {"s": "TkhXQw=="}, "num_args": {"i": "1"}, "strides": {"list": {"i": ["1", "1", "1", "1"]}}, "epsilon": {"f": 0.0}, "T": {"type": "DT_FLOAT"}, "use_cudnn_on_gpu": {"b": true}, "dilations": {"list": {"i": ["1", "1", "1", "1"]}}, "explicit_paddings": {"list": {}}, "fused_ops": {"list": {"s": ["Qmlhc0FkZA=="]}}}}, {"name": "module_apply_default/module_apply_default/MobilenetV3/expanded_conv_13/expand/hard_swish/mul", "op": "Mul", "input": ["module_apply_default/module_apply_default/MobilenetV3/expanded_conv_13/expand/hard_swish/mul_1/y", "module_apply_default/module_apply_default/MobilenetV3/expanded_conv_13/expand/BatchNorm/FusedBatchNormV3"], "attr": {"_grappler_ArithmeticOptimizer_MinimizeBroadcasts": {"b": true}, "T": {"type": "DT_FLOAT"}}}, {"name": "module_apply_default/module_apply_default/MobilenetV3/expanded_conv_13/expand/hard_swish/add", "op": "AddV2", "input": ["module_apply_default/module_apply_default/MobilenetV3/expanded_conv_13/expand/BatchNorm/FusedBatchNormV3", "module_apply_default/module_apply_default/MobilenetV3/expanded_conv_13/expand/hard_swish/add/y"], "attr": {"T": {"type": "DT_FLOAT"}}}, {"name": "module_apply_default/module_apply_default/MobilenetV3/expanded_conv_13/expand/hard_swish/Relu6", "op": "Relu6", "input": ["module_apply_default/module_apply_default/MobilenetV3/expanded_conv_13/expand/hard_swish/add"], "attr": {"T": {"type": "DT_FLOAT"}}}, {"name": "module_apply_default/module_apply_default/MobilenetV3/expanded_conv_13/expand/hard_swish/mul_1", "op": "Mul", "input": ["module_apply_default/module_apply_default/MobilenetV3/expanded_conv_13/expand/hard_swish/mul", "module_apply_default/module_apply_default/MobilenetV3/expanded_conv_13/expand/hard_swish/Relu6"], "attr": {"_grappler_ArithmeticOptimizer_MinimizeBroadcasts": {"b": true}, "T": {"type": "DT_FLOAT"}}}, {"name": "module_apply_default/module_apply_default/MobilenetV3/expanded_conv_13/depthwise/depthwise", "op": "FusedDepthwiseConv2dNative", "input": ["module_apply_default/module_apply_default/MobilenetV3/expanded_conv_13/expand/hard_swish/mul_1", "module_apply_default/module_apply_default/MobilenetV3/expanded_conv_13/depthwise/depthwise_weights", "module_apply_default/module_apply_default/MobilenetV3/expanded_conv_13/depthwise/depthwise_bn_offset"], "attr": {"fused_ops": {"list": {"s": ["Qmlhc0FkZA=="]}}, "explicit_paddings": {"list": {}}, "num_args": {"i": "1"}, "dilations": {"list": {"i": ["1", "1", "1", "1"]}}, "data_format": {"s": "TkhXQw=="}, "T": {"type": "DT_FLOAT"}, "strides": {"list": {"i": ["1", "1", "1", "1"]}}, "padding": {"s": "U0FNRQ=="}}}, {"name": "module_apply_default/module_apply_default/MobilenetV3/expanded_conv_13/depthwise/hard_swish/mul", "op": "Mul", "input": ["module_apply_default/module_apply_default/MobilenetV3/expanded_conv_13/depthwise/hard_swish/mul_1/y", "module_apply_default/module_apply_default/MobilenetV3/expanded_conv_13/depthwise/depthwise"], "attr": {"T": {"type": "DT_FLOAT"}, "_grappler_ArithmeticOptimizer_MinimizeBroadcasts": {"b": true}}}, {"name": "module_apply_default/module_apply_default/MobilenetV3/expanded_conv_13/depthwise/hard_swish/add", "op": "AddV2", "input": ["module_apply_default/module_apply_default/MobilenetV3/expanded_conv_13/depthwise/depthwise", "module_apply_default/module_apply_default/MobilenetV3/expanded_conv_13/depthwise/hard_swish/add/y"], "attr": {"T": {"type": "DT_FLOAT"}}}, {"name": "module_apply_default/module_apply_default/MobilenetV3/expanded_conv_13/depthwise/hard_swish/Relu6", "op": "Relu6", "input": ["module_apply_default/module_apply_default/MobilenetV3/expanded_conv_13/depthwise/hard_swish/add"], "attr": {"T": {"type": "DT_FLOAT"}}}, {"name": "module_apply_default/module_apply_default/MobilenetV3/expanded_conv_13/depthwise/hard_swish/mul_1", "op": "Mul", "input": ["module_apply_default/module_apply_default/MobilenetV3/expanded_conv_13/depthwise/hard_swish/mul", "module_apply_default/module_apply_default/MobilenetV3/expanded_conv_13/depthwise/hard_swish/Relu6"], "attr": {"T": {"type": "DT_FLOAT"}, "_grappler_ArithmeticOptimizer_MinimizeBroadcasts": {"b": true}}}, {"name": "module_apply_default/module_apply_default/MobilenetV3/expanded_conv_13/squeeze_excite/Mean", "op": "Mean", "input": ["module_apply_default/module_apply_default/MobilenetV3/expanded_conv_13/depthwise/hard_swish/mul_1", "module_apply_default/module_apply_default/MobilenetV3/expanded_conv_13/squeeze_excite/Mean/reduction_indices"], "attr": {"keep_dims": {"b": true}, "T": {"type": "DT_FLOAT"}, "Tidx": {"type": "DT_INT32"}}}, {"name": "module_apply_default/module_apply_default/MobilenetV3/expanded_conv_13/squeeze_excite/Conv/Relu", "op": "_FusedConv2D", "input": ["module_apply_default/module_apply_default/MobilenetV3/expanded_conv_13/squeeze_excite/Mean", "module_apply_default/module_apply_default/MobilenetV3/expanded_conv_13/squeeze_excite/Conv/weights", "module_apply_default/module_apply_default/MobilenetV3/expanded_conv_13/squeeze_excite/Conv/biases"], "device": "/device:CPU:0", "attr": {"data_format": {"s": "TkhXQw=="}, "epsilon": {"f": 0.0}, "fused_ops": {"list": {"s": ["Qmlhc0FkZA==", "UmVsdQ=="]}}, "use_cudnn_on_gpu": {"b": true}, "padding": {"s": "U0FNRQ=="}, "explicit_paddings": {"list": {}}, "num_args": {"i": "1"}, "T": {"type": "DT_FLOAT"}, "strides": {"list": {"i": ["1", "1", "1", "1"]}}, "dilations": {"list": {"i": ["1", "1", "1", "1"]}}}}, {"name": "module_apply_default/module_apply_default/MobilenetV3/expanded_conv_13/squeeze_excite/Conv_1/BiasAdd", "op": "_FusedConv2D", "input": ["module_apply_default/module_apply_default/MobilenetV3/expanded_conv_13/squeeze_excite/Conv/Relu", "module_apply_default/module_apply_default/MobilenetV3/expanded_conv_13/squeeze_excite/Conv_1/weights", "module_apply_default/module_apply_default/MobilenetV3/expanded_conv_13/squeeze_excite/Conv_1/biases"], "device": "/device:CPU:0", "attr": {"padding": {"s": "U0FNRQ=="}, "fused_ops": {"list": {"s": ["Qmlhc0FkZA=="]}}, "use_cudnn_on_gpu": {"b": true}, "T": {"type": "DT_FLOAT"}, "data_format": {"s": "TkhXQw=="}, "epsilon": {"f": 0.0}, "num_args": {"i": "1"}, "explicit_paddings": {"list": {}}, "dilations": {"list": {"i": ["1", "1", "1", "1"]}}, "strides": {"list": {"i": ["1", "1", "1", "1"]}}}}, {"name": "module_apply_default/module_apply_default/MobilenetV3/expanded_conv_13/squeeze_excite/Conv_1/add", "op": "AddV2", "input": ["module_apply_default/module_apply_default/MobilenetV3/expanded_conv_13/squeeze_excite/Conv_1/BiasAdd", "module_apply_default/module_apply_default/MobilenetV3/expanded_conv_13/squeeze_excite/Conv_1/add/y"], "attr": {"T": {"type": "DT_FLOAT"}}}, {"name": "module_apply_default/module_apply_default/MobilenetV3/expanded_conv_13/squeeze_excite/Conv_1/Relu6", "op": "Relu6", "input": ["module_apply_default/module_apply_default/MobilenetV3/expanded_conv_13/squeeze_excite/Conv_1/add"], "attr": {"T": {"type": "DT_FLOAT"}}}, {"name": "module_apply_default/module_apply_default/MobilenetV3/expanded_conv_13/squeeze_excite/Conv_1/mul", "op": "Mul", "input": ["module_apply_default/module_apply_default/MobilenetV3/expanded_conv_13/squeeze_excite/Conv_1/mul/y", "module_apply_default/module_apply_default/MobilenetV3/expanded_conv_13/squeeze_excite/Conv_1/Relu6"], "attr": {"T": {"type": "DT_FLOAT"}, "_grappler_ArithmeticOptimizer_MinimizeBroadcasts": {"b": true}}}, {"name": "module_apply_default/module_apply_default/MobilenetV3/expanded_conv_13/squeeze_excite/mul", "op": "Mul", "input": ["module_apply_default/module_apply_default/MobilenetV3/expanded_conv_13/squeeze_excite/Conv_1/mul", "module_apply_default/module_apply_default/MobilenetV3/expanded_conv_13/depthwise/hard_swish/mul_1"], "attr": {"T": {"type": "DT_FLOAT"}, "_grappler_ArithmeticOptimizer_MinimizeBroadcasts": {"b": true}}}, {"name": "module_apply_default/module_apply_default/MobilenetV3/expanded_conv_13/project/BatchNorm/FusedBatchNormV3", "op": "_FusedConv2D", "input": ["module_apply_default/module_apply_default/MobilenetV3/expanded_conv_13/squeeze_excite/mul", "module_apply_default/module_apply_default/MobilenetV3/expanded_conv_13/project/Conv2D_weights", "module_apply_default/module_apply_default/MobilenetV3/expanded_conv_13/project/Conv2D_bn_offset"], "device": "/device:CPU:0", "attr": {"strides": {"list": {"i": ["1", "1", "1", "1"]}}, "use_cudnn_on_gpu": {"b": true}, "num_args": {"i": "1"}, "T": {"type": "DT_FLOAT"}, "explicit_paddings": {"list": {}}, "data_format": {"s": "TkhXQw=="}, "epsilon": {"f": 0.0}, "dilations": {"list": {"i": ["1", "1", "1", "1"]}}, "padding": {"s": "U0FNRQ=="}, "fused_ops": {"list": {"s": ["Qmlhc0FkZA=="]}}}}, {"name": "module_apply_default/module_apply_default/MobilenetV3/expanded_conv_13/add", "op": "AddV2", "input": ["module_apply_default/module_apply_default/MobilenetV3/expanded_conv_13/project/BatchNorm/FusedBatchNormV3", "module_apply_default/module_apply_default/MobilenetV3/expanded_conv_12/project/BatchNorm/FusedBatchNormV3"], "attr": {"T": {"type": "DT_FLOAT"}}}, {"name": "module_apply_default/module_apply_default/MobilenetV3/expanded_conv_14/expand/BatchNorm/FusedBatchNormV3", "op": "_FusedConv2D", "input": ["module_apply_default/module_apply_default/MobilenetV3/expanded_conv_13/add", "module_apply_default/module_apply_default/MobilenetV3/expanded_conv_14/expand/Conv2D_weights", "module_apply_default/module_apply_default/MobilenetV3/expanded_conv_14/expand/Conv2D_bn_offset"], "device": "/device:CPU:0", "attr": {"dilations": {"list": {"i": ["1", "1", "1", "1"]}}, "padding": {"s": "U0FNRQ=="}, "use_cudnn_on_gpu": {"b": true}, "fused_ops": {"list": {"s": ["Qmlhc0FkZA=="]}}, "data_format": {"s": "TkhXQw=="}, "strides": {"list": {"i": ["1", "1", "1", "1"]}}, "T": {"type": "DT_FLOAT"}, "num_args": {"i": "1"}, "epsilon": {"f": 0.0}, "explicit_paddings": {"list": {}}}}, {"name": "module_apply_default/module_apply_default/MobilenetV3/expanded_conv_14/expand/hard_swish/mul", "op": "Mul", "input": ["module_apply_default/module_apply_default/MobilenetV3/expanded_conv_14/expand/hard_swish/mul_1/y", "module_apply_default/module_apply_default/MobilenetV3/expanded_conv_14/expand/BatchNorm/FusedBatchNormV3"], "attr": {"_grappler_ArithmeticOptimizer_MinimizeBroadcasts": {"b": true}, "T": {"type": "DT_FLOAT"}}}, {"name": "module_apply_default/module_apply_default/MobilenetV3/expanded_conv_14/expand/hard_swish/add", "op": "AddV2", "input": ["module_apply_default/module_apply_default/MobilenetV3/expanded_conv_14/expand/BatchNorm/FusedBatchNormV3", "module_apply_default/module_apply_default/MobilenetV3/expanded_conv_14/expand/hard_swish/add/y"], "attr": {"T": {"type": "DT_FLOAT"}}}, {"name": "module_apply_default/module_apply_default/MobilenetV3/expanded_conv_14/expand/hard_swish/Relu6", "op": "Relu6", "input": ["module_apply_default/module_apply_default/MobilenetV3/expanded_conv_14/expand/hard_swish/add"], "attr": {"T": {"type": "DT_FLOAT"}}}, {"name": "module_apply_default/module_apply_default/MobilenetV3/expanded_conv_14/expand/hard_swish/mul_1", "op": "Mul", "input": ["module_apply_default/module_apply_default/MobilenetV3/expanded_conv_14/expand/hard_swish/mul", "module_apply_default/module_apply_default/MobilenetV3/expanded_conv_14/expand/hard_swish/Relu6"], "attr": {"_grappler_ArithmeticOptimizer_MinimizeBroadcasts": {"b": true}, "T": {"type": "DT_FLOAT"}}}, {"name": "module_apply_default/module_apply_default/MobilenetV3/expanded_conv_14/depthwise/depthwise", "op": "FusedDepthwiseConv2dNative", "input": ["module_apply_default/module_apply_default/MobilenetV3/expanded_conv_14/expand/hard_swish/mul_1", "module_apply_default/module_apply_default/MobilenetV3/expanded_conv_14/depthwise/depthwise_weights", "module_apply_default/module_apply_default/MobilenetV3/expanded_conv_14/depthwise/depthwise_bn_offset"], "attr": {"num_args": {"i": "1"}, "T": {"type": "DT_FLOAT"}, "padding": {"s": "U0FNRQ=="}, "fused_ops": {"list": {"s": ["Qmlhc0FkZA=="]}}, "dilations": {"list": {"i": ["1", "1", "1", "1"]}}, "data_format": {"s": "TkhXQw=="}, "strides": {"list": {"i": ["1", "1", "1", "1"]}}, "explicit_paddings": {"list": {}}}}, {"name": "module_apply_default/module_apply_default/MobilenetV3/expanded_conv_14/depthwise/hard_swish/mul", "op": "Mul", "input": ["module_apply_default/module_apply_default/MobilenetV3/expanded_conv_14/depthwise/hard_swish/mul_1/y", "module_apply_default/module_apply_default/MobilenetV3/expanded_conv_14/depthwise/depthwise"], "attr": {"_grappler_ArithmeticOptimizer_MinimizeBroadcasts": {"b": true}, "T": {"type": "DT_FLOAT"}}}, {"name": "module_apply_default/module_apply_default/MobilenetV3/expanded_conv_14/depthwise/hard_swish/add", "op": "AddV2", "input": ["module_apply_default/module_apply_default/MobilenetV3/expanded_conv_14/depthwise/depthwise", "module_apply_default/module_apply_default/MobilenetV3/expanded_conv_14/depthwise/hard_swish/add/y"], "attr": {"T": {"type": "DT_FLOAT"}}}, {"name": "module_apply_default/module_apply_default/MobilenetV3/expanded_conv_14/depthwise/hard_swish/Relu6", "op": "Relu6", "input": ["module_apply_default/module_apply_default/MobilenetV3/expanded_conv_14/depthwise/hard_swish/add"], "attr": {"T": {"type": "DT_FLOAT"}}}, {"name": "module_apply_default/module_apply_default/MobilenetV3/expanded_conv_14/depthwise/hard_swish/mul_1", "op": "Mul", "input": ["module_apply_default/module_apply_default/MobilenetV3/expanded_conv_14/depthwise/hard_swish/mul", "module_apply_default/module_apply_default/MobilenetV3/expanded_conv_14/depthwise/hard_swish/Relu6"], "attr": {"_grappler_ArithmeticOptimizer_MinimizeBroadcasts": {"b": true}, "T": {"type": "DT_FLOAT"}}}, {"name": "module_apply_default/module_apply_default/MobilenetV3/expanded_conv_14/squeeze_excite/Mean", "op": "Mean", "input": ["module_apply_default/module_apply_default/MobilenetV3/expanded_conv_14/depthwise/hard_swish/mul_1", "module_apply_default/module_apply_default/MobilenetV3/expanded_conv_14/squeeze_excite/Mean/reduction_indices"], "attr": {"Tidx": {"type": "DT_INT32"}, "T": {"type": "DT_FLOAT"}, "keep_dims": {"b": true}}}, {"name": "module_apply_default/module_apply_default/MobilenetV3/expanded_conv_14/squeeze_excite/Conv/Relu", "op": "_FusedConv2D", "input": ["module_apply_default/module_apply_default/MobilenetV3/expanded_conv_14/squeeze_excite/Mean", "module_apply_default/module_apply_default/MobilenetV3/expanded_conv_14/squeeze_excite/Conv/weights", "module_apply_default/module_apply_default/MobilenetV3/expanded_conv_14/squeeze_excite/Conv/biases"], "device": "/device:CPU:0", "attr": {"fused_ops": {"list": {"s": ["Qmlhc0FkZA==", "UmVsdQ=="]}}, "num_args": {"i": "1"}, "dilations": {"list": {"i": ["1", "1", "1", "1"]}}, "epsilon": {"f": 0.0}, "T": {"type": "DT_FLOAT"}, "explicit_paddings": {"list": {}}, "data_format": {"s": "TkhXQw=="}, "padding": {"s": "U0FNRQ=="}, "use_cudnn_on_gpu": {"b": true}, "strides": {"list": {"i": ["1", "1", "1", "1"]}}}}, {"name": "module_apply_default/module_apply_default/MobilenetV3/expanded_conv_14/squeeze_excite/Conv_1/BiasAdd", "op": "_FusedConv2D", "input": ["module_apply_default/module_apply_default/MobilenetV3/expanded_conv_14/squeeze_excite/Conv/Relu", "module_apply_default/module_apply_default/MobilenetV3/expanded_conv_14/squeeze_excite/Conv_1/weights", "module_apply_default/module_apply_default/MobilenetV3/expanded_conv_14/squeeze_excite/Conv_1/biases"], "device": "/device:CPU:0", "attr": {"data_format": {"s": "TkhXQw=="}, "T": {"type": "DT_FLOAT"}, "strides": {"list": {"i": ["1", "1", "1", "1"]}}, "use_cudnn_on_gpu": {"b": true}, "fused_ops": {"list": {"s": ["Qmlhc0FkZA=="]}}, "explicit_paddings": {"list": {}}, "dilations": {"list": {"i": ["1", "1", "1", "1"]}}, "epsilon": {"f": 0.0}, "padding": {"s": "U0FNRQ=="}, "num_args": {"i": "1"}}}, {"name": "module_apply_default/module_apply_default/MobilenetV3/expanded_conv_14/squeeze_excite/Conv_1/add", "op": "AddV2", "input": ["module_apply_default/module_apply_default/MobilenetV3/expanded_conv_14/squeeze_excite/Conv_1/BiasAdd", "module_apply_default/module_apply_default/MobilenetV3/expanded_conv_14/squeeze_excite/Conv_1/add/y"], "attr": {"T": {"type": "DT_FLOAT"}}}, {"name": "module_apply_default/module_apply_default/MobilenetV3/expanded_conv_14/squeeze_excite/Conv_1/Relu6", "op": "Relu6", "input": ["module_apply_default/module_apply_default/MobilenetV3/expanded_conv_14/squeeze_excite/Conv_1/add"], "attr": {"T": {"type": "DT_FLOAT"}}}, {"name": "module_apply_default/module_apply_default/MobilenetV3/expanded_conv_14/squeeze_excite/Conv_1/mul", "op": "Mul", "input": ["module_apply_default/module_apply_default/MobilenetV3/expanded_conv_14/squeeze_excite/Conv_1/mul/y", "module_apply_default/module_apply_default/MobilenetV3/expanded_conv_14/squeeze_excite/Conv_1/Relu6"], "attr": {"_grappler_ArithmeticOptimizer_MinimizeBroadcasts": {"b": true}, "T": {"type": "DT_FLOAT"}}}, {"name": "module_apply_default/module_apply_default/MobilenetV3/expanded_conv_14/squeeze_excite/mul", "op": "Mul", "input": ["module_apply_default/module_apply_default/MobilenetV3/expanded_conv_14/squeeze_excite/Conv_1/mul", "module_apply_default/module_apply_default/MobilenetV3/expanded_conv_14/depthwise/hard_swish/mul_1"], "attr": {"T": {"type": "DT_FLOAT"}, "_grappler_ArithmeticOptimizer_MinimizeBroadcasts": {"b": true}}}, {"name": "module_apply_default/module_apply_default/MobilenetV3/expanded_conv_14/project/BatchNorm/FusedBatchNormV3", "op": "_FusedConv2D", "input": ["module_apply_default/module_apply_default/MobilenetV3/expanded_conv_14/squeeze_excite/mul", "module_apply_default/module_apply_default/MobilenetV3/expanded_conv_14/project/Conv2D_weights", "module_apply_default/module_apply_default/MobilenetV3/expanded_conv_14/project/Conv2D_bn_offset"], "device": "/device:CPU:0", "attr": {"data_format": {"s": "TkhXQw=="}, "T": {"type": "DT_FLOAT"}, "num_args": {"i": "1"}, "fused_ops": {"list": {"s": ["Qmlhc0FkZA=="]}}, "strides": {"list": {"i": ["1", "1", "1", "1"]}}, "use_cudnn_on_gpu": {"b": true}, "explicit_paddings": {"list": {}}, "epsilon": {"f": 0.0}, "dilations": {"list": {"i": ["1", "1", "1", "1"]}}, "padding": {"s": "U0FNRQ=="}}}, {"name": "module_apply_default/module_apply_default/MobilenetV3/expanded_conv_14/add", "op": "AddV2", "input": ["module_apply_default/module_apply_default/MobilenetV3/expanded_conv_14/project/BatchNorm/FusedBatchNormV3", "module_apply_default/module_apply_default/MobilenetV3/expanded_conv_13/add"], "attr": {"T": {"type": "DT_FLOAT"}}}, {"name": "module_apply_default/module_apply_default/MobilenetV3/Conv_1/BatchNorm/FusedBatchNormV3", "op": "_FusedConv2D", "input": ["module_apply_default/module_apply_default/MobilenetV3/expanded_conv_14/add", "module_apply_default/module_apply_default/MobilenetV3/Conv_1/Conv2D_weights", "module_apply_default/module_apply_default/MobilenetV3/Conv_1/Conv2D_bn_offset"], "device": "/device:CPU:0", "attr": {"num_args": {"i": "1"}, "data_format": {"s": "TkhXQw=="}, "strides": {"list": {"i": ["1", "1", "1", "1"]}}, "dilations": {"list": {"i": ["1", "1", "1", "1"]}}, "padding": {"s": "U0FNRQ=="}, "use_cudnn_on_gpu": {"b": true}, "T": {"type": "DT_FLOAT"}, "fused_ops": {"list": {"s": ["Qmlhc0FkZA=="]}}, "epsilon": {"f": 0.0}, "explicit_paddings": {"list": {}}}}, {"name": "module_apply_default/module_apply_default/MobilenetV3/Conv_1/hard_swish/mul", "op": "Mul", "input": ["module_apply_default/module_apply_default/MobilenetV3/Conv_1/hard_swish/mul_1/y", "module_apply_default/module_apply_default/MobilenetV3/Conv_1/BatchNorm/FusedBatchNormV3"], "attr": {"T": {"type": "DT_FLOAT"}, "_grappler_ArithmeticOptimizer_MinimizeBroadcasts": {"b": true}}}, {"name": "module_apply_default/module_apply_default/MobilenetV3/Conv_1/hard_swish/add", "op": "AddV2", "input": ["module_apply_default/module_apply_default/MobilenetV3/Conv_1/BatchNorm/FusedBatchNormV3", "module_apply_default/module_apply_default/MobilenetV3/Conv_1/hard_swish/add/y"], "attr": {"T": {"type": "DT_FLOAT"}}}, {"name": "module_apply_default/module_apply_default/MobilenetV3/Conv_1/hard_swish/Relu6", "op": "Relu6", "input": ["module_apply_default/module_apply_default/MobilenetV3/Conv_1/hard_swish/add"], "attr": {"T": {"type": "DT_FLOAT"}}}, {"name": "module_apply_default/module_apply_default/MobilenetV3/Conv_1/hard_swish/mul_1", "op": "Mul", "input": ["module_apply_default/module_apply_default/MobilenetV3/Conv_1/hard_swish/mul", "module_apply_default/module_apply_default/MobilenetV3/Conv_1/hard_swish/Relu6"], "attr": {"_grappler_ArithmeticOptimizer_MinimizeBroadcasts": {"b": true}, "T": {"type": "DT_FLOAT"}}}, {"name": "module_apply_default/module_apply_default/MobilenetV3/AvgPool2D/AvgPool", "op": "AvgPool", "input": ["module_apply_default/module_apply_default/MobilenetV3/Conv_1/hard_swish/mul_1"], "attr": {"data_format": {"s": "TkhXQw=="}, "padding": {"s": "VkFMSUQ="}, "T": {"type": "DT_FLOAT"}, "strides": {"list": {"i": ["1", "1", "1", "1"]}}, "ksize": {"list": {"i": ["1", "11", "11", "1"]}}}}, {"name": "module_apply_default/module_apply_default/MobilenetV3/Conv_2/BiasAdd", "op": "_FusedConv2D", "input": ["module_apply_default/module_apply_default/MobilenetV3/AvgPool2D/AvgPool", "module_apply_default/module_apply_default/MobilenetV3/Conv_2/weights", "module_apply_default/module_apply_default/MobilenetV3/Conv_2/biases"], "device": "/device:CPU:0", "attr": {"fused_ops": {"list": {"s": ["Qmlhc0FkZA=="]}}, "num_args": {"i": "1"}, "epsilon": {"f": 0.0}, "explicit_paddings": {"list": {}}, "dilations": {"list": {"i": ["1", "1", "1", "1"]}}, "T": {"type": "DT_FLOAT"}, "padding": {"s": "U0FNRQ=="}, "use_cudnn_on_gpu": {"b": true}, "strides": {"list": {"i": ["1", "1", "1", "1"]}}, "data_format": {"s": "TkhXQw=="}}}, {"name": "module_apply_default/module_apply_default/MobilenetV3/Conv_2/hard_swish/mul", "op": "Mul", "input": ["module_apply_default/module_apply_default/MobilenetV3/Conv_2/hard_swish/mul_1/y", "module_apply_default/module_apply_default/MobilenetV3/Conv_2/BiasAdd"], "attr": {"_grappler_ArithmeticOptimizer_MinimizeBroadcasts": {"b": true}, "T": {"type": "DT_FLOAT"}}}, {"name": "module_apply_default/module_apply_default/MobilenetV3/Conv_2/hard_swish/add", "op": "AddV2", "input": ["module_apply_default/module_apply_default/MobilenetV3/Conv_2/BiasAdd", "module_apply_default/module_apply_default/MobilenetV3/Conv_2/hard_swish/add/y"], "attr": {"T": {"type": "DT_FLOAT"}}}, {"name": "module_apply_default/module_apply_default/MobilenetV3/Conv_2/hard_swish/Relu6", "op": "Relu6", "input": ["module_apply_default/module_apply_default/MobilenetV3/Conv_2/hard_swish/add"], "attr": {"T": {"type": "DT_FLOAT"}}}, {"name": "module_apply_default/module_apply_default/MobilenetV3/Conv_2/hard_swish/mul_1", "op": "Mul", "input": ["module_apply_default/module_apply_default/MobilenetV3/Conv_2/hard_swish/mul", "module_apply_default/module_apply_default/MobilenetV3/Conv_2/hard_swish/Relu6"], "attr": {"T": {"type": "DT_FLOAT"}, "_grappler_ArithmeticOptimizer_MinimizeBroadcasts": {"b": true}}}, {"name": "module_apply_default/module_apply_default/gem/Maximum", "op": "Maximum", "input": ["module_apply_default/module_apply_default/MobilenetV3/Conv_2/hard_swish/mul_1", "module_apply_default/module_apply_default/gem/Maximum/y"], "attr": {"T": {"type": "DT_FLOAT"}}}, {"name": "module_apply_default/module_apply_default/gem/Pow", "op": "Pow", "input": ["module_apply_default/module_apply_default/gem/Maximum", "module_apply_default/module_apply_default/gem/gem_power"], "attr": {"T": {"type": "DT_FLOAT"}}}, {"name": "module_apply_default/module_apply_default/gem/Mean", "op": "Mean", "input": ["module_apply_default/module_apply_default/gem/Pow", "module_apply_default/module_apply_default/gem/Mean/reduction_indices"], "attr": {"Tidx": {"type": "DT_INT32"}, "keep_dims": {"b": true}, "T": {"type": "DT_FLOAT"}}}, {"name": "module_apply_default/module_apply_default/gem/Pow_1", "op": "Pow", "input": ["module_apply_default/module_apply_default/gem/Mean", "module_apply_default/module_apply_default/gem/truediv"], "attr": {"T": {"type": "DT_FLOAT"}}}, {"name": "module_apply_default/module_apply_default/embed/Tensordot/Shape", "op": "Shape", "input": ["module_apply_default/module_apply_default/gem/Pow_1"], "attr": {"out_type": {"type": "DT_INT32"}, "T": {"type": "DT_FLOAT"}}}, {"name": "module_apply_default/module_apply_default/embed/Tensordot/GatherV2_1", "op": "GatherV2", "input": ["module_apply_default/module_apply_default/embed/Tensordot/Shape", "module_apply_default/module_apply_default/embed/Tensordot/axes", "module_apply_default/module_apply_default/embed/Tensordot/GatherV2_1/axis"], "attr": {"Tparams": {"type": "DT_INT32"}, "Tindices": {"type": "DT_INT32"}, "Taxis": {"type": "DT_INT32"}, "batch_dims": {"i": "0"}}}, {"name": "module_apply_default/module_apply_default/embed/Tensordot/GatherV2", "op": "GatherV2", "input": ["module_apply_default/module_apply_default/embed/Tensordot/Shape", "module_apply_default/module_apply_default/embed/Tensordot/free", "module_apply_default/module_apply_default/embed/Tensordot/GatherV2/axis"], "attr": {"Taxis": {"type": "DT_INT32"}, "batch_dims": {"i": "0"}, "Tparams": {"type": "DT_INT32"}, "Tindices": {"type": "DT_INT32"}}}, {"name": "module_apply_default/module_apply_default/embed/Tensordot/Prod_1", "op": "Prod", "input": ["module_apply_default/module_apply_default/embed/Tensordot/GatherV2_1", "module_apply_default/module_apply_default/embed/Tensordot/Const_1"], "attr": {"Tidx": {"type": "DT_INT32"}, "keep_dims": {"b": false}, "T": {"type": "DT_INT32"}}}, {"name": "module_apply_default/module_apply_default/embed/Tensordot/Prod", "op": "Prod", "input": ["module_apply_default/module_apply_default/embed/Tensordot/GatherV2", "module_apply_default/module_apply_default/embed/Tensordot/Const"], "attr": {"Tidx": {"type": "DT_INT32"}, "T": {"type": "DT_INT32"}, "keep_dims": {"b": false}}}, {"name": "module_apply_default/module_apply_default/embed/Tensordot/concat_1", "op": "ConcatV2", "input": ["module_apply_default/module_apply_default/embed/Tensordot/GatherV2", "module_apply_default/module_apply_default/embed/Tensordot/Const_2", "module_apply_default/module_apply_default/embed/Tensordot/concat_1/axis"], "attr": {"T": {"type": "DT_INT32"}, "Tidx": {"type": "DT_INT32"}, "N": {"i": "2"}}}, {"name": "module_apply_default/module_apply_default/embed/Tensordot/stack", "op": "Pack", "input": ["module_apply_default/module_apply_default/embed/Tensordot/Prod", "module_apply_default/module_apply_default/embed/Tensordot/Prod_1"], "attr": {"axis": {"i": "0"}, "N": {"i": "2"}, "T": {"type": "DT_INT32"}}}, {"name": "module_apply_default/module_apply_default/embed/Tensordot/Reshape", "op": "Reshape", "input": ["module_apply_default/module_apply_default/gem/Pow_1", "module_apply_default/module_apply_default/embed/Tensordot/stack"], "attr": {"T": {"type": "DT_FLOAT"}, "Tshape": {"type": "DT_INT32"}}}, {"name": "module_apply_default/module_apply_default/embed/Tensordot/MatMul", "op": "MatMul", "input": ["module_apply_default/module_apply_default/embed/Tensordot/Reshape", "module_apply_default/module_apply_default/embed/weights"], "device": "/device:CPU:0", "attr": {"T": {"type": "DT_FLOAT"}, "transpose_b": {"b": false}, "transpose_a": {"b": false}}}, {"name": "module_apply_default/module_apply_default/embed/Tensordot", "op": "Reshape", "input": ["module_apply_default/module_apply_default/embed/Tensordot/MatMul", "module_apply_default/module_apply_default/embed/Tensordot/concat_1"], "attr": {"T": {"type": "DT_FLOAT"}, "Tshape": {"type": "DT_INT32"}}}, {"name": "module_apply_default/module_apply_default/embed/BatchNorm/FusedBatchNormV3/Mul", "op": "Mul", "input": ["module_apply_default/module_apply_default/embed/Tensordot", "module_apply_default/module_apply_default/embed/BatchNorm/FusedBatchNormV3/Scaled"], "attr": {"T": {"type": "DT_FLOAT"}}}, {"name": "module_apply_default/module_apply_default/embed/BatchNorm/FusedBatchNormV3", "op": "Add", "input": ["module_apply_default/module_apply_default/embed/BatchNorm/FusedBatchNormV3/Mul", "module_apply_default/module_apply_default/embed/BatchNorm/FusedBatchNormV3/Offset"], "attr": {"T": {"type": "DT_FLOAT"}}}, {"name": "module_apply_default/module_apply_default/spatial_squeeze", "op": "Squeeze", "input": ["module_apply_default/module_apply_default/embed/BatchNorm/FusedBatchNormV3"], "attr": {"squeeze_dims": {"list": {"i": ["1", "2"]}}, "T": {"type": "DT_FLOAT"}}}, {"name": "module_apply_default/module_apply_default/prelogits_norm/Square", "op": "Square", "input": ["module_apply_default/module_apply_default/spatial_squeeze"], "attr": {"T": {"type": "DT_FLOAT"}}}, {"name": "module_apply_default/module_apply_default/prelogits_norm/Sum", "op": "Sum", "input": ["module_apply_default/module_apply_default/prelogits_norm/Square", "module_apply_default/module_apply_default/prelogits_norm/Sum/reduction_indices"], "attr": {"T": {"type": "DT_FLOAT"}, "keep_dims": {"b": true}, "Tidx": {"type": "DT_INT32"}}}, {"name": "module_apply_default/module_apply_default/prelogits_norm/Maximum", "op": "Maximum", "input": ["module_apply_default/module_apply_default/prelogits_norm/Sum", "module_apply_default/module_apply_default/prelogits_norm/Maximum/y"], "attr": {"T": {"type": "DT_FLOAT"}}}, {"name": "module_apply_default/module_apply_default/prelogits_norm/Rsqrt", "op": "Rsqrt", "input": ["module_apply_default/module_apply_default/prelogits_norm/Maximum"], "attr": {"T": {"type": "DT_FLOAT"}}}, {"name": "module_apply_default/module_apply_default/prelogits_norm", "op": "Mul", "input": ["module_apply_default/module_apply_default/spatial_squeeze", "module_apply_default/module_apply_default/prelogits_norm/Rsqrt"], "attr": {"T": {"type": "DT_FLOAT"}}}, {"name": "module_apply_default/ArithmeticOptimizer/FoldTransposeIntoMatMul_MatMul", "op": "MatMul", "input": ["module_apply_default/Const", "module_apply_default/module_apply_default/prelogits_norm"], "device": "/device:CPU:0", "attr": {"T": {"type": "DT_FLOAT"}, "transpose_b": {"b": true}, "transpose_a": {"b": false}}}, {"name": "module_apply_default/transpose_1", "op": "Transpose", "input": ["module_apply_default/ArithmeticOptimizer/FoldTransposeIntoMatMul_MatMul", "module_apply_default/transpose_1/perm"], "attr": {"Tperm": {"type": "DT_INT32"}, "T": {"type": "DT_FLOAT"}}}], "library": {}, "versions": {}}, "weightsManifest": [{"paths": ["group1-shard1of6.bin", "group1-shard2of6.bin", "group1-shard3of6.bin", "group1-shard4of6.bin", "group1-shard5of6.bin", "group1-shard6of6.bin"], "weights": [{"name": "module_apply_default/Const", "shape": [19293, 64], "dtype": "float32"}, {"name": "module_apply_default/module_apply_default/embed/Tensordot/Const", "shape": [1], "dtype": "int32"}, {"name": "module_apply_default/module_apply_default/embed/Tensordot/axes", "shape": [1], "dtype": "int32"}, {"name": "module_apply_default/module_apply_default/embed/Tensordot/GatherV2_1/axis", "shape": [], "dtype": "int32"}, {"name": "module_apply_default/module_apply_default/embed/Tensordot/Const_1", "shape": [1], "dtype": "int32"}, {"name": "module_apply_default/module_apply_default/embed/weights", "shape": [1280, 64], "dtype": "float32"}, {"name": "module_apply_default/module_apply_default/MobilenetV3/Conv_2/hard_swish/mul_1/y", "shape": [], "dtype": "float32"}, {"name": "module_apply_default/module_apply_default/MobilenetV3/Conv_1/hard_swish/mul_1/y", "shape": [], "dtype": "float32"}, {"name": "module_apply_default/module_apply_default/MobilenetV3/expanded_conv_14/squeeze_excite/Conv_1/mul/y", "shape": [], "dtype": "float32"}, {"name": "module_apply_default/module_apply_default/MobilenetV3/expanded_conv_14/squeeze_excite/Mean/reduction_indices", "shape": [2], "dtype": "int32"}, {"name": "module_apply_default/module_apply_default/MobilenetV3/expanded_conv_14/squeeze_excite/Conv/weights", "shape": [1, 1, 960, 240], "dtype": "float32"}, {"name": "module_apply_default/module_apply_default/MobilenetV3/expanded_conv_14/squeeze_excite/Conv/biases", "shape": [240], "dtype": "float32"}, {"name": "module_apply_default/module_apply_default/MobilenetV3/expanded_conv_14/squeeze_excite/Conv_1/weights", "shape": [1, 1, 240, 960], "dtype": "float32"}, {"name": "module_apply_default/module_apply_default/MobilenetV3/expanded_conv_14/squeeze_excite/Conv_1/biases", "shape": [960], "dtype": "float32"}, {"name": "module_apply_default/module_apply_default/MobilenetV3/expanded_conv_14/squeeze_excite/Conv_1/add/y", "shape": [], "dtype": "float32"}, {"name": "module_apply_default/module_apply_default/MobilenetV3/expanded_conv_14/depthwise/hard_swish/mul_1/y", "shape": [], "dtype": "float32"}, {"name": "module_apply_default/module_apply_default/MobilenetV3/expanded_conv_14/expand/hard_swish/mul_1/y", "shape": [], "dtype": "float32"}, {"name": "module_apply_default/module_apply_default/MobilenetV3/expanded_conv_14/expand/hard_swish/add/y", "shape": [], "dtype": "float32"}, {"name": "module_apply_default/module_apply_default/MobilenetV3/expanded_conv_14/depthwise/hard_swish/add/y", "shape": [], "dtype": "float32"}, {"name": "module_apply_default/module_apply_default/MobilenetV3/expanded_conv_13/squeeze_excite/Conv_1/mul/y", "shape": [], "dtype": "float32"}, {"name": "module_apply_default/module_apply_default/MobilenetV3/expanded_conv_13/squeeze_excite/Mean/reduction_indices", "shape": [2], "dtype": "int32"}, {"name": "module_apply_default/module_apply_default/MobilenetV3/expanded_conv_13/squeeze_excite/Conv/weights", "shape": [1, 1, 960, 240], "dtype": "float32"}, {"name": "module_apply_default/module_apply_default/MobilenetV3/expanded_conv_13/squeeze_excite/Conv/biases", "shape": [240], "dtype": "float32"}, {"name": "module_apply_default/module_apply_default/MobilenetV3/expanded_conv_13/squeeze_excite/Conv_1/weights", "shape": [1, 1, 240, 960], "dtype": "float32"}, {"name": "module_apply_default/module_apply_default/MobilenetV3/expanded_conv_13/squeeze_excite/Conv_1/biases", "shape": [960], "dtype": "float32"}, {"name": "module_apply_default/module_apply_default/MobilenetV3/expanded_conv_13/squeeze_excite/Conv_1/add/y", "shape": [], "dtype": "float32"}, {"name": "module_apply_default/module_apply_default/MobilenetV3/expanded_conv_13/depthwise/hard_swish/mul_1/y", "shape": [], "dtype": "float32"}, {"name": "module_apply_default/module_apply_default/MobilenetV3/expanded_conv_13/expand/hard_swish/mul_1/y", "shape": [], "dtype": "float32"}, {"name": "module_apply_default/module_apply_default/MobilenetV3/expanded_conv_13/expand/hard_swish/add/y", "shape": [], "dtype": "float32"}, {"name": "module_apply_default/module_apply_default/MobilenetV3/expanded_conv_13/depthwise/hard_swish/add/y", "shape": [], "dtype": "float32"}, {"name": "module_apply_default/module_apply_default/MobilenetV3/expanded_conv_12/squeeze_excite/Conv_1/mul/y", "shape": [], "dtype": "float32"}, {"name": "module_apply_default/module_apply_default/MobilenetV3/expanded_conv_12/squeeze_excite/Mean/reduction_indices", "shape": [2], "dtype": "int32"}, {"name": "module_apply_default/module_apply_default/MobilenetV3/expanded_conv_12/squeeze_excite/Conv/weights", "shape": [1, 1, 672, 168], "dtype": "float32"}, {"name": "module_apply_default/module_apply_default/MobilenetV3/expanded_conv_12/squeeze_excite/Conv/biases", "shape": [168], "dtype": "float32"}, {"name": "module_apply_default/module_apply_default/MobilenetV3/expanded_conv_12/squeeze_excite/Conv_1/weights", "shape": [1, 1, 168, 672], "dtype": "float32"}, {"name": "module_apply_default/module_apply_default/MobilenetV3/expanded_conv_12/squeeze_excite/Conv_1/biases", "shape": [672], "dtype": "float32"}, {"name": "module_apply_default/module_apply_default/MobilenetV3/expanded_conv_12/squeeze_excite/Conv_1/add/y", "shape": [], "dtype": "float32"}, {"name": "module_apply_default/module_apply_default/MobilenetV3/expanded_conv_12/depthwise/hard_swish/mul_1/y", "shape": [], "dtype": "float32"}, {"name": "module_apply_default/module_apply_default/MobilenetV3/expanded_conv_12/expand/hard_swish/mul_1/y", "shape": [], "dtype": "float32"}, {"name": "module_apply_default/module_apply_default/MobilenetV3/expanded_conv_11/squeeze_excite/Conv_1/mul/y", "shape": [], "dtype": "float32"}, {"name": "module_apply_default/module_apply_default/MobilenetV3/expanded_conv_11/squeeze_excite/Mean/reduction_indices", "shape": [2], "dtype": "int32"}, {"name": "module_apply_default/module_apply_default/MobilenetV3/expanded_conv_11/squeeze_excite/Conv/weights", "shape": [1, 1, 672, 168], "dtype": "float32"}, {"name": "module_apply_default/module_apply_default/MobilenetV3/expanded_conv_11/squeeze_excite/Conv/biases", "shape": [168], "dtype": "float32"}, {"name": "module_apply_default/module_apply_default/MobilenetV3/expanded_conv_11/squeeze_excite/Conv_1/weights", "shape": [1, 1, 168, 672], "dtype": "float32"}, {"name": "module_apply_default/module_apply_default/MobilenetV3/expanded_conv_11/squeeze_excite/Conv_1/biases", "shape": [672], "dtype": "float32"}, {"name": "module_apply_default/module_apply_default/MobilenetV3/expanded_conv_11/squeeze_excite/Conv_1/add/y", "shape": [], "dtype": "float32"}, {"name": "module_apply_default/module_apply_default/MobilenetV3/expanded_conv_11/depthwise/hard_swish/mul_1/y", "shape": [], "dtype": "float32"}, {"name": "module_apply_default/module_apply_default/MobilenetV3/expanded_conv_11/expand/hard_swish/mul_1/y", "shape": [], "dtype": "float32"}, {"name": "module_apply_default/module_apply_default/MobilenetV3/expanded_conv_11/expand/hard_swish/add/y", "shape": [], "dtype": "float32"}, {"name": "module_apply_default/module_apply_default/MobilenetV3/expanded_conv_11/depthwise/hard_swish/add/y", "shape": [], "dtype": "float32"}, {"name": "module_apply_default/module_apply_default/MobilenetV3/expanded_conv_10/squeeze_excite/Conv_1/mul/y", "shape": [], "dtype": "float32"}, {"name": "module_apply_default/module_apply_default/MobilenetV3/expanded_conv_10/squeeze_excite/Mean/reduction_indices", "shape": [2], "dtype": "int32"}, {"name": "module_apply_default/module_apply_default/MobilenetV3/expanded_conv_10/squeeze_excite/Conv/weights", "shape": [1, 1, 480, 120], "dtype": "float32"}, {"name": "module_apply_default/module_apply_default/MobilenetV3/expanded_conv_10/squeeze_excite/Conv/biases", "shape": [120], "dtype": "float32"}, {"name": "module_apply_default/module_apply_default/MobilenetV3/expanded_conv_10/squeeze_excite/Conv_1/weights", "shape": [1, 1, 120, 480], "dtype": "float32"}, {"name": "module_apply_default/module_apply_default/MobilenetV3/expanded_conv_10/squeeze_excite/Conv_1/biases", "shape": [480], "dtype": "float32"}, {"name": "module_apply_default/module_apply_default/MobilenetV3/expanded_conv_10/squeeze_excite/Conv_1/add/y", "shape": [], "dtype": "float32"}, {"name": "module_apply_default/module_apply_default/MobilenetV3/expanded_conv_10/depthwise/hard_swish/mul_1/y", "shape": [], "dtype": "float32"}, {"name": "module_apply_default/module_apply_default/MobilenetV3/expanded_conv_10/expand/hard_swish/mul_1/y", "shape": [], "dtype": "float32"}, {"name": "module_apply_default/module_apply_default/MobilenetV3/expanded_conv_9/depthwise/hard_swish/mul_1/y", "shape": [], "dtype": "float32"}, {"name": "module_apply_default/module_apply_default/MobilenetV3/expanded_conv_9/expand/hard_swish/mul_1/y", "shape": [], "dtype": "float32"}, {"name": "module_apply_default/module_apply_default/MobilenetV3/expanded_conv_9/expand/hard_swish/add/y", "shape": [], "dtype": "float32"}, {"name": "module_apply_default/module_apply_default/MobilenetV3/expanded_conv_9/depthwise/hard_swish/add/y", "shape": [], "dtype": "float32"}, {"name": "module_apply_default/module_apply_default/MobilenetV3/expanded_conv_8/depthwise/hard_swish/mul_1/y", "shape": [], "dtype": "float32"}, {"name": "module_apply_default/module_apply_default/MobilenetV3/expanded_conv_8/expand/hard_swish/mul_1/y", "shape": [], "dtype": "float32"}, {"name": "module_apply_default/module_apply_default/MobilenetV3/expanded_conv_8/expand/hard_swish/add/y", "shape": [], "dtype": "float32"}, {"name": "module_apply_default/module_apply_default/MobilenetV3/expanded_conv_8/depthwise/hard_swish/add/y", "shape": [], "dtype": "float32"}, {"name": "module_apply_default/module_apply_default/MobilenetV3/expanded_conv_7/depthwise/hard_swish/mul_1/y", "shape": [], "dtype": "float32"}, {"name": "module_apply_default/module_apply_default/MobilenetV3/expanded_conv_7/expand/hard_swish/mul_1/y", "shape": [], "dtype": "float32"}, {"name": "module_apply_default/module_apply_default/MobilenetV3/expanded_conv_7/expand/hard_swish/add/y", "shape": [], "dtype": "float32"}, {"name": "module_apply_default/module_apply_default/MobilenetV3/expanded_conv_7/depthwise/hard_swish/add/y", "shape": [], "dtype": "float32"}, {"name": "module_apply_default/module_apply_default/MobilenetV3/expanded_conv_6/depthwise/hard_swish/mul_1/y", "shape": [], "dtype": "float32"}, {"name": "module_apply_default/module_apply_default/MobilenetV3/expanded_conv_6/expand/hard_swish/mul_1/y", "shape": [], "dtype": "float32"}, {"name": "module_apply_default/module_apply_default/MobilenetV3/expanded_conv_5/squeeze_excite/Conv_1/mul/y", "shape": [], "dtype": "float32"}, {"name": "module_apply_default/module_apply_default/MobilenetV3/expanded_conv_5/squeeze_excite/Mean/reduction_indices", "shape": [2], "dtype": "int32"}, {"name": "module_apply_default/module_apply_default/MobilenetV3/expanded_conv_5/squeeze_excite/Conv/weights", "shape": [1, 1, 120, 32], "dtype": "float32"}, {"name": "module_apply_default/module_apply_default/MobilenetV3/expanded_conv_5/squeeze_excite/Conv/biases", "shape": [32], "dtype": "float32"}, {"name": "module_apply_default/module_apply_default/MobilenetV3/expanded_conv_5/squeeze_excite/Conv_1/weights", "shape": [1, 1, 32, 120], "dtype": "float32"}, {"name": "module_apply_default/module_apply_default/MobilenetV3/expanded_conv_5/squeeze_excite/Conv_1/biases", "shape": [120], "dtype": "float32"}, {"name": "module_apply_default/module_apply_default/MobilenetV3/expanded_conv_5/squeeze_excite/Conv_1/add/y", "shape": [], "dtype": "float32"}, {"name": "module_apply_default/module_apply_default/MobilenetV3/expanded_conv_4/squeeze_excite/Conv_1/mul/y", "shape": [], "dtype": "float32"}, {"name": "module_apply_default/module_apply_default/MobilenetV3/expanded_conv_4/squeeze_excite/Mean/reduction_indices", "shape": [2], "dtype": "int32"}, {"name": "module_apply_default/module_apply_default/MobilenetV3/expanded_conv_4/squeeze_excite/Conv/weights", "shape": [1, 1, 120, 32], "dtype": "float32"}, {"name": "module_apply_default/module_apply_default/MobilenetV3/expanded_conv_4/squeeze_excite/Conv/biases", "shape": [32], "dtype": "float32"}, {"name": "module_apply_default/module_apply_default/MobilenetV3/expanded_conv_4/squeeze_excite/Conv_1/weights", "shape": [1, 1, 32, 120], "dtype": "float32"}, {"name": "module_apply_default/module_apply_default/MobilenetV3/expanded_conv_4/squeeze_excite/Conv_1/biases", "shape": [120], "dtype": "float32"}, {"name": "module_apply_default/module_apply_default/MobilenetV3/expanded_conv_4/squeeze_excite/Conv_1/add/y", "shape": [], "dtype": "float32"}, {"name": "module_apply_default/module_apply_default/MobilenetV3/expanded_conv_3/squeeze_excite/Conv_1/mul/y", "shape": [], "dtype": "float32"}, {"name": "module_apply_default/module_apply_default/MobilenetV3/expanded_conv_3/squeeze_excite/Mean/reduction_indices", "shape": [2], "dtype": "int32"}, {"name": "module_apply_default/module_apply_default/MobilenetV3/expanded_conv_3/squeeze_excite/Conv/weights", "shape": [1, 1, 72, 24], "dtype": "float32"}, {"name": "module_apply_default/module_apply_default/MobilenetV3/expanded_conv_3/squeeze_excite/Conv/biases", "shape": [24], "dtype": "float32"}, {"name": "module_apply_default/module_apply_default/MobilenetV3/expanded_conv_3/squeeze_excite/Conv_1/weights", "shape": [1, 1, 24, 72], "dtype": "float32"}, {"name": "module_apply_default/module_apply_default/MobilenetV3/expanded_conv_3/squeeze_excite/Conv_1/biases", "shape": [72], "dtype": "float32"}, {"name": "module_apply_default/module_apply_default/MobilenetV3/expanded_conv_3/squeeze_excite/Conv_1/add/y", "shape": [], "dtype": "float32"}, {"name": "module_apply_default/module_apply_default/MobilenetV3/Conv/hard_swish/mul_1/y", "shape": [], "dtype": "float32"}, {"name": "module_apply_default/hub_input/Mul/y", "shape": [], "dtype": "float32"}, {"name": "module_apply_default/hub_input/Add/y", "shape": [], "dtype": "float32"}, {"name": "module_apply_default/convert_image", "shape": [], "dtype": "float32"}, {"name": "module_apply_default/module_apply_default/hub_input/tfhub_input_scaling/y", "shape": [], "dtype": "float32"}, {"name": "module_apply_default/module_apply_default/MobilenetV3/Conv/hard_swish/add/y", "shape": [], "dtype": "float32"}, {"name": "module_apply_default/module_apply_default/MobilenetV3/expanded_conv_6/expand/hard_swish/add/y", "shape": [], "dtype": "float32"}, {"name": "module_apply_default/module_apply_default/MobilenetV3/expanded_conv_6/depthwise/hard_swish/add/y", "shape": [], "dtype": "float32"}, {"name": "module_apply_default/module_apply_default/MobilenetV3/expanded_conv_10/expand/hard_swish/add/y", "shape": [], "dtype": "float32"}, {"name": "module_apply_default/module_apply_default/MobilenetV3/expanded_conv_10/depthwise/hard_swish/add/y", "shape": [], "dtype": "float32"}, {"name": "module_apply_default/module_apply_default/MobilenetV3/expanded_conv_12/expand/hard_swish/add/y", "shape": [], "dtype": "float32"}, {"name": "module_apply_default/module_apply_default/MobilenetV3/expanded_conv_12/depthwise/hard_swish/add/y", "shape": [], "dtype": "float32"}, {"name": "module_apply_default/module_apply_default/MobilenetV3/Conv_1/hard_swish/add/y", "shape": [], "dtype": "float32"}, {"name": "module_apply_default/module_apply_default/MobilenetV3/Conv_2/weights", "shape": [1, 1, 960, 1280], "dtype": "float32"}, {"name": "module_apply_default/module_apply_default/MobilenetV3/Conv_2/biases", "shape": [1280], "dtype": "float32"}, {"name": "module_apply_default/module_apply_default/MobilenetV3/Conv_2/hard_swish/add/y", "shape": [], "dtype": "float32"}, {"name": "module_apply_default/module_apply_default/gem/Maximum/y", "shape": [], "dtype": "float32"}, {"name": "module_apply_default/module_apply_default/gem/gem_power", "shape": [], "dtype": "float32"}, {"name": "module_apply_default/module_apply_default/gem/Mean/reduction_indices", "shape": [2], "dtype": "int32"}, {"name": "module_apply_default/module_apply_default/gem/truediv", "shape": [], "dtype": "float32"}, {"name": "module_apply_default/module_apply_default/embed/Tensordot/free", "shape": [3], "dtype": "int32"}, {"name": "module_apply_default/module_apply_default/embed/Tensordot/GatherV2/axis", "shape": [], "dtype": "int32"}, {"name": "module_apply_default/module_apply_default/embed/Tensordot/Const_2", "shape": [1], "dtype": "int32"}, {"name": "module_apply_default/module_apply_default/embed/Tensordot/concat_1/axis", "shape": [], "dtype": "int32"}, {"name": "module_apply_default/module_apply_default/prelogits_norm/Sum/reduction_indices", "shape": [], "dtype": "int32"}, {"name": "module_apply_default/module_apply_default/prelogits_norm/Maximum/y", "shape": [], "dtype": "float32"}, {"name": "module_apply_default/transpose_1/perm", "shape": [2], "dtype": "int32"}, {"name": "module_apply_default/module_apply_default/MobilenetV3/Conv/Conv2D_weights", "shape": [3, 3, 3, 16], "dtype": "float32"}, {"name": "module_apply_default/module_apply_default/MobilenetV3/Conv/Conv2D_bn_offset", "shape": [16], "dtype": "float32"}, {"name": "module_apply_default/module_apply_default/MobilenetV3/expanded_conv/depthwise/depthwise_weights", "shape": [3, 3, 16, 1], "dtype": "float32"}, {"name": "module_apply_default/module_apply_default/MobilenetV3/expanded_conv/depthwise/depthwise_bn_offset", "shape": [16], "dtype": "float32"}, {"name": "module_apply_default/module_apply_default/MobilenetV3/expanded_conv/project/Conv2D_weights", "shape": [1, 1, 16, 16], "dtype": "float32"}, {"name": "module_apply_default/module_apply_default/MobilenetV3/expanded_conv/project/Conv2D_bn_offset", "shape": [16], "dtype": "float32"}, {"name": "module_apply_default/module_apply_default/MobilenetV3/expanded_conv_1/expand/Conv2D_weights", "shape": [1, 1, 16, 64], "dtype": "float32"}, {"name": "module_apply_default/module_apply_default/MobilenetV3/expanded_conv_1/expand/Conv2D_bn_offset", "shape": [64], "dtype": "float32"}, {"name": "module_apply_default/module_apply_default/MobilenetV3/expanded_conv_1/depthwise/depthwise_weights", "shape": [3, 3, 64, 1], "dtype": "float32"}, {"name": "module_apply_default/module_apply_default/MobilenetV3/expanded_conv_1/depthwise/depthwise_bn_offset", "shape": [64], "dtype": "float32"}, {"name": "module_apply_default/module_apply_default/MobilenetV3/expanded_conv_1/project/Conv2D_weights", "shape": [1, 1, 64, 24], "dtype": "float32"}, {"name": "module_apply_default/module_apply_default/MobilenetV3/expanded_conv_1/project/Conv2D_bn_offset", "shape": [24], "dtype": "float32"}, {"name": "module_apply_default/module_apply_default/MobilenetV3/expanded_conv_2/expand/Conv2D_weights", "shape": [1, 1, 24, 72], "dtype": "float32"}, {"name": "module_apply_default/module_apply_default/embed/BatchNorm/FusedBatchNormV3/Scaled", "shape": [64], "dtype": "float32"}, {"name": "module_apply_default/module_apply_default/MobilenetV3/expanded_conv_2/expand/Conv2D_bn_offset", "shape": [72], "dtype": "float32"}, {"name": "module_apply_default/module_apply_default/MobilenetV3/expanded_conv_2/depthwise/depthwise_weights", "shape": [3, 3, 72, 1], "dtype": "float32"}, {"name": "module_apply_default/module_apply_default/MobilenetV3/expanded_conv_2/depthwise/depthwise_bn_offset", "shape": [72], "dtype": "float32"}, {"name": "module_apply_default/module_apply_default/MobilenetV3/expanded_conv_2/project/Conv2D_weights", "shape": [1, 1, 72, 24], "dtype": "float32"}, {"name": "module_apply_default/module_apply_default/MobilenetV3/expanded_conv_2/project/Conv2D_bn_offset", "shape": [24], "dtype": "float32"}, {"name": "module_apply_default/module_apply_default/MobilenetV3/expanded_conv_3/expand/Conv2D_weights", "shape": [1, 1, 24, 72], "dtype": "float32"}, {"name": "module_apply_default/module_apply_default/MobilenetV3/expanded_conv_3/expand/Conv2D_bn_offset", "shape": [72], "dtype": "float32"}, {"name": "module_apply_default/module_apply_default/MobilenetV3/expanded_conv_3/depthwise/depthwise_weights", "shape": [5, 5, 72, 1], "dtype": "float32"}, {"name": "module_apply_default/module_apply_default/MobilenetV3/expanded_conv_3/depthwise/depthwise_bn_offset", "shape": [72], "dtype": "float32"}, {"name": "module_apply_default/module_apply_default/MobilenetV3/expanded_conv_14/project/Conv2D_weights", "shape": [1, 1, 960, 160], "dtype": "float32"}, {"name": "module_apply_default/module_apply_default/MobilenetV3/expanded_conv_3/project/Conv2D_weights", "shape": [1, 1, 72, 40], "dtype": "float32"}, {"name": "module_apply_default/module_apply_default/MobilenetV3/expanded_conv_14/project/Conv2D_bn_offset", "shape": [160], "dtype": "float32"}, {"name": "module_apply_default/module_apply_default/MobilenetV3/expanded_conv_3/project/Conv2D_bn_offset", "shape": [40], "dtype": "float32"}, {"name": "module_apply_default/module_apply_default/MobilenetV3/expanded_conv_4/expand/Conv2D_weights", "shape": [1, 1, 40, 120], "dtype": "float32"}, {"name": "module_apply_default/module_apply_default/MobilenetV3/expanded_conv_4/expand/Conv2D_bn_offset", "shape": [120], "dtype": "float32"}, {"name": "module_apply_default/module_apply_default/MobilenetV3/expanded_conv_4/depthwise/depthwise_weights", "shape": [5, 5, 120, 1], "dtype": "float32"}, {"name": "module_apply_default/module_apply_default/MobilenetV3/expanded_conv_4/depthwise/depthwise_bn_offset", "shape": [120], "dtype": "float32"}, {"name": "module_apply_default/module_apply_default/MobilenetV3/Conv_1/Conv2D_weights", "shape": [1, 1, 160, 960], "dtype": "float32"}, {"name": "module_apply_default/module_apply_default/MobilenetV3/Conv_1/Conv2D_bn_offset", "shape": [960], "dtype": "float32"}, {"name": "module_apply_default/module_apply_default/MobilenetV3/expanded_conv_4/project/Conv2D_weights", "shape": [1, 1, 120, 40], "dtype": "float32"}, {"name": "module_apply_default/module_apply_default/MobilenetV3/expanded_conv_4/project/Conv2D_bn_offset", "shape": [40], "dtype": "float32"}, {"name": "module_apply_default/module_apply_default/MobilenetV3/expanded_conv_5/expand/Conv2D_weights", "shape": [1, 1, 40, 120], "dtype": "float32"}, {"name": "module_apply_default/module_apply_default/MobilenetV3/expanded_conv_5/expand/Conv2D_bn_offset", "shape": [120], "dtype": "float32"}, {"name": "module_apply_default/module_apply_default/MobilenetV3/expanded_conv_5/depthwise/depthwise_weights", "shape": [5, 5, 120, 1], "dtype": "float32"}, {"name": "module_apply_default/module_apply_default/MobilenetV3/expanded_conv_5/depthwise/depthwise_bn_offset", "shape": [120], "dtype": "float32"}, {"name": "module_apply_default/module_apply_default/MobilenetV3/expanded_conv_5/project/Conv2D_weights", "shape": [1, 1, 120, 40], "dtype": "float32"}, {"name": "module_apply_default/module_apply_default/embed/BatchNorm/FusedBatchNormV3/Offset", "shape": [64], "dtype": "float32"}, {"name": "module_apply_default/module_apply_default/MobilenetV3/expanded_conv_5/project/Conv2D_bn_offset", "shape": [40], "dtype": "float32"}, {"name": "module_apply_default/module_apply_default/MobilenetV3/expanded_conv_6/expand/Conv2D_weights", "shape": [1, 1, 40, 240], "dtype": "float32"}, {"name": "module_apply_default/module_apply_default/MobilenetV3/expanded_conv_6/expand/Conv2D_bn_offset", "shape": [240], "dtype": "float32"}, {"name": "module_apply_default/module_apply_default/MobilenetV3/expanded_conv_6/depthwise/depthwise_weights", "shape": [3, 3, 240, 1], "dtype": "float32"}, {"name": "module_apply_default/module_apply_default/MobilenetV3/expanded_conv_6/depthwise/depthwise_bn_offset", "shape": [240], "dtype": "float32"}, {"name": "module_apply_default/module_apply_default/MobilenetV3/expanded_conv_6/project/Conv2D_weights", "shape": [1, 1, 240, 80], "dtype": "float32"}, {"name": "module_apply_default/module_apply_default/MobilenetV3/expanded_conv_6/project/Conv2D_bn_offset", "shape": [80], "dtype": "float32"}, {"name": "module_apply_default/module_apply_default/MobilenetV3/expanded_conv_7/expand/Conv2D_weights", "shape": [1, 1, 80, 200], "dtype": "float32"}, {"name": "module_apply_default/module_apply_default/MobilenetV3/expanded_conv_7/expand/Conv2D_bn_offset", "shape": [200], "dtype": "float32"}, {"name": "module_apply_default/module_apply_default/MobilenetV3/expanded_conv_7/depthwise/depthwise_weights", "shape": [3, 3, 200, 1], "dtype": "float32"}, {"name": "module_apply_default/module_apply_default/MobilenetV3/expanded_conv_7/depthwise/depthwise_bn_offset", "shape": [200], "dtype": "float32"}, {"name": "module_apply_default/module_apply_default/MobilenetV3/expanded_conv_7/project/Conv2D_weights", "shape": [1, 1, 200, 80], "dtype": "float32"}, {"name": "module_apply_default/module_apply_default/MobilenetV3/expanded_conv_7/project/Conv2D_bn_offset", "shape": [80], "dtype": "float32"}, {"name": "module_apply_default/module_apply_default/MobilenetV3/expanded_conv_8/expand/Conv2D_weights", "shape": [1, 1, 80, 184], "dtype": "float32"}, {"name": "module_apply_default/module_apply_default/MobilenetV3/expanded_conv_8/expand/Conv2D_bn_offset", "shape": [184], "dtype": "float32"}, {"name": "module_apply_default/module_apply_default/MobilenetV3/expanded_conv_8/depthwise/depthwise_weights", "shape": [3, 3, 184, 1], "dtype": "float32"}, {"name": "module_apply_default/module_apply_default/MobilenetV3/expanded_conv_8/depthwise/depthwise_bn_offset", "shape": [184], "dtype": "float32"}, {"name": "module_apply_default/module_apply_default/MobilenetV3/expanded_conv_8/project/Conv2D_weights", "shape": [1, 1, 184, 80], "dtype": "float32"}, {"name": "module_apply_default/module_apply_default/MobilenetV3/expanded_conv_8/project/Conv2D_bn_offset", "shape": [80], "dtype": "float32"}, {"name": "module_apply_default/module_apply_default/MobilenetV3/expanded_conv_9/expand/Conv2D_weights", "shape": [1, 1, 80, 184], "dtype": "float32"}, {"name": "module_apply_default/module_apply_default/MobilenetV3/expanded_conv_9/expand/Conv2D_bn_offset", "shape": [184], "dtype": "float32"}, {"name": "module_apply_default/module_apply_default/MobilenetV3/expanded_conv_9/depthwise/depthwise_weights", "shape": [3, 3, 184, 1], "dtype": "float32"}, {"name": "module_apply_default/module_apply_default/MobilenetV3/expanded_conv_9/depthwise/depthwise_bn_offset", "shape": [184], "dtype": "float32"}, {"name": "module_apply_default/module_apply_default/MobilenetV3/expanded_conv_9/project/Conv2D_weights", "shape": [1, 1, 184, 80], "dtype": "float32"}, {"name": "module_apply_default/module_apply_default/MobilenetV3/expanded_conv_9/project/Conv2D_bn_offset", "shape": [80], "dtype": "float32"}, {"name": "module_apply_default/module_apply_default/MobilenetV3/expanded_conv_10/expand/Conv2D_weights", "shape": [1, 1, 80, 480], "dtype": "float32"}, {"name": "module_apply_default/module_apply_default/MobilenetV3/expanded_conv_10/expand/Conv2D_bn_offset", "shape": [480], "dtype": "float32"}, {"name": "module_apply_default/module_apply_default/MobilenetV3/expanded_conv_10/depthwise/depthwise_weights", "shape": [3, 3, 480, 1], "dtype": "float32"}, {"name": "module_apply_default/module_apply_default/MobilenetV3/expanded_conv_10/depthwise/depthwise_bn_offset", "shape": [480], "dtype": "float32"}, {"name": "module_apply_default/module_apply_default/MobilenetV3/expanded_conv_10/project/Conv2D_weights", "shape": [1, 1, 480, 112], "dtype": "float32"}, {"name": "module_apply_default/module_apply_default/MobilenetV3/expanded_conv_10/project/Conv2D_bn_offset", "shape": [112], "dtype": "float32"}, {"name": "module_apply_default/module_apply_default/MobilenetV3/expanded_conv_11/expand/Conv2D_weights", "shape": [1, 1, 112, 672], "dtype": "float32"}, {"name": "module_apply_default/module_apply_default/MobilenetV3/expanded_conv_11/expand/Conv2D_bn_offset", "shape": [672], "dtype": "float32"}, {"name": "module_apply_default/module_apply_default/MobilenetV3/expanded_conv_11/depthwise/depthwise_weights", "shape": [3, 3, 672, 1], "dtype": "float32"}, {"name": "module_apply_default/module_apply_default/MobilenetV3/expanded_conv_11/depthwise/depthwise_bn_offset", "shape": [672], "dtype": "float32"}, {"name": "module_apply_default/module_apply_default/MobilenetV3/expanded_conv_11/project/Conv2D_weights", "shape": [1, 1, 672, 112], "dtype": "float32"}, {"name": "module_apply_default/module_apply_default/MobilenetV3/expanded_conv_11/project/Conv2D_bn_offset", "shape": [112], "dtype": "float32"}, {"name": "module_apply_default/module_apply_default/MobilenetV3/expanded_conv_12/expand/Conv2D_weights", "shape": [1, 1, 112, 672], "dtype": "float32"}, {"name": "module_apply_default/module_apply_default/MobilenetV3/expanded_conv_12/expand/Conv2D_bn_offset", "shape": [672], "dtype": "float32"}, {"name": "module_apply_default/module_apply_default/MobilenetV3/expanded_conv_12/depthwise/depthwise_weights", "shape": [5, 5, 672, 1], "dtype": "float32"}, {"name": "module_apply_default/module_apply_default/MobilenetV3/expanded_conv_12/depthwise/depthwise_bn_offset", "shape": [672], "dtype": "float32"}, {"name": "module_apply_default/module_apply_default/MobilenetV3/expanded_conv_12/project/Conv2D_weights", "shape": [1, 1, 672, 160], "dtype": "float32"}, {"name": "module_apply_default/module_apply_default/MobilenetV3/expanded_conv_12/project/Conv2D_bn_offset", "shape": [160], "dtype": "float32"}, {"name": "module_apply_default/module_apply_default/MobilenetV3/expanded_conv_13/expand/Conv2D_weights", "shape": [1, 1, 160, 960], "dtype": "float32"}, {"name": "module_apply_default/module_apply_default/MobilenetV3/expanded_conv_13/expand/Conv2D_bn_offset", "shape": [960], "dtype": "float32"}, {"name": "module_apply_default/module_apply_default/MobilenetV3/expanded_conv_13/depthwise/depthwise_weights", "shape": [5, 5, 960, 1], "dtype": "float32"}, {"name": "module_apply_default/module_apply_default/MobilenetV3/expanded_conv_13/depthwise/depthwise_bn_offset", "shape": [960], "dtype": "float32"}, {"name": "module_apply_default/module_apply_default/MobilenetV3/expanded_conv_13/project/Conv2D_weights", "shape": [1, 1, 960, 160], "dtype": "float32"}, {"name": "module_apply_default/module_apply_default/MobilenetV3/expanded_conv_13/project/Conv2D_bn_offset", "shape": [160], "dtype": "float32"}, {"name": "module_apply_default/module_apply_default/MobilenetV3/expanded_conv_14/expand/Conv2D_weights", "shape": [1, 1, 160, 960], "dtype": "float32"}, {"name": "module_apply_default/module_apply_default/MobilenetV3/expanded_conv_14/expand/Conv2D_bn_offset", "shape": [960], "dtype": "float32"}, {"name": "module_apply_default/module_apply_default/MobilenetV3/expanded_conv_14/depthwise/depthwise_weights", "shape": [5, 5, 960, 1], "dtype": "float32"}, {"name": "module_apply_default/module_apply_default/MobilenetV3/expanded_conv_14/depthwise/depthwise_bn_offset", "shape": [960], "dtype": "float32"}]}]}